actor.pth (torch, 961350 bytes, 119 tensors)

projection.layers.0.weight f4 [16, 4]
0.0265575 0.41808823 0.23424941 0.35395554 -0.3744857 0.043839354 0.39578792 0.10820846
0.21543685 0.35982013 -0.012575274 -0.1802178 0.14355604 -0.14914054 -0.014565813 0.22180092
0.09840553 0.13173436 0.25224137 -0.2068417 -0.03643514 -0.24596404 -0.4872541 -0.1492693
-0.07340761 0.334373 0.0708109 -0.36004975 -0.10620618 0.18439792 0.47269493 -0.34078094
-0.12124436 0.49272296 -0.5069629 -0.0458194 -0.22442316 -0.39238745 0.20505252 -0.16645256
0.42535445 -0.02563636 0.078260995 0.24163131 0.49229768 0.41519737 0.06885912 0.2165377
0.35696846 -0.2876511 0.20666848 -0.33545226 -0.15198801 0.3403582 -0.48045418 0.26701465
0.116304606 0.08633722 0.3359241 0.011390912 -0.27666005 -0.32125852 0.22158119 -0.09856269
00000000: 1d8f d93c a90f d63e 14df 6f3e a939 b53e
00000010: 97bc bfbe e590 333d b7a4 ca3e 669c dd3d
00000020: 7a9b 5c3e 583a b83e 8608 4ebc 048b 38be
00000030: 5b00 133e 4cb8 18be 73a5 6ebc c81f 633e
00000040: d788 c93d 5fe5 063e c825 813e 50ce 53be
00000050: 033d 15bd ffdd 7bbe 5f79 f9be 0dda 18be
00000060: bb56 96bd f032 ab3e 4e05 913d 7158 b8be
00000070: a082 d9bd cfd2 3c3e 1205 f23e d77a aebe
00000080: f74e f8bd 2f46 fc3e 52c8 01bf 20ad 3bbd
00000090: 2fcf 65be 02e7 c8be 4af9 513e 8a72 2abe
000000a0: 0fc8 d93e 5803 d2bc 4d47 a03d 336e 773e
000000b0: 710e fc3e c094 d43e 0306 8d3d 0fbc 5d3e
000000c0: 92c4 b63e 0147 93be e7a0 533e 66c0 abbe
000000d0: bfa2 1bbe 6e43 ae3e 17fe f5be 25b6 883e
000000e0: 1c31 ee3d 92d1 b03d 3efe ab3e f3a0 3a3c
000000f0: 63a6 8dbe ff7b a4be 2ee6 623e 3cdb c9bd

projection.layers.0.bias f4 [16]
-0.08082422 0.10488103 -0.045227356 -0.022714412 0.0023667617 -0.24291532 0.41734084 -0.48787925
-0.4093169 0.34394994 -0.48181495 0.45206392 -0.18796454 0.16902228 -0.2888636 -0.0053684497
00000000: 2b87 a5bd decb d63d 5240 39bd 9313 babc
00000010: ac1b 1b3b cbbe 78be b3ad d53e 4fcb f9be
00000020: fc91 d1be 351a b03e 73b0 f6be ec74 e73e
00000030: c779 40be 2d14 2d3e eee5 93be d2e9 afbb

projection.layers.1.weight f4 [20, 16]
0.2319096 -0.23863442 0.19013754 0.0022826116 -0.18682463 -0.010619221 0.17469269 0.122395985
0.080238685 -0.0609804 -0.20225947 0.015470223 0.17597525 0.23897515 0.18730989 -0.1255177
-0.10065373 -0.072544284 0.007999561 0.07579124 0.24063228 -0.13774404 -0.11473284 0.1883998
-0.07050729 0.24600285 -0.08100416 0.16160673 0.14102405 -0.13525002 0.05562441 -0.18274698
0.021187723 -0.10804294 0.033968303 0.04193602 -0.21430178 -0.24994943 0.1350955 0.12990528
-0.09533258 0.15731776 0.003610303 0.043341022 0.21077888 0.06454476 0.041959293 0.06835589
0.14755729 -0.19695558 0.18009038 0.11560081 -0.10945408 -0.03215762 -0.081680715 -0.12670383
-0.050945733 0.0737723 0.23322813 -0.033076283 0.10825201 0.043727063 -0.018933147 -0.16050313
-0.1058081 0.16230352 0.22830406 -0.032461155 -0.12182626 0.00518316 -0.19877143 -0.034937598
0.041448116 0.12299109 0.17089331 0.13537107 -0.123039305 0.027292969 -0.06964256 0.19547947
0.04317703 -0.12372267 -0.052368067 0.1574579 -0.21792307 0.15639849 -0.22246473 -0.16009948
0.092825375 -0.08600832 0.018972725 0.15073611 0.2046777 -0.0029682799 -0.061558306 0.17637779
0.0056377123 -0.10623316 -0.026451264 -0.077081814 -0.13520803 -0.15795495 -0.017728958 -0.029188737
-0.07398928 0.19171284 0.07899962 0.2571312 0.09746835 0.021546725 0.24502534 -0.15256995
0.082175836 -0.23697178 -0.03529242 0.044559732 0.13708849 0.18147598 -0.16088848 -0.22052427
0.05647889 -0.2256143 0.21391383 0.004656388 -0.029531406 -0.00019928807 -0.14191912 0.12277647
0.07113503 -0.16495478 -0.18412793 0.13980867 -0.1248977 -0.14276922 -0.14089523 -0.18357524
0.016826406 0.17858161 -0.083430566 -0.24065118 -0.07903779 -0.16322291 0.19691372 -0.1815456
-0.22083244 0.0712275 -0.079317115 -0.1289272 -0.008562112 0.23418966 -0.13970779 -0.22406992
0.09691518 -0.103947565 0.043712027 -0.17056102 0.13620377 -0.04005218 0.1998464 -0.19557463
0.20658883 0.20938587 -0.16633113 0.12679532 0.20956343 -0.12031977 -0.08842055 -0.021999849
0.18184042 0.087432854 -0.124550454 -0.00051412074 0.08488336 -0.25285602 0.1797816 -0.09403153
-0.13418795 0.14091189 -0.21657972 0.12571044 0.20431456 -0.08701651 0.076905906 0.1775183
-0.12572251 0.111932285 0.10219309 -0.16128226 0.22340977 0.20475744 0.24678919 -0.019629873
-0.1633185 -0.030697696 -0.14766 0.22253262 0.18347159 -0.049369756 0.22336002 -0.15034771
-0.072762765 0.17944781 -0.23758294 0.050206404 -0.09949195 0.01343255 0.025679434 -0.108855404
-0.18067424 0.000546357 -0.20643018 -0.07252043 0.1759451 0.18948457 0.035630256 0.103154495
0.034900654 -0.18328413 -0.013966025 -0.011042582 0.20700365 -0.07432808 -0.03367765 -0.08904148
0.108642496 0.24019885 0.12275126 -0.07665272 -0.11407117 0.12572254 -0.1488198 0.19452968
-0.24972299 -0.12205465 -0.0033571417 -0.20856912 -0.014391904 0.000338669 0.24191049 -0.16860794
-0.034591082 -0.16707897 0.026201447 -0.07765933 0.07139163 -0.01833713 -0.19547696 0.17773631
0.17468712 0.18191023 -0.056777027 -0.17290272 -0.20412946 0.027729847 0.15684886 -0.0050881514
00000000: b679 6d3e 955c 74be 6ab3 423e de97 153b
00000010: f54e 3fbe 3efc 2dbc a4e2 323e bfaa fa3d
00000020: 2e54 a43d 95c6 79bd 1b1d 4fbe d176 7d3c
00000030: db32 343e e7b5 743e 2ace 3f3e b687 00be
00000040: 8b23 cebd 1992 94bd 9710 033c 7038 9b3d
00000050: 4f68 763e c60c 0dbe 0df9 eabd e1eb 403e
00000060: 2066 90bd 2ce8 7b3e 82e5 a5bd 3c7c 253e
00000070: 9c68 103e fb7e 0abe 6cd6 633d 0622 3bbe
00000080: e091 ad3c 9e45 ddbd 5922 0b3d 1bc5 2b3d
00000090: ed71 5bbe bef2 7fbe 7a56 0a3e e405 053e
000000a0: ba3d c3bd e817 213e d59a 6c3b 5b86 313d
000000b0: 6bd6 573e 0b30 843d 82dd 2b3d 2cfe 8b3d
000000c0: 4219 173e b9ae 49be 9d69 383e 1ec0 ec3d
000000d0: 7629 e0bd b5b7 03bd 3848 a7bd a6be 01be
000000e0: 79ac 50bd ee15 973d 5bd3 6e3e ff7a 07bd
000000f0: 3bb3 dd3d 261b 333d b019 9bbc ef5a 24be
00000100: ebb1 d8bd e532 263e 8ac8 693e fdf5 04bd
00000110: 0c80 f9bd 7fd7 a93b bd8a 4bbe ba1a 0fbd
00000120: 80c5 293d c1e2 fb3d a8fe 2e3e b79e 0a3e
00000130: 08fc fbbd 8195 df3c c2a0 8ebd c52b 483e
00000140: 66da 303d 5062 fdbd e67f 56bd a53c 213e
00000150: 3a27 5fbe ed26 203e cbcd 63be 1ef1 23be
00000160: 3b1b be3d 2125 b0bd b06c 9b3c 915a 1a3e
00000170: 0897 513e 7987 42bb 9024 7cbd 619c 343e
00000180: 8fbc b83b c590 d9bd 52b0 d8bc 12dd 9dbd
00000190: f973 0abe f1be 21be 523c 91bc 381d efbc
000001a0: b187 97bd 5f50 443e 8eca a13d b3a6 833e
000001b0: 7c9d c73d c282 b03c ece7 7a3e 4c3b 1cbe
000001c0: ce4b a83d bba8 72be c98e 10bd 4484 363d
000001d0: ed60 0c3e d7d4 393e f3bf 24be 1dd1 61be
000001e0: 6956 673d 6f07 67be 3a0c 5b3e 9d94 983b
000001f0: d9eb f1bc fcf7 50b9 3f53 11be 3b72 fb3d
00000200: 3eaf 913d e8e9 28be 088c 3cbe 012a 0f3e
00000210: 5eca ffbd 1832 12be d746 10be 26fb 3bbe
00000220: 88d7 893c 19de 363e a5dd aabd 436d 76be
00000230: 91de a1bd e823 27be c0a3 493e 17e7 39be
00000240: e621 62be b9df 913d 0371 a2bd 7e05 04be
00000250: 1a48 0cbc 6acf 6f3e 8f0f 0fbe 9672 65be
00000260: 777b c63d 76e2 d4bd 620b 333d 8ca7 2ebe
00000270: 0079 0b3e c10d 24bd 89a4 4c3e b744 48be
00000280: 068c 533e 4069 563e b552 2abe a2d6 013e
00000290: cc97 563e 366a f6bd d515 b5bd 0739 b4bc
000002a0: 6034 3a3e ff0f b33d 4f14 ffbd 0fc6 06ba
000002b0: 54d7 ad3d 5876 81be ab18 383e 9a93 c0bd
000002c0: 9168 09be 354b 103e 13c7 5dbe 3dba 003e
000002d0: d637 513e b635 b2bd d880 9d3d 5bc7 353e
000002e0: 67bd 00be c13c e53d 9c4a d13d 2d27 25be
000002f0: 88c5 643e efab 513e 4eb6 7c3e d4ce a0bc
00000300: f73c 27be bc79 fbbc 2f34 17be 97df 633e
00000310: fadf 3b3e f137 4abd 7db8 643e c0f4 19be
00000320: a504 95bd 2bc1 373e f148 73be 3ba5 4d3d
00000330: 6fc2 cbbd 3314 5c3c ad5d d23c 95ef debd
00000340: ab02 39be 6639 0f3a 6f62 53be 9785 94bd
00000350: f42a 343e 3e08 423e 08f1 113d aa42 d33d
00000360: fdf3 0e3d d6ae 3bbe c1d1 64bc f2eb 34bc
00000370: c4f8 533e 5239 98bd 93f1 09bd 615b b6bd
00000380: f57f de3d b0f6 753e 0365 fb3d 1afc 9cbd
00000390: 259e e9bd 69bd 003e 3864 18be ca32 473e
000003a0: 62b7 7fbe caf7 f9bd 7e03 5cbb 2593 55be
000003b0: 05cc 6bbc 628f b139 62b7 773e 8fa7 2cbe
000003c0: 61af 0dbd c016 2bbe 6ba4 d63c db0b 9fbd
000003d0: c635 923d c037 96bc 1d2b 48be 8200 363e
000003e0: 2ee1 323e ad46 3a3e 078f 68bd 690d 31be
000003f0: 5007 51be b429 e33c fd9c 203e 82ba a6bb

projection.layers.1.bias f4 [20]
-0.12988123 0.016615013 -0.040273163 -0.037881445 0.1871842 -0.21997246 -0.082361095 0.06798628
-0.23265728 0.10601539 -0.034476276 0.12368709 0.23752795 -0.1393233 0.14323579 -0.15365896
-0.013431794 0.11462139 -0.104300536 -0.11082046
00000000: 96ff 04be 351c 883c 79f5 24bd 9329 1bbd
00000010: 37ad 3f3e 7640 61be efac a8bd 643c 8b3d
00000020: b63d 6ebe 991e d93d ff36 0dbd a84f fd3d
00000030: 873a 733e c4aa 0ebe 67ac 123e c658 1dbe
00000040: 0711 5cbc 9fbe ea3d 859b d5bd d6f5 e2bd

projection.layers.2.weight f4 [20, 20]
-0.2204066 0.094479926 0.085710235 -0.16837609 0.0034228528 -0.15268257 -0.10128717 -0.030166667
-0.18083106 0.0046519036 0.06972487 0.23415339 0.03519088 0.03379534 0.0023035363 0.1810299
0.21346678 -0.14362171 -0.16395119 0.109369576 0.19319457 -0.11904229 -0.21689534 -0.14982241
0.19897172 0.04820072 -0.18729605 0.21160889 -0.046788555 0.024267767 -0.15726678 -0.21080787
0.09650818 -0.13258879 -0.10330994 -0.17082675 0.15960908 0.18023512 0.07673497 0.14604211
-0.14600913 -0.21088861 0.01592343 0.044083897 -0.16686583 -0.06564785 -0.20326343 -0.031469043
-0.09781042 -0.12677996 -0.21985975 -0.076000355 0.16674675 -0.0833277 -0.031438764 -0.10577969
0.059232544 0.1489894 -0.10371326 0.21988747 -0.15826622 0.21407494 0.029140573 0.020225275
-0.062258884 0.17609155 0.15428963 -0.05499827 0.033032563 -0.09049135 0.2064546 -0.053650483
0.16357346 0.12632105 0.21196805 0.05359858 0.14803563 0.22283015 -0.14881375 -0.16513374
0.2168112 -0.025127234 -0.0626316 -0.10194833 -0.21504293 0.11440097 0.017549245 -0.18720905
0.051805858 0.18701714 0.13668096 -0.21158889 0.09082158 -0.13903509 0.21702729 -0.2106213
-0.014654949 -0.13310611 -0.11192371 0.1999778 0.22718176 0.15368146 -0.15158239 -0.12693132
-0.035133373 0.03919404 -0.04260796 0.095327 0.21717267 0.23157562 0.02244183 0.04519713
-0.1176374 0.043802768 -0.1983498 -0.18524219 -0.20873463 -0.19212382 0.21706966 0.12392702
-0.09684417 -0.04566833 0.044199124 -0.0708532 0.2265981 0.062319998 0.16708685 0.18320082
-0.2204529 -0.14140552 -0.21357477 -0.060649525 0.058312383 -0.123914756 0.09371554 0.20872334
-0.13979788 -0.20397776 -0.21455328 -0.029419247 -0.13962205 -0.19294836 0.058723517 0.110179424
-0.20174898 0.017355194 -0.208893 -0.18238285 0.22289753 0.053934414 0.063199356 0.084221624
0.046004366 -0.12249196 0.11042844 -0.00051642983 -0.19450231 -0.1185104 -0.042140964 -0.15828273
0.20819464 0.22381783 0.12595879 0.16306189 0.14103617 -0.030424375 0.2162891 0.0905904
-0.09952269 -0.1754551 -0.1896095 -0.011965065 0.046954352 -0.006055804 -0.028418342 -0.093084976
0.10827223 -0.17543288 0.013375772 0.21308242 -0.20284809 0.011615731 -0.051241256 -0.11796221
0.055342708 0.18266542 0.082665816 0.09240927 0.12944588 -0.051026717 0.025315115 0.20502873
-0.100953 0.07543682 -0.21971178 0.060601704 0.038389288 0.07712651 0.06917764 -0.11714282
0.19783372 -0.15559801 0.15089849 -0.08244387 -0.13926369 0.17546062 -0.062786676 0.20307636
-0.23351702 0.012397684 -0.08812668 -0.1628288 0.23554385 -0.037305556 0.18700226 -0.050728425
0.14776397 -0.18392932 0.1564381 0.048991423 0.20706229 0.17026569 -0.0016315139 -0.1862759
0.19781956 -0.07151051 -0.09699139 0.22546273 0.19799943 0.19661196 0.0479442 -0.20632641
-0.15689941 0.0707053 0.20595859 0.2269749 -0.109780915 0.037582353 0.03339112 0.20775415
-0.081536315 -0.15900326 0.103064105 0.112407126 0.12656525 0.0061714486 -0.08797519 0.18923873
-0.00720271 0.16011444 -0.1484373 -0.18224588 0.20377544 -0.19323987 0.057454657 -0.1298209
00000000: 45b2 61be b17e c13d d988 af3d c86a 2cbe
00000010: f151 603b d258 1cbe a66f cfbd 1620 f7bc
00000020: c72b 39be ff6e 983b eacb 8e3d e8c5 6f3e
00000030: 5024 103d fc6c 0a3d edf6 163b e75f 393e
00000040: 0997 5a3e 9211 13be d2e2 27be 28fd df3d
00000050: ccd4 453e 72cc f3bd d019 5ebe 0c6b 19be
00000060: 3ebf 4b3e 1e6e 453d 89ca 3fbe 00b0 583e
00000070: 5ba5 3fbd 32cd c63c 8b0a 21be 05de 57be
00000080: 15a6 c53d 5bc5 07be 2994 d3bd 35ed 2ebe
00000090: 9070 233e 8e8f 383e 3927 9d3d 108c 153e
000000a0: 6b83 15be 2ff3 57be da71 823c 5191 343d
000000b0: e0de 2abe 6172 86bd 4a24 50be afe5 00bd
000000c0: d450 c8bd 9bd2 01be ea22 61be 13a6 9bbd
000000d0: a9bf 2a3e b7a7 aabd efc5 00bd 06a3 d8bd
000000e0: d39d 723d ad90 183e 9e67 d4bd 2e2a 613e
000000f0: 8a10 22be 7636 5b3e 36b8 ee3c 7aaf a53c
00000100: 2c03 7fbd 5851 343e 1afe 1d3e de45 61bd
00000110: 274d 073d 8753 b9bd d668 533e 9cc0 5bbd
00000120: cd7f 273e 4e5a 013e 270e 593e 2f8a 5b3d
00000130: a796 173e 962d 643e a262 18be d218 29be
00000140: c103 5e3e a1d7 cdbc ff44 80bd 49ca d0bd
00000150: 3734 5cbe 0e4b ea3d 6fc3 8f3c bbb3 3fbe
00000160: 6132 543d 6c81 3f3e 18f6 0b3e c2aa 58be
00000170: aa00 ba3d 375f 0ebe 673c 5e3e 1cad 57be
00000180: 501b 70bc f84c 08be 4238 e5bd fbc6 4c3e
00000190: 56a2 683e ac5e 1d3e 6a38 1bbe 49fa 01be
000001a0: 03e8 0fbd ee89 203d af85 2ebd cd3a c33d
000001b0: 8362 5e3e 2922 6d3e eed7 b73c a020 393d
000001c0: e1eb f0bd 886a 333d 361c 4bbe 21b0 3dbe
000001d0: 88be 55be 1bbc 44be 8247 5e3e 73cd fd3d
000001e0: 3c56 c6bd b70e 3bbd 240a 353d 7c1b 91bd
000001f0: 5509 683e 4143 7f3d d118 2b3e ff98 3b3e
00000200: 68be 61be 9ccc 10be 58b3 5abe a36b 78bd
00000210: f7d8 6e3d 05c7 fdbd efed bf3d 92bb 553e
00000220: 2d27 0fbe 8cdf 50be dbb3 5bbe a200 f1bc
00000230: 15f9 0ebe 4194 45be 1288 703d c0a5 e13d
00000240: 4997 4ebe 7b2c 8e3c 0ce8 55be 92c2 3abe
00000250: 403f 643e 55ea 5c3d aa6e 813d 637c ac3d
00000260: 136f 3c3d 11dd fabd 4e28 e23d 0561 07ba
00000270: 9d2b 47be 95b5 f2bd 019c 2cbd de14 22be
00000280: fa30 553e 8030 653e 57fb 003e b2f9 263e
00000290: c96b 103e 8a3c f9bc e47a 5d3e 7687 b93d
000002a0: 8dd2 cbbd 80aa 33be fe28 42be 1f09 44bc
000002b0: 3553 403d c46f c6bb 95cd e8bc 56a3 bebd
000002c0: d5bd dd3d ada4 33be 0e26 5b3c 4732 5a3e
000002d0: 69b7 4fbe e84f 3e3c 5ae2 51bd 2c96 f1bd
000002e0: 09af 623d a50c 3b3e b24c a93d 1241 bd3d
000002f0: 768d 043e 6401 51bd a561 cf3c 0df3 513e
00000300: 72c0 cebd 9f7e 9a3d 20fc 60be 7e39 783d
00000310: 163e 1d3d 81f4 9d3d 02ad 8d3d 93e8 efbd
00000320: ec94 4a3e 1655 1fbe 2285 1a3e 55d8 a8bd
00000330: 249b 0ebe f3ab 333e 4d96 80bd 40f3 4f3e
00000340: 161f 6fbe a81f 4b3c c37b b4bd 98bc 26be
00000350: 6832 713e b6cd 18bd 857d 3f3e 9cc8 4fbd
00000360: 704f 173e f857 3cbe 4f31 203e 3bab 483d
00000370: 2308 543e 215a 2e3e 86d8 d5ba 1cbf 3ebe
00000380: 3691 4a3e 1a74 92bd 6ca3 c6bd b4df 663e
00000390: 5dc0 4a3e a554 493e 2361 443d 3b47 53be
000003a0: 3daa 20be f1cd 903d cfe6 523e 1c6c 683e
000003b0: d1d4 e0bd f4ef 193d 21c5 083d 81bd 543e
000003c0: 83fc a6bd c0d1 22be 4613 d33d b535 e63d
000003d0: 529a 013e dd39 ca3b 562c b4bd ccc7 413e
000003e0: b604 ecbb 0af5 233e f3ff 17be aa9e 3abe
000003f0: 82aa 503e ace0 45be 9355 6b3d c5ef 04be

projection.layers.2.bias f4 [20]
0.022712585 -0.06126094 -0.19027457 0.07440635 0.13679212 -0.052961465 0.2231438 -0.22305486
0.09140485 -0.027644273 0.13761124 0.018111397 0.06959222 0.0136098815 -0.20568237 -0.05894243
-0.15782176 -0.16844508 0.12440427 0.016985353
00000000: be0f ba3c c0ec 7abd 56d7 42be 5b62 983d
00000010: 3c13 0c3e 1fee 58bd cf7f 643e 7e68 64be
00000020: 7732 bb3d 3e76 e2bc f6e9 0c3e 5a5e 943c
00000030: 5e86 8e3d fbfb 5e3c 669e 52be 9e6d 71bd
00000040: 079c 21be de7c 2cbe aac7 fe3d de24 8b3c

projection.layers.3.weight f4 [16, 4]
-0.24271753 0.17412128 0.17111431 -0.0011647609 0.26039645 -0.36553177 0.08566898 -0.20432448
-0.41777065 0.27631438 0.28029677 0.4799522 0.013546344 0.4881191 -0.4330124 -0.4554941
0.28257632 0.48529413 0.1913916 0.17999701 -0.20988259 0.076429985 -0.457391 0.20946294
0.009749173 0.50020564 -0.470402 -0.3070962 0.24571258 0.4573091 0.017934829 0.48121408
-0.29724255 -0.38654065 0.24510548 0.33359554 -0.16168126 0.01729668 -0.49552009 0.047375668
0.34817594 -0.16470867 -0.31962654 0.306636 0.47502986 0.20786293 -0.07506718 0.060225498
-0.12094851 -0.00256611 -0.14859253 0.21331118 -0.23828694 0.3528374 0.07171038 0.09881139
-0.09810199 0.23947118 -0.2859387 0.07356844 -0.08425904 -0.17999262 0.013400425 0.3346537
00000000: f28a 78be d94c 323e 9738 2f3e e4aa 98ba
00000010: af52 853e fb26 bbbe 3873 af3d 703a 51be
00000020: 09e6 d5be 1479 8d3e 0f83 8f3e 4bbc f53e
00000030: 7cf1 5d3c bfea f93e cdb3 ddbe 8636 e9be
00000040: d8ad 903e 7978 f83e 29fc 433e 2351 383e
00000050: 76eb 56be 5387 9c3d 272f eabe 747d 563e
00000060: ffba 1f3c 7a0d 003f 88d8 f0be b73b 9dbe
00000070: 149c 7b3e 6b24 ea3e 10ec 923c b161 f63e
00000080: 2d30 98be a8e8 c5be eefc 7a3e 09cd aa3e
00000090: c68f 25be c4b1 8d3c cfb4 fdbe fd0c 423d
000000a0: 1e44 b23e 64a9 28be 17a6 a3be 65ff 9c3e
000000b0: 1d37 f33e 05da 543e d2bc 99bd 03af 763d
000000c0: dab3 f7bd 2f2c 28bb a428 18be 3f6e 5a3e
000000d0: 7e01 74be 1ba7 b43e e4dc 923d a05d ca3d
000000e0: b2e9 c8bd ef37 753e 8f66 92be 0dab 963d
000000f0: 0190 acbd fc4f 38be 758d 5b3c bb57 ab3e

projection.layers.3.bias f4 [16]
-0.18293577 -0.07192842 -0.28451335 -0.22546247 0.12486747 0.5011482 0.022547867 0.33981723
-0.11824898 0.18608116 -0.27409592 0.09257464 -0.32119584 0.46378776 0.39122638 0.46842417
00000000: 8453 3bbe 354f 93bd bcab 91be a2df 66be
00000010: 84ba ff3d 404b 003f 4eb6 b83c 86fc ad3e
00000020: 852c f2bd 0f8c 3e3e 4d56 8cbe c697 bd3d
00000030: c873 a4be 9775 ed3e d34e c83e 4bd5 ef3e

projection.layers.4.weight f4 [20, 16]
-0.15202971 0.07186831 0.058909222 0.009674438 0.054882046 0.16209015 0.06333728 0.06115063
0.16248201 0.1294367 0.11876939 -0.21035889 0.046726294 0.22843681 0.18808107 0.13474597
0.09128994 0.17166157 -0.011906235 -0.15915143 -0.06834567 -0.083475985 -0.120096475 0.06839156
-0.20678878 -0.02401825 0.045816485 0.1260755 0.25206944 -0.123044245 0.13965671 0.060230307
0.0022897837 0.25096482 -0.07039199 -0.07818275 0.049887862 -0.018844435 -0.13493381 0.22561584
0.066312455 -0.10606268 0.18882076 -0.12551309 -0.014363377 -0.072878756 0.047490876 -0.096661635
-0.1781331 -0.1959993 -0.037901685 -0.18635656 -0.18649659 0.20528711 0.215868 0.11691807
0.10546936 0.11174424 0.23093817 0.02622121 0.19409582 0.07511466 -0.07219022 -0.108269185
-0.011466163 0.10918793 0.20806654 -0.15379587 -0.21747667 0.23543271 -0.1612117 0.16349351
0.10280396 0.17370068 0.1156374 0.037485357 0.041999366 0.032482553 -0.096354015 0.11026738
0.15015452 -0.17314367 0.16518204 0.2337741 0.16407336 0.19399005 0.109461404 -0.17131793
-0.16380326 -0.037178513 -0.027721368 0.08096131 0.1531594 0.03657387 0.1336609 -0.2153761
-0.21985799 0.115637176 -0.21190226 -0.08559275 -0.19073443 0.021789381 -0.20455354 0.10475837
0.12637739 0.13464455 0.2170484 0.03744227 -0.062103197 -0.19555463 -0.00947679 -0.0733528
-0.14523774 0.029081162 0.08608369 0.01573786 0.08762641 -0.121725775 0.11416853 -0.223059
-0.050893012 -0.057177138 0.015018869 0.18398681 -0.24488008 -0.14195585 -0.23653014 -0.2402984
-0.004218932 0.02889282 -0.2296763 0.20548122 0.03030848 0.21321501 0.09325608 -0.22753853
0.016502632 0.11970823 -0.12469104 0.09943339 -0.22595227 -0.18317169 0.2150406 0.08797155
0.17102358 -0.15787035 -0.11776542 0.18189476 0.15501653 -0.17804311 -0.13029571 -0.22684504
-0.18828592 0.004332737 -0.25028062 0.14058194 -0.109812215 0.21156934 0.15181598 0.11328124
-0.08342255 -0.2259565 0.1634657 -0.14330211 -0.014239345 -0.14284305 0.1735294 0.055286676
-0.119232915 0.029598014 -0.22347187 -0.23522265 0.186876 0.058010112 0.21385165 0.11177049
0.06691627 0.06119062 0.186231 -0.14938463 -0.14290676 0.20182993 -0.07609412 -0.009341618
0.18903467 -0.11441336 0.20822315 -0.06462338 -0.14941253 0.21817175 0.11910629 0.25305113
-0.091441974 -0.11752985 0.22835287 0.05402781 0.23453927 -0.04058784 0.18485616 0.23867288
-0.052924726 0.106268905 -0.1528277 0.024759986 -0.004416212 -0.15600225 -0.13046971 0.016207248
-0.049185436 0.24650426 0.046020214 0.14609203 -0.11755431 -0.03925287 -0.14209545 -0.07546242
0.17237006 0.22305182 0.07035774 -0.24488716 0.04700608 -0.1772376 0.19754764 0.20290743
0.15703082 -0.07585318 -0.10876865 0.2451185 0.22938164 0.17959094 0.22894122 -0.14883898
-0.10303906 -0.08578483 -0.01332747 -0.093486786 0.13520041 -0.21336444 0.21059138 0.12847912
-0.023642747 -0.057632867 -0.16185747 -0.07133408 -0.10867944 -0.022263087 0.1722147 0.039901752
0.09920094 -0.24383646 0.11386037 -0.14527076 0.069369264 -0.099180296 0.050882585 0.19366448
00000000: adad 1bbe b12f 933d cc4a 713d 8981 1e3c
00000010: ffcb 603d f6fa 253e fab6 813d 1579 7a3d
00000020: af61 263e 0e8b 043e 5e3d f33d 5268 57be
00000030: 1264 3f3d 57eb 693e 5398 403e d9fa 093e
00000040: 38f6 ba3d 0dc8 2f3e 5e12 43bc 98f8 22be
00000050: d1f8 8bbd 75f5 aabd 24f5 f5bd e010 8c3d
00000060: 70c0 53be ecc1 c4bc 11aa 3b3d f019 013e
00000070: 3f0f 813e 9ffe fbbd 2b02 0f3e 0eb4 763d
00000080: 3210 163b 767e 803e ad29 90bd 471e a0bd
00000090: 3757 4c3d a55f 9abc 172c 0abe d707 673e
000000a0: d3ce 873d 6437 d9bd 3b5a 413e 8186 00be
000000b0: 5f54 6bbc 7541 95bd cb85 423d 89f6 c5bd
000000c0: 8668 36be 0ab4 48be cc3e 1bbd 41d4 3ebe
000000d0: f6f8 3ebe c936 523e 800c 5d3e be72 ef3d
000000e0: 5200 d83d 2ada e43d 0e7b 6c3e ddcd d63c
000000f0: 0ec1 463e b7d5 993d 77d8 93bd 3cbc ddbd
00000100: 93dc 3bbc ec9d df3d 650f 553e aa7c 1dbe
00000110: 34b2 5ebe 4615 713e ae14 25be d86a 273e
00000120: e28a d23d 97de 313e 4dd3 ec3d 3f8a 193d
00000130: 8707 2c3d 6d0c 053d 4155 c5bd ddd3 e13d
00000140: 1bc2 193e 934c 31be 7b25 293e 7a62 6f3e
00000150: d902 283e 54a5 463e 4d2d e03d f86d 2fbe
00000160: 0bbc 27be 7f48 18bd ec17 e3bc 0bcf a53d
00000170: d1d5 1c3e 7bce 153d 67de 083e 8d8b 5cbe
00000180: 7422 61be 2fd3 ec3d e8fc 58be 404b afbd
00000190: e34f 43be a57f b23c 7c76 51be 8e8b d63d
000001a0: 1369 013e 43e0 093e f041 5e3e 115d 193d
000001b0: ec5f 7ebd 793f 48be 8a44 1bbc fe39 96bd
000001c0: 34b9 14be 9e3b ee3c a54c b03d afec 803c
000001d0: 7a75 b33d 5d4b f9bd 31d1 e93d 9469 64be
000001e0: 3175 50bd 9332 6abd b411 763c 0a67 3c3e
000001f0: d8c1 7abe e05c 11be f534 72be c910 76be
00000200: f73e 8abb a3b0 ec3c 4430 6bbe ab69 523e
00000210: 7d49 f83c 0955 5a3e 0bfd be3d dcff 68be
00000220: 8730 873c 9729 f53d 045e ffbd bca3 cb3d
00000230: 0860 67be 5c91 3bbe 9a33 5c3e 6e2a b43d
00000240: ce20 2f3e c4a8 21be ff2e f1bd 9f42 3a3e
00000250: a7bc 1e3e ef50 36be 3d6c 05be 114a 68be
00000260: 06ce 40be a2f9 8d3b c824 80be b6f4 0f3e
00000270: 3ae5 e0bd a2a5 583e a675 1b3e ffff e73d
00000280: 71d9 aabd 2461 67be 8d63 273e cabd 12be
00000290: 244c 69bc 7345 12be b1b1 313e 4874 623d
000002a0: 6330 f4bd 8977 f23c cfd5 64be 35de 70be
000002b0: 6c5c 3f3e 039c 6d3d edfb 5a3e ede7 e43d
000002c0: 660b 893d 04a3 7a3d 57b3 3e3e 49f8 18be
000002d0: 2656 12be 81ac 4e3e 3cd7 9bbd 960d 19bc
000002e0: 4e92 413e 8d51 eabd 7338 553e 4359 84bd
000002f0: 99ff 18be 6a68 5f3e 00ee f33d eb8f 813e
00000300: ee45 bbbd 7db3 f0bd 56d5 693e 444c 5d3d
00000310: 102b 703e 6f3f 26bd ef4a 3d3e aa66 743e
00000320: 99c7 58bd 83a3 d93d dd7e 1cbe 74d5 ca3c
00000330: dfb5 90bb 0ebf 1fbe da99 05be 10c5 843c
00000340: ab76 49bd 9d6b 7c3e b17f 3c3d 2699 153e
00000350: 50c0 f0bd 9ec7 20bd 7881 11be 0b8c 9abd
00000360: c781 303e b267 643e b817 903d b3c3 7abe
00000370: 7389 403d c67d 35be ee49 4a3e f7c6 4f3e
00000380: b0cc 203e e958 9bbd 19c2 debd 5800 7b3e
00000390: 05e3 6a3e b0e6 373e 916f 6a3e 3f69 18be
000003a0: 2506 d3bd f5af afbd 765b 5abc 0076 bfbd
000003b0: fa71 0a3e 357c 5abe 44a5 573e 0890 033e
000003c0: 6fae c1bc 7110 6cbd f7bd 25be 9a17 92bd
000003d0: 5493 debd 1461 b6bc 0d59 303e 0570 233d
000003e0: dd29 cb3d 44b0 79be a02f e93d dcc1 14be
000003f0: 7911 8e3d 0a1f cbbd 426a 503d fb4f 463e

projection.layers.4.bias f4 [20]
0.031139793 -0.1294214 0.024016209 0.12771817 0.013075865 -0.05415103 -0.1254464 -0.1724005
0.15653807 0.19375098 -0.20345308 0.2350822 -0.008543312 -0.07706874 0.19981648 0.10686043
0.21900421 -0.24236745 0.13911046 0.07743441
00000000: e118 ff3c 0b87 04be a4bd c43c 8dc8 023e
00000010: 273c 563c 78cd 5dbd 0575 00be c289 30be
00000020: 844b 203e a866 463e 0156 50be 63b9 703e
00000030: 3ff9 0bbc 37d6 9dbd b19c 4c3e a4d9 da3d
00000040: a442 603e 2c2f 78be f972 0e3e ef95 9e3d

projection.layers.5.weight f4 [20, 20]
-0.1844465 0.008195331 0.09094809 -0.03641715 -0.084748045 0.050970584 0.23142049 -0.13231705
0.050441097 -0.13187681 0.20567816 0.022668147 0.12770697 0.0868742 0.05558782 0.15942825
0.15984376 -0.103856675 0.03701638 -0.19133195 0.19340758 -0.075271115 0.10498017 0.21192893
-0.10779372 -0.03433952 -0.11041799 -0.080802895 -0.12053148 0.04070919 -0.060897026 -0.08398277
0.0021685497 -0.12720463 0.1660099 0.14433941 0.12328409 0.07403853 0.09381692 0.14603569
-0.17238064 -0.14900279 -0.12023091 -0.2032184 -0.18573691 -0.20312199 0.17312661 -0.20675348
-0.2055201 -0.14980887 0.110396065 0.062489633 -0.13148414 0.010518783 0.22366326 -0.13703765
-0.16989575 0.16371179 0.016146591 0.039772134 -0.06886086 -0.10558424 -0.093140244 -0.22048308
-0.053412545 -0.0648693 0.12444658 0.17202638 -0.12895478 0.060603615 0.07351211 0.09691979
-0.19733596 0.034237817 -0.10051107 0.15441379 0.17847942 -0.031133067 -0.13133968 -0.19161375
-0.0114979865 -0.20682295 -0.08234137 -0.058217984 0.10006449 -0.022011299 -0.13436264 0.1259064
0.13109627 0.19727178 0.20367017 0.20847909 -0.14756308 0.047616735 0.17353888 -0.19833885
0.19537143 -0.1769482 -0.13406163 0.07791639 0.045296658 0.10156191 0.088066 -0.036068004
0.20885582 0.2059979 -0.14186558 -0.05821601 0.22146559 0.17051311 0.030522415 0.04627036
0.19323541 0.18882763 -0.07290362 0.20455727 -0.1398012 -0.08153398 -0.17114659 0.12527493
-0.011229789 0.1970809 0.102476425 -0.018091122 -0.012888877 -0.16122733 0.1872754 -0.0937821
0.20142229 -0.015557152 -0.0059161293 -0.04120914 -0.0070186285 0.19720583 0.1767605 0.015128464
0.070413016 0.15377726 -0.21811746 -0.15593071 -0.0040989346 -0.06214083 0.07502232 0.0043835626
-0.18449138 0.13895215 0.17747934 -0.0053794305 0.20775044 0.016433004 -0.115240335 -0.06437334
-0.15228434 0.21658911 0.1699454 0.0104853 -0.053953834 -0.16536453 0.1528343 -0.12625125
-0.16219205 0.0036241317 0.07658487 0.15593025 -0.021882875 0.15925534 0.0005428243 -0.1830973
0.048066933 0.20455007 -0.17316924 0.14075278 0.13635051 -0.018131832 0.16891149 0.19027388
0.1425286 -0.22862999 -0.19348343 0.07823391 0.045222342 -0.02750057 -0.17478515 -0.102770895
-0.016533738 0.15846774 -0.061370052 -0.08960103 -0.20812704 -0.13532938 -0.13101923 0.117029905
-0.06859913 0.1604949 -0.09948144 -0.1661286 -0.054676462 -0.11796984 0.03062016 -0.15572484
-0.20528096 0.06529285 -0.08862928 0.029850444 -0.020768963 -0.01989101 -0.09753312 -0.16386852
0.12385354 0.0752145 -0.16810009 0.04760276 -0.18861258 0.1064159 0.14380299 0.049234577
-0.11196461 0.062166598 0.1920783 -0.012841036 0.22006679 -0.089744344 0.13465887 -0.0013491311
0.04512384 0.1053013 -0.08144105 0.17710832 -0.11025894 -0.09372498 -0.18991753 0.11195998
0.02287307 -0.0061346707 0.12114631 0.014994891 0.1789123 0.029976051 0.23276378 -0.039607644
0.11568825 -0.15330616 0.02404833 0.07143615 -0.20930968 -0.13761467 0.16887496 -0.08276135
-0.05121536 0.16300887 -0.15679118 -0.18808565 -0.05127084 -0.16683322 0.22026779 0.14359717
00000000: 8bdf 3cbe b645 063c fe42 ba3d 262a 15bd
00000010: 6290 adbd 88c6 503d 7ef9 6c3e 1f7e 07be
00000020: 539b 4e3d b70a 07be 4c9d 523e 8db2 b93c
00000030: 9ec5 023e 1aeb b13d 0eb0 633d 2941 233e
00000040: 15ae 233e cfb2 d4bd 7d9e 173d 86ec 43be
00000050: a30c 463e be27 9abd d8ff d63d e603 593e
00000060: f4c2 dcbd 99a7 0cbd d422 e2bd fd7b a5bd
00000070: 35d9 f6bd aebe 263d 296f 79bd 29ff abbd
00000080: 3a1e 0e3b ee41 02be 80fe 293e b6cd 133e
00000090: 5e7c fc3d 83a1 973d 1623 c03d 618a 153e
000000a0: 8d84 30be 3094 18be a03b f6bd 7c18 50be
000000b0: d131 3ebe 36ff 4fbe 1a48 313e 2fb7 53be
000000c0: dc73 52be 7f67 19be 5517 e23d 21f5 7f3d
000000d0: c7a3 06be f956 2c3c fb07 653e 9953 0cbe
000000e0: 27f9 2dbe 10a4 273e db45 843c 1be8 223d
000000f0: ec06 8dbd 8d3c d8bd 50c0 bebd 51c6 61be
00000100: 1dc7 5abd 32da 84bd d9dd fe3d af27 303e
00000110: b90c 04be 7f3b 783d 848d 963d e27d c63d
00000120: 7012 4abe f43c 0c3d bfd8 cdbd a61e 1e3e
00000130: 4fc3 363e c60a ffbc e97d 06be 6536 44be
00000140: 0d62 3cbc 65c9 53be 98a2 a8bd fb75 6ebd
00000150: 9dee cc3d 0a51 b4bc 5c96 09be 9bed 003e
00000160: 1a3e 063e 9d01 4a3e ea8e 503e 8b7b 553e
00000170: c71a 17be c409 433d 2db4 313e 5719 4bbe
00000180: 730f 483e e931 35be 7447 09be a192 9f3d
00000190: fd88 393d b1ff cf3d f25b b43d 0bbc 13bd
000001a0: 4dde 553e 1df1 523e 3645 11be e973 6ebd
000001b0: e0c7 623e fd9a 2e3e 250a fa3c fd85 3d3d
000001c0: 81df 453e 085c 413e 7e4e 95bd 7677 513e
000001d0: 0c28 0fbe 4afb a6bd 0d41 2fbe 1248 003e
000001e0: 26fd 37bc 93cf 493e 29df d13d d533 94bc
000001f0: de2b 53bc c718 25be 1fc5 3f3e d410 c0bd
00000200: a541 4e3e 6de3 7ebc 17dc c1bb eaca 28bd
00000210: 86fc e5bb 53f0 493e b400 353e 61dd 773c
00000220: b334 903d c977 1d3e 2f5a 5fbe 4dac 1fbe
00000230: 5b50 86bb 6287 7ebd 4da5 993d fda3 8f3b
00000240: 4feb 3cbe 7949 0e3e 25bd 353e ef45 b0bb
00000250: 88bc 543e 829e 863c 2003 ecbd 2bd6 83bd
00000260: 6df0 1bbe 89c9 5d3e 2b06 2e3e 89ca 2b3c
00000270: b2fe 5cbd 5255 29be 9880 1c3e 0248 01be
00000280: ac15 26be d782 6d3b 87d8 9c3d 2eac 1f3e
00000290: b743 b3bc d513 233e 524c 0e3a dc7d 3bbe
000002a0: d5e1 443d 9375 513e 4753 31be 7f21 103e
000002b0: 789f 0b3e 3589 94bc 22f7 2c3e 28d7 423e
000002c0: 04f3 113e fb1d 6abe 8520 46be 1a39 a03d
000002d0: 103b 393d e048 e1bc e1fa 32be 8c79 d2bd
000002e0: c371 87bc 5e45 223e 2a5f 7bbd bf80 b7bd
000002f0: 411f 55be c993 0abe e829 06be 60ad ef3d
00000300: b37d 8cbd c658 243e edbc cbbd 9e1d 2abe
00000310: 6df4 5fbd 2c9a f1bd 21d7 fa3c 5576 1fbe
00000320: 2c35 52be 42b8 853d 4583 b5bd eb88 f43c
00000330: ac23 aabc 79f2 a2bc 72bf c7bd 26cd 27be
00000340: eda6 fd3d 0f0a 9a3d 6e22 2cbe 1dfb 423d
00000350: a823 41be 94f0 d93d 1741 133e 32aa 493d
00000360: b44d e5bd 67a2 7e3d 2db0 443e 3563 52bc
00000370: 3059 613e e2cb b7bd 04e4 093e 54d5 b0ba
00000380: c7d3 383d 35a8 d73d 91ca a6bd e25b 353e
00000390: 70cf e1bd e2f2 bfbd be79 42be 464b e53d
000003a0: 4e60 bb3c 5905 c9bb 8e1b f83d 22ad 753c
000003b0: c934 373e 5690 f53c a159 6e3e a03b 22bd
000003c0: f6ed ec3d 4afc 1cbe 0101 c53c 1e4d 923d
000003d0: 4755 56be dcea 0cbe 8fed 2c3e c87e a9bd
000003e0: 33c7 51bd cceb 263e de8d 20be 8699 40be
000003f0: 5f01 52bd 54d6 2abe e18d 613e 230b 133e

projection.layers.5.bias f4 [20]
0.008232962 -0.23286878 0.2244372 0.019000014 0.16178608 0.111454226 -0.12964804 -0.103093445
0.06654175 -0.10453174 -0.13696578 0.1499579 0.010226823 -0.060752764 -0.12767816 0.15909357
0.14595662 -0.04865734 0.070738934 0.15852943
00000000: 8ce3 063c 2775 6ebe ded2 653e eba5 9b3c
00000010: 40ab 253e 1d42 e43d 75c2 04be a822 d3bd
00000020: 0b47 883d bd14 d6bd c240 0cbe 908e 193e
00000030: 688e 273c e4d7 78bd 10be 02be 6de9 223e
00000040: a775 153e eb4c 47bd 93df 903d 8a55 223e

projection.layers.6.weight f4 [16, 4]
-0.055226214 0.36388582 0.27346465 -0.03590551 0.25040463 -0.07705813 -0.50406116 -0.4003405
0.11138293 0.50135714 0.3539075 0.2967811 0.16426837 0.32157302 -0.48868608 -0.27443963
-0.37204847 -0.28293613 0.29034418 -0.36105892 -0.3945505 0.31536165 0.14969034 -0.49253935
-0.28146985 -0.44274625 0.17472135 -0.21530256 -0.28612682 -0.50380856 -0.3679356 -0.37887463
0.4455447 -0.3193464 0.028635174 -0.17253318 0.38425934 -0.4276211 -0.0034840994 0.4270721
-0.04032882 0.42074224 -0.20968921 0.12240997 -0.040480018 -0.36377314 -0.035291538 0.38002503
0.17434286 0.47714078 -0.048259605 0.025051927 0.012653955 0.07673657 0.05410254 0.12696142
-0.11888713 -0.24668792 0.18346182 -0.37870908 -0.29471514 0.25188458 0.10436253 -0.43202785
00000000: e234 62bd 3e4f ba3e 8f03 8c3e a811 13bd
00000010: 0935 803e a7d0 9dbd 270a 01bf 6ef9 ccbe
00000020: bc1c e43d f158 003f 5d33 b53e b1f3 973e
00000030: f835 283e 38a5 a43e 1035 fabe 5a83 8cbe
00000040: 237d bebe 01dd 90be fea7 943e b7dc b8be
00000050: 8602 cabe 1577 a13e 6d48 193e 1e2e fcbe
00000060: d11c 90be a3af e2be 27ea 323e 4678 5cbe
00000070: 377f 92be 99f9 00bf 0e62 bcbe dbfb c1be
00000080: 6f1e e43e 5f81 a3be 5094 ea3c 8aac 30be
00000090: a4bd c43e 27f1 dabe 7d55 64bb 32a9 da3e
000000a0: d52f 25bd 876b d73e c5b8 56be 14b2 fa3d
000000b0: 60ce 25bd 7940 babe dc8d 10bd a492 c23e
000000c0: ef86 323e cc4b f43e ddab 45bd b339 cd3c
000000d0: 8952 4f3c 1028 9d3d a09a 5d3d 2d02 023e
000000e0: 187b f3bd c29b 7cbe 6add 3b3e 28e6 c1be
000000f0: e7e4 96be 04f7 803e 06bc d53d c132 ddbe

projection.layers.6.bias f4 [16]
0.3012614 0.2287607 0.06455986 0.34331843 -0.38154858 0.30659062 0.47091416 0.45063296
0.08844359 0.3239732 -0.15209149 -0.10134215 0.21316805 -0.12666544 -0.10523936 0.16412392
00000000: ef3e 9a3e 3f40 6a3e f637 843d 6fc7 af3e
00000010: 565a c3be 72f9 9c3e a91b f13e 5db9 e63e
00000020: ea21 b53d d1df a53e dfbd 1bbe 798c cfbd
00000030: ba48 5a3e 96b4 01be bc87 d7bd 1a10 283e

projection.layers.7.weight f4 [20, 16]
-0.049400568 0.010342166 0.11529573 0.105686724 -0.22557153 0.18561603 -0.22600001 0.009741085
0.187817 0.026773117 -0.2221041 -0.15326518 0.13953222 -0.010659404 -0.14279953 -0.09968427
-0.055389967 0.23604819 0.123539366 -0.21128301 -0.16361967 0.20279485 0.09810591 0.11544784
-0.20425008 0.09835803 -0.112906985 0.20040542 -0.15676388 -0.0059282733 -0.020595798 0.18510966
0.12180351 0.13409977 -0.16985406 0.18397282 0.16459553 -0.09497595 0.118172444 -0.14747073
0.15810098 -0.15403289 -0.06366242 -0.038166717 -0.013897339 0.22985883 -0.10947525 -0.23565401
-0.030467402 0.10126861 0.15276952 0.0022803263 0.078232475 0.23074277 0.25670704 -0.08554067
-0.16624022 0.15965973 -0.1322819 -0.121693105 0.24030349 0.21089081 0.2383612 0.028871147
-0.06119223 -0.06873006 0.13478999 0.23012532 0.18592389 -0.07648545 -0.23564446 0.14026004
-0.031350326 -0.121369086 -0.1823177 -0.14514957 0.19921361 -0.11444159 0.21791194 -0.14335556
-0.03342105 0.11135528 0.069030814 -0.07586083 0.23828453 0.17870218 0.09077894 0.013273024
0.10781223 0.1588508 -0.15833461 -0.23561867 -0.054521758 -0.10927265 -0.22813779 -0.015528675
-0.173703 -0.17458715 -0.14011838 0.2510223 0.03625685 0.10938753 0.19338223 -0.035755083
0.04860063 -0.07955783 -0.09098245 0.1871612 0.045990545 -0.21926762 0.005798407 0.011335578
-0.13267212 -0.18667379 -0.04092505 -0.0653084 0.25020507 -0.18583302 -0.030757802 -0.19708022
0.0996363 -0.016721446 0.02836674 -0.21296176 0.23893487 0.15214452 0.22939913 -0.08820869
0.097210184 0.20225036 -0.15729183 -0.15555538 -0.21732068 0.216218 0.16537364 -0.21912818
0.22650582 -0.09899565 -0.12227497 0.026129073 0.20142923 -0.02208565 -0.19463047 -0.16406682
-0.23431928 0.15508652 0.050601576 0.14297888 0.1408324 0.032715496 -0.25729164 -0.053505678
-0.02789166 -0.20390016 0.036362637 0.09525332 0.019690776 -0.099054486 0.043196566 0.0599259
0.15438157 -0.1456944 -0.05383286 0.007966063 -0.25424543 -0.1707775 0.24245153 -0.15034528
-0.22303249 -0.21371187 0.17931378 -0.067708485 -0.0059642196 -0.06989684 -0.21098454 -0.07360312
-0.062905215 0.20637183 0.16741206 0.22111876 -0.25013456 -0.12712945 -0.08579823 -0.13705002
-0.05214013 -0.035140377 0.019886347 0.08774409 0.028994165 -0.25224477 -0.045996547 -0.2135695
-0.21383284 0.17540656 -0.014050298 0.1479296 0.24011853 -0.1502237 -0.07421303 -0.07026207
-0.06621403 -0.17773652 -0.017578386 -0.03271921 -0.08364467 -0.114943385 0.19479097 -0.13046633
0.16968647 0.11875717 -0.027821267 0.22133555 -0.15520732 0.11699022 0.23769313 0.20054343
0.066007204 0.21558325 0.0018066429 -0.10417601 0.25384697 0.1847579 0.097994 0.22671446
-0.18981805 0.048736665 -0.2620925 -0.023814112 0.22231294 0.1325984 0.117930256 0.14944333
-0.10956545 0.1913563 -0.09308499 -0.15723851 0.08575667 -0.013455308 0.21833679 -0.047405362
-0.13315138 -0.01316769 0.026164107 -0.13358003 0.051939134 -0.2150952 0.14051472 -0.106533855
-0.062047724 0.1860206 0.011343198 0.22605562 -0.24114451 0.060459103 -0.027782144 -0.077821255
00000000: 4058 4abd 3072 293c 2b20 ec3d 4872 d83d
00000010: 39fc 66be 2112 3e3e 8c6c 67be 1299 1f3c
00000020: 1a53 403e 4c53 db3c 426f 63be 8cf1 1cbe
00000030: 89e1 0e3e c8a4 2ebc 0a3a 12be 4427 ccbd
00000040: 97e0 62bd 9eb6 713e 3502 fd3d 935a 58be
00000050: ea8b 27be 74a9 4f3e c0eb c83d eb6f ec3d
00000060: ef26 51be ef6f c93d c73b e7bd 1437 4d3e
00000070: b686 20be f641 c2bb 85b8 a8bc 638d 3d3e
00000080: 1e74 f93d 7351 093e 39ee 2dbe 5f63 3c3e
00000090: bb8b 283e c082 c2bd 6504 f23d 9102 17be
000000a0: 39e5 213e ccba 1dbe 7161 82bd b454 1cbd
000000b0: aab1 63bc 1d60 6b3e 8f34 e0bd 494f 71be
000000c0: c696 f9bc eb65 cf3d 9d6f 1c3e 8771 153b
000000d0: 5938 a03d d547 6c3e 1b6f 833e f22f afbd
000000e0: e03a 2abe d77d 233e e874 07be 3c3a f9bd
000000f0: 1e12 763e c3f3 573e f514 743e 2f83 ec3c
00000100: b4a4 7abd 58c2 8cbd 6306 0a3e f9a5 6b3e
00000110: d562 3e3e 67a4 9cbd c84c 71be 54a0 0f3e
00000120: 3369 00bd 5b90 f8bd 7eb1 3abe 17a2 14be
00000130: a7fe 4b3e 5a60 eabd 4f24 5f3e cdcb 12be
00000140: 83e4 08bd 3d0e e43d 0760 8d3d ec5c 9bbd
00000150: dc00 743e b4fd 363e 4fea b93d 1977 593c
00000160: a9cc dc3d c9a9 223e 7822 22be 0546 71be
00000170: 3552 5fbd 57ca dfbd f49c 69be fc6b 7ebc
00000180: 33df 31be f9c6 32be 317b 0fbe ff85 803e
00000190: 1082 143d 9206 e03d fe05 463e ec73 12bd
000001a0: 7411 473d 37ef a2bd 0255 babd 30a7 3f3e
000001b0: 9560 3c3d b187 60be 9000 be3b dcb8 393c
000001c0: 33db 07be 6a27 3fbe 06a1 27bd 69c0 85bd
000001d0: e11a 803e 034b 3ebe c9f7 fbbc 66cf 49be
000001e0: 1e0e cc3d 6afb 88bc 5e61 e83c a612 5abe
000001f0: 58ab 743e c6cb 1b3e 9be7 6a3e c2a6 b4bd
00000200: 2216 c73d b81a 4f3e 1c11 21be e949 1fbe
00000210: 5089 5ebe 4068 5d3e b557 293e 2363 60be
00000220: 24f1 673e 3bbe cabd 4d6b fabd a30c d63c
00000230: 7743 4e3e f7ec b4bc 364d 47be 2201 28be
00000240: 65f1 6fbe 00cf 1e3e 9943 4f3d 0e69 123e
00000250: 5e36 103e af00 063d bbbb 83be c528 5bbd
00000260: 0d7d e4bc 34cb 50be fdf0 143d 2c14 c33d
00000270: 8d4e a13c 14dd cabd e2ee 303d dc74 753d
00000280: 3416 1e3e ea30 15be d87f 5cbd 1784 023c
00000290: 752c 82be 4ce0 2ebe 3745 783e 1df4 19be
000002a0: a162 64be 49d7 5abe 089e 373e bfaa 8abd
000002b0: 806f c3bb 1326 8fbd 550c 58be 3cbd 96bd
000002c0: 73d4 80bd 2353 533e 116e 2b3e f56c 623e
000002d0: a311 80be 392e 02be fbb6 afbd d756 0cbe
000002e0: e490 55bd 5bef 0fbd b1e8 a23c 2cb3 b33d
000002f0: 2c85 ed3c 3a26 81be e066 3cbd f7b1 5abe
00000300: fff6 5abe c79d 333e 3933 66bc db7a 173e
00000310: a2e1 753e 3ed4 19be 00fd 97bd 8fe5 8fbd
00000320: 399b 87bd 9000 36be 8c00 90bc 9404 06bd
00000330: e64d abbd 7067 ebbd 4977 473e f798 05be
00000340: 4ac2 2d3e f636 f33d 6de9 e3bc c9a5 623e
00000350: abee 1ebe 9298 ef3d d465 733e 425b 4d3e
00000360: c92e 873d dbc1 5c3e e0cc ec3a 3b5a d5bd
00000370: 3bf8 813e 2d31 3d3e 14b1 c83d d627 683e
00000380: aa5f 42be 19a0 473d fd30 86be d015 c3bc
00000390: 01a6 633e e0c7 073e 6b85 f13d ac07 193e
000003a0: da63 e0bd e8f2 433e 58a3 bebd 2203 21be
000003b0: 31a1 af3d a773 5cbc ae93 5f3e 202c 42bd
000003c0: d658 08be 4bbd 57bc 1c56 d63c 34c9 08be
000003d0: 21be 543d eb41 5cbe 17e3 0f3e 6c2e dabd
000003e0: c125 7ebd 2f7c 3e3e d2d8 393c 207b 673e
000003f0: 96ee 76be f7a3 773d 6197 e3bc c060 9fbd

projection.layers.7.bias f4 [20]
-0.11040726 -0.058801092 -0.2103052 0.17691804 0.11192884 -0.18310672 -0.110162206 0.18897855
0.18614726 0.2078848 0.25969765 0.14611241 0.10469092 0.1677053 -0.125337 -0.0046019605
0.2174201 0.19735654 0.16656287 0.09669073
00000000: 341d e2bd 6ad9 70bd 3f5a 57be 012a 353e
00000010: f33a e53d 5480 3bbe b99c e1bd 9883 413e
00000020: 639d 3e3e c1df 543e 17f7 843e 7e9e 153e
00000030: 3168 d63d f0ba 2b3e 5858 00be 0bcc 96bb
00000040: 60a3 5e3e d517 4a3e 758f 2a3e ca05 c63d

projection.layers.8.weight f4 [20, 20]
-0.10530555 -0.062104493 -0.19482823 0.05907992 -0.038626738 0.2115114 -0.06894424 0.08213245
0.07496596 -0.10483745 -0.23676175 -0.15195155 0.20547101 0.13001907 0.10486894 -0.12499406
-0.11486295 -0.20451456 0.072936535 0.07506734 -0.047102477 -0.11755569 0.06669074 0.06974757
-0.029719127 0.16606975 -0.061146557 -0.15782012 0.10252798 -0.107049294 0.23114441 0.043204654
-0.07415248 -0.0321016 0.008126004 -0.15699603 -0.15560187 -0.12286172 0.07153519 0.12227771
-0.1000263 -0.03854949 -0.10466094 0.11215632 -0.1870684 0.13395587 0.16623704 -0.06467731
-0.0026928782 -0.14291377 0.06368793 -0.07248345 -0.16489442 0.18113895 0.122406565 0.008725937
-0.13269295 -0.09979183 0.057341136 0.12097997 0.21777639 0.06142307 -0.14429368 -0.07286191
0.12999384 -0.07700441 -0.008547077 0.091664515 0.048140332 -0.054236557 0.17702134 0.10457135
-0.20365 -0.21135908 0.0769108 0.1872692 -0.21606205 0.1911588 -0.050228562 0.042732086
-0.14652696 0.078801386 -0.011912081 -0.07813044 0.1737788 -0.012810917 -0.026359424 -0.12249582
0.01980141 0.21056515 0.012282695 -0.17275764 0.15429252 0.06399799 0.15788306 0.046685435
0.031908702 -0.11531878 -0.13174203 0.07675394 0.14541134 -0.11974187 -0.08979874 -0.062340986
-0.14134888 -0.09093601 -0.12242763 -0.095724955 -0.23449174 -0.035549264 -0.01585011 0.087433204
0.09417683 -0.052655123 -0.14378254 -0.05322417 0.17463998 -0.18562293 -0.13700996 -0.13685577
0.17889883 0.16254446 -0.22409509 -0.03564214 -0.20341767 0.11837119 0.08265493 -0.027529879
0.16236499 0.14639878 0.100347266 0.0016680802 -0.21764158 -0.01011807 -0.17211674 -0.011614873
0.106051706 0.07644713 -0.14544517 -0.12358553 -0.12517601 0.106772885 0.15273158 -0.091415435
-0.1240131 -0.2027729 -0.18517324 0.0348495 0.06027939 0.18321346 -0.049985774 -0.20499325
-0.07012561 -0.22027282 -0.027481206 0.21662724 0.098768175 0.14649019 -0.16046697 0.06136751
0.0657059 0.14196308 0.11684306 0.031354785 0.17541006 0.01467074 -0.033729225 0.18221384
-0.19567129 -0.18249471 -0.16153018 0.0034560831 -0.051185768 0.046323523 0.074984655 0.1989486
-0.19965592 0.1961739 0.053588726 -0.07029329 0.18197799 0.04945145 -0.140536 0.039745618
0.20143384 -0.10613286 0.18266346 -0.19515428 -0.025729239 -0.105299726 -0.16989042 -0.20657727
-0.018795494 -0.2287345 -0.12771304 0.22979686 0.062147256 0.040466074 -0.044784345 -0.1628547
-0.025253613 0.18610084 0.12078751 -0.18023881 -0.1088393 -0.057738774 0.15557167 -0.098017074
0.10865437 0.21593067 -0.15147473 0.1402092 -0.06562445 -0.13985188 0.18988293 -0.2077103
-0.1273676 -0.0028920732 -0.2089775 0.049530134 0.07602303 0.0021019236 0.07509172 -0.001774904
0.18494894 -0.17740607 0.18857095 -0.22827753 0.03145851 -0.055061337 -0.09066494 0.106305756
-0.1065678 -0.20990756 -0.0903297 0.15733339 -0.048443314 -0.012516037 0.17153189 0.121008106
-0.19279854 0.045440454 0.13307893 -0.10772215 0.11706554 0.16504087 -0.057937875 0.065535255
-0.030858194 0.20123321 -0.015832892 -0.14070013 -0.02998484 -0.13658907 0.119236805 0.055963904
00000000: 70aa d7bd 4861 7ebd 0d81 47be c9fd 713d
00000010: 1237 1ebd 7296 583e a332 8dbd 0f35 a83d
00000020: c187 993d 04b5 d6bd ac71 72be 3099 1bbe
00000030: fe66 523e b823 053e 87c5 d63d e3fc ffbd
00000040: 443d ebbd 446c 51be c05f 953d e8bc 993d
00000050: 87ee 40bd 0ac1 f0bd 2895 883d d0d7 8e3d
00000060: 8775 f3bc 300e 2a3e d074 7abd 999b 21be
00000070: 31fa d13d a93c dbbd 1fb1 6c3e 5df7 303d
00000080: 41dd 97bd f87c 03bd ee22 053c 91c3 20be
00000090: 1956 1fbe ed9e fbbd 0b81 923d bc6c fa3d
000000a0: 97da ccbd 12e6 1dbd 7a58 d6bd 36b2 e53d
000000b0: dc8e 3fbe ba2b 093e 0b3a 2a3e 8a75 84bd
000000c0: 007b 30bb fd57 12be d16e 823d 3472 94bd
000000d0: 15da 28be 7d7c 393e 4bb0 fa3d 3cf7 0e3c
000000e0: a9e0 07be a95f ccbd 8ade 6a3d 59c4 f73d
000000f0: c600 5f3e c296 7b3d b9c1 13be a038 95bd
00000100: 1b1d 053e 7db4 9dbd 0a09 0cbc 9bba bb3d
00000110: cc2e 453d 2727 5ebd 1545 353e 8129 d63d
00000120: a089 50be 846e 58be 6983 9d3d 7fc3 3f3e
00000130: 5f3f 5dbe 22bf 433e 77bc 4dbd d707 2f3d
00000140: 2a0b 16be 9f62 a13d e42a 43bc da02 a0bd
00000150: 12f3 313e e1e4 51bc b8ef d7bc 17df fabd
00000160: 9136 a23c 649e 573e 5b3d 493c 61e7 30be
00000170: dcfe 1d3e 6111 833d 19ac 213e 3a39 3f3d
00000180: b3b2 023d 412c ecbd 62e7 06be 2b31 9d3d
00000190: b6e6 143e 3a3b f5bd 67e8 b7bd 4359 7fbd
000001a0: c3bd 10be a93c babd 56bb fabd 720b c4bd
000001b0: 9a1e 70be 1b9c 11bd 17d8 81bc 2e10 b33d
000001c0: c8df c03d e6ac 57bd bb3b 13be 9601 5abd
000001d0: d3d4 323e f013 3ebe 574c 0cbe eb23 0cbe
000001e0: 4131 373e 0e72 263e 2f79 65be 7efd 11bd
000001f0: b94c 50be 986c f23d fd46 a93d 5786 e1bc
00000200: 0243 263e 90e9 153e de82 cd3d 7ca3 da3a
00000210: 6fdd 5ebe 43c6 25bc 5f3f 30be 4f4c 3ebc
00000220: a331 d93d 5090 9c3d 94ef 14be 691a fdbd
00000230: 242e 00be beab da3d ab65 1c3e 0438 bbbd
00000240: 95fa fdbd b3a3 4fbe 0e9e 3dbe 59be 0e3d
00000250: 86e7 763d 4f9c 3b3e e2bd 4cbd c0e9 51be
00000260: 049e 8fbd 338f 61be 4420 e1bc 88d3 5d3e
00000270: f846 ca3d 8601 163e 7451 24be 805c 7b3d
00000280: d190 863d c55e 113e 6a4b ef3d e06d 003d
00000290: b29e 333e 8b5d 703c a827 0abd 4496 3a3e
000002a0: 0e5e 48be e5df 3abe 2b68 25be 747f 623b
000002b0: 2ba8 51bd bcbd 3d3d 8e91 993d 2fb9 4b3e
000002c0: 9a72 4cbe d0e1 483e da7f 5b3d eef5 8fbd
000002d0: 7058 3a3e 9b8d 4a3d abe8 0fbe 4dcc 223d
000002e0: ac44 4e3e 2f5c d9bd 210c 3b3e 86d6 47be
000002f0: 20c6 d2bc 62a7 d7bd c1f7 2dbe fe88 53be
00000300: 02f9 99bc 6039 6abe 35c7 02be de4f 6b3e
00000310: 1f8e 7e3d c1bf 253d ca6f 37bd 62c3 26be
00000320: aae0 cebc 3891 3e3e 715f f73d 8690 38be
00000330: 24e7 debd 7e7f 6cbd 2e4e 1f3e 2dbd c8bd
00000340: 2f86 de3d ee1c 5d3e 311c 1bbe 0093 0f3e
00000350: 1d66 86bd 5535 0fbe ac70 423e 02b2 54be
00000360: a76c 02be f088 3dbb 33fe 55be 1ce0 4a3d
00000370: f6b1 9b3d 6dc0 093b b0c9 993d e5a3 e8ba
00000380: 4163 3d3e f0a9 35be be18 413e 96c1 69be
00000390: a3da 003d ff87 61bd 8aae b9bd d5b6 d93d
000003a0: 3840 dabd 02f2 56be c7fe b8bd 011c 213e
000003b0: 7f6c 46bd 1010 4dbc 0ea6 2f3e 19d3 f73d
000003c0: fb6c 45be c51f 3a3d d845 083e 6e9d dcbd
000003d0: 0fc0 ef3d 7900 293e 4450 6dbd 5937 863d
000003e0: 53ca fcbc 1410 4e3e fbb3 81bc b213 10be
000003f0: c4a2 f5bc 01de 0bbe 6d32 f43d 683a 653d

projection.layers.8.bias f4 [20]
0.1366455 0.023837173 -0.0016288237 0.06733378 -0.13225894 -0.009346634 0.06389348 0.10700239
-0.015700465 0.13165383 -0.123838924 0.04866396 -0.14976823 0.0053571165 -0.099312104 -0.18578911
-0.0720134 -0.14610021 0.2196543 -0.12126147
00000000: ccec 0b3e 2d46 c33c 417e d5ba 4be6 893d
00000010: e36e 07be a022 19bc 96da 823d 1224 db3d
00000020: 439e 80bc 43d0 063e 439f fdbd dc53 473d
00000030: d85c 19be c08a af3b 2564 cbbd 803f 3ebe
00000040: c37b 93bd 4b9b 15be 0fed 603e ef57 f8bd

projection.layers.9.weight f4 [16, 4]
0.2048839 -0.45423365 0.21351777 0.18459633 -0.47417206 0.4581189 -0.2913949 0.1417263
0.4068894 0.1908869 0.16747747 -0.3528332 -0.42946085 -0.14713417 0.07281674 -0.1861221
-0.43102214 0.4404562 0.21421261 0.075743094 -0.23645258 0.120649405 0.23302369 -0.09252227
0.093764365 0.19015792 0.43356684 -0.15958746 0.36076048 -0.2225537 0.41514695 0.19910881
0.045565657 0.2939764 -0.15304175 -0.25973955 -0.25349137 -0.22655171 -0.1601957 -0.39353582
-0.13736196 0.3628603 -0.23433432 -0.063621365 -0.33052877 0.1952491 -0.15873018 -0.33446264
0.030716805 0.148406 -0.085595034 0.13610059 0.2581553 0.4346559 0.025296083 -0.29658243
-0.24226068 0.46416157 0.1672029 0.15566322 0.43069983 0.34259418 0.35036662 -0.0052712746
00000000: 16cd 513e 5091 e8be 67a4 5a3e d206 3d3e
00000010: aec6 f2be 8f8e ea3e b631 95be b320 113e
00000020: cf53 d03e db77 433e 377f 2b3e 8ea6 b4be
00000030: 4be2 dbbe 57aa 16be f120 953d cb96 3ebe
00000040: efae dcbe 7a83 e13e 8d5a 5b3e 321f 9b3d
00000050: a020 72be 0917 f73d c39d 6e3e 517c bdbd
00000060: 8807 c03d c2b8 423e 79fc dd3e e56a 23be
00000070: 99b5 b83e 1ee5 63be 248e d43e 2ee3 4b3e
00000080: 0ea3 3a3d 1384 963e fab6 1cbe 95fc 84be
00000090: 9fc9 81be 2cfd 67be 570a 24be 877d c9be
000000a0: 9da8 0cbe d3c8 b93e 56f5 6fbe eb4b 82bd
000000b0: 113b a9be 61ef 473e 2a8a 22be b03e abbe
000000c0: cfa1 fb3c bef7 173e 734c afbd f45d 0b3e
000000d0: ee2c 843e 388b de3e bb39 cf3c a7d9 97be
000000e0: 2f13 78be 96a6 ed3e 3d37 2b3e 2e66 1f3e
000000f0: b084 dc3e 8168 af3e 4163 b33e a8ba acbb

projection.layers.9.bias f4 [16]
0.46076316 -0.1746446 -0.0055435426 0.25529552 0.4933401 -0.08299028 -0.39190167 0.4156276
-0.33520967 0.38455504 0.020178774 0.25046724 -0.026514694 0.33639523 0.14781892 0.19135213
00000000: 26e9 eb3e 09d6 32be 9ba6 b5bb 18b6 823e
00000010: 1397 fc3e cff6 a9bd 56a7 c8be 24cd d43e
00000020: 9aa0 abbe 66e4 c43e f54d a53c 3e3d 803e
00000030: 5835 d9bc ff3b ac3e d85d 173e d0f1 433e
