actor.pth (torch, 469291 bytes, 69 tensors)

projection.layers.0.weight f4 [11, 4]
00000000: a0d5 a73c 9297 d93e 6ae0 743e 108e c23e
00000010: 0583 c2be c256 323d 4d8b d63e 6d9e 093e
00000020: d970 643e 5bed cc3e ae75 e0bc 5b55 52be
00000030: eb45 133e 33e9 fcbd c76a 1abd 6071 773e
00000040: 454c c23d e468 b63d 13a9 863e 14d3 4ebe
00000050: a6e6 a4bc 8021 4dbe 3f67 febe 5200 15be
00000060: 2d54 d1bd 8d59 a23e 3eef 953d c140 c0be
00000070: dbfd dfbd 44fb 0e3e 1949 003f fdf0 a4be
00000080: 153d 1cbe ec0d 0a3f f43d fdbe 91a7 07bd
00000090: 34f9 5abe 1db5 c0be df77 2d3e e09e 08be
000000a0: 040a e03e 8033 083b 536b b33d bf3e 5c3e
0.020487607 0.4249845 0.23913732 0.3799901 -0.37990585 0.04353977 0.41903153 0.13439341
0.22308673 0.40024838 -0.027399864 -0.20540373 0.1438214 -0.12349167 -0.037699487 0.24164343
0.094872035 0.08906725 0.26300868 -0.20197707 -0.020129513 -0.2003231 -0.49688146 -0.14550903
-0.102211334 0.31708947 0.073210225 -0.37549403 -0.10937091 0.13963038 0.5011154 -0.3221511
-0.15257676 0.53927493 -0.4946133 -0.03311879 -0.21384126 -0.37638178 0.16940258 -0.13341856
0.4375764 0.002078265 0.08760705 0.2150831

projection.layers.0.bias f4 [11]
00000000: 2ca8 013f 53a2 d53e 8850 873d 0c05 713e
00000010: ac4b b13e 5564 87be 2219 433e 6a89 a9be
00000020: 5122 1ebe 036d a83e 3e93 f7be
0.50647235 0.41725406 0.06607157 0.23537081 0.34628046 -0.26443735 0.19052556 -0.3311265
-0.15442778 0.3289567 -0.48354524

projection.layers.1.weight f4 [15, 11]
00000000: 1dd2 313e 0af8 ad3d 6167 4d3d 69ce 613e
00000010: b386 cb3c 49ed 3ebe 3544 41be 84dc f23d
00000020: dceb 9fbd eb25 03bd 9ed9 683d a662 29bd
00000030: bc41 cdbc d8b5 f3bc 1bff 0abe 18b6 703e
00000040: 3c90 91be 8ae9 8bbe 69d1 4e3e a5eb a3be
00000050: dc5a 913e a936 b7bd 6ff6 dd3d c1a8 36be
00000060: e5d8 0f3d cafe 873e c1b2 90be 07fa 733e
00000070: 1d4a 1e3c 164a 6ebe a63d 353d 8d47 2e3e
00000080: a146 183e 666c b73d 15b8 94bd 6e4e 6fbe
00000090: 3e72 763a 0b65 6b3e c77b 8b3e a632 7e3e
000000a0: 3d65 f9bd 29f0 eebd 6459 b4bd c940 0c3c
000000b0: 21b3 ab3d 029c 8f3e 5824 4bbe 4c57 22be
000000c0: 3ff7 5c3e 008b 9dbd dfa4 8b3e c77c 8bbd
000000d0: b360 293e cce9 3e3e 7b07 13be 2180 823d
000000e0: 3487 6cbe bc33 453d c33a 12be 7bfc 333d
000000f0: 913a 663d b1be 82be 4d2e 96be 3d13 253e
00000100: e2ee 163e e1d4 d5bd 43e6 453e ecc8 e53c
00000110: 86b2 6c3d 91b0 8e3e 7513 c13d c9e5 2d3d
00000120: 069a c13d cab3 173e 7a20 76be 78c6 573e
00000130: fef9 003e ae4d f6bd 67d5 debc a9d7 b2bd
00000140: 8d14 0cbe 4552 4bbd 01ad 993d d37e 973e
00000150: 9ab1 9abd 16be 163e 11bc 1a3d f85e 1fbd
00000160: 2868 4dbe cc57 0dbe 9076 423e a144 8b3e
00000170: 4f72 fcbc 4333 15be 4859 873c 8a5c 59be
00000180: 1743 6dbd 59ba 543d e3a1 1d3e cff3 623e
00000190: 8f51 2c3e 3bf2 10be edb3 843d 5a46 d3bd
000001a0: 6d2b 5a3e 8461 8c3d b06e 30be d94d 12bd
000001b0: 4c7c 323e 37a0 82be 6034 203e 4be0 83be
000001c0: f819 61be 7264 b03d 7cd7 ccbd 6156 8a3c
000001d0: d551 363e 0af3 853e 809d aabb 55fe aebd
000001e0: bc67 633e 3838 6ebc 747d 15be 0c55 23bd
000001f0: 080b ccbd e1db 40be 867c 2bbe 3923 28bd
00000200: 4c22 5cbc 7f54 92bd 5c2b 593e 9e09 f23d
00000210: 4cc3 9f3e d692 083e 2ccc c03c 6a77 9f3e
00000220: 6bd0 38be f130 9e3d 3e4a 9abe b469 8bbd
00000230: 9c0a 553d db1c 243e 7f60 633e dd6b 6bbe
00000240: 4e42 88be 10a1 793d aa1d 98be 17f0 853e
00000250: 97ec 9f3b 82c2 2dbd 6bba 873c f9e9 28be
00000260: d88a 203e 4e99 e43d 33ca 3bbe f394 5ebe
00000270: df20 383e ce81 11be 7779 3dbe 84ba 1fbe
00000280: 9a69 5dbe 8dc7 2a3c fd2d 7b3e 8914 00be
00000290: 48f3 94be
0.17365308 0.08494575 0.050147418 0.22051395 0.024844503 -0.18645205 -0.18873675 0.11858466
-0.078086585 -0.032018583 0.05684816 -0.041353844 -0.025055759 -0.029749796 -0.13573878 0.23506963
-0.28430355 -0.27326614 0.20197071 -0.3201572 0.28389633 -0.089459725 0.10838019 -0.17837812
0.035118956 0.26561576 -0.28261378 0.23825847 0.009661225 -0.23270449 0.044248246 0.17019482
0.14870693 0.08956222 -0.07261673 -0.23369762 0.00094011787 0.22987764 0.27242872 0.24824008
-0.12177513 -0.11666901 -0.088061124 0.008560368 0.083837755 0.28048712 -0.19838083 -0.15853614
0.21578692 -0.07692528 0.27274224 -0.06810909 0.16540794 0.18643874 -0.14358322 0.06372095
-0.23098451 0.04814504 -0.14280228 0.043941956 0.056208197 -0.2553611 -0.293322 0.1612062
0.14739564 -0.10440994 0.19326119 0.028049909 0.05778744 0.27869084 0.09427539 0.04245547
0.09453206 0.14814678 -0.24035826 0.21071804 0.12595364 -0.12026535 -0.027201368 -0.0873254
-0.13679715 -0.049639005 0.07503701 0.29588947 -0.07553406 0.1472095 0.03777701 -0.03890893
-0.20059264 -0.13803023 0.1899054 0.27200797 -0.030816225 -0.14570336 0.016522065 -0.21226707
-0.05792531 0.051935527 0.15393786 0.22163318 0.16827987 -0.14154904 0.064796306 -0.10316153
0.21305628 0.06854537 -0.17229724 -0.035718773 0.17430228 -0.2551286 0.1564498 -0.2575706
-0.21982563 0.086129084 -0.10002038 0.016886892 0.17804654 0.26161987 -0.0052067637 -0.08544604
0.2220754 -0.014539771 -0.14598638 -0.03987603 -0.099630415 -0.18833877 -0.1674672 -0.041049216
-0.013435911 -0.071450226 0.21207947 0.118182406 0.31203687 0.13337263 0.023534857 0.31145793
-0.18048255 0.077241786 -0.30134767 -0.06807271 0.05201207 0.16026632 0.22204779 -0.22990365
-0.26613086 0.060944617 -0.29710132 0.26159737 0.0048804986 -0.042421825 0.016568383 -0.16495503
0.15677965 0.11162053 -0.18338852 -0.21736507 0.1798129 -0.14209673 -0.18503366 -0.15598494
-0.21622315 0.010423553 0.24529262 -0.12507834 -0.2909186

projection.layers.1.bias f4 [15]
00000000: 1dd2 a4bd 03da 53be b51f 783e 892c 68be
00000010: 210f 8dbe af06 ce3d b5c5 90bd 33c8 15be
00000020: 8d2d 54ba 5204 8e3e f961 2abe 4610 91be
00000030: f6ba e73d ccd0 01be 51ae 2a3d
-0.080478884 -0.20688634 0.24230845 -0.22673239 -0.27550605 0.100598685 -0.070689596 -0.14627151
-0.0008093946 0.2773767 -0.16638936 -0.28332728 0.11314957 -0.12677306 0.041670147

projection.layers.2.weight f4 [15, 15]
00000000: a962 2fbe a97f 043e 0702 42bd bebc 533e
00000010: 399a 50be 8676 663e fd11 5a3e 4939 2bbe
00000020: 0950 103e 78de 5c3e d181 07be 5cc7 b3bd
00000030: 9cd7 12bd 0a5c 393e e848 cb3d 2122 06be
00000040: d5a4 d23c 4c19 b53d 9a2d 7cbe 093b 233e
00000050: 45cb d6bd 7743 0ebe 696f 173e dc75 64be
00000060: ebb8 053e fa57 5b3e 29df 8fbd c8ee b33d
00000070: 6900 3f3e f5ce 03be a39e ec3d fbc7 0f3e
00000080: 2a38 3bbe f585 743e 4d61 553e 242e 633e
00000090: c1c8 62bc dd20 30be c29a 36bd 9e6d 2dbe
000000a0: 46bf 783e 9f29 463e c662 3fbd 1f4b 703e
000000b0: 279d 1bbe 1da8 5fbd cb7c 403e b688 5dbe
000000c0: a742 023d 0b3f c8bd 5df7 a23c 65fb 363d
000000d0: 6419 edbd cb0d 2abe d5df 7f3c 2e9d 5ebe
000000e0: 575f a6bd 8059 483e 12a0 383e c4d3 163d
000000f0: 48d5 c93d 52d9 363d 849d 48be 051c cbbc
00000100: 558b a9ba 3530 423e f61e 8bbd 5895 24bd
00000110: 74d9 d7bd a4cb d03d 555e 7b3e a8f2 093e
00000120: 3581 a4bd 89fb ebbd c155 093e 409f 2cbe
00000130: 0476 6a3e ef4b 91be 5e17 e9bd 2d7a e2bb
00000140: fe66 80be 53ca 23bc 64f4 6d3c df3b 7b3e
00000150: ca16 45be ab90 bcbc 0894 25be dcf7 f33b
00000160: 7473 4cbd e448 843d 0680 76bc c31f 42be
00000170: 0baa 1d3e 60a7 4a3e 2889 353e 05d4 aabd
00000180: 327e 3abe 893c 4cbe 540a cc3c 40e1 133e
00000190: 0bb9 a13b 2a1a 0839 7678 86be 210e 693e
000001a0: db57 b63d 11da 513e 4fa6 41be 0808 ebbc
000001b0: 9180 28be 8360 f53d 1fed b1bd d837 023e
000001c0: e6be 4bbd 0019 21bb b286 323e 851b eabd
000001d0: f1a7 2b3e 04da b8bd 1b42 423e 7e27 153e
000001e0: cd42 733e 5135 0b3e a345 88be 9377 cfbd
000001f0: 3aa5 493e f122 62be 318c 33bd c912 83be
00000200: 3a35 01bd 6511 ccbd 589b 33be 5ad2 70bd
00000210: 6701 153e d8b8 e3bd ec33 0abe c089 903e
00000220: a815 78be 163d e4bd d515 68bd f426 1d3e
00000230: 05c3 123d afc1 4f3e 3b1b 5f3e 2647 2fbe
00000240: 6332 953c 44a4 3b3e b811 b6bd 8ee0 893e
00000250: 3911 1dbe 169e 72be 1e8f 583e 0797 593e
00000260: 2558 1a3e 588d 0e3e b144 4ebd 853d 073d
00000270: 1ffc 533e b538 313e 6dae 1dbe cc93 723e
00000280: f932 89be 0981 78be 6757 cfbc 55e2 d7bd
00000290: 908e b9bc 4530 08be c5bb 0c3d b446 6cbd
000002a0: 8f6c 32bd da8c 463e 58af 67be fd1f b6bd
000002b0: d2ca 803d e340 75be 0f28 ec3d dc23 b2bc
000002c0: 679a 113e 557e 6f3e c55d 02be 48c7 0f3e
000002d0: e89a 1bbe 0e3f e6bc 785d 013e 7cab fbbd
000002e0: f93b babd ea87 7dbe 0f17 db3d 39aa 963d
000002f0: 6b29 46be fbee e73c 2e2e 40be 4556 0bbe
00000300: abb6 19bc f0b3 68be 5e2d 8bbb a11e a43d
00000310: c5c3 7b3e b323 8f3d abe1 d83c bb8e 22bc
00000320: 5396 713e 758b 823e f8f5 3abe 1021 44be
00000330: 285e 0a3e c851 573e 9d73 02be a639 5cbe
00000340: 9d56 47be b885 613e 8e42 1f3d 3a28 8bbe
00000350: b666 763e 9d4b 81bd 48d7 193d 41a1 0fbe
00000360: d488 84be 23a1 f03d 6459 27be 66ca dabd
00000370: 29c1 53be adf9 1d3e 9081 5f3e d69d a83d
00000380: 82aa 413e
-0.1712748 0.12939323 -0.047365215 0.20677468 -0.20371331 0.2250615 0.21295924 -0.16721071
0.14093031 0.2156924 -0.13233115 -0.08778259 -0.035850152 0.18101516 0.09926015 -0.13098957
0.025713364 0.088427156 -0.2462677 0.15940489 -0.10487989 -0.13892923 0.14788593 -0.22310585
0.13058822 0.21420279 -0.07024986 0.08785778 0.186525 -0.12871917 0.11553695 0.1404113
-0.18283144 0.23879226 0.20837899 0.2218557 -0.013841809 -0.17200036 -0.044581182 -0.16936347
0.24291715 0.19351815 -0.046725057 0.23466156 -0.15196668 -0.054603685 0.18797605 -0.21634182
0.031801846 -0.097776495 0.019893343 0.044673342 -0.115771085 -0.16606824 0.015617331 -0.21739647
-0.081236534 0.19565392 0.18029812 0.03682305 0.09855133 0.044640847 -0.19591337 -0.024793634
-0.0012935201 0.18963702 -0.06793015 -0.040181488 -0.10539523 0.10195091 0.24547704 0.13471472
-0.08032457 -0.11522586 0.13411619 -0.16857624 0.22896582 -0.28378245 -0.1138141 -0.006911537
-0.25078577 -0.009996968 0.014523599 0.24534558 -0.19246975 -0.023018202 -0.1616975 0.0074453186
-0.049914792 0.06459215 -0.015045172 -0.18957429 0.15396897 0.19790411 0.17728102 -0.08341221
-0.18212202 -0.19944967 0.024907269 0.14441395 0.004935389 0.00012979718 -0.2626378 0.22759296
0.08903476 0.20493342 -0.18911098 -0.028690353 -0.16455294 0.11981299 -0.086878054 0.12716615
-0.0497426 -0.0024581552 0.17434195 -0.1143103 0.16763283 -0.09025958 0.1897053 0.14565846
0.23755951 0.13594557 -0.2661563 -0.10130229 0.19691935 -0.22083642 -0.04383487 -0.2560027
-0.0315449 -0.09964255 -0.17539728 -0.058794357 0.14551316 -0.111192405 -0.13496369 0.28230095
-0.24227011 -0.11144464 -0.056661446 0.1534689 0.035830516 0.20288728 0.21787731 -0.17116985
0.018212503 0.18324381 -0.08890098 0.26929134 -0.15338601 -0.23693117 0.21148345 0.21249019
0.15072687 0.13921106 -0.050358478 0.033017654 0.20701645 0.17306788 -0.1539857 0.23689193
-0.26796702 -0.24267973 -0.025310231 -0.10541216 -0.022650987 -0.13299663 0.03435876 -0.057684615
-0.04356056 0.19389668 -0.22625482 -0.0889282 0.06288685 -0.23950534 0.11531078 -0.021745615
0.14219056 0.23388036 -0.12731083 0.14040864 -0.15195811 -0.028106239 0.12633312 -0.122885674
-0.0909347 -0.24758878 0.106977575 0.07356686 -0.19351737 0.028312197 -0.18767616 -0.13607128
-0.00938193 -0.2272489 -0.0042473515 0.080136545 0.24586399 0.06989231 0.026474794 -0.009921725
0.235925 0.25497022 -0.18257892 -0.19153237 0.1351248 0.21027291 -0.12739415 -0.21506366
-0.19466634 0.22023666 0.03888183 -0.27179128 0.24062619 -0.0631325 0.037558824 -0.14026357
-0.25885642 0.117494844 -0.16342694 -0.10683136 -0.20679154 0.15427275 0.21826768 0.0823323
0.189127

projection.layers.2.bias f4 [15]
00000000: b803 2abe d72d 80be 0335 4a3c 37f2 5a3d
00000010: e221 50be 4f0c c8bd 2cf2 80be f392 05bd
00000020: 612b e2bd 4349 03be 0707 6fbe 427f b3bd
00000030: 595d 553e 1371 acbd 4a72 b7bc
-0.16602981 -0.25034973 0.012341741 0.05345365 -0.20325425 -0.09767973 -0.25184762 -0.032610845
-0.1104343 -0.12820916 -0.23342524 -0.08764507 0.2083639 -0.08420005 -0.022393364

projection.layers.3.weight f4 [11, 4]
00000000: 7a74 81be b359 013e e664 b23e 77f1 4abe
00000010: 7a02 fc3e edcd bfbe a705 f63e 7f69 863c
00000020: 98b8 a93d 4552 4bbe d2f7 e23e 2a0b 9f3e
00000030: 24a0 b3bd 9473 0b3e 21f0 52be 7680 f13e
00000040: 4452 11be 0c2b b63e f55e 8c3e 975f 013f
00000050: 8d63 163e 8e6e a03e c9a4 f73e 6d42 b4be
00000060: f7fc bcbe 8f69 e63e 8397 9fbc a3b9 04be
00000070: ebdf 5ebe 5392 0abf 9368 903e 6305 153d
00000080: ce5b d7be a887 1e3e 2c87 d63e eec5 ac3e
00000090: 41e6 ecbe 6a04 6c3e 1b8d a4be 911d 033f
000000a0: 00ae fdbe 3a93 e1bc 34b0 96be 7a4a 72be
-0.25284177 0.12631874 0.34842604 -0.19818674 0.4922064 -0.37461796 0.48051187 0.016407726
0.082871616 -0.19855602 0.44329697 0.31063205 -0.08770779 0.13618308 -0.20599414 0.4716832
-0.14191538 0.35579717 0.27416196 0.50536484 0.14686413 0.31334347 0.4836791 -0.3520693
-0.36911747 0.4500241 -0.019481426 -0.1296144 -0.21765105 -0.54129523 0.28204784 0.03638209
-0.4206223 0.15481436 0.41900003 0.33744758 -0.4626942 0.23048559 -0.32138905 0.5121699
-0.49546814 -0.027536023 -0.29431307 -0.23661223

projection.layers.3.bias f4 [11]
00000000: 67e5 e93e 0ea2 f53e 51e0 b03e 694d 98be
00000010: a1bf 9abe bc40 b2bd 6033 5c3d e296 d8bd
00000020: be11 503e f140 f83e 62bb 003f
0.45682833 0.479752 0.3454614 -0.2974656 -0.30224326 -0.08703753 0.053759933 -0.105756536
0.20319268 0.48487046 0.50285923

projection.layers.4.weight f4 [15, 11]
00000000: a979 3f3d 141d 9b3d a988 13be b37e 843d
00000010: a671 7fbe aded 8cbe 4788 89be 8c9b 8fbe
00000020: c686 983e 9cd4 463e 5267 c8bd d147 9abd
00000030: 9d11 3d3d 0951 c6bd 5fd4 943e 05da a23d
00000040: 3ed3 783e 7e28 7e3e d1b2 87be 286e 43be
00000050: 03fa a6be 9ffe ecbd 633e a43d ae44 22be
00000060: 6b38 043e 1bf1 943e fe06 3cbe bdf1 95be
00000070: 0ddd 88be 9d6c acbd 7527 4bbe f5ec 5bbe
00000080: 6acc 013e 93c7 123e c405 7fbe 64b9 553c
00000090: 992d 95be faee 85be c5ae 9b3e c088 463d
000000a0: 062d 113e af4a 103e 2c3d 853d 3d96 3fbe
000000b0: 33c0 ec3d 74ab 3dbd 57a9 95be 49cf d0bd
000000c0: bb1d 10bd a598 83be f0af 953e 9b46 9b3e
000000d0: 3785 233e 3473 653e a6af 373e c341 0bbd
000000e0: a726 963e 0c61 fe3d 9ab0 15be 0309 7dbe
000000f0: d949 72be da53 12bd 879e b93d e74d 0cbc
00000100: de00 77bd f0f4 12be 1b80 0e3e 3392 7bbe
00000110: c3b7 f83b 17a5 8e3e 2297 91be db7f 163d
00000120: 6f2d 8fbd 6855 15be f6dc 7f3d c5d2 613e
00000130: 2a93 c53d 0bbc 043e 3ce0 303e 6968 87bd
00000140: 007e 083d cfa5 983e bcd3 0bbe a696 df3d
00000150: f52b 95be 0c1a bd3d 04bd 8c3d 83df e93d
00000160: 1dee b03d 216b 20be 2935 8b3e 2cec 6abe
00000170: 2b0d 313e 2872 b9bd 3311 6bbe 12c4 913e
00000180: 5450 dcbd a20d 873e 3145 a5be 6444 123d
00000190: 0bb3 febd a31f 61be 3e14 a53e c11a ecbc
000001a0: 0143 6b3e 3ce3 35bd 55b1 293e 464c 86be
000001b0: d66c 813e c9e0 d33d e636 8d3e 8c3b 7d3e
000001c0: 5c57 a83c 4101 84be 8ae7 973e fe67 04be
000001d0: a666 cebd 6c7a 833e 1773 843e f177 8d3e
000001e0: 03da c63d c5f0 91be 4057 4fbe edd5 913d
000001f0: 2b01 923e adb6 903e 4d88 38be 2b54 883d
00000200: e1ad f03b df10 7e3e 087e e3bd 379c 5cbe
00000210: b22d 0a3e 05ed 1a3e ef2e 263e c5a6 13bb
00000220: 125f 09be 1815 8f3e b71f c1bc 8fdc 813e
00000230: 7e11 4fbe 8477 8cbe 38ba 793e c497 86be
00000240: dbf2 ab3d f734 3bbe 18f9 82be f1a0 013d
00000250: 6409 533e bd27 3abe 2212 803d c49b 75be
00000260: 4d70 b73d 9efe d6bd 371f b03c e68a 6c3e
00000270: d614 e23d 792d f6bd 7519 ddbd 5c5f a3bd
00000280: 2bc2 9fbe 7de5 553e 561d babd 6c5f c6bd
00000290: 7180 13be
0.046746884 0.075739056 -0.144076 0.064694785 -0.24945697 -0.27525082 -0.26861784 -0.2804836
0.29790324 0.19417042 -0.09785332 -0.07533229 0.046159375 -0.09683425 0.29068276 0.0795174
0.24299332 0.24820134 -0.26503614 -0.1908499 -0.3261262 -0.115720026 0.08019712 -0.15846512
0.12912147 0.290902 -0.18362042 -0.29285994 -0.26731148 -0.08419154 -0.1983927 -0.2147711
0.12675634 0.14333944 -0.24904543 0.013044689 -0.2913635 -0.26158887 0.30406776 0.04847026
0.14177331 0.1409099 0.06505808 -0.18709655 0.115600966 -0.04630609 -0.2923076 -0.101957865
-0.035184603 -0.25702396 0.29235792 0.30327305 0.15968786 0.22407228 0.17938098 -0.033998262
0.29326364 0.12420854 -0.1461815 -0.24710469 -0.23660983 -0.0357245 0.0906344 -0.008563495
-0.06030356 -0.14351249 0.13916056 -0.2456749 0.0075902655 0.2786033 -0.28435618 0.036743026
-0.06991088 -0.14583361 0.062466584 0.22053058 0.0964721 0.12962358 0.17273039 -0.066117115
0.033323288 0.29814002 -0.13654989 0.10917406 -0.291351 0.09233484 0.06871989 0.114195846
0.086391665 -0.15665866 0.27188995 -0.22941655 0.1729018 -0.09054977 -0.2295578 0.28469902
-0.10757509 0.2637759 -0.3227935 0.035709754 -0.124364935 -0.21984725 0.32242006 -0.028821351
0.22974779 -0.04440616 0.16571553 -0.26230067 0.25278348 0.10345609 0.27580947 0.24729747
0.020549469 -0.25782207 0.29668838 -0.12930295 -0.100781724 0.25679338 0.25869057 0.2763057
0.09709551 -0.28504005 -0.20248127 0.07120881 0.28516516 0.2826437 -0.18020745 0.06656679
0.0073449467 0.24811123 -0.11108023 -0.21543966 0.13493994 0.15129478 0.16228841 -0.0022529822
-0.13415173 0.2794578 -0.023574693 0.25363585 -0.20221516 -0.27434933 0.24387443 -0.26287663
0.083959304 -0.18281923 -0.25580668 0.031647626 0.20609051 -0.18179221 0.062534586 -0.23985201
0.089569665 -0.10497783 0.02149926 0.2309986 0.110391304 -0.12020392 -0.10795871 -0.07977173
-0.31202826 0.20888324 -0.09087627 -0.09686169 -0.14404465

projection.layers.4.bias f4 [15]
00000000: 730c 0d3e e964 62be 5f9c 893e 8bdb 81be
00000010: 5d48 573e fdd9 78be 3fd2 ddbd f95b 71be
00000020: 5d36 923e 2e6b 673e fb10 643e 7b19 d73d
00000030: ba4e 5bbe 0d2c 5d3e 111b 35be
0.1377428 -0.22108807 0.26877114 -0.2536281 0.21023698 -0.24301906 -0.10831117 -0.23570241
0.285571 0.2259948 0.22272103 0.10502907 -0.2141675 0.21598835 -0.17686106

projection.layers.5.weight f4 [15, 15]
00000000: 3aef 283e 61ff e6bc e690 45be 33ed d33b
00000010: 92a7 053e d72f 55be 0dd1 f9bd 699d a8bd
00000020: 7914 023c bd02 973e 932e 8b3d 1dea 5e3e
00000030: 1111 61be 6b8b 76be 49b4 8e3d e8bf 163e
00000040: 47dd c6bc c568 393d 141a 82be fe46 0e3e
00000050: 36c6 d5bd 9b02 f1bd 2974 fd3d 9b5a 263e
00000060: 01e6 32bc bc26 17be a400 b43d 6ecb 6dbe
00000070: 712d d63d cd3e 3bbe 850b 683e 7b11 13be
00000080: 3293 7d3e 8b62 86bd 4cdf a13d 69f0 d13d
00000090: d968 1cbe 2692 583c b6dd 50be d989 0d3e
000000a0: 3334 b1bc 4531 7dbe fdc7 94be 828e 243e
000000b0: c035 e63b 65d5 67be 8dbb 42bd 144d 9fbd
000000c0: 763f dbbd b422 e9b6 c1bb 793d 42ae 88be
000000d0: a99b 5fbc f53d 353e 3245 03be 6cc2 16be
000000e0: c5e9 013e 61be 0f3e cfa8 113b 4307 1f3d
000000f0: c077 f5bc a712 c63d ed19 373e 509b f23d
00000100: 899f 803c 601e 5dbe 6aff e83d 7598 2dbe
00000110: e5c9 943c 8ad7 8c3c 28ed 7abe fd50 57be
00000120: 95dc f73d d261 483e 29ae 833e da00 4cbe
00000130: 343c 443c 3310 2f3e 9768 f6bd 3db2 4ebb
00000140: cc40 f9bd e465 a3bd e6d4 fcbc 6e88 d0bc
00000150: 20b6 adbd fc18 d23d a23d 233d 93ba 07be
00000160: 45dc 02be 1866 8abe e458 973d cce2 d2bc
00000170: 00e0 3e3c c07e 7e3e 7e8b cabd 92eb 82bd
00000180: 9b3c 4f3e 4582 333d 1828 813d 9b0a ed3c
00000190: 5260 b6bc 99fd 1abe 5c4a c33d 8abc c4bc
000001a0: 9c5e 123d 00cf 8e3d 10e9 16be 070a 103e
000001b0: 813d 5cbe b73f 7ebe 6770 ee3b cb7e 4cbd
000001c0: db30 56be 9e4d 903d 4cbf 403e 8f19 5ebd
000001d0: 8cdd 723e 74a8 85be 7bfc f03d 8631 68bd
000001e0: 7b50 123e 1ed9 073d 35a9 cb3d 2684 e63c
000001f0: fc9b 7abe a358 11bc af49 5dbe 1fb9 7cbe
00000200: 5d6a 123e 354e 1bbd 0d67 00be 9edb 533d
00000210: 5879 f83d 73b4 0e3d 05c9 3a3e e7bd 4dbe
00000220: b604 7b3d 22dc dbbd d2f5 4abe 685f ff3d
00000230: d9ba 303e 699b 693e 4d09 7cbc 1616 6e3e
00000240: 5358 81be d08e 7cbe c628 123e 842c 953e
00000250: 6329 e83d e24c fa3d bc61 fdbd dd34 293d
00000260: e02e 6ebe 55b4 ed3d e84c 75bc 1e9d 963e
00000270: 1361 8abe e501 44be 2cd6 eb3d 551f 563e
00000280: 45af 0b3c 0e0e 7c3e 7700 06be fba4 3cbe
00000290: 9ec8 263e 6b99 453e 32d7 a3bd 8a6a 7d3c
000002a0: bfa5 86be 3ab7 e43c a7de 1b3e 180f 0abd
000002b0: c456 0ebe 577e 183e 3258 983e f66f c03d
000002c0: 34b8 1fbd 91a1 4bbb 1c30 79bd e3e7 ccbc
000002d0: 96ae bfbd 404c 003e 8127 17be adee 533e
000002e0: 9ae0 833c 3b0c 7b3d c20b 98bd f7d3 d03d
000002f0: c28a 2dbe e5da 523c e2b8 56bd b304 c7bd
00000300: 190b 4d3d 3011 343e b5b3 acbd b4a6 81bd
00000310: cfda fcbd de80 05be 72de d13d 4098 613e
00000320: 4292 3e3d f668 123e 1db2 babd 82e4 973d
00000330: 1017 3ebe e57c bc3c d313 27be 3b91 923e
00000340: 2bcb 4b3e e2f3 933e 161f 2ebe bb71 913d
00000350: a457 873d 521c ac3c 9383 2e3d 4855 4b3e
00000360: d07d 273d e2c7 2a3d bd59 263e e343 f43d
00000370: c6a5 f03d a8bb 6bbe 9c60 a83d ce9f 813e
00000380: 40ab 663e
0.16497508 -0.028197946 -0.19293556 0.0064674853 0.13052204 -0.2081903 -0.121980764 -0.082331486
0.007939451 0.29494277 0.06795993 0.21768995 -0.21979167 -0.24076621 0.069679804 0.14721644
-0.024275435 0.04526593 -0.2541052 0.13894269 -0.10438196 -0.11768075 0.123756714 0.162455
-0.010919095 -0.1476087 0.08789185 -0.23222134 0.10457886 -0.18285675 0.22660644 -0.14362137
0.24763182 -0.06561764 0.079039186 0.10250933 -0.15274371 0.013218438 -0.20397076 0.13822116
-0.021631336 -0.24725826 -0.2905883 0.16069987 0.0070254505 -0.22639997 -0.047542144 -0.07778373
-0.107054636 -6.947981e-06 0.06097007 -0.26695448 -0.013647952 0.17699416 -0.12819365 -0.14722604
0.12686832 0.14037468 0.0022225862 0.038825285 -0.029964328 0.096715264 0.17880984 0.1184603
0.015701072 -0.21593618 0.11376841 -0.16952689 0.018162677 0.01719262 -0.2450453 -0.21026988
0.121026196 0.19568565 0.2571881 -0.199222 0.011977244 0.17096023 -0.12031668 -0.0031539344
-0.12170562 -0.079784185 -0.030863237 -0.02545568 -0.08482003 0.10258672 0.0398537 -0.13254766
-0.12779339 -0.27031016 0.073900014 -0.02574291 0.011650085 0.24853039 -0.09889887 -0.06392588
0.20237963 0.043825407 0.063064754 0.028935721 -0.022262726 -0.15135802 0.09535667 -0.024015684
0.035734758 0.06973076 -0.14737344 0.14066325 -0.21507837 -0.24828993 0.007276583 -0.049925607
-0.20917074 0.07046054 0.18822974 -0.054223593 0.23717326 -0.26105082 0.11766907 -0.056687854
0.14288513 0.033166043 0.09944383 0.028139185 -0.24473566 -0.00887123 -0.2161014 -0.24679993
0.14298387 -0.03791638 -0.12539311 0.051723115 0.121325195 0.03484006 0.18240745 -0.20091973
0.06128379 -0.107353464 -0.19820336 0.12469369 0.17258777 0.2281319 -0.015383077 0.23250613
-0.252627 -0.24663854 0.14273366 0.29135525 0.11336019 0.122216955 -0.12372157 0.04131018
-0.23260069 0.11606661 -0.014971949 0.29416746 -0.27027187 -0.19141348 0.115154594 0.2091039
0.008525674 0.24614736 -0.13086115 -0.1842231 0.16287467 0.19296806 -0.080000296 0.015467295
-0.2629833 0.0279194 0.15221654 -0.0337058 -0.13900286 0.14891945 0.29754788 0.09396355
-0.03899403 -0.0031071643 -0.060836896 -0.025012916 -0.093594715 0.12529087 -0.14761163 0.20696516
0.01609831 0.06129096 -0.074241176 0.10196679 -0.16947463 0.012869571 -0.05242241 -0.09717693
0.05005941 0.17584682 -0.08432714 -0.06330624 -0.12346422 -0.1303744 0.10247506 0.22030735
0.0465262 0.14297852 -0.09116004 0.07416631 -0.18563485 0.023008773 -0.16316156 0.28626427
0.19901721 0.28897005 -0.17004046 0.071017705 0.06608513 0.021009598 0.042605948 0.19856751
0.04089147 0.04169453 0.1624517 0.11927011 0.11750369 -0.23020804 0.08221552 0.25317234
0.22526264

projection.layers.5.bias f4 [15]
00000000: 9585 1c3e 00ca c53d 0c54 453e 8cea e3bc
00000010: 6f47 40be e7ec 64bd 61e8 a7bd 66a5 f3bd
00000020: c06f a33d b27e 6bbe 25c1 42bd 5197 193d
00000030: 6288 f73d a42c 653e 53ac febd
0.15285333 0.09657669 0.19270343 -0.027821802 -0.1877725 -0.05588999 -0.0819862 -0.118967816
0.07980299 -0.22997549 -0.04754748 0.037497822 0.1208656 0.2238031 -0.12435212

projection.layers.6.weight f4 [11, 4]
00000000: 9cbf 9b3e 75ec 1d3e 9fbb 12bd e33e 043f
00000010: c63c 08be f360 12be 9b6b d33d 611d e5bb
00000020: 6df6 93be aea5 ea3e 6b2c 133e 979d 4dbe
00000030: 686a b03e 02e6 92be d9b8 9f3c e0d6 12be
00000040: 1d2b d93d ccd5 57be dcdd a6be 904c cebe
00000050: 6afd 81bd bf12 9abe ef13 e7be 4d4f d13e
00000060: 8ade d73e b53c 773e 869f 5b3e f660 7f3e
00000070: 2f17 fc3e 4add e03c d979 c53e ce77 e73d
00000080: 3154 20be 992c 8ebe cd58 47bc 64ba 723e
00000090: 1729 e33e 68ea 89be e8fa f9be 8307 e83e
000000a0: a4cd a5be f3c5 ad3e d1ed 4a3e 8003 c53e
0.30419624 0.15422232 -0.03582346 0.5165846 -0.13304433 -0.14294796 0.103232585 -0.0069920276
-0.28898945 0.4582953 0.14372413 -0.20079647 0.34456182 -0.28691107 0.019497322 -0.14339781
0.10603926 -0.21077651 -0.3259114 -0.40292788 -0.06347163 -0.30092427 -0.45132396 0.40880814
0.4216197 0.24144252 0.21447572 0.24939331 0.49236438 0.027449269 0.38569525 0.11302148
-0.15657116 -0.277684 -0.012167168 0.23703915 0.44367287 -0.2693665 -0.4882424 0.4531823
-0.32383454 0.33940086 0.19817282 0.38479233

projection.layers.6.bias f4 [11]
00000000: 6484 873e ba96 9f3d 2344 d13d 2c83 263d
00000010: a4eb 62be da73 563e d4c6 a53e fee5 b1be
00000020: 8d0a ab3e 95b6 fb3e ea9c a23e
0.26468194 0.07792421 0.10218074 0.04065244 -0.22160202 0.20942631 0.32378256 -0.34745783
0.33406487 0.49162737 0.3176034

projection.layers.7.weight f4 [15, 11]
00000000: acb3 593e be2d f23d 4351 6abe 34fc 1ebe
00000010: 9b01 b5bc d700 efbc cb8b a93d 4304 633e
00000020: 762b 403c c10c 163e 261a 96be 0852 81be
00000030: 44c9 da3d 7676 87be f3db cdbd fd8f 61be
00000040: 663c 813d 2ace 78be 1a75 043e f7f3 233e
00000050: 1adf 383e 3536 7f3e 7a90 3e3d daa7 31bd
00000060: 33b0 76be 295f fc3b 4fa7 b1bd 8e47 33be
00000070: 1bd2 163d 54fc 123e d2c9 d83c 40d8 c83d
00000080: 152d 1abe 96ce e93d 196c 86be 7f96 59bd
00000090: 78b5 54bd c8ea 1f3d 4ecb 3d3e 5f12 9bbe
000000a0: cfd8 18be 48aa 9bbe 5037 9dbe 3cc7 62bc
000000b0: edb8 bf3c 2e4f 8bbe add1 853e bfa9 c43c
000000c0: 0985 853e a374 b23d 9d6e 9abe 2b8b 273d
000000d0: a4f8 023e 106b 25be 7e8d c13d b6fb 92be
000000e0: f6fa 4fbe fc15 703e 243d e93d 7fa6 673e
000000f0: bf55 63be a535 1dbe 068c 8a3e c2f6 203e
00000100: 8482 81be 450b 2fbe 56e7 9dbe e6ab 53be
00000110: 4bbf c93c 232a 90be 7031 2e3e e541 1ebe
00000120: 6910 6a3e 223d 433e a4a1 dd3d 21ef 09be
00000130: 16fc 98be 97d1 4a3e 9d64 1dbe e984 7ebc
00000140: 19f8 03be 9101 623e ab74 713d 7f22 16be
00000150: 99e5 ae3d fce9 87be a27c 8dbe 0828 5a3e
00000160: 9d83 8a3d 01c0 943e a932 e93d a9ed 0d3e
00000170: 0cd4 bb3d d601 613e 299a 31be 3745 07be
00000180: 986a 6e3e 4c89 aebd e2f6 3ebd 92e2 803e
00000190: a566 20be b6ca 923e 50b3 07be b316 33be
000001a0: 3b85 8c3e 9926 113e a3ab 7a3e 575f c5bd
000001b0: cac4 edbd 09c3 963e bdb5 7e3d 33b7 993e
000001c0: 89ff 73bd a8a2 7d3e 4808 8d3e 897c b6bd
000001d0: 29d6 043e 7adc 04be 6c8a 8e3c 2f93 ecbb
000001e0: 16c0 59be 3f7a 14be cc50 65bc 77c8 1bbd
000001f0: 01b0 883e 2651 2d3d 6030 513e ad8f f7bd
00000200: b729 b9bd bcb2 1fbe e900 89bd f905 6c3e
00000210: d13c 853e 1a95 943d a0a2 96be da0d 1f3d
00000220: a65a 53be 9fdb 7d3e c652 703e a7fc 353e
00000230: 01a7 c6bd 4a66 0cbe 0019 983e 050d 983e
00000240: 1628 613e 3564 963e bb48 50be 4061 19be
00000250: eb8b 83bd 174c 453c 1417 15be acff 3f3e
00000260: a8b4 75be 1c98 903e f545 293e 28dc 76bd
00000270: 7886 7bbd c1c4 37be 0233 93bd 1527 0ebe
00000280: 5d48 edbc a371 483e 3a10 e03c b708 143e
00000290: 8eef 93be
0.21259946 0.11825131 -0.22882561 -0.15525895 -0.022095492 -0.029175205 0.082786165 0.22169594
0.011729112 0.14653303 -0.29316825 -0.25257897 0.106829196 -0.26457566 -0.100517176 -0.22027583
0.06310348 -0.24297395 0.12935296 0.16011034 0.18053856 0.24923022 0.046524502 -0.043372966
-0.24090652 0.0077017737 -0.0867449 -0.17507765 0.036821466 0.14354068 0.026463423 0.098068714
-0.1505626 0.11416356 -0.26254347 -0.05312204 -0.051930875 0.039042264 0.18534586 -0.30287454
-0.14926456 -0.30403352 -0.30706263 -0.0138414465 0.02340361 -0.27208847 0.26136532 0.024006722
0.2607806 0.08713653 -0.30162516 0.040904205 0.12790161 -0.16154122 0.094508156 -0.28707665
-0.20310578 0.23445886 0.11388615 0.22622107 -0.22200678 -0.15352495 0.27059954 0.1571913
-0.25294888 -0.17094143 -0.30840558 -0.20671043 0.024627348 -0.28157148 0.17011046 -0.15454824
0.22857822 0.19066289 0.10821846 -0.13470127 -0.29879826 0.19806515 -0.15370412 -0.015534618
-0.1288761 0.2207091 0.058949154 -0.14661597 0.08539886 -0.26545703 -0.2763415 0.21304333
0.067633845 0.29052737 0.11386616 0.13860191 0.09171304 0.21973357 -0.17343964 -0.13209997
0.2328285 -0.08522281 -0.046622165 0.2517286 -0.15664156 0.2867028 -0.13251996 -0.17489128
0.27445397 0.1417488 0.24479537 -0.09637325 -0.116098 0.29445675 0.062185038 0.30022582
-0.05956987 0.2476908 0.2754538 -0.08910472 0.1297232 -0.1297473 0.017399989 -0.007219694
-0.21264681 -0.14499758 -0.013996314 -0.038032975 0.2669678 0.042313717 0.2042861 -0.12087951
-0.090411596 -0.15595526 -0.06689627 0.23049153 0.26022962 0.07255001 -0.29420948 0.03883157
-0.20640048 0.2479081 0.23469076 0.1777216 -0.09699822 -0.13710895 0.29706573 0.29697433
0.21987948 0.29373327 -0.20340244 -0.14978504 -0.064231716 0.012042067 -0.14559585 0.18749875
-0.23994696 0.2824105 0.16530593 -0.06026855 -0.061407536 -0.1794615 -0.07187463 -0.13882096
-0.02896517 0.19574599 0.027351487 0.1445645 -0.28893703

projection.layers.7.bias f4 [15]
00000000: 4d90 133e 446b 37be 600e cd3d 27e8 18be
00000010: 40ff 0c3d 207e 513e 3132 45be 0bda 993e
00000020: 6b5a f43c d710 fe3c 4a3e 993e 4a25 1dbe
00000030: 1a45 443e 8006 f9bd c6a9 643e
0.14410515 -0.17912012 0.100125074 -0.14932309 0.034423113 0.20458269 -0.19257428 0.30049166
0.02982827 0.03101389 0.29930335 -0.15346256 0.19166985 -0.12159443 0.22330388

projection.layers.8.weight f4 [15, 15]
00000000: c5eb 82bd 11a4 2fbe 3fa4 46be 06b6 843e
00000010: 87af 04be 7ee6 59be a1b7 6dbd 73b2 b5bd
00000020: e82f 59bd 8d8f 6f3e e069 01be d89c 1d3d
00000030: 6464 0bbd d9f9 083b 88fe c33d b952 7f3e
00000040: 15db bc3d 362f 80be d84b 1bbe d5bc bfbc
00000050: bb1f 70be e0e2 88be 2e52 7d3e cba4 45bd
00000060: 47b0 743e 66cf 6cbc 58d8 6f3e b577 31be
00000070: 2040 71bd d83d 113d e73d 133e 6f4f 0c3e
00000080: 036e 79be c00c 9bbc d332 52be 0091 80be
00000090: 5f92 073e 5e38 1dbe 757a 103e 7ea0 45be
000000a0: d430 4abe 3d4a 1cbd aea7 bdbd 9c49 6cbe
000000b0: a502 373e debb cabd f096 073e ae7b 883e
000000c0: 54e7 94bd b4c1 2bbe 9ad6 f33d f05e 54be
000000d0: d1bb 3c3c 7ea4 9b3d 17d8 72be 8485 413d
000000e0: 1070 0dbe c7ed 2c3d 429d de3d 9c55 993c
000000f0: 8347 82bd 6f0f 05be 77e8 41be a1f5 0a3e
00000100: 1e05 3b3e 0544 65be 7b66 563e c295 3a3c
00000110: 9683 75bd c5e0 6d3e f8fe c83d e3f9 5f3e
00000120: af98 61be 32d5 373e 49c0 9a3d f5d6 52be
00000130: 6606 ceb9 0d66 e23d 9e27 4abd 1838 c6bd
00000140: 07e1 793d 3171 813e a62d 24be 3847 863d
00000150: 1b87 05be f75a 7a3e 0d08 033d 4a47 243e
00000160: 97ea ce3d f7e0 8b3d efed 403e eee9 3a3e
00000170: e72a e6bd 7b46 753d 68d9 5abe 9525 7d3e
00000180: 4c98 b2bd adf6 d23d 3994 663e 93aa 0dbe
00000190: 586a 2abd 5886 06be 85bb e2bd b2d2 14be
000001a0: 1e55 873d f4be 98bd 1cfb 9ebd 1984 4e3c
000001b0: 04b3 1cbe 4331 513e 5fa7 453e ee5d 233e
000001c0: c46f 533d 45a4 f63d 4dc3 203e 39c2 50be
000001d0: a66b 13be b4ad 20be 9ede 78be 2fa6 62be
000001e0: 4276 6ebe e4c4 5c3e 0612 80be ac5e 7bbe
000001f0: f678 3abe fa3f d73d cdce 593d 1eb9 0dbe
00000200: dba5 593d 0819 883e f09f 2fbe dd1e 4cbe
00000210: e183 523e e8f9 b13c 0f35 f93c 1898 99bd
00000220: dbc1 12be 87ef c6bd 3996 81be 9ef5 61bd
00000230: 15b0 84bd cf7a 0b3e fc7b 3b3e df70 21be
00000240: 9319 a23d d2b6 c23d 0e8a 003e 1e4e 62be
00000250: 75e2 a63c 099c ddbd 070c 593e 3dd1 363e
00000260: 6567 b7bc 5e3c 1abe 5181 68be 4748 2dbd
00000270: 91af 78be f364 dbbd 3c68 a2bd 8ed1 f83d
00000280: 9b9c ff3a c801 23be 7cb2 293e 9295 043e
00000290: 3bd1 733e c594 633e 6257 753e 69dd 34be
000002a0: 00ef a33d 4c2d 573e ebf7 5abe 843b 7b3e
000002b0: 8059 5bbe 5cb4 37be 9fbd 7c3d f21c 133d
000002c0: bcb6 1a3e 6ba3 9d3d 671e 7dbd 1350 663e
000002d0: 985a 733e 5eaf 0dbe 699e 4fbd e37c 833e
000002e0: 1d20 403e 1e13 803d fa12 833d b701 433e
000002f0: 6cac 5b3e c248 efbd b83e 6a3e ecc2 0bbe
00000300: f106 cfbd c133 6fbe 6df3 fc3d a2a7 5f3c
00000310: c8f5 513e ed95 093e 0e10 11bd 3815 cebc
00000320: 9c75 61be 1810 3d3e 80a6 e3bd 1f29 7f3e
00000330: 726f 463c e6b2 783b 8691 58bd 2fd8 663c
00000340: f7cf 5d3e 3f94 653e 997f 0e3d e8d7 9c3d
00000350: 7f09 363e 631f 77be e64c 35be bd00 71bc
00000360: 0e4f c5bd 5f50 a13d 4484 5e3c b0fe 53be
00000370: 3845 243e 24f0 3c3e f4f8 1fbc 5ec3 743e
00000380: 77b3 293d
-0.06392626 -0.1715243 -0.19398592 0.25920123 -0.12957583 -0.21279332 -0.05803645 -0.08871927
-0.053024203 0.23394604 -0.12638044 0.038479656 -0.034031287 0.0020900874 0.09570032 0.249339
0.09221474 -0.2503602 -0.15165651 -0.023405472 -0.23449604 -0.26735592 0.2473838 -0.048252862
0.2389537 -0.0144537445 0.23422372 -0.17330821 -0.058899045 0.03545937 0.14379083 0.13702177
-0.24358372 -0.018926978 -0.205272 -0.25110626 0.1323943 -0.15353534 0.14109214 -0.19299504
-0.19745189 -0.038156737 -0.09260498 -0.23074955 0.17872103 -0.09899114 0.13241172 0.2665686
-0.07270685 -0.1677311 0.119061664 -0.20739341 0.011519388 0.07599734 -0.23715244 0.04724647
-0.1381228 0.04221895 0.10869838 0.01871758 -0.06361296 -0.12994169 -0.18936335 0.13570262
0.18263671 -0.22389229 0.2093753 0.011388244 -0.059939943 0.23230274 0.098142564 0.21872668
-0.220309 0.17952421 0.07556207 -0.20589812 -0.0003929615 0.11054621 -0.04935419 -0.09678668
0.06100562 0.2528167 -0.16033038 0.06556553 -0.1303982 0.24448763 0.0319901 0.1604282
0.10103338 0.06830018 0.18840764 0.182533 -0.11238652 0.05988167 -0.21371996 0.24721368
-0.087204546 0.10300956 0.2251748 -0.138346 -0.041605324 -0.13137186 -0.11070923 -0.14533499
0.06608032 -0.074582964 -0.07762739 0.012604737 -0.15302664 0.20428948 0.19302128 0.159538
0.05162026 0.12043051 0.15699501 -0.2038659 -0.14396533 -0.15691262 -0.24303672 -0.22133707
-0.232873 0.21559483 -0.2501375 -0.24547833 -0.18210205 0.105102494 0.053175736 -0.13840148
0.053136688 0.26581597 -0.17150855 -0.19933648 0.2055812 0.02172561 0.030420808 -0.07499713
-0.14331762 -0.09713655 -0.25309923 -0.05516588 -0.064788975 0.13621067 0.18309015 -0.15765713
0.07915034 0.095075265 0.12552664 -0.22100112 0.020371655 -0.10820777 0.21195994 0.17853256
-0.02238817 -0.15062091 -0.2270558 -0.042305257 -0.24285723 -0.10712614 -0.079300374 0.121493444
0.0019501628 -0.15918648 0.16571993 0.12947682 0.23810284 0.2222472 0.23959115 -0.17662586
0.0800457 0.21013373 -0.21383636 0.24534422 -0.2142086 -0.17939895 0.061704274 0.035916276
0.1510877 0.07697185 -0.061796572 0.22491483 0.23765028 -0.13836429 -0.05068818 0.25681219
0.1876225 0.06253646 0.06400104 0.19043623 0.21452492 -0.11683799 0.22875488 -0.13648576
-0.10108746 -0.23359586 0.12351117 0.013650807 0.20503914 0.13436098 -0.0354157 -0.025156602
-0.2201752 0.1846317 -0.11115742 0.2491803 0.012111532 0.0037948429 -0.052873157 0.014089628
0.21661364 0.22419833 0.034789655 0.07658368 0.1777706 -0.24133067 -0.17705116 -0.014709649
-0.09634219 0.07876658 0.013581339 -0.20702624 0.1604203 0.18450981 -0.009763945 0.23902652
0.041430917

projection.layers.8.bias f4 [15]
00000000: 636e 07be 072a 3fbd 53f6 2cbe 20db 7d3e
00000010: 13e3 673e 018c a93c c064 a1bd 308d 5dbe
00000020: 3419 463e 973e 0bbe f7e9 3abe 1c17 503b
00000030: ec19 873d 1417 473e b317 c1bc
-0.13225703 -0.04667094 -0.1689084 0.24790621 0.22645216 0.020696642 -0.07880545 -0.2163589
0.19345552 -0.13598095 -0.18253313 0.0031752056 0.06596741 0.19442397 -0.023570871

projection.layers.9.weight f4 [11, 4]
00000000: 7ca0 c53e 7f4f ac3d bbb8 dabe 18b4 bb3d
00000010: d351 e33e a1c8 cebe 27cc 8d3e 4375 8e3e
00000020: 4142 77bc 739c a13e 85f7 e13e 9f1a a63e
00000030: 60bd 00bf a61c f6be 2d0a 1a3e aa8a d63d
00000040: 9304 21bd aad6 b5be f5ee 9ebe 6e69 27bd
00000050: e2bd bf3e c081 27be 36df 29be c02b 03bf
00000060: 63b7 a0be 4f8c afbe 0130 8b3e b686 23be
00000070: e496 c53e 6e90 4fbe fdfc c6be c42c ecbd
00000080: 00fe 73be a12b 4b3d 2926 acbe 57ac 00bf
00000090: 355b 183e 8650 73be 5e0c 993d 4fff a9bd
000000a0: 368c 2abd 5dd3 52be b1af b6be 8cd4 793e
0.38599002 0.084136 -0.42719063 0.091652095 0.44398364 -0.40387443 0.27694818 0.2782384
-0.01509148 0.31564674 0.44134155 0.32442185 -0.50288963 -0.48068732 0.15042944 0.10475667
-0.039311003 -0.35515338 -0.31041685 -0.04087203 0.37449557 -0.1635809 -0.16589054 -0.5123863
-0.31389913 -0.34286734 0.27185062 -0.15969357 0.38591683 -0.2026994 -0.3886489 -0.11531976
-0.23827362 0.049602155 -0.33622864 -0.5026297 0.14878543 -0.23761186 0.07473062 -0.083006494
-0.04163762 -0.20588441 -0.35680917 0.24397486

projection.layers.9.bias f4 [11]
00000000: c9eb 343e 7d30 c7be 1698 ac3d 4652 e9be
00000010: 62d5 863e b3d2 8e3e 0bed c13d e477 4cbe
00000020: e8fd 263e cb22 d53e 621e 3ebd
0.1766807 -0.3890418 0.084274456 -0.45570582 0.26334673 0.27895126 0.094690405 -0.1996761
0.16307795 0.41628107 -0.046415694

projection.layers.10.weight f4 [15, 11]
00000000: 20dd 973e 0e9f 10be db09 2c3e e13b 9ebb
00000010: e401 123d 65f1 0e3e db94 fbbd 7197 833e
00000020: 42d9 06be b55b 29be 15f7 79be 88a2 153e
00000030: 4b63 df3c 83a7 993a b126 103e ee80 033c
00000040: 90f0 8c3e 05e0 4f3d c8d8 9c3e 49d6 4dbd
00000050: 0077 1c3e 1e53 5ebe ee4e a13d 41a4 713d
00000060: 75fb 8ebe 0cf0 58be abb7 843e d431 b4bd
00000070: 9ecd 1abe baa4 553e 1466 4dbe 22af 82be
00000080: 87a2 74bd c4ce 3dbe 9226 833e 5239 433e
00000090: b7ac a5bd 93d1 703c 7910 22be 6d38 05bd
000000a0: 569d 773e 3d1f 823d 077a 943e 8ae8 80bc
000000b0: 0fa1 943e 8758 3b3e b0de b7bd b247 303e
000000c0: 064f 393d f41f 14be 0d0f 943d 4f9d 87be
000000d0: 2cc6 8f3d b12e f5bd 4bd0 453e a684 5ebd
000000e0: 84d3 11bd b107 5b3e 5c92 723e acb7 41be
000000f0: 88aa d5bd 312a f43d 25bf 7d3e fc86 6bbd
00000100: 69cb 7cbd 8043 edbd 67e5 693e 8f5d 1c3d
00000110: 7c7b 99be 635a 813e 53ef ebbd 9dbb f9bd
00000120: 2489 433e 772d 543e 60b4 4d3e 2dc5 84be
00000130: 320a 1b3e b909 97be a08f 7d3e c653 8b3d
00000140: 4d92 24be 6fee 3bbe 1c10 493e b212 e23d
00000150: 6978 bf3d 5160 fdbd a861 013e e092 2d3e
00000160: d9ac 03be cd57 dd3d 0b72 6e3e 9f6a 9bbd
00000170: eb64 f03d caf1 5bbe ec62 4c3e 4433 dabd
00000180: f6a8 2cbe c28a 77be 2985 793d da1e 193d
00000190: 2681 0b3e f123 733e 9ec0 0cbe 0a95 cfbd
000001a0: a331 393c 623f a43e 6e10 5f3e 4cbb 183e
000001b0: fb36 b13d 8a79 1c3d dd9f 753e 624a e2bd
000001c0: cc76 a2bc 0579 6d3e 03bf 8dbe 217c ed3b
000001d0: eb4e 16be a6fa 88be a70b e6bd 6259 163d
000001e0: 5808 57be 69b0 fcbd b936 893e b906 e43d
000001f0: 5885 67bd b515 bebd ef4f ab3d 0711 75bd
00000200: 59ab 91be ead6 0bbe be65 93bd 5373 1c3e
00000210: 4247 04bc 7ab4 8cbe ad89 33be 5cb5 62be
00000220: 3358 b43d c179 5d3e 8bbe f53d 9a8a 80be
00000230: bfe9 07be 5f05 a13c 5618 1c3e 6730 a13e
00000240: 46b3 58be b6c9 8cbd 3513 8dbe aff2 5a3d
00000250: 5187 1f3e 36af 91be e330 6a3e a701 a13d
00000260: 6ef4 8bbe 5417 023d 363c 91be 1df8 3e3e
00000270: cf9a 893d 6bda 6cbe 8758 463e 645c 09bd
00000280: e561 d53d c543 babd 20cd 18be d6d9 293e
00000290: 1e2d 7bbd
0.29660892 -0.14123175 0.16800635 -0.0048289155 0.035646334 0.13959272 -0.12284251 0.25701478
-0.13168815 -0.1653889 -0.2441066 0.14612782 0.027269026 0.0011722896 0.1407726 0.008026345
0.27527285 0.05075075 0.3063414 -0.050253186 0.1527977 -0.21711394 0.07876383 0.058994535
-0.2792622 -0.2118532 0.25921378 -0.087985665 -0.15117499 0.2086362 -0.20058471 -0.2552424
-0.05972531 -0.18535906 0.25615364 0.19064835 -0.08089583 0.014698404 -0.15826596 -0.032524515
0.24181113 0.063536145 0.2899935 -0.015735883 0.29029128 0.18295489 -0.08978021 0.1721485
0.04524138 -0.14465314 0.07229433 -0.26487204 0.0702022 -0.11971796 0.19317739 -0.054325722
-0.035602108 0.21389653 0.23688644 -0.18917722 -0.10432917 0.1192211 0.24779947 -0.057501778
-0.061717425 -0.1158514 0.22841416 0.038175162 -0.29977024 0.25264272 -0.11520257 -0.121939875
0.19095284 0.20720468 0.20088339 -0.25931683 0.15140608 -0.29499605 0.2476182 0.06803088
-0.16071434 -0.18352674 0.19635051 0.11038722 0.09349138 -0.123718865 0.12634909 0.1695056
-0.12858905 0.10807762 0.23285691 -0.07588696 0.117379986 -0.21478954 0.1995961 -0.106543094
-0.16861328 -0.24174026 0.060918007 0.037382938 0.13623485 0.2374418 -0.13745353 -0.10135849
0.011303338 0.32079607 0.21783611 0.14915198 0.08653065 0.038201846 0.23986764 -0.11049344
-0.019832037 0.23190697 -0.27684793 0.0072474633 -0.14678542 -0.2675373 -0.11232691 0.036706336
-0.20999277 -0.12338335 0.26799563 0.11134095 -0.05652365 -0.09281484 0.083648555 -0.05983069
-0.2845104 -0.13656202 -0.0719714 0.15278368 -0.00807363 -0.27481443 -0.17532988 -0.22139496
0.08805885 0.21628477 0.11999234 -0.25105745 -0.13272761 0.019655881 0.15243658 0.3148224
-0.21162137 -0.06874411 -0.27553716 0.053454097 0.15578963 -0.28453988 0.22870211 0.07861643
-0.27334923 0.03176053 -0.2836625 0.18649335 0.067189805 -0.23130195 0.19369708 -0.033535376
0.104190625 -0.09094957 -0.14921999 0.16587004 -0.061322324

projection.layers.10.bias f4 [15]
00000000: a15e 7e3e a92a 823e 087b 103e 8c43 853e
00000010: b3d7 6e3e 1bd6 c9bc 5b1b 13be a158 253c
00000020: 76c3 f13c f0ac e7bd eec6 6f3e bb73 7dbe
00000030: 40b8 233e 59de 533d c42d 8e3e
0.24840786 0.25423172 0.14109433 0.26028097 0.2332447 -0.024638226 -0.14365904 0.010091932
0.029512148 -0.11312282 0.2341573 -0.24751179 0.15988255 0.05172572 0.2776929

projection.layers.11.weight f4 [15, 15]
00000000: 9609 3e3d b4ba 80be 65f1 8e3e 0dec 283d
00000010: bd56 3f3e db00 af3d 164b 18be b685 07be
00000020: 6447 453d e16b 1dbe 027b 1fbe 6cac 063e
00000030: ea44 a63c af3d 32bc 7dd3 0dbe 2374 3a3e
00000040: 1458 2b3e 88b6 43bd 34c4 903d b622 383e
00000050: c7cd 3cbd 9224 343e 0d03 f13d e881 aabc
00000060: 829e e53d b75b dabc c106 8bbe 0bfa 46be
00000070: 16c1 993d b36b 823e 4cf3 273e 159f 183e
00000080: 4996 863d 4745 313e e20c 75be 7bf4 fbbd
00000090: 039e 41be d385 ebbd aa2d 3a3e da12 3abe
000000a0: 6090 52be 71e6 343e 7f72 753d f7ae 96be
000000b0: e69e 12be 750c 82be fafb b33d 1932 06be
000000c0: 574d 14be e847 81be 4801 24be ba92 3bbe
000000d0: 3e0f 863e 8f03 19be 51b7 0e3d 53d6 ccbd
000000e0: 4ef3 663e da92 73be ecd9 27bd b3fa 663e
000000f0: 0d33 09bd d508 513e cadc d1bd 3c23 243d
00000100: 3fd9 24bd f25e 31be c77c 283c a2f7 393e
00000110: 1f12 883d 49fb 823e 103a 58bd 6875 a03c
00000120: 4d1a 03bc ae3f 5f3d 6973 363c 6eaa 1c3d
00000130: e929 9dbd 19bf 12be dcda a93d 903f 4abe
00000140: ebf2 f5bd 1d58 1f3e ced9 3b3d 1e2d 4abe
00000150: 7ea2 1d3e 4f5f d73d 1a0b 6b3d f29f 183e
00000160: 6fc9 66be 2a65 0b3e e57f 823e 9aa7 853e
00000170: 431e 763d 4dd7 3b3e 4ced c4bd e17e 84bd
00000180: 5005 bf3d c78d 1abd 3a4f 92bd 2934 f63d
00000190: ae7d 6ebd a1df f2bb d159 f43d 69be f33d
000001a0: b77b 57be 2c11 293e c94c 7cbe bd70 86bb
000001b0: 4dc5 3e3e 0d2e fd3a 6f8a 55be 80b2 0bbe
000001c0: c641 093e 7a76 e8ba c95a 03be 034b 01be
000001d0: ef3c fbbc 3912 6d3e db14 053e 1a4a 5fbe
000001e0: 5aa1 1dbe 7172 743e df96 fa3d 2247 063e
000001f0: 8011 69be dadb a83d e9ee 0bbe 16e0 483e
00000200: 4671 32be 9272 303b 56cc 67bc f7f7 313e
00000210: b7a0 273e 4891 2e3e ef48 1bbe c12b 4c3e
00000220: 4526 313e a400 e5bd b438 0d3e b071 28be
00000230: 8766 2d3e db84 23be 4bb2 53bd 3bd5 4bbd
00000240: 914f c43c bd46 703e 343c f5bd 1e37 64be
00000250: c5c9 8abd 9b43 eb3d efe5 023e 53b2 54bd
00000260: aebc bc3d 93a7 303e 7b9a 633e 8a09 b3bd
00000270: 7b69 11be 25c2 983d 4dd8 1ebe 7aa4 0cbe
00000280: c74a 5c3e 02d6 6c3e 3687 6f3e 2539 663d
00000290: 59d8 b3bd 4671 66bd 75f4 253e 5017 873e
000002a0: bb89 333e 78f5 bbbd 299a 80be 4e27 163e
000002b0: df32 35bd 09c3 15be c413 3abe 0c59 1dbe
000002c0: 568c 4b3e 2943 e7bd ae19 803e 68b9 0abe
000002d0: 3b65 7ebd f9e5 ff3d ea5a 733d b946 afbd
000002e0: 12cd 7b3e a563 3a3e 7b69 b73d 4651 213d
000002f0: a817 e03d a09c 413e 3582 2abe 8adf 5abe
00000300: 3e86 aabd b7f2 f7bd cb17 74be 48f3 0abd
00000310: 502e 2ebe 36f9 4bbe 1280 13be df72 763e
00000320: 771a 773d 300a ea3d fd4a 743e 080a 02bd
00000330: c416 ac3d 980b afbd 8436 cdbd e367 3f3e
00000340: 28dc 0b3c 2598 5fbe b2e9 4b3b 1f24 f73b
00000350: b5f4 1ebe 5bbd 43be 7304 a1bc b9f2 d2bc
00000360: c442 873e bf87 3ebe 3a77 06bc cede 4ebe
00000370: bbcc b43d a631 a13c 0e6e 0f3c 5577 84be
00000380: bde3 7a3e
0.04639586 -0.25142443 0.27918544 0.04124074 0.18685432 0.08545085 -0.14872393 -0.132346
0.048163787 -0.15373184 -0.15574268 0.13151711 0.020296533 -0.010878964 -0.13850208 0.18208365
0.16732818 -0.047781497 0.07068673 0.17981991 -0.046094682 0.17592075 0.1176816 -0.020813897
0.112118736 -0.026655061 -0.2715359 -0.19431321 0.07507531 0.25472793 0.16401404 0.14904435
0.06571633 0.17311583 -0.23930696 -0.1230249 -0.18907933 -0.11500134 0.18181482 -0.18171254
-0.20562887 0.17666031 0.059923645 -0.29430363 -0.14318427 -0.2540013 0.08788295 -0.13105048
-0.14482628 -0.25250173 -0.16016114 -0.1831769 0.26183504 -0.14942764 0.034842793 -0.100018166
0.22553751 -0.23786488 -0.04097931 0.22556572 -0.03349595 0.20413525 -0.1024719 0.040072665
-0.040246245 -0.17321375 0.0102836555 0.1816087 0.06644081 0.2558234 -0.052789748 0.019587234
-0.008001876 0.05450409 0.011135914 0.038248472 -0.07674009 -0.1433071 0.08293697 -0.1975081
-0.120092236 0.15560956 0.04586201 -0.19743773 0.15394017 0.105162255 0.057383634 0.14904764
-0.22537778 0.1361281 0.254882 0.26104432 0.060087454 0.1834385 -0.09615573 -0.06469513
0.09327185 -0.037732866 -0.071440175 0.120216675 -0.058225326 -0.0074119125 0.119311936 0.11901552
-0.21043287 0.16510457 -0.24638666 -0.004102795 0.18629952 0.0019316092 -0.2085359 -0.13642311
0.13403997 -0.0017735504 -0.128276 -0.12626271 -0.030668704 0.23151483 0.12996237 -0.21805611
-0.15393582 0.23871781 0.122358076 0.13113073 -0.22760582 0.08245058 -0.13665356 0.19616732
-0.17426023 0.0026923758 -0.014147839 0.17379747 0.16369902 0.17047608 -0.1516454 0.19938566
0.17299755 -0.11181763 0.13791162 -0.16449618 0.16933642 -0.15968649 -0.051683705 -0.0497639
0.023963721 0.23464485 -0.119743735 -0.2228665 -0.06776766 0.11487504 0.12783025 -0.051927876
0.09215675 0.17251424 0.22226898 -0.08742054 -0.14200394 0.07458905 -0.155122 -0.13734618
0.215129 0.23128513 0.23391423 0.05620684 -0.087814994 -0.05626037 0.16206534 0.26384974
0.17533009 -0.09177679 -0.25117615 0.14663431 -0.044237968 -0.14625181 -0.18171602 -0.15366
0.19877753 -0.11292107 0.25019592 -0.1354729 -0.06210826 0.12495036 0.059412874 -0.08558411
0.24589947 0.18202074 0.08955666 0.03938415 0.10942012 0.18907404 -0.16651233 -0.21374336
-0.08326386 -0.12106841 -0.23837201 -0.033923417 -0.17009854 -0.19919285 -0.14404324 0.24067257
0.060327973 0.11427724 0.23856731 -0.031747848 0.0840278 -0.08547133 -0.10020164 0.18691973
0.008536376 -0.21835382 0.0031114635 0.0075421478 -0.15523036 -0.19115202 -0.019655442 -0.025750505
0.26418126 -0.1860647 -0.008207137 -0.2020218 0.08828112 0.019676995 0.008754266 -0.25872293
0.24500938

projection.layers.11.bias f4 [15]
00000000: 0977 2e3e 7e25 6f3e 7a74 cabd 1e96 8f3d
00000010: 1b5b 3f3e e0aa 4abe 2afc 21be 608b 69be
00000020: 0907 643e 846c 253e 3c32 85be 8028 763e
00000030: 0081 f7bd 3a03 edbd f2ae a63c
0.17037596 0.23354146 -0.098854974 0.070110545 0.18687098 -0.19791746 -0.15818849 -0.22807074
0.22268309 0.16154677 -0.26014888 0.24038887 -0.12085152 -0.11572881 0.020347092

projection.layers.12.weight f4 [11, 4]
00000000: ed27 c53e 5764 05bd b009 bcbe 8340 bfbe
00000010: 033e e3be f445 b63e 4337 c93d f430 9f3e
00000020: 1698 8a3e 3e0a dc3d 19b5 fabe d061 e3bd
00000030: 958e 21bd 974d ccbe 0bf3 053d 16cb 403e
00000040: a083 9f3d ba7e 6abe b2df 713d d048 0c3e
00000050: 1036 8c3e 1b03 92be f50a 26be 469a 183d
00000060: 6f14 fabe df65 d2be f1ba f43e a9ce a7be
00000070: 0f1a e3be 81a1 f6be 0db0 cc3e 5965 f1bd
00000080: f26a f6bc 2394 0cbe bb25 ccbe e6bc 4fbe
00000090: c8bc 15be e7e9 cd3e 6ccf 983e 3b0d e83e
000000a0: d278 fabe 12f2 84be a42e 47be ecc2 83be
0.38507023 -0.032566395 -0.3672614 -0.37353906 -0.4438325 0.35600245 0.098249935 0.31092036
0.27069157 0.10744141 -0.48966292 -0.11102641 -0.039442617 -0.39902946 0.032702487 0.18827471
0.07788777 -0.22899905 0.059051223 0.13699651 0.27384996 -0.28517994 -0.16215117 0.0372565
-0.48843715 -0.41093346 0.47798875 -0.32774857 -0.4435582 -0.48170093 0.39978066 -0.11786909
-0.030080292 -0.13728385 -0.39872536 -0.20286903 -0.14622796 0.40217516 0.2984575 0.45322594
-0.48920304 -0.25965935 -0.19451386 -0.2573465

projection.layers.12.bias f4 [11]
00000000: 18d9 e9bd f8ff 86bd 5995 553d 2881 403e
00000010: 2516 093d f921 f5be 9b83 aebd 2f0f e3be
00000020: a960 cfbe 9671 b73e 83e6 3c3c
-0.114183605 -0.06591791 0.052144382 0.18799269 0.033468384 -0.47877482 -0.085211955 -0.44347522
-0.40503433 0.35828847 0.011529568
