actor.pth (torch, 535912 bytes, 8 tensors)

layers.0.weight f4 [250, 22]
000000 d8 b7 41 3e b4 ce e0 3d 28 78 00 3e 44 96 37 bd
       0.18917787 0.109769255 0.12545836 -0.04482104
000010 9b e5 27 3e 89 25 ad 3d 81 10 d5 bc ea 53 a5 3a
       0.16396181 0.08454425 -0.026008846 0.0012613509
000020 76 ec 81 3d 9f bf e9 3d 73 7c 91 3d 0b 9f 05 be
       0.063439295 0.11413502 0.07103815 -0.13048951
000030 7f c4 0e 3e 6e 75 19 3d 13 6c 4e be 76 d0 e2 3d
       0.13942145 0.037465505 -0.20158415 0.11074917
000040 f0 b5 31 3d 13 dd 82 bd 2d 7a 34 3c eb 31 7b 3c
       0.0433864 -0.06389823 0.011015457 0.015331726
000050 86 1e 80 bd 52 cf 38 3d 3c 51 9b 3d 60 89 56 3d
       -0.06255822 0.04511959 0.075838536 0.052377105
000060 5d 7a 0a be 26 c4 1c 3e b4 12 1e 3d 68 82 72 3d
       -0.1352324 0.153092 0.038592055 0.059206396
000070 8e fe 46 3e 23 e4 d6 bc a4 ca ab bd 85 4a dc bd
       0.19433042 -0.026231831 -0.0838826 -0.10756401
000080 ef 96 71 bc 6b 74 21 3d 2c 3a 88 bc a6 4d e4 bb
       -0.014745458 0.039417665 -0.016629301 -0.006967264
000090 ef 24 1b 3e b1 38 4f 3e c5 5b ec bd a7 79 04 3e
       0.15150808 0.2023647 -0.11540941 0.12937032
0000a0 52 a6 0b be 01 03 01 3e fa 85 23 bd 57 41 07 3e
       -0.13637665 0.12598802 -0.039922692 0.13208519
0000b0 5e 67 2a be 08 73 cd 3b 19 13 c3 3d 5b 11 b2 bd
       -0.16640994 0.0062698163 0.09525127 -0.086947165
0000c0 66 a5 12 3c a8 3c 4b 3d b8 6a 81 3d a1 76 1b 3e
       0.008950567 0.049618393 0.06319183 0.15181972
0000d0 5c 10 40 3e 3b 65 79 bb 9e c5 2c be a3 39 eb 3d
       0.1875624 -0.0038054723 -0.1687226 0.11485603
0000e0 b1 f2 06 bd ba 9b 0b 3e 5e 08 ef bd b8 e4 af 3d
       -0.032946292 0.13633624 -0.11671518 0.085885465
0000f0 15 9b ef bc aa c7 36 3e 7c 4f 9e 3c 4f 50 4c be
       -0.029248754 0.17849603 0.01932501 -0.1995251
000100 66 32 01 be 03 36 23 bd 0a d8 0f 3e f9 e1 31 3e
       -0.12616882 -0.03984643 0.14047256 0.17371358
000110 b8 c4 fa bc db 80 57 be 0e 0e 88 3c 1b 7a 46 3e
       -0.030611381 -0.21045248 0.016608264 0.19382517
000120 9e e4 0f be c4 08 03 3d 3b f9 7d 3d f8 6a 5b be
       -0.14052054 0.03199078 0.062005263 -0.21427524
000130 53 be a3 3d 67 97 2d 3e 22 c4 55 3e 57 a1 38 be
       0.07995286 0.16952287 0.208756 -0.18030296
000140 ef fb 2c bc a3 74 57 bd 51 be 2b 3e 56 4f 93 3d
       -0.0105581125 -0.052601468 0.16771819 0.071928665
000150 37 39 8f bd 4f b9 33 be c9 a8 37 3d 68 b3 81 bd
       -0.06993335 -0.17551158 0.0448387 -0.06333047
000160 f9 46 9a 3d 21 2f 11 be 55 c5 39 3d 3f 10 ff bb
       0.07533068 -0.14178135 0.045354206 -0.007783919
000170 c8 b9 21 3e 36 d8 ef bd 0d 77 8f 3d 65 52 2d be
       0.15793526 -0.11711161 0.07005129 -0.16925962
000180 9c 46 a9 3d b0 d6 0e 3e dc b6 ca bc a3 60 19 be
       0.08265421 0.13949084 -0.024745397 -0.1497827
000190 ea 1e 54 be bf 49 a5 bd 40 22 48 be b3 14 3b 3e
       -0.20714918 -0.080707066 -0.19544315 0.18269615
0001a0 eb d7 14 3e 2b f0 3d be 44 78 33 be 8f 8e 8e 3c
       0.14535491 -0.18548648 -0.17526346 0.017401962
0001b0 92 f0 dc bc 03 39 ec bd 58 b1 10 be 4b c9 35 be
       -0.026970182 -0.115343116 -0.14130151 -0.17752568
0001c0 cb 52 0a 3e 0f d4 83 3d 76 9a ba 3d e9 c6 f7 bd
       0.13508146 0.06436931 0.09111492 -0.12098486
0001d0 e8 18 a0 3d 8e f3 10 be ec d3 ad bd ab b5 57 be
       0.078172505 -0.14155409 -0.084876865 -0.21065395
0001e0 48 90 09 be 58 b1 05 be 57 1f 1d be b2 61 c4 3d
       -0.13433945 -0.13055933 -0.15343986 0.095889464
0001f0 e5 06 06 be 5e 1d 73 3d 00 b8 ac bd 19 ef ed bd
       -0.13088568 0.05935418 -0.08433533 -0.1161787
000200 11 63 22 3e b9 27 28 3e 8f 81 42 3d a3 72 29 3d
       0.15858103 0.16421403 0.047486838 0.04136909
000210 18 65 83 bd a9 e6 25 be cd 11 2e 3c a1 a2 fd 3d
       -0.064157665 -0.16201271 0.010624361 0.123845346
000220 aa 4b 71 3c 70 22 63 3a 19 fa 56 be 7c 0d 73 3d
       0.014727512 0.00086644944 -0.20993842 0.05933903
000230 94 de 69 bc a0 1d 9e bd d4 b3 02 3e 35 47 58 bd
       -0.014274258 -0.07720494 0.12763911 -0.052802283
000240 65 e5 96 3d cc 13 f0 3d 01 0f 9a bd ed ee c5 3d
       0.07367972 0.11722526 -0.07522393 0.09664712
000250 60 2e 45 be 2b 34 90 bc 29 9e 18 3e 36 a3 37 3e
       -0.19255972 -0.017603 0.14904083 0.17933354
000260 1b 77 55 3e bd a4 26 3d 18 86 19 be d8 f5 4f 3e
       0.20846216 0.04068445 -0.14992559 0.20308626
000270 f2 e1 3b 3e 4f 30 00 3e 2d d6 27 be 85 f5 25 3d
       0.1834791 0.12518428 -0.16390295 0.04051735
000280 29 89 f1 3d 2c 8f 40 3d a4 32 ba 3d 64 3b c9 3d
       0.11793739 0.04701154 0.0909169 0.09825781
000290 ac 33 55 3d 8e e0 23 be 22 41 90 bd 68 b8 8c bd
       0.05205123 -0.1600363 -0.07043673 -0.0687111
0002a0 31 d4 59 be 96 9a ce bd 31 5c 4f 3d 61 95 2b be
       -0.21272351 -0.10088079 0.05062503 -0.16756202
0002b0 00 70 bf bd 30 03 22 3e 53 7b 25 3e 0c 00 1f bc
       -0.09347534 0.15821528 0.16160326 -0.009704601
0002c0 92 c8 55 3e 44 2a 17 bd 32 cf 8a 3c 71 0f 14 be
       0.20877293 -0.036905542 0.016944502 -0.14459015
0002d0 c6 c1 97 bd 6f 46 8a 3d 25 d2 0e 3e 6b 4b 20 be
       -0.07410006 0.067517154 0.13947351 -0.1565377
0002e0 fe 87 50 be 1e 4e 0a 3e 95 8a e4 bd 42 23 d8 bd
       -0.20364377 0.13506362 -0.11159245 -0.105536
0002f0 99 6f e1 bd 5e 6e 64 3e 7d 13 a7 bd ae 86 5a bd
       -0.11007614 0.22307727 -0.08158014 -0.053351097
000300 6e bc 2d be 50 b2 c8 3d fe 80 f0 3d 68 31 b2 3d
       -0.16966411 0.097996354 0.11743353 0.0870083
000310 e7 ae 1b 3d 55 b4 46 bc 10 ba 06 3e d0 b2 af bd
       0.038008597 -0.012127955 0.13156915 -0.08579028
000320 98 0d 4f 3e 70 40 8e bd 59 25 24 3e 67 d5 cf 3d
       0.2022003 -0.06945884 0.16029872 0.10148125
000330 37 96 10 3d 3e f3 07 be 5b c6 75 3d 68 1e 29 bd
       0.035299506 -0.13276383 0.06000362 -0.041288763
000340 30 86 5d bd 93 cd 02 bd cb ff fb bd 1e 00 32 bd
       -0.05408305 -0.031934332 -0.12304648 -0.043457143
000350 d6 d0 4e 3d 8f ac 02 3e b0 86 0a 3d 22 b1 3e be
       0.05049213 0.12761138 0.033819854 -0.18622258
000360 7d 78 fc 3d ce 61 2e 3e 6c cb d0 bd 2a c5 05 be
       0.12327669 0.17029497 -0.1019505 -0.13063493
000370 7c 35 2f 3e 1c 4b 48 3c 49 9a ba ba 97 18 4f 3e
       0.17110246 0.012224939 -0.0014236654 0.20224224
000380 a7 e6 22 be 0f 59 41 3e cf 66 82 3c aa 07 52 be
       -0.159083 0.1888163 0.015918164 -0.20510736
000390 29 a3 3e be 8b 72 54 3e 82 cc 3f be 0c 3e ca 3c
       -0.18616928 0.2074682 -0.18730357 0.02468779
0003a0 0c 54 e7 bd de 60 18 be b2 86 69 bb 53 f7 d8 bc
       -0.112953275 -0.14880702 -0.0035633263 -0.02648512
0003b0 95 72 3e be f3 b5 21 3e 6d a7 14 3e 61 dc 59 3e
       -0.18598397 0.15792064 0.14516993 0.21275474
0003c0 b1 79 ff bc 41 70 ab 3d 0f b3 43 be 67 f0 f1 3d
       -0.031185957 0.0837102 -0.19111274 0.11813431
0003d0 4f cf 72 3d 2a b4 07 bb db e1 dc bd 0e 5e 85 3d
       0.059279736 -0.0020706751 -0.10785266 0.0651208
0003e0 45 d6 be bc 82 2c 4a 3e b6 88 d9 3d 03 31 07 3e
       -0.023295531 0.19743541 0.10621779 0.1320229
0003f0 6e b2 41 3e 4a 48 60 3a 03 fb 1c bd b6 f5 35 bd
       0.18915722 0.0008555694 -0.03832532 -0.04442378

layers.0.bias f4 [250]
000000 13 2a 40 3e 03 e6 03 be 38 51 dc 3d 61 b3 de 3d
       0.1876605 -0.12880711 0.10757679 0.108740576
000010 98 61 dc bd 4a 18 25 3e f4 58 c9 bd 57 31 4f be
       -0.10760802 0.16122547 -0.098314196 -0.20233665
000020 ae 4c 34 be 99 2d 1a 3e cf ea 26 3e 34 27 59 39
       -0.17607376 0.15056457 0.1630051 0.00020709337
000030 38 6e 2c be 64 c7 ff bc 20 37 31 bd 5c 9e 02 3e
       -0.1683892 -0.031223007 -0.043265462 0.12755722
000040 48 f2 03 3e 98 6a 02 be 73 8b 47 3e 2b af d0 3d
       0.12885392 -0.12735975 0.1948679 0.10189661
000050 8c 5d 8e 3d 22 bc 3c 3e bd 84 17 3e 31 c7 0b be
       0.069514364 0.18431142 0.1479673 -0.13650204
000060 a8 c1 12 3e b0 ec d2 bd 21 7a 1f 3e ff 40 06 3e
       0.14331686 -0.10299051 0.15573932 0.13110732
000070 31 4f 6a 3c 6d 30 8c 3c e6 af 37 3e 3e d7 5b 3e
       0.014301107 0.017112935 0.17938194 0.21468827
000080 0d d9 1a 3e 8f f6 ad bd 7c 9b ca bd 9b 57 80 3c
       0.15121861 -0.08494293 -0.098929375 0.015666774
000090 a2 64 1c be df b8 fa bd 9e a0 86 bd cd 11 36 be
       -0.15272763 -0.122422926 -0.06573604 -0.17780228
0000a0 68 57 29 3e ce d1 99 3c 2a ed 28 be 27 b9 38 bd
       0.16537249 0.0187768 -0.16496721 -0.04509845
0000b0 2a de 3f be 3c d3 85 bd a4 46 02 be 9b 8e d1 bd
       -0.18737093 -0.065344304 -0.1272226 -0.10232278
0000c0 c8 01 57 bc b7 76 6b 3d 24 a8 67 3e c2 45 38 3e
       -0.013122983 0.057486262 0.22622734 0.1799536
0000d0 a3 2f 0a 3e 0f 77 c8 bd f7 b6 4e 3e ed 90 41 bd
       0.13494734 -0.097883336 0.20186983 -0.047257353
0000e0 4f 74 ae 3d 46 3e db 3d e1 b7 4d 3e d2 3c 7c 3d
       0.08518278 0.10705237 0.20089675 0.06158144
0000f0 16 a5 1b 3e 4b 46 c3 3d 76 e9 64 3c b4 a8 2e bd
       0.15199694 0.09534892 0.013971677 -0.042641357
000100 55 f5 59 be 09 fb 10 3e 3b a2 de 3c 00 88 0e 3e
       -0.21284993 0.14158262 0.027176967 0.13919067
000110 e4 72 c2 bd 9b ef a3 bd f0 9a 95 3d dd af 5f 3d
       -0.0949457 -0.080046855 0.073049426 0.054611076
000120 b0 db 63 3c 6c 54 62 3e 6c e3 1e bd 5b 53 ac 3d
       0.013907358 0.22102517 -0.038791105 0.08414336
000130 2c 3e 4b 3e 60 84 19 bd 0b 37 dc 3d 6b 30 a4 3d
       0.19847935 -0.03747976 0.10752686 0.080170475
000140 f6 8b 78 bd 13 ca 4b bd 1e 6c e2 bd b7 d4 57 3d
       -0.060680352 -0.04975326 -0.11055778 0.052693095
000150 74 b5 f7 3d b5 a6 d5 bd 66 47 77 bd 1a 70 4e be
       0.12095156 -0.104321875 -0.060370825 -0.20159951
000160 cb ad f2 bd 7d e4 13 3e 18 3e e1 bd 29 45 20 be
       -0.11849555 0.1444263 -0.109981716 -0.15651383
000170 69 23 1a 3e 06 4a dd bd 69 5b fe 3d c3 02 d2 3d
       0.1505257 -0.108051345 0.12419779 0.10254433
000180 94 05 37 be 1a f0 d4 bd 54 69 ba bc 7b 30 52 3e
       -0.17873222 -0.10397358 -0.022755302 0.20526306
000190 c8 05 1e bd 1d 5a ec bd 2c e9 0f bc 7c 52 9c 3c
       -0.038579732 -0.11540625 -0.00878362 0.0190823
0001a0 d0 5c 0d be 02 7a 06 be c2 6c a7 3d 78 43 81 bd
       -0.13804936 -0.1313248 0.08175041 -0.06311697
0001b0 4d 2f b4 bd c9 29 07 be ed 7c 78 3b 2e 8a 3c 3e
       -0.087980844 -0.13199534 0.0037916258 0.18412086
0001c0 be cd 08 3e 0b 0b bf 3d d1 33 45 3d b2 83 12 3e
       0.13359734 0.09328278 0.04814512 0.1430805
0001d0 18 2a bf bc ca f4 0c 3e c0 7e 69 3c b5 23 ab bd
       -0.023335502 0.13765255 0.014251411 -0.0835642
0001e0 c1 ff 01 3e ea d9 44 3e 16 b6 5f bd 6b d8 b5 bd
       0.12695219 0.19223753 -0.05461701 -0.08879169
0001f0 7c 81 48 be b9 c8 79 3d f3 a2 9f 3d 52 f2 20 3d
       -0.19580644 0.06098244 0.07794752 0.039293595
000200 3f 93 ba 3d bf 9c 10 be 9a cb 58 3d 3b 42 9d bd
       0.09110116 -0.14122294 0.052928545 -0.07678648
000210 c6 52 e9 3d ec 1c 45 be c4 63 1e 3e 1a 58 d8 bd
       0.11392741 -0.19249314 0.15467745 -0.10563679
000220 a3 78 f9 3c 76 18 47 bd 76 f3 87 3d a2 ed 29 3e
       0.030453032 -0.048607312 0.06638233 0.16594556
000230 98 fe 7e bd fa f9 4e bd 34 13 9d bd 00 91 23 be
       -0.06225452 -0.050531365 -0.07669678 -0.15973282
000240 52 a2 81 3d 64 a0 d9 bd 90 c8 3a be 1b 77 06 3d
       0.06329788 -0.10626295 -0.18240571 0.03282843
000250 c6 02 87 3b 28 5b 51 3e 80 68 5b bd 5d fb 55 3e
       0.0041202037 0.2044493 -0.053566456 0.20896669
000260 3e 5a d1 bd bd 87 93 bd 0b 69 28 3e f4 a5 80 bd
       -0.102222905 -0.072036244 0.1644632 -0.06281653
000270 b5 f6 d5 bd 36 ec 30 be e6 51 27 3d 73 ce 42 3e
       -0.10447446 -0.17277607 0.04084959 0.19024067
000280 6a 48 2e be 2f 58 91 3c c6 74 ac 3d 99 31 e0 3d
       -0.17019811 0.017742245 0.0842071 0.1094696
000290 aa ae 15 3e 7c a9 de bd cb f2 98 bd 69 a4 43 3e
       0.1461741 -0.1087217 -0.07468184 0.19105686
0002a0 c2 41 b3 3d 5f 6f 91 3c 58 72 d8 bd 6b 29 ae bd
       0.08752777 0.017753301 -0.10568684 -0.085039936
0002b0 a1 0b 14 be 46 20 24 3e c8 16 e3 3d a3 7e ee 3d
       -0.14457561 0.16027936 0.110883296 0.11645248
0002c0 12 bc f8 3d b2 a6 35 3e 33 65 ed bd 22 f8 ad 3c
       0.121452466 0.1773937 -0.11591568 0.021236483
0002d0 1f 36 4b be 48 0a 00 bd f9 f2 36 be 0c f6 3a 3e
       -0.19844864 -0.031259805 -0.17866124 0.18257922
0002e0 8c 00 08 3e c7 4f ce 3d f1 93 8d bd 0c 7c 28 3e
       0.13281459 0.1007381 -0.06912983 0.1645357
0002f0 a6 d8 5f 3d 59 4c 5c bd 67 82 00 3e bb eb 09 be
       0.05464997 -0.05378375 0.12549745 -0.1346883
000300 92 e2 20 3e ae 3a 15 3e 93 0f 39 3e ab bb d4 3c
       0.1571143 0.14573166 0.18072347 0.025968393
000310 00 5e c7 3c fb 4b 3b be f3 ac 31 be 5a 95 53 3e
       0.024336815 -0.18290703 -0.17351131 0.20662442
000320 e8 97 83 3d bf 4d 2b be 7c 04 c9 bd e8 69 44 be
       0.06425458 -0.16728877 -0.098153085 -0.19181025
000330 98 c1 d4 bd 09 5b d1 3d e1 0c 82 bc e3 e9 ec 3d
       -0.103884876 0.10222442 -0.015875282 0.11568048
000340 a4 cf 35 bd fd e4 7f 3d fe b6 1f bc 97 8f 41 3e
       -0.044387475 0.06247424 -0.009748219 0.18902431
000350 5b 48 1f bd 33 c6 43 be bb 7b 4a be 8c fc 30 3e
       -0.038887363 -0.19118576 -0.19773762 0.17283839
000360 57 37 10 3e 86 ec 33 3e de 77 ec 3d f0 1c f6 3a
       0.1408361 0.17570695 0.115463 0.0018776935
000370 7c f7 f7 3d 61 f5 b7 3b 31 56 a7 bd 2a ef 2e 3e
       0.12107751 0.0056139682 -0.081707366 0.17083421
000380 97 75 f1 3c 07 c4 42 3e 1c c4 41 be 39 82 92 3c
       0.029475017 0.19020091 -0.18922466 0.01788436
000390 1d a9 f3 bc 24 b0 85 bd aa 65 fd 3d 1a 30 7e 3b
       -0.029743725 -0.06527737 0.123729065 0.0038785995
0003a0 0f 88 00 be 28 0b 27 bd 5a ff 1a 3e b5 c2 07 be
       -0.12551902 -0.040782124 0.15136471 -0.13257869
0003b0 1f 88 c0 3c 9b 6e 04 3e fc f9 1c be 6e 30 33 3e
       0.023502408 0.12932818 -0.15329736 0.17498943
0003c0 ad b4 56 be 1c ec a4 3d 6e 31 19 bd f2 ba cd 3d
       -0.2096736 0.08052847 -0.037400655 0.100454226
0003d0 25 b4 4a 3e f9 2a e7 3c f3 81 3a be 2c 35 cd bc
       0.19795282 0.028218733 -0.18213634 -0.025049768
0003e0 79 11 c8 3d 5f 74 09 3e
       0.09768958 0.13423298

layers.1.weight f4 [250, 250]
000000 2a 23 02 bd 55 be 37 3d 81 e3 17 bd ad 9c f9 bc
       -0.031771816 0.04485925 -0.0370822 -0.030470217
000010 51 56 56 bc d5 58 12 bc b5 5d 09 3d 53 c0 68 bc
       -0.013082103 -0.008932312 0.03353663 -0.01420601
000020 b5 60 78 bd 71 fb a9 3a 00 77 50 bd ec 07 53 bc
       -0.060639102 0.0012968612 -0.050894737 -0.012880307
000030 bd 0f 61 3c 68 89 eb 3c bc 1b 3f 3d db 7e 98 3c
       0.013736662 0.028752044 0.04665731 0.018615177
000040 e8 dd 3f bd af 15 24 3d c6 60 af 3d a8 3a 36 3d
       -0.046842486 0.04005974 0.0856338 0.044489533
000050 9b 83 cc 3c a3 3e eb 3c 8e 6f 65 bc f6 96 7d bd
       0.024965098 0.028716391 -0.0140036475 -0.061911546
000060 e1 2a 0d 3d 0e ad 68 bd 47 65 ce 3c 3a b4 40 bd
       0.03446472 -0.056805663 0.025194777 -0.047046877
000070 7e 19 58 3d 5e 9a 2c bc 4c 72 00 bc 17 60 e8 bb
       0.052758686 -0.010534851 -0.0078397505 -0.007091533
000080 20 4f e3 bc 22 33 a5 3c ae 9c 20 bd 64 66 5a 3d
       -0.02774769 0.020165984 -0.03921192 0.053320304
000090 a8 71 1d bd 0c b0 02 bd 6b fc a8 3d 6b 88 43 3d
       -0.03843847 -0.031906173 0.0825127 0.04773752
0000a0 2a 07 b5 3c f8 ad 31 bd 86 4d 21 3d 02 86 89 3c
       0.022098143 -0.0433788 0.039380573 0.016787533
0000b0 7c 25 40 3d 21 8e b0 3d 51 3b 8b 3c b2 79 ea bc
       0.046910748 0.08620859 0.016996058 -0.028622482
0000c0 0c 34 1b 3d cf 05 08 bd 88 c2 82 3c b8 4a 80 bd
       0.037891433 -0.033208665 0.0159619 -0.062642515
0000d0 59 a0 34 3d c7 d6 a0 3d c1 1d dc bb ae 1d 1c 3d
       0.044098232 0.078534655 -0.006717414 0.038114242
0000e0 f1 f9 07 3d c0 0b b8 3b 9c 09 56 bc 87 52 92 bd
       0.033197347 0.005616635 -0.0130638145 -0.07144647
0000f0 fe 5e c8 3a cc 1f 58 3d 49 60 47 bc 12 e6 33 bd
       0.0015287099 0.0527647 -0.012168952 -0.043920584
000100 39 1e b7 3c db 14 4f 3d b1 26 95 ba 80 f5 ac 3d
       0.022353278 0.050557 -0.0011379329 0.08445263
000110 82 86 9f bc 5f 33 cf 3c e4 65 c2 bc 6c 21 b5 3c
       -0.019473318 0.02529305 -0.023730226 0.022110663
000120 c6 71 69 bd d1 4c 47 3b 11 73 0e bd bd 97 ec bc
       -0.05699327 0.0030410776 -0.034777705 -0.028880948
000130 ee 0d 55 3d dc 9f 29 b8 28 e0 52 bc 07 8a 5b 3c
       0.052015238 -4.044162e-05 -0.012870826 0.0133996075
000140 89 7f 41 bb bf 7d 4b bd e0 6e 1f 39 ef f5 21 bd
       -0.002952548 -0.049680468 0.00015204726 -0.03954118
000150 89 12 11 bd 25 94 59 bd 1f e4 83 bd a5 e7 08 bd
       -0.035418067 -0.053119797 -0.06439995 -0.03342404
000160 59 dc 08 3c 05 a8 b3 3c 88 0e 26 bd 1e 8f 0b 3d
       0.008353316 0.021930704 -0.0405412 0.034072034
000170 3d 74 8c bc 65 cf 2a bd d6 e7 1b 3d 0a 44 2d 3c
       -0.01714527 -0.041701693 0.038062893 0.010575304
000180 23 90 22 bd df 43 9d 3c f1 c8 a9 3d bd 50 35 bc
       -0.03968824 0.019197403 0.0829028 -0.011066613
000190 b8 84 73 bc 82 2d 28 bd e5 c5 9b 3c 99 8f 2a bc
       -0.014863186 -0.041059025 0.019015262 -0.010410213
0001a0 68 9b fd 3b 3b 95 f6 3c 2a 04 1c bc 32 c8 8b 3d
       0.007739473 0.030100456 -0.009522477 0.068252936
0001b0 c2 8a bf bb 0f a3 95 3d 2a 6c 09 bd bc 90 a0 bc
       -0.0058453986 0.073064916 -0.03355042 -0.019600265
0001c0 f8 87 0c 3d e6 f7 36 bd a5 4c db 3c ad f0 22 bd
       0.034309357 -0.044670008 0.026769945 -0.039780308
0001d0 67 6b 15 bd 11 36 26 bd 1e 07 dd bc 2a 22 59 3d
       -0.03647938 -0.040578905 -0.026980933 0.053011097
0001e0 50 80 33 3c 9e 50 c0 bc 1a df f9 3c 4c cd bc 3c
       0.010955885 -0.023475941 0.03050189 0.023047112
0001f0 9d e5 4f 3c f9 06 09 3c aa 34 d3 bc a8 d2 c0 3b
       0.012689021 0.008363479 -0.025781948 0.005884487
000200 dc 29 88 bc 9b 1e 7a ba 8d 5d 52 bd 30 98 6d 3d
       -0.016621523 -0.0009541304 -0.05135875 0.058006465
000210 99 7e 90 3d e4 46 19 bd de 96 29 bd e4 00 23 bd
       0.070553966 -0.037421122 -0.041403644 -0.03979577
000220 b1 93 92 3d 9c be b9 3b da 5c 2a 3d eb f8 5e bd
       0.07157076 0.0056684744 0.041592456 -0.054436605
000230 b9 ca 28 3c 2d e3 88 ba d4 e4 4c bd a2 f4 8d 3d
       0.010302239 -0.001044368 -0.050022915 0.06931426
000240 46 89 d8 3c 9f 13 16 bd dc 6a ae bb df dc 17 bd
       0.026432645 -0.036639806 -0.005322797 -0.037075873
000250 7e f9 d4 3c c8 c5 ab bc a3 13 21 bb 8e b7 5d bd
       0.025997873 -0.020968333 -0.0024578355 -0.05413013
000260 6b 6e 63 bd 7f 10 85 bd 7b f7 c2 3c a3 37 70 bd
       -0.055525225 -0.06497287 0.023799649 -0.05864681
000270 02 b1 a0 3c c0 f0 83 bd 4a 3f 51 3d 16 95 2b 3d
       0.019615654 -0.06442404 0.051085748 0.041890226
000280 8d 24 68 3d ca f5 32 bd 49 cf ae 3d d7 14 21 3c
       0.056675483 -0.043691434 0.0853563 0.009831629
000290 66 b5 a2 bc b6 68 70 3d 1e 65 27 bd 5d f7 dd bc
       -0.019861888 0.05869361 -0.040867917 -0.027095491
0002a0 ab ba 15 bd 70 dd 6b 39 49 3c 41 bd 8b 2d b9 3c
       -0.036554974 0.00022493838 -0.047176633 0.022604724
0002b0 75 ca 67 3c 39 01 10 bd 04 b6 81 bc 79 e5 2b bd
       0.014147391 -0.035157416 -0.015833862 -0.04196689
0002c0 58 22 46 3d ea ae 99 bc a7 35 2e 3d 99 1a af bd
       0.048372597 -0.018760163 0.042531636 -0.08549995
0002d0 ad fb 2e bb 39 20 d1 3c 77 7c 1a bd 44 56 3a 3c
       -0.0026700303 0.02552806 -0.037716355 0.011373106
0002e0 0d c4 af bc f0 94 7b bc b6 9b 01 bd b9 a6 a0 bc
       -0.021455789 -0.015355334 -0.03164264 -0.01961075
0002f0 df 7f 7e 3d 8c 21 17 bd 2f b5 4f bd fe 1d f9 3c
       0.062133666 -0.036897227 -0.0507099 0.03040981
000300 c7 5f 1c 3d c5 a0 8c 3d 40 25 22 3c 95 fc 21 bd
       0.038177278 0.06866602 0.009896576 -0.03954752
000310 44 51 8a bc 09 46 93 3c 12 6b e7 bc 13 e1 cf 3c
       -0.016884454 0.017977731 -0.028249297 0.025375878
000320 52 4a a5 3c d5 61 82 bc 87 3f 9b 3d dc 14 4d bc
       0.02017704 -0.01591579 0.07580476 -0.01251718
000330 04 ec ad 3c 27 d4 63 3c b0 9c ab bd 3a a9 8e 3c
       0.021230705 0.0139055615 -0.08379495 0.017414678
000340 cb 17 84 3c ef e0 e9 3b 13 5e b5 bc d8 c8 9f 3b
       0.016124627 0.00713741 -0.022139585 0.0048762374
000350 c4 68 a7 3b ca 9b 83 3d fe 66 63 bb 5d 64 80 3c
       0.0051089246 0.06426199 -0.003469884 0.015672857
000360 54 4c 83 bd cd a6 dc bb a1 4c 1c 3c c1 2d 4e bd
       -0.06411043 -0.0067337514 0.009539754 -0.050336603
000370 21 90 54 bc 17 29 65 bd 24 11 6f bc f3 35 4b 3d
       -0.012973816 -0.05594739 -0.014591489 0.049611997
000380 e5 a7 9d 3c f1 aa 5d bd c8 fc 76 bd a8 e7 86 bc
       0.019245097 -0.0541181 -0.060299665 -0.016467884
000390 a1 77 32 3d 91 e1 00 3d fb ca b8 ba d1 25 b8 3c
       0.04357112 0.031465117 -0.0014098579 0.02247897
0003a0 50 d1 b6 3c ef f9 ab bb ea 87 93 3c 67 38 e7 bb
       0.022316605 -0.0052483003 0.018009145 -0.007056284
0003b0 7e 9f c6 3b 10 01 6c 3c 5a 86 99 bd 67 37 4c bd
       0.0060614934 0.01440455 -0.07496329 -0.049857523
0003c0 51 40 a9 3c 3c 93 42 3c 1e ef 79 3d 8f cb 19 bd
       0.020660551 0.011875924 0.061019056 -0.037547644
0003d0 0a 47 27 3c d5 20 84 3d d1 1e ce 3c be 12 53 3d
       0.010209808 0.06451575 0.025161179 0.051531546
0003e0 bc bd c2 bc db 59 9a 3c f9 60 bc bb 9b a8 9f 3c
       -0.023772113 0.018841675 -0.0057488647 0.019489577
0003f0 a0 2f b7 bc 63 95 35 bd 44 b2 37 3d 25 58 13 3c
       -0.022361577 -0.04433192 0.04484774 0.008993183

layers.1.bias f4 [250]
000000 a5 8e cc 3a a7 1b 18 bd 86 17 4f bd 02 0c 61 3d
       0.0015606476 -0.037135746 -0.050559543 0.054943092
000010 87 c2 8e 3d f2 ee 17 bd e5 cd 2e bd 25 f8 f0 3c
       0.06970697 -0.03709311 -0.042676825 0.0294152
000020 85 bb 47 bd b1 e5 3e 3d 24 81 d1 bc c4 b0 9e bb
       -0.048762817 0.04660577 -0.025574274 -0.0048428494
000030 e1 5c 85 3d 16 58 65 bd 3c 87 a9 3b 98 50 7c bd
       0.06511856 -0.05599221 0.005173592 -0.061600298
000040 90 54 1e bd 99 f5 fe bb 55 c0 5b 3d 0e d9 0d bc
       -0.038654864 -0.0077807424 0.05365022 -0.008657707
000050 4c c4 41 bd a6 b2 27 3d dc a2 0a 3d b0 08 5e 3d
       -0.047306344 0.040941857 0.03384672 0.054207504
000060 95 3c 3f 3d c9 80 ba 3c 58 a5 79 3d 12 65 92 bb
       0.046688635 0.022766488 0.0609487 -0.004467615
000070 bc 39 6a bb 05 68 60 bc 7e 91 17 3c 56 25 5b bc
       -0.0035739979 -0.013696675 0.009250997 -0.013375601
000080 91 18 60 3d ff 3e 1c 3d b9 36 16 39 c5 08 b2 bc
       0.05471093 0.038146015 0.000143255 -0.021732697
000090 fc ba 08 bd 5f 8f 30 3d b0 03 b1 bc e4 8a 6b 3d
       -0.033381447 0.04310548 -0.021608204 0.057505503
0000a0 a6 ad ef 3c a2 70 6b 3d d1 1c df bb 54 54 73 3d
       0.029257607 0.057480462 -0.006808855 0.059406593
0000b0 ae 66 8c bc 78 7d f7 3c a9 9f 1a 3d 5d 0d e6 bc
       -0.017138805 0.030211195 0.03774992 -0.028082544
0000c0 38 d0 6a 3d 01 50 55 3d 0a 30 3c 3c db d4 3b bc
       0.05732748 0.05207825 0.011486063 -0.011464323
0000d0 07 22 4b 38 09 d3 04 bd b8 0c 09 3d 6b 53 4a 3d
       4.8430662e-05 -0.03242782 0.033459395 0.04939596
0000e0 cd 76 60 3d ed 00 f5 bb 6e a2 07 3d 5d 2e 1f bd
       0.054800797 -0.007476917 0.03311389 -0.038862575
0000f0 de ad 6a bd 22 20 53 bd ca 9c 88 3d 47 82 4a 3d
       -0.05729472 -0.051544316 0.0667053 0.04944065
000100 7e 23 df bb 9e bd 09 bd e8 05 ba bc 89 cb fb bc
       -0.006809651 -0.0336281 -0.022707894 -0.030736702
000110 8e c3 5b 3d 56 ec 0e 3d 6c 4b 31 3d f4 43 77 3d
       0.053653292 0.034893356 0.04328482 0.06036754
000120 45 73 0e bd 96 45 42 3c b2 ee 3b bc d2 b7 9d bc
       -0.0347779 0.011857411 -0.011470484 -0.019252691
000130 ab 42 32 bd 46 c7 68 3c d6 ac 2f bc 78 ac 93 3c
       -0.04352061 0.014207667 -0.01072236 0.018026575
000140 c4 54 2c bd ee 04 3d bd ab b0 23 bd 1f 32 73 3a
       -0.042073026 -0.04614728 -0.039963406 0.0009277183
000150 14 cb 24 3d 96 27 3a bd b7 0b 49 3c 7d eb 6f bd
       0.040232733 -0.04544791 0.012270859 -0.05857419
000160 db 12 c3 3c 87 51 63 3d 08 fe 11 3d e9 27 c6 3c
       0.023812702 0.055497672 0.035642654 0.024188953
000170 84 c4 d0 ba 11 1d 43 bd 45 15 02 bd d5 66 3c bd
       -0.0015927707 -0.04763514 -0.031758565 -0.045996506
000180 df b8 6c bb e1 78 50 bd c0 2c da bc d1 8e 7d 3d
       -0.0036120934 -0.05089653 -0.026632667 0.06190378
000190 4c 59 26 3b a2 7b 95 bc 68 c1 ca 3c 57 32 1f bd
       0.0025382815 -0.01824743 0.024750426 -0.038866367
0001a0 2c e2 16 bd af 73 26 3d b0 0f 49 bd 10 cd 13 3c
       -0.036836788 0.04063767 -0.049087226 0.009021059
0001b0 18 59 49 3d 39 4a d2 bc a2 6e 77 3d e9 00 61 bd
       0.049157232 -0.025670158 0.060408242 -0.05493251
0001c0 fd 6f cb bb ab 54 bd bc 43 fd 57 3a 02 23 c2 3c
       -0.0062084184 -0.023111662 0.0008239338 0.023698334
0001d0 aa fc 1b 3d ea 6d 0e bd b5 ef 61 3d 50 02 e0 3c
       0.038082756 -0.03477279 0.055160243 0.027344853
0001e0 30 cc a0 bc 53 69 1a bd cf 18 d4 bc 66 ab b3 3c
       -0.019628614 -0.0376981 -0.025890736 0.021932315
0001f0 54 b1 b7 bc 17 91 20 bc a7 b1 5f 3d 62 a7 cb 3b
       -0.022423424 -0.009800217 0.05461278 0.006215022
000200 42 f1 35 bd 33 c1 b7 3b 19 9a fc 3c d2 d1 87 3d
       -0.044419535 0.005607748 0.030835198 0.06631817
000210 84 f0 e6 bb bc 58 9d bc 46 22 89 3c 57 d9 3e 3b
       -0.0070477147 -0.01920735 0.016739976 0.0029121244
000220 35 1a 0b bb 9a c7 52 bd 7b 25 25 bd 44 08 c1 3c
       -0.0021225337 -0.051459886 -0.040318947 0.023563512
000230 06 b9 95 bc df 1d 13 3d d6 ca 17 3b 33 49 6e 3d
       -0.018276703 0.03591716 0.002316167 0.058175277
000240 52 88 74 3d 9a a5 06 3d 52 7d 0d 3d de 64 3c bd
       0.059700318 0.032872774 0.034543343 -0.045994632
000250 0e f3 50 3d 6b 00 ca 3c eb 6f e3 bb 63 8a 2d bd
       0.051013045 0.024658402 -0.006940832 -0.042368304
000260 f0 8d e3 bc 94 96 df 3b 8e 08 99 3d 1f 2f 79 bd
       -0.027777642 0.0068233702 0.07472335 -0.060835954
000270 52 c2 83 bd f6 ec 11 3d a5 5f 60 3d dd 80 01 3d
       -0.06433548 0.035626374 0.054778714 0.031617034
000280 ef a5 7c 3d 97 02 8d 3c e6 57 22 bd 60 a4 ad bc
       0.061681684 0.017213149 -0.039634608 -0.021196544
000290 1b 3b aa 3b 41 7a ab bc bb 38 71 3d 96 0d 04 bc
       0.005195034 -0.020932319 0.058891993 -0.00805988
0002a0 79 2d 0f 3d 0a 09 80 3d ee 0e 18 3d d3 d3 f8 3c
       0.034955475 0.06251724 0.037123613 0.030374443
0002b0 24 3f b0 3c 48 3a 01 bd 38 a7 9e 3b 4c ea 0f bc
       0.021514483 -0.031549722 0.0048417114 -0.008783888
0002c0 99 24 a5 bc 8a 36 00 3d 37 3d 3d bd ed 8e 0e bd
       -0.020159053 0.031302013 -0.046200957 -0.034804273
0002d0 61 79 3c bb 78 4f 21 3c d1 bf 67 3d 4a 8e 19 bd
       -0.002875887 0.009845607 0.056579415 -0.037489213
0002e0 6b 45 0d 3d fe 3d 50 3d 65 06 a7 3c a4 b6 a5 bc
       0.03449003 0.05084037 0.020388791 -0.020228691
0002f0 5b 3a 5e 3d 3a d6 61 3d bb 4a 19 bd 1f 6b 01 3d
       0.05425487 0.055135943 -0.037424784 0.0315963
000300 e4 bd 36 bd e1 9a 8e 3c 1e 04 6f 3d 64 83 64 3d
       -0.044614688 0.017407836 0.058353536 0.055789366
000310 39 2d e5 bc a1 9a 16 3c 37 63 53 bd df 02 07 3d
       -0.027975665 0.00919214 -0.05160829 0.032961722
000320 f3 a4 55 bd 20 fc 56 3d 01 55 e2 3c fa 1c a5 39
       -0.05215926 0.05248654 0.027628424 0.00031492842
000330 6a d4 ec bc ef 22 09 3d a7 88 6e 3d 2b 2e 0f 3d
       -0.02890988 0.03348058 0.05823579 0.03495614
000340 34 de 04 bc 7b f8 bb 3c ec 70 2c bc 78 26 20 bd
       -0.008109618 0.022945633 -0.01052497 -0.039099187
000350 00 91 4e bd 7f 46 05 3c 51 20 62 bd ea 01 37 3d
       -0.05043125 0.008134483 -0.0552066 0.04467956
000360 8e 66 21 3d 12 23 cf 3b 7e 63 c5 3c b5 c6 5e 3d
       0.039404444 0.0063213194 0.024095293 0.05438872
000370 02 1f 73 3d cc 8a 3a 3c 1c 83 69 3c 30 80 7f 3d
       0.059355743 0.011385631 0.01425245 0.06237811
000380 e1 93 40 3c 95 5f e5 bc 99 05 65 3d 61 d4 53 bd
       0.011754007 -0.027999679 0.05591354 -0.051716212
000390 7b 31 c6 bc f3 b7 2c bd e4 df d2 3b a9 08 ee ba
       -0.024193516 -0.042167615 0.0064353812 -0.001816054
0003a0 e3 ca 40 3d d2 62 4d 3c d9 e5 5e 3d 4b 17 5a 3d
       0.047068488 0.012535768 0.05441842 0.05324487
0003b0 fe 22 da 3c 46 ee 54 bd 1c 60 3d 3d 0f 3f 23 3d
       0.026628014 -0.051985048 0.046234235 0.03985506
0003c0 46 3e 71 bc ad d4 7c 3d 32 fc 6a bd d2 14 01 bd
       -0.01472432 0.06172626 -0.05736942 -0.031513996
0003d0 3e 59 7a 3d b3 55 54 bd ee d0 89 3c e3 23 c6 bc
       0.061120264 -0.05183954 0.016823258 -0.024187034
0003e0 4c 57 3e 3d 79 75 62 3c
       0.04646997 0.013821953

layers.2.weight f4 [250, 250]
000000 34 34 ad 3c 92 5b ac 3b 7f 9d fa 3c e6 be 1b 3d
       0.021143056 0.0052599395 0.030592678 0.03802385
000010 d3 4d 0e 3d 0d 46 93 3d 5a a0 ca 3b 9b 76 66 bd
       0.034742188 0.071910955 0.006183666 -0.056265455
000020 6a 1b 2e 3c 83 f5 79 3d 93 40 1a 3d ef 58 84 bc
       0.010626653 0.061025154 0.03765924 -0.016155688
000030 d9 8c 27 bd e8 2f 70 3c 4d 9d de 3c a4 8c 05 3d
       -0.040905807 0.014659859 0.027174616 0.03260483
000040 ba d4 79 bc a5 38 80 3c 0a a8 99 bc 38 6f 08 3d
       -0.015248472 0.01565201 -0.018756885 0.03330919
000050 14 5d 2a bd 23 38 5d bc a3 0f 63 3c ea 03 a8 bc
       -0.041592672 -0.013502154 0.013858709 -0.020509679
000060 6f 9f 89 3c 70 ca 72 3d c1 9c dd ba 2f ea 0d 3d
       0.016799657 0.05927509 -0.0016907678 0.034647163
000070 c0 22 85 3d 33 56 71 3d 42 66 59 bd 8d 82 48 3d
       0.06500769 0.058920097 -0.053076036 0.048952628
000080 fc d8 12 3d ab b0 6e bd 2b eb 39 3d b7 13 0d bd
       0.035851464 -0.058273952 0.04539029 -0.03444263
000090 2f c5 e1 bc 5d e2 4f 3d 95 80 56 3d fe 16 8f 3d
       -0.027559845 0.050752986 0.05236872 0.06986807
0000a0 e8 c8 68 3c c3 ed 71 3d 95 e7 43 bd 12 00 8c 3d
       0.014208056 0.059064638 -0.047828276 0.06835951
0000b0 e1 df 41 3d f7 eb b3 bc 97 48 00 3d 85 d8 09 bc
       0.04733265 -0.021963103 0.031319227 -0.008413439
0000c0 dd d6 61 3b 1e 05 81 3d 3d f0 0e bd 0e 56 24 3d
       0.0034460344 0.06299804 -0.034897078 0.04012113
0000d0 1f 0a 30 bd 9e a5 47 3d a9 91 1b 3d 6c 4d 8b 3d
       -0.042978402 0.04874193 0.03798071 0.068018764
0000e0 d7 73 1f 3c c7 65 79 3d 31 af 61 bd 57 df da 3c
       0.009732208 0.060888078 -0.055098716 0.026717825
0000f0 fd c8 69 3d 18 27 2b 3d ba 46 6e bd d4 77 50 3d
       0.057076443 0.04178533 -0.05817292 0.050895527
000100 25 15 84 3c 67 45 83 3c 8b 76 e5 3c a4 bd d7 3c
       0.016123364 0.016024305 0.028010627 0.026335545
000110 da b7 d6 3c 82 e4 5f bc b8 62 15 bd a6 1a 1a 3d
       0.026210714 -0.01366532 -0.0364711 0.03762307
000120 7b 4c 49 bd dc f8 10 3a 00 75 42 3c e3 4e ca bc
       -0.049145203 0.0005530247 0.011868715 -0.02469582
000130 75 05 09 3d a5 85 5a 3d 20 1e d7 3c 17 40 8c bc
       0.03345247 0.05335011 0.026259482 -0.017120404
000140 c6 b8 65 3d 6d 03 3d 3d 7d e9 69 bd 40 21 97 bc
       0.056084417 0.046145845 -0.057107437 -0.018448472
000150 85 b7 9e 3a 5d 8b ba 3c 17 1c 43 bd b3 f9 98 bc
       0.0012109136 0.022771532 -0.04763421 -0.018673753
000160 be 9e 1b 3d 5d 95 fe 3b ee 8f 7f 3d 2e dc 29 3c
       0.037993185 0.0077692703 0.06239312 0.010367436
000170 34 4d 47 bd 60 9e 81 bc 3c 39 0a 3d fb 00 40 bd
       -0.04865761 -0.01582259 0.03374599 -0.046875935
000180 32 ae 4b bc 73 f8 21 bc 40 d0 d4 3c f0 48 3b 3d
       -0.012431668 -0.009885895 0.025978208 0.045723855
000190 c5 9b 3b 3d 20 b3 89 3d 53 35 50 bd c5 2a 1b 3d
       0.04580285 0.067236185 -0.050832104 0.037882585
0001a0 1f dd 12 bd f0 65 55 ba 27 b6 5e 3d 60 2b d6 bc
       -0.03585541 -0.0008140495 0.054372933 -0.02614373
0001b0 bc 66 77 3d 54 6a 2f 3b c0 56 07 3d 51 48 1c bd
       0.06040071 0.0026766257 0.033041716 -0.038154904
0001c0 49 c9 06 bd da 53 27 3c 73 b7 6c 3b 8b 5e 84 3c
       -0.032906804 0.010212863 0.0036120086 0.016158363
0001d0 ce 41 6c 3d 47 5b 8a 3d 8d ef a2 bc 1a ee 28 bd
       0.057679944 0.06755691 -0.019889617 -0.041242696
0001e0 d9 41 5c 3d 27 f5 b7 3c 46 f9 c7 3b e0 e8 82 3d
       0.053773735 0.022455765 0.0061027138 0.06392074
0001f0 a4 1d 53 3d 65 dc 7a 3c 9d 2b 15 bd f0 cf e5 3c
       0.05154194 0.015311335 -0.036418546 0.028053254
000200 fb 0d 9c bb 77 51 0e 3d eb 28 dc 3c 81 e7 1c 3c
       -0.004762409 0.03474566 0.02687498 0.009576679
000210 46 86 83 bd 00 02 50 bb 80 0b 68 bc a9 84 ec 3c
       -0.06422095 -0.0031739473 -0.014162898 0.028871851
000220 64 d9 2f bd 0e 05 6a bd 04 d4 f7 bc 8a 2d 5d bd
       -0.04293193 -0.057133727 -0.030252464 -0.053998508
000230 ff 04 bc 3b 58 6c 40 bb 1a 9e 2b bd c2 bc 5f 3c
       0.0057379003 -0.0029361453 -0.041898824 0.013655843
000240 38 67 2c bd c5 0a a1 3d a1 e1 82 bc 59 00 ef 3b
       -0.042090625 0.07863382 -0.015976729 0.0072937426
000250 0f ae 0d bd d3 43 19 bd e3 f6 9e 3c 26 3a f4 bc
       -0.034589823 -0.037418198 0.019404834 -0.029812884
000260 9f 68 a6 bd cc db 51 3d 08 d9 49 3d c7 44 bc bc
       -0.08125424 0.051235005 0.049279243 -0.022982014
000270 c3 70 a2 3c 02 cf 80 bd 18 1e 87 bd d0 8e 73 3d
       0.01982916 -0.062894836 -0.06597537 0.05946237
000280 d4 51 d7 bc 7c 8f 6f bd c5 8b 6b bd 91 5a 9e bc
       -0.026284136 -0.058486447 -0.05750634 -0.019330295
000290 42 c0 68 bd 45 10 b6 bc f4 65 05 3d 2b cf 5e bd
       -0.056823976 -0.022224555 0.032567933 -0.05439679
0002a0 bd f3 2a 3b 64 72 c6 3c c7 c9 4d 3d c4 6d 5a 3d
       0.002608522 0.024224468 0.050241258 0.053327337
0002b0 22 03 28 bd 69 cd 2d 3d 0e b7 a8 bc 39 d2 ee 3c
       -0.041018613 0.042432223 -0.0205951 0.029152976
0002c0 3d e9 8d bc 54 c0 40 3d ac 0a 09 bb e3 61 be bc
       -0.01732313 0.04705842 -0.0020910902 -0.023240035
0002d0 46 ac 88 bc a6 6e d7 bc 27 f7 0f 3c 17 3a 22 bd
       -0.016683709 -0.026297878 0.008786953 -0.03960618
0002e0 2e 6b fe bc 60 77 c3 b9 69 d7 23 bc d4 bf 56 bd
       -0.031056967 -0.0003728224 -0.010000088 -0.052429035
0002f0 79 4f 69 bd 95 12 c7 bb 18 b1 d7 bb e8 23 47 3d
       -0.056960557 -0.006075213 -0.0065823905 0.048618227
000300 71 ae 48 3d c8 a1 c9 bc 01 bd 50 3d c1 41 f3 ba
       0.048994485 -0.024613276 0.0509615 -0.0018559025
000310 cf e7 7d 3d 7b f7 43 bc 28 f5 6c 3d 0f 40 79 39
       0.061988648 -0.011960859 0.057850987 0.00023770354
000320 f3 2d 85 3d 37 fe cd 3c e7 42 70 bc c5 53 83 3c
       0.06502905 0.025145633 -0.014664388 0.016031155
000330 00 65 2a bd 7d 7d 98 3d b0 c3 80 3d 83 2e 23 3d
       -0.041600227 0.0744581 0.062873244 0.03983928
000340 79 bd 46 3d f6 dd b6 bc 78 e9 7d 3c 30 78 a8 3c
       0.04852054 -0.022322636 0.015497558 0.020565122
000350 64 09 23 ba 27 f5 63 bd 30 a9 7e 3d 07 5d f7 3c
       -0.0006219356 -0.055653717 0.06217307 0.030195726
000360 83 be 60 bd 2a 2a 72 3d ea 8f cd bc 0e 27 26 3c
       -0.054869186 0.059122242 -0.025093038 0.010141147
000370 f3 7b 40 3d eb 2e 8f bd 86 3e c2 3c 00 59 7b 3d
       0.046993207 -0.06991371 0.023711454 0.061364174
000380 b8 cb 1b 3d 63 8d 8d 3d 3e 29 5e 3c 98 54 37 bc
       0.03803608 0.06911733 0.013559638 -0.011189602
000390 3c bc 02 3d 02 06 71 3d be b9 a8 3c 0a 94 5e 3d
       0.031917796 0.05884362 0.020596381 0.0543404
0003a0 2c 4a 64 bb ce d4 8b bc 3a c8 8f bc c3 ee 50 3d
       -0.003483425 -0.017069247 -0.01755153 0.05100895
0003b0 5c 93 e8 3c 2b a8 b5 bc 12 d4 47 bd 1f 4c 41 bd
       0.028390579 -0.022174915 -0.04878623 -0.047191735
0003c0 7d 45 39 bc c3 83 1e 3c f9 66 cf bc a9 50 25 3c
       -0.011308071 0.009674969 -0.025317656 0.010090032
0003d0 7b 68 5d bd ca a7 8a 3d a0 c4 9d ba a3 f7 4f bd
       -0.05405472 0.067702845 -0.0012036748 -0.050773274
0003e0 0f dc fe bb 14 b8 20 3d bc 87 48 3d c4 f3 1c 3c
       -0.007777698 0.03923805 0.04895757 0.009579603
0003f0 d9 ea b1 3c d5 77 5e bd 7e 9a d1 bc 1e 66 6f bd
       0.02171843 -0.0543135 -0.025586363 -0.058446996

layers.2.bias f4 [250]
000000 64 a3 06 3d 2e da 3b bb b5 67 15 bd 4c 02 16 3b
       0.032870665 -0.002866398 -0.036475856 0.0022889553
000010 74 24 5b 3d 09 cc 03 3c 74 9a b5 bc 76 65 0f bd
       0.05350156 0.008044251 -0.022168376 -0.03500887
000020 0c 51 29 bd b1 bd 5a 3c 0b cf 04 bc 5a cb 82 bc
       -0.041337058 0.01335089 -0.0081060035 -0.015966106
000030 40 07 1f bc dc 56 66 bc f7 f5 04 3d 14 27 37 bd
       -0.009706318 -0.014058795 0.032461133 -0.044715002
000040 ef 80 6a 3d 61 27 f6 bb 5f 22 76 3c 4f 13 00 bd
       0.057251867 -0.0075120186 0.015022843 -0.031268414
000050 4d 55 3d bc c6 3f d1 3c 5a ba 0a bd 4f c5 93 3d
       -0.011555982 0.025543105 -0.033869125 0.07215368
000060 eb e1 20 3d 62 2a 5c bd 1b 13 dd 3b c6 7f 44 3d
       0.039277952 -0.053751357 0.0067466623 0.047973417
000070 0b 64 08 bc 5a 35 51 bd e9 84 0f 3d 87 8b 12 3c
       -0.008324633 -0.05107627 0.035038862 0.008944399
000080 fb c4 44 3d 7e a8 0d bd 9f 60 7c 3d 88 7d 3f bd
       0.048039418 -0.034584515 0.061615583 -0.046750575
000090 07 b9 1e bd 46 86 6c bb 35 fb 6f bd 1c e9 ae ba
       -0.038750675 -0.0036090775 -0.05858918 -0.0013344618
0000a0 b5 d5 b9 bc 51 11 53 bd f5 26 68 3d 26 98 49 bd
       -0.022684911 -0.051530186 0.056677777 -0.049217366
0000b0 40 c8 1a bd 71 51 d1 3a d6 77 27 bd a7 d5 be 3c
       -0.03778863 0.0015969706 -0.04088577 0.023295237
0000c0 ec a1 24 3d c7 54 56 3d 7c 40 36 bd 32 2e 3c 3b
       0.040193483 0.052326944 -0.04449509 0.0028714058
0000d0 8f 7b 30 bd 2a c8 2e 3c e0 bb 07 3d b2 85 e1 3c
       -0.043086585 0.01066784 0.033138156 0.027529571
0000e0 38 5c 9e 3c 5b 31 ac bc ae 36 04 3d 3a 6f 78 bc
       0.019331083 -0.021019628 0.03227871 -0.015163237
0000f0 80 15 83 bc 84 ee 92 3c da c8 4a bd 61 74 d3 3c
       -0.016001463 0.017935999 -0.049507953 0.02581233
000100 74 3d bc b8 7d b8 c4 3c 43 e9 c2 bb 1d 2f 59 3d
       -8.975985e-05 0.024013752 -0.005948217 0.053023446
000110 68 be d0 3c c0 58 bd 3c a3 02 98 3c c5 c9 d6 bc
       0.025481418 0.023113608 0.018555945 -0.026219258
000120 04 a6 ea 3c a0 68 0c 3d 27 cb a7 bc 43 a9 57 bc
       0.028643616 0.034279466 -0.020482613 -0.013162914
000130 b6 b5 5a 3d cf 0a da bc 72 71 13 3c dc 65 d1 3c
       0.05339595 -0.026616482 0.008999215 0.025561266
000140 97 d5 11 3d 18 77 98 bc a9 b6 27 3d 50 58 5a bd
       0.035604086 -0.018611476 0.040945683 -0.053306878
000150 15 1a 86 bc 48 2a 0e bd b4 14 32 3d b6 75 69 3d
       -0.016369859 -0.03470829 0.043476775 0.056997024
000160 40 53 ab bc 20 4d 05 3c c4 f5 8e 3b 42 55 36 bc
       -0.02091372 0.008136064 0.0043627936 -0.0111287255
000170 73 08 b0 3b a7 2c 23 bc 98 ef c0 3c 17 70 41 3d
       0.005372101 -0.009959376 0.023551747 0.047226038
000180 9c 63 84 bd 0e 91 17 3d a0 98 4b bb 79 23 64 3d
       -0.064643115 0.03700357 -0.0031066313 0.05569789
000190 b3 16 17 3d b7 6c 8a 3c e0 00 87 bd 76 02 7a bd
       0.036886882 0.016897542 -0.06591964 -0.061037503
0001a0 e0 ae 53 bd 15 88 b8 3b 39 43 23 3c 6b 68 4c bd
       -0.051680446 0.0056314566 0.009964758 -0.04990427
0001b0 d8 43 19 3c 37 0f 94 3d c3 52 46 3c 0f 2e 52 3d
       0.009354554 0.072294645 0.012104693 0.051313456
0001c0 a5 59 4b 3c db 53 a3 bc 73 3d b2 bc b7 b7 06 3d
       0.01241151 -0.019937446 -0.021757817 0.032890048
0001d0 82 89 57 3c 30 47 b5 bb c6 3c 3b 3d 2b 05 03 bd
       0.013155343 -0.005532168 0.045712255 -0.03198735
0001e0 cb 0b 3c bd de b9 ad 3b de 87 9d bc 19 81 63 3c
       -0.045909684 0.005301698 -0.019229826 0.01388576
0001f0 4b 79 01 3d ea 64 fc bc 00 b7 bb 39 4b 2e 4a 3d
       0.031609815 -0.030809838 0.00035803765 0.049360555
000200 c7 52 b7 bb 34 a3 58 3d a1 28 f3 3b 6f 1a be bc
       -0.0055945846 0.052890018 0.007420615 -0.023205964
000210 88 c7 b2 3c 1b 99 e7 bc 79 1b 30 3d 22 32 42 bd
       0.02182366 -0.028271249 0.04299495 -0.04741109
000220 b0 a7 32 bc 85 a9 62 3c 15 24 5e 3d 73 80 06 3c
       -0.010904238 0.013834362 0.05423363 0.008209336
000230 85 03 69 3d 7a bc 28 3d 28 8d 47 3d 6b 06 70 3d
       0.056888122 0.04119537 0.0487186 0.05859987
000240 09 5d 54 3d 97 4c 64 3d 28 09 52 3a 54 33 6e bc
       0.051846538 0.055737104 0.00080122286 -0.014538605
000250 ff bd a1 bc 62 7d c5 bc f6 9c 61 bd ef 8f 75 3d
       -0.019743918 -0.024107639 -0.05508133 0.05995172
000260 57 fc 7e 3c 12 9b 53 bc 46 3c 1f bd 9a 10 64 3b
       0.015563092 -0.01291539 -0.03887584 0.0034799934
000270 5d 6c 13 3d 21 a6 d4 3c d2 e8 0c 3c 61 08 80 3c
       0.035992015 0.025958123 0.008600431 0.015628995
000280 7c 2f 08 bd 84 28 a7 bc 64 9d 1e bd 7e 34 b3 3c
       -0.03324841 -0.020405062 -0.03872432 0.021875616
000290 72 bf a4 3b 8c b4 27 3c e6 01 83 3a 32 c0 dc ba
       0.005027705 0.010235917 0.0009995073 -0.0016841947
0002a0 52 12 87 3b cf f9 77 bd ff 0c 85 bc f0 35 33 bd
       0.004122057 -0.06054097 -0.016241549 -0.04375261
0002b0 31 7f 4a 3c d7 70 14 bb a1 87 ed 3c 8e dd 58 bd
       0.012359426 -0.0022650266 0.028995337 -0.052945666
0002c0 da 76 2b bd 4f a9 98 bb 4d 18 bb bc 0a 11 27 3d
       -0.041861393 -0.004658855 -0.022838736 0.040787734
0002d0 34 d1 53 3d e1 07 08 3d 1f 91 94 bc fe 86 90 3d
       0.051713184 0.03321064 -0.018135605 0.07056998
0002e0 c1 82 7e 3b a8 d2 4d 3c f6 41 69 3c 51 a1 fd 3b
       0.003883526 0.012562431 0.014236918 0.0077401777
0002f0 16 b9 41 bd 88 b8 70 bc 30 54 c8 bc 21 f8 6a bb
       -0.047295652 -0.014692433 -0.024454206 -0.0035853463
000300 62 fc c7 3c 70 44 88 3d ed 10 80 3b 5f 6c 06 bd
       0.024412338 0.066536784 0.0039082677 -0.032818194
000310 51 5a 24 3d 6e 08 20 bd 75 9b ed 3c f1 ce 54 3d
       0.040125195 -0.03907054 0.029004792 0.051955167
000320 04 be 82 3c 41 df dd 3b 94 d5 3b 3d 9c 1a 63 3d
       0.015959747 0.0067709987 0.04585798 0.0554453
000330 b4 44 ea 3c ab d6 09 bd 08 7f 47 bd ae 17 94 bc
       0.028597213 -0.03365199 -0.04870513 -0.018077698
000340 52 22 65 bb da b5 2b 3d b9 d7 9a 3b 6e 06 b7 3c
       -0.0034963083 0.041921474 0.004725423 0.022341933
000350 e3 65 5c 3d cc dc 5d 3d 23 8d 26 3d 6c e5 77 3d
       0.053808104 0.054165646 0.040661942 0.060521528
000360 2e 0d 94 3c 5d 69 89 3d 70 dc 87 bc e4 05 94 3c
       0.01807269 0.067095496 -0.016584605 0.018069215
000370 12 71 2e bd f3 69 19 bd 33 36 3d bd 48 fe d8 bc
       -0.0425883 -0.037454557 -0.046194267 -0.026488438
000380 3e 01 2c 3d 53 b9 a8 3c 4e af 0c bd 05 1f 19 3d
       0.041993372 0.020596182 -0.03434687 0.0373831
000390 08 18 30 3d f8 fd 40 3d 07 b7 81 bd b9 34 08 bd
       0.042991668 0.047117203 -0.06333738 -0.033253405
0003a0 9a 48 7a 3d b2 06 49 3d 1c 4b 29 bd 0f 03 0d 3b
       0.061104394 0.04907865 -0.041331396 0.0021516716
0003b0 e6 1d c3 3c 86 15 f0 3c c0 69 b1 bc 08 6d 32 bc
       0.023817968 0.029307138 -0.02165687 -0.010890253
0003c0 05 6a 0f 3d 9e 0d 65 3d 49 b0 c3 bc 39 66 0b 3d
       0.035013217 0.05592119 -0.02388777 0.034033034
0003d0 34 7d 28 3d c5 d6 0f 3d 99 e6 e5 3b 6d bb 64 bc
       0.041135028 0.03511693 0.007016015 -0.013960701
0003e0 ca 62 1e bd 17 8b b8 bb
       -0.03866843 -0.005631815

layers.3.weight f4 [8, 250]
000000 8b 56 f5 3c 73 9a 64 3d 51 f6 9a bc 89 c0 bb bc
       0.029948493 0.055811357 -0.018916281 -0.022918956
000010 92 ed 1b 3d ea 40 22 bd 30 9c 24 3d 7f d4 b4 39
       0.03806836 -0.039612688 0.040188015 0.00034490597
000020 41 f3 4e 3d d5 90 52 3d aa b7 55 3d 8a 2e 15 bd
       0.050524954 0.051407654 0.05217711 -0.036421336
000030 4b b8 24 3d ba 3a 88 3d 58 f1 0c bc 51 15 ec bb
       0.040214818 0.06651826 -0.008602463 -0.0072046896
000040 ff 40 75 3d a0 c5 23 3d 4b 77 a2 bd 82 49 95 bd
       0.05987644 0.03998339 -0.079329096 -0.07289411
000050 07 76 84 3d 42 45 06 3d 9d a5 72 3d b7 47 35 bd
       0.064678244 0.032780893 0.059239972 -0.044257846
000060 ae 67 05 3d ea 0f 15 bd 07 49 8d 3d 69 4f 99 bc
       0.03256958 -0.03639213 0.068986945 -0.018714624
000070 54 ff a6 bd db 4e 34 bd cc 34 24 bd 28 ff 7d 3d
       -0.08154169 -0.044020515 -0.040089414 0.062010914
000080 9a 18 5b bd db 66 b8 bd 95 4a c6 bc 03 5a 3f bd
       -0.05349026 -0.09003993 -0.024205485 -0.0467167
000090 80 39 e4 bb d3 f7 bb bc f9 86 81 3d 7a b2 cd bc
       -0.0069648623 -0.02294532 0.06324572 -0.025109518
0000a0 28 bc 8f bc cd 5f 63 3d 7b 2e f5 3c 4b 25 0d 3d
       -0.017545775 0.055511285 0.02992939 0.034459393
0000b0 64 33 e4 3c d9 87 d3 3c db a0 67 bd 1f b8 3c 3d
       0.027856536 0.025821613 -0.056549888 0.04607403
0000c0 8e 19 72 3d fd 4b 53 3d be 66 36 3d ec 54 92 3d
       0.059106402 0.05158614 0.044531576 0.07145104
0000d0 f6 3d fa bc fb 18 43 3a 76 ac 5c bc 31 df 83 3c
       -0.030547123 0.0007442382 -0.013468852 0.016097637
0000e0 ae 1e d8 3b 87 a3 70 bc 2a 85 40 bd 01 43 5b bd
       0.006595454 -0.014687425 -0.047001995 -0.053530697
0000f0 e1 10 fa 3c f8 8d f5 bc b1 13 6e bd 02 5d 5d 3d
       0.030525627 -0.029974923 -0.058124248 0.054043777
000100 33 32 51 bd e1 5c 56 bd a8 9c 8b 3c d6 e5 81 bd
       -0.051073264 -0.05233467 0.017042473 -0.06342666
000110 a7 0f 88 3d 38 9d b8 bc 91 96 05 3d 1e b1 ff bc
       0.066436104 -0.022535905 0.032614294 -0.031212386
000120 0a 77 9a 3c 38 c1 20 3d e8 5f 26 3d 4b a0 4a 3b
       0.01885559 0.039246768 0.040618807 0.0030918296
000130 76 63 3d 3c 47 7e 44 3d 31 46 d1 bc 52 ea e6 3c
       0.011559358 0.04797199 -0.025546165 0.028187905
000140 b2 d6 7d 3d 6b ad 4f bc 6e 72 cf bc b4 06 c6 bc
       0.061972328 -0.012675623 -0.025323119 -0.024173118
000150 d9 c1 03 bd 58 db 68 3d f8 1b 89 3c 16 eb 87 3d
       -0.03216729 0.056849808 0.01673697 0.06636636
000160 a7 da 3f 3d 9f 8c 6d bd 40 40 4c 3d 73 1f 92 3d
       0.046839382 -0.057995435 0.04986596 0.07134905
000170 19 72 c0 3b 11 b2 1c bd 14 86 50 3d ac c7 11 3c
       0.0058729765 -0.038255755 0.050909117 0.008897703
000180 b4 d0 fd 3c 1f 25 93 3d b0 cb c1 bd 1e 6e af bd
       0.030983306 0.07184815 -0.094626784 -0.08565925
000190 ec 9f 44 bd 58 1e 8e bd d6 62 ad 3c 9b 6e 62 bb
       -0.048004076 -0.06939381 0.021165293 -0.003455079
0001a0 91 2f 6c 3d 6c b0 85 bd ee ed 88 3d e8 9c 81 3d
       0.05766255 -0.065277904 0.066860065 0.063287556
0001b0 33 e2 ef bc 87 fe 7e 3d 57 f6 d9 bc 50 d1 30 3c
       -0.029282665 0.062254455 -0.026606722 0.0107920915
0001c0 01 c8 77 3d 14 76 88 3d 9f 7e ab bd 9c 27 ea bd
       0.060493473 0.066631466 -0.083737604 -0.11433336
0001d0 ae c8 27 3d 5c 61 37 bd bc df 77 3d 1d b4 79 bd
       0.040962867 -0.044770584 0.060516104 -0.060962785
0001e0 b2 3c 3f bd 28 dc 54 3d 16 d7 37 bd 42 61 cf 3c
       -0.046688743 0.05196777 -0.044882856 0.02531493
0001f0 01 6c 61 bd 55 7c 31 3c 30 a0 48 bc bb c1 4f 3d
       -0.05503464 0.010832866 -0.012245223 0.050721865
000200 37 8a bb 3b c5 8b 22 bd ad 37 d1 bc ae fa 40 3d
       0.0057232636 -0.039684076 -0.025539244 0.047114067
000210 ff fa 50 3d 5b 3b d7 bb 68 b9 8c bc 53 01 2d 3d
       0.05102062 -0.006568355 -0.017178252 0.04223759
000220 1a 14 5d 3d 88 91 15 3b 91 40 24 3d c3 db 8c 3d
       0.05397425 0.002282234 0.040100638 0.06877854
000230 7b 9f 32 bd fe 25 a4 bb b6 d1 f8 bc 83 c6 0f bd
       -0.043609124 -0.005009412 -0.030373435 -0.035101425
000240 cd e6 8d 3c 46 15 71 3d 03 76 67 3c ac 0b b9 3c
       0.017321968 0.05885818 0.014127257 0.022588573
000250 f3 c7 db 3c 26 bc 00 bd 7a bb e2 3c 21 5b 7f 3d
       0.026828742 -0.031429432 0.027677286 0.062342767
000260 cb 71 68 3c 43 98 50 bd 62 a0 57 3c 26 98 2e bd
       0.014187287 -0.050926458 0.013160797 -0.04262557
000270 83 1b 78 3a 29 7a 68 bd 9f 3b 12 bd aa ed 81 bd
       0.0009464549 -0.056757126 -0.03570139 -0.06344159
000280 00 d7 df bc ca 1a 82 3d 3e 67 85 3d 81 d8 6a bd
       -0.0273242 0.06352766 0.065138325 -0.05733538
000290 b4 ac 17 bd 4c 9b 35 bc 16 1d 8c bc f4 96 bb 3b
       -0.037029937 -0.011084389 -0.017103713 0.005724782
0002a0 c8 5b 2c 3b fa 42 88 bc c9 55 41 bc 1d ac 95 3b
       0.0026299823 -0.0166335 -0.011800238 0.0045676366
0002b0 4a bc 83 3c 17 42 1e 3d 0b d4 ae bc 78 34 80 3d
       0.016080994 0.038637247 -0.021341344 0.062600076
0002c0 eb 7e 46 bd f0 50 80 3d e8 29 3e bd 5a ac 90 3d
       -0.048460882 0.062654376 -0.046426684 0.070641235
0002d0 ff f7 d3 bc 38 7c 41 ba 6a 55 29 bc 75 91 24 bd
       -0.02587509 -0.0007380876 -0.010335306 -0.04017778
0002e0 11 11 79 3d 60 33 a6 bc aa 01 88 3d f1 35 8e 3c
       0.06080729 -0.02028817 0.066409424 0.017359706
0002f0 a1 71 96 bc 58 02 af 3c 86 94 3b 3d bc ca 98 3d
       -0.01836473 0.021363422 0.04579594 0.074605435
000300 e7 e3 32 bd 85 71 91 3d 86 51 8a bd c6 bb 60 3d
       -0.043674376 0.0710173 -0.067538306 0.054866575
000310 04 38 6c 3d 45 84 69 bd 85 55 f1 3b b0 3a 88 3d
       0.05767061 -0.057010908 0.007364931 0.06651819
000320 90 88 b1 bc 2d af f3 bc 87 bd 03 3c f9 de 34 3d
       -0.021671563 -0.029746616 0.008040792 0.044157956
000330 76 16 95 bb ae ec 02 bd e2 db 78 3c 96 65 40 bd
       -0.0045497967 -0.031963997 0.015189143 -0.04697188
000340 4b 15 71 bd 7a 6d 7a 3c 1d fa 6f bd 38 be 88 3d
       -0.058858197 0.01528489 -0.058588136 0.06676906
000350 78 ba 8a 3d e9 c5 80 bb f5 be f4 3c 86 c3 42 bd
       0.06773847 -0.0039298427 0.029876212 -0.047549747
000360 fa 34 6e 3d 00 2c 2a 3d 47 bc 81 3c dd 25 b6 bd
       0.05815599 0.041545868 0.015836848 -0.088939406
000370 b8 2d 90 bc 2d 93 82 3d 98 f5 b5 bc f6 eb d5 3c
       -0.017599925 0.06375728 -0.022211835 0.026113492
000380 75 d9 22 bc 02 3a 42 3d 25 48 a7 bd 9d 1b fc bc
       -0.009939541 0.0474186 -0.08168057 -0.030774886
000390 ea 65 28 3d 49 5b 08 bd e6 e1 4a 3d f2 ba 97 3c
       0.041112818 -0.03329018 0.04953184 0.01852176
0003a0 2c 62 3e 3d f7 2a 6c 3d 30 93 3b bb 98 c3 53 bd
       0.046480343 0.057658162 -0.0028621666 -0.051700205
0003b0 1c 77 72 3c 0d 73 cd 3c 5d ee 8b 3d 6e 08 26 bd
       0.014798906 0.025079275 0.068325736 -0.040535383
0003c0 23 11 cb bd e4 bf 2f 3c 93 2a 1c bd b3 4a ca bb
       -0.09915378 0.010726903 -0.03812654 -0.0061734556
0003d0 a0 93 fd 3c 50 1e f8 bc fe ae 7a bd bc ca 59 bd
       0.030954182 -0.030287892 -0.06120204 -0.05317186
0003e0 cc d9 2e bc aa 84 04 3d 3e 2c 27 39 b4 e4 0c 3d
       -0.010672044 0.03235308 0.00015942843 0.034397796
0003f0 b8 4a 59 3d 16 44 f4 3c 14 ae c7 3c e7 3a 26 bd
       0.053049773 0.029817622 0.024375 -0.040583517

layers.3.bias f4 [8]
000000 9a a5 06 bd 97 cc f8 3c 26 62 74 3b b8 53 3f bd
       -0.032872774 0.030370994 0.0037289946 -0.0467107
000010 09 51 3c 3d bb 23 49 bd e5 7d ac 3b 23 42 3e bd
       0.04597572 -0.04910634 0.0052640312 -0.04644979
