actor.pth (torch, 535912 bytes, 8 tensors)

layers.0.weight f4 [250, 22]
000000 c8 30 27 be 78 a8 b8 3d 04 4b 93 3d 86 30 54 be
       -0.16327202 0.09016508 0.071920425 -0.20721635
000010 06 6f 8b bd ee f4 ee bd a3 e5 43 3d 1b 87 7a 3e
       -0.068082854 -0.116678104 0.04782642 0.24465601
000020 b4 31 11 3d 41 c1 41 be 29 d6 21 3d 2b 8e 63 3d
       0.03544779 -0.18921377 0.03951088 0.055555504
000030 47 66 07 be 57 f3 60 3e 02 ca 80 bd 79 62 f8 3c
       -0.1322261 0.21967827 -0.0628853 0.030320393
000040 57 33 3c be b4 53 48 bd c2 0b e0 3d fe d2 94 bd
       -0.1837896 -0.04890795 0.109397426 -0.07266806
000050 5d f4 dd bb 33 e1 09 3e 9f c7 2a bc 89 10 9d 3b
       -0.006773515 0.13464813 -0.01042357 0.004793231
000060 03 93 33 be 94 d2 44 bd 29 18 0e be af 20 e9 bd
       -0.1753655 -0.048052385 -0.13876404 -0.11383187
000070 2f 97 71 be 8d 77 5b bd f2 f2 42 3e 2c 66 25 3e
       -0.23592828 -0.05358081 0.19037989 0.16152257
000080 3f e6 89 3e d5 06 a2 bd 14 17 6d 3d a5 64 8c 3b
       0.26933476 -0.07911459 0.057883337 0.0042844587
000090 fc b5 ab 3e 08 48 34 3e 6e c4 98 bd 27 9a 32 be
       0.3353728 0.17605603 -0.07459341 -0.17441617
0000a0 3e 54 df 3d db 6e 45 3d f0 40 c9 bd 12 e8 28 be
       0.1090474 0.048201423 -0.09826839 -0.16494778
0000b0 dd 19 b1 bb ec bd 2e 3e d7 b4 35 be 4f b5 28 3d
       -0.0054046945 0.17064637 -0.17744766 0.041188534
0000c0 e2 27 ad 3d 2e 5a 3e bc 51 de 17 bd fb 78 d7 3c
       0.08454873 -0.01161818 -0.03707725 0.026302805
0000d0 dd 2b 4d be 92 46 e8 bd 6b a9 52 3e 1f 25 4f 3d
       -0.20036264 -0.11341585 0.2057244 0.05057251
0000e0 0e 4c d9 bd 90 42 24 be 97 af 5d bd 1e 54 84 3d
       -0.106102094 -0.16041017 -0.054122534 0.064613566
0000f0 fe 13 9e be 1a e5 a5 bd 35 5e 47 be 1e 99 7e 3e
       -0.30874628 -0.08100338 -0.19469531 0.24863097
000100 e9 06 8e 3e 81 0e 7c 3e 7e 9b 31 be b9 3a 1f bd
       0.27739647 0.24614908 -0.17344472 -0.03887436
000110 86 20 b5 bd c5 5e 79 3e a9 3c 8e bc 5c bf 09 3c
       -0.08844094 0.24352558 -0.01736291 0.00840744
000120 b4 cc fc bc f1 57 13 be 50 17 33 3e ae 6a b0 bd
       -0.030859329 -0.14389016 0.17489362 -0.086140975
000130 90 a7 fb bd 92 4a e9 bd 2c 3b af bd 1a 6f f5 3d
       -0.122878194 -0.11391176 -0.08556208 0.119840816
000140 2c f4 81 3e 7c ff 52 bd 24 2f c6 3e 69 f5 4e 3e
       0.253816 -0.05151318 0.3870784 0.20210804
000150 dd 41 56 3e 55 a8 c0 bd 54 0d f4 3d 74 4d 9b bc
       0.20923562 -0.09407107 0.11916605 -0.018957831
000160 61 a4 32 be 21 1e 63 be 89 ad d3 3d 55 d0 6f 3d
       -0.17445518 -0.22179462 0.103358336 0.05854829
000170 5b dd 27 bd c9 46 15 3e ea d2 c1 bd 89 b4 50 bc
       -0.040982585 0.14577784 -0.09464057 -0.012738355
000180 79 d0 30 3d c0 15 92 3c ea 31 86 be 73 76 17 3e
       0.043167565 0.017832637 -0.26209956 0.14791279
000190 d5 07 14 3e 11 f0 be 3d 7b 56 f3 bd 66 a9 74 3e
       0.14456113 0.09323133 -0.11881729 0.23892745
0001a0 1a 15 16 3e e9 3f 63 3d 2c 42 11 bd 76 95 2b be
       0.14656487 0.05548087 -0.035463497 -0.16756234
0001b0 71 a7 bb bc ce 32 b9 bd 10 8c ff 3d 8d 9d 04 3d
       -0.02290699 -0.09042893 0.12477887 0.032376815
0001c0 b2 e0 02 3e 91 a7 16 3c 53 9b 3e be 55 26 4f be
       0.12781027 0.009195224 -0.18613939 -0.20229466
0001d0 4c ba 32 be 57 ce b1 bd bb 29 18 3c dd 1f 7c 3d
       -0.17453879 -0.08681934 0.009287293 0.061553825
0001e0 29 c9 9d bd c3 c6 1f be 2f 72 17 3e 3d 07 a2 bd
       -0.07704384 -0.15603165 0.14789651 -0.07911537
0001f0 96 20 fb bd 7c 4b 09 be cb 63 b1 3c 31 70 87 3e
       -0.12262075 -0.13407701 0.02165403 0.26452783
000200 2d a3 ce 3d fb 62 1c be 97 97 9c bb 1f 5c 46 3e
       0.10089717 -0.15272133 -0.004778813 0.19371079
000210 e4 50 15 be 92 41 2c 3e 7d bb d5 bc 5d c8 7b 3c
       -0.14581639 0.16821888 -0.026090378 0.015367595
000220 55 d6 96 bd 4b ba 14 3e f0 9c 50 3b bb 9c b2 3c
       -0.07365099 0.1452419 0.0031831823 0.02180325
000230 46 5b b2 bc 5c 4a 29 3e 7f 8f 87 bd d4 d0 08 bd
       -0.021772038 0.16532272 -0.066191666 -0.03340228
000240 ef d1 ea bd fd c4 b4 3b 58 37 96 3e b7 65 5c be
       -0.11465823 0.005516647 0.293391 -0.21523176
000250 6f c3 0a be 8c 24 47 be 41 15 ae bc e7 7c b1 3d
       -0.13551114 -0.19447535 -0.021250369 0.08666401
000260 33 f2 ce 3d 3c b5 05 be 9a 9f b3 3d dc 21 2c 3d
       0.101047896 -0.13057417 0.08770676 0.04202448
000270 79 19 71 3e f6 6d 47 3e f9 50 4b 3d 40 d4 04 be
       0.23544873 0.1947554 0.04963777 -0.12971592
000280 95 73 33 3e 73 b8 33 be 16 4c 1b 3e 66 6a 16 3e
       0.1752456 -0.1755083 0.15165743 0.14689025
000290 5e e9 7a bd f3 b9 e5 3d 1b d2 46 3e d6 a9 ba 3c
       -0.061257713 0.112171076 0.19416086 0.022786062
0002a0 a7 04 28 be fa 60 b1 be e1 12 06 be ec 53 f5 3b
       -0.16408025 -0.346443 -0.13093139 0.007486811
0002b0 a4 61 0b be 81 df 34 bd 31 95 0b be 01 cb 25 be
       -0.13611466 -0.044158462 -0.13631131 -0.16190721
0002c0 e2 32 f9 3d 16 f0 9b bd 27 a6 4e 3d 31 fd 24 3e
       0.12167908 -0.07614152 0.050451424 0.1611221
0002d0 bc 81 04 3e bd 61 71 be 7d 3c 27 be ee 8a 41 be
       0.12940115 -0.2357244 -0.16331668 -0.18900654
0002e0 c5 72 46 bc 57 42 5e 3e 4e e8 40 bd bd fb 35 be
       -0.012112324 0.21704994 -0.047096543 -0.17771812
0002f0 3e 4f e6 bd d0 ed 67 be 34 b8 02 bd 7f 6f 0c bd
       -0.11245583 -0.22649312 -0.03191395 -0.03428602
000300 1a 30 11 3d e6 06 10 be dc 3c 17 be d7 49 4a 3d
       0.035446264 -0.14065132 -0.1476931 0.049386825
000310 dc ce 22 3e d2 5e 6a be 05 6a 13 3d f3 06 5a 3e
       0.15899223 -0.22887734 0.03598978 0.21291713
000320 9b 1c 9b 3c 32 67 33 3e 34 cd 44 3e 7e 28 da 3c
       0.018934539 0.17519835 0.19218904 0.026630636
000330 14 85 8d 3e f6 a6 f5 bd 75 43 a1 3c 96 9b 12 3e
       0.27640593 -0.11994736 0.019685486 0.14317164
000340 f9 6e 0f be e5 48 60 bc 73 75 32 be c8 43 4d be
       -0.14007176 -0.013689254 -0.17427616 -0.20045388
000350 62 73 b6 3e d2 77 72 bc bc d0 1e be 71 56 0f 3d
       0.35634905 -0.014799075 -0.15509313 0.034994546
000360 06 05 ce 3c 87 0c 49 3e c1 5b 4e 3e f4 40 5a bd
       0.02514888 0.19633685 0.20152189 -0.0532846
000370 17 10 09 be 03 aa 25 3e 7c bf 1d be 84 27 20 be
       -0.13385044 0.16178136 -0.15405077 -0.15640074
000380 c6 1c b8 bc 28 4d 02 be 8c 0a c6 bc e5 c9 82 bd
       -0.022474658 -0.12724745 -0.024174951 -0.063861646
000390 20 98 06 be ff 4e 46 3d 87 b5 3f 3e 64 c8 91 3e
       -0.13143969 0.04841518 0.18721591 0.28473198
0003a0 c0 b9 c6 3d 98 0d 32 bc b3 28 4f bd 94 9b 97 bc
       0.09703398 -0.010867499 -0.050575923 -0.018506803
0003b0 5d d6 c2 3e b9 4f 4c be c5 b9 01 be 9d 4b 9a bd
       0.3805417 -0.19952287 -0.12668522 -0.07533953
0003c0 d9 74 17 3e 6d 4d 6a 3e 64 11 d1 3c 58 1c 31 be
       0.14790668 0.22881098 0.025520988 -0.17295969
0003d0 24 5d 43 3e bf c2 8d bd bc fa e5 bc e2 27 bb bd
       0.19078499 -0.069219105 -0.028073661 -0.091384664
0003e0 16 1d 84 bd a4 e6 1a 3d 06 59 61 3d b2 00 41 be
       -0.0645086 0.037817612 0.05501654 -0.18847921
0003f0 eb 05 ae 3d 4d 5d 47 3e 07 5f 29 bd bf 40 40 be
       0.084972225 0.19469185 -0.04135039 -0.18774699

layers.0.bias f4 [250]
000000 9f ab 16 bd 34 5a 24 bd 07 42 ee bd 51 81 12 3e
       -0.036784764 -0.040125087 -0.116336875 0.14307143
000010 0d b4 d0 3d f5 5f c1 bd 68 55 d9 3d 8f 9b 4b be
       0.10190592 -0.094421305 0.10611993 -0.1988356
000020 cf 8c 84 3c fc d3 82 bd 97 79 32 be 6f 77 19 3e
       0.016180424 -0.06388089 -0.17429195 0.14986967
000030 36 6e 04 3d d1 6d fc bd c8 a6 91 bd b7 80 f7 3d
       0.032331668 -0.12325633 -0.07111889 0.12085097
000040 84 23 21 be 57 8f 7c 3e 4d 00 02 3e b0 80 a5 3c
       -0.15736204 0.24664055 0.12695427 0.020202965
000050 f3 c1 56 3e ce 28 1a 3d 48 37 11 be 2c 1c 41 3e
       0.20972423 0.03763657 -0.14181244 0.18858403
000060 72 87 10 3e 0d d7 8b bd 2c d4 bb 3d af 9c 21 be
       0.14114168 -0.06828127 0.09171328 -0.15782426
000070 98 9a 39 3e e8 c6 38 bc 4e 11 f4 3d f9 e9 31 3e
       0.18125379 -0.011277892 0.11917363 0.1737441
000080 27 7e 83 bd a2 82 42 3e b2 22 20 3e d1 65 1b bc
       -0.06420546 0.18995145 0.15638235 -0.009484724
000090 75 01 a6 3d 2a 0c a4 3d b9 b6 17 be 8e 92 f6 3b
       0.08105747 0.080101326 -0.14815797 0.007524795
0000a0 de 32 0f 3e 3f f5 84 3d d7 20 0f 3e fc 95 89 3d
       0.13984248 0.064920895 0.13977371 0.067180604
0000b0 54 54 8f bd 77 60 1e 3e 49 08 38 3e 09 ac 12 3e
       -0.06998506 0.15466486 0.1797191 0.14323439
0000c0 44 d5 d6 3d 08 f1 31 3e 70 da e2 bc d5 f4 84 bd
       0.10489896 0.17377102 -0.02769205 -0.064920105
0000d0 2b f2 98 bc 56 22 21 be 06 99 44 bd ba 4f 1f be
       -0.018670162 -0.15735754 -0.047997497 -0.15557757
0000e0 a1 40 79 3d b6 fe cb 3d b9 54 37 3e 09 05 ee 3d
       0.06085265 0.09960692 0.17903413 0.11622054
0000f0 28 c5 f9 bd ac ea 99 bd 80 e8 51 bd 22 c1 03 be
       -0.12195808 -0.07515463 -0.05124712 -0.12866643
000100 b5 7d 61 3d 3c 50 31 3e 64 97 a8 b9 b8 a2 30 3e
       0.055051524 0.17315763 -0.00032156252 0.17249572
000110 e1 2b a0 3c c2 f0 37 3e ae 49 86 bd a0 83 61 3c
       0.019552173 0.17962936 -0.06557022 0.013764292
000120 28 18 5e 3e 21 3d 00 bd 35 9e 15 3c 43 24 be bd
       0.21688902 -0.031308297 0.009131958 -0.0928426
000130 c3 86 69 3d 42 84 08 3e 6f 35 4b 3d 88 63 3e bd
       0.057013284 0.13331702 0.049611505 -0.04648164
000140 d8 95 9a bd 6f 3d cb bd 7d 24 35 bd 6b cf f0 bd
       -0.07548112 -0.09923827 -0.04422425 -0.11758312
000150 ac bd e3 bd 1d ea 90 bd 06 17 0a be 9b 21 19 3c
       -0.111201614 -0.070759036 -0.13485345 0.009346391
000160 8c ac 93 bd 96 52 34 be a2 82 09 3e ba 93 99 3d
       -0.07210645 -0.17609629 0.13428739 0.0749888
000170 c1 d7 35 3e b9 d6 bd 3d 47 cc eb 3d 75 43 0e be
       0.17758085 0.09269471 0.11513572 -0.1389292
000180 e9 c8 02 3e 80 73 1c be e4 b6 61 bd 1a a3 af bd
       0.12771954 -0.15278435 -0.05510606 -0.08576031
000190 94 5f e0 3d d4 9a be bb b7 bf a9 bd 66 f2 18 be
       0.1095573 -0.005816797 -0.0828852 -0.14936218
0001a0 85 1e 56 3e 55 63 13 3e 3c b5 1f be 85 a7 32 bc
       0.2091008 0.14393361 -0.15596479 -0.010904198
0001b0 4d 3c dd 3d 35 cf 27 be 8d ad 0c be b7 19 c0 3d
       0.10802517 -0.16387637 -0.1373808 0.09379905
0001c0 9e df 51 bc 1c 11 ce bc 53 04 89 3d 37 f6 2a 3e
       -0.012809662 -0.025154643 0.06690278 0.16695486
0001d0 a6 f6 86 bd 80 db b4 3d d0 6a 8b 3d 29 c1 b3 3d
       -0.06590013 0.08830929 0.06807482 0.08777077
0001e0 58 6c 59 3d cd c7 41 be 68 ce 45 be 45 cc 46 3e
       0.05308184 -0.18923874 -0.19317019 0.1941386
0001f0 f8 5e ad 3d 32 b2 71 3e a6 83 f7 bd 7f bc 97 bb
       0.084653795 0.23603132 -0.12085657 -0.004630625
000200 61 3a 27 bd 31 6a bd bc cf 1b 31 3e 4a 4b 91 3d
       -0.04082716 -0.023121925 0.17295764 0.070944384
000210 51 b0 89 3e f7 4a 0e 3e 0b 90 1f bd d2 e4 bf 3d
       0.2689233 0.13895784 -0.03895573 0.09369816
000220 14 1f 93 3d 83 f1 8f 3d e8 9e 22 3d 88 ea 30 be
       0.07183662 0.070284866 0.039702326 -0.17276967
000230 83 df c2 3d aa 18 f1 bd 47 94 8e 3d 2e 26 96 3d
       0.09515288 -0.117722824 0.069618754 0.07331501
000240 ed 6c 4e 3e 4d 1c 30 3e 67 b1 21 be 71 6e 76 bd
       0.2015874 0.17198296 -0.1579033 -0.06016392
000250 4d 17 22 be c6 ba 78 bc 1c e7 42 bd 9c 17 5c 3e
       -0.15829201 -0.015181249 -0.047583684 0.21493381
000260 31 68 f4 3b 31 b9 10 3e 27 34 08 3e 44 98 33 bd
       0.0074587096 0.14133145 0.13301145 -0.043846384
000270 1c b7 62 be c5 78 cb bd 20 a2 5e 3d 4b ed 4c be
       -0.22140163 -0.09935144 0.054353833 -0.20012395
000280 3e 24 0a 3e 2d 51 40 be 7e 38 97 3d 72 59 8d 3c
       0.13490388 -0.18780966 0.07383822 0.017254565
000290 ee f7 2b 3e bc 53 e0 ba 7a c8 d9 3d f6 d7 df 3d
       0.16793796 -0.0017114799 0.10633941 0.10929863
0002a0 64 0e d5 3d 9a ac 30 be 4f dc 2a be 43 ee 03 ba
       0.104031354 -0.17253342 -0.16685604 -0.0005032757
0002b0 40 b2 b9 bd b2 ca 26 3e 26 c0 5e 3d 05 22 ab bd
       -0.090672016 0.1628826 0.054382466 -0.08356098
0002c0 37 ec 3d 3d 7a b4 0d 3e 9c 58 07 3e d5 22 f8 3c
       0.04636785 0.13838378 0.13217396 0.030290047
0002d0 23 47 3b 3e 17 9d f8 3d 41 33 4f 3d 86 fc 4d 3e
       0.18288855 0.121393375 0.05058599 0.20115861
0002e0 e7 2d 07 bd 94 ed 48 be 5f be ab bd 57 26 12 3c
       -0.03300276 -0.19621879 -0.0838592 0.008920274
0002f0 54 72 e9 3d 34 c1 d3 bd f7 61 c7 bd a7 01 07 3e
       0.113987595 -0.10339585 -0.09735482 0.13184224
000300 f7 9f 6b 3e 1e 90 09 be 3b d7 f4 3b 67 fc 53 3e
       0.2301024 -0.13433883 0.0074719465 0.20701753
000310 d2 d6 66 bd df 08 17 3e 87 dd 4f 3d 13 31 cb 3d
       -0.056357212 0.14749478 0.050748374 0.099214695
000320 fc 60 26 be 82 8b 29 bd e7 43 9a bd 74 61 07 3e
       -0.16247934 -0.04139281 -0.075324826 0.13220769
000330 f8 ec c1 3d e7 ad 89 3b 0e 5b ee 3d 61 1d fc 3d
       0.09469026 0.004201639 0.11638461 0.12310291
000340 b6 79 00 3e 59 a4 42 be 42 0c db 3c 6f 81 0f bd
       0.12546429 -0.19008006 0.026739243 -0.035035547
000350 24 5a 1e 3e 92 e7 57 bc a0 b0 05 3e 6f 4d dd bd
       0.15464073 -0.013177769 0.13055658 -0.10805785
000360 4e 09 ae bd 26 c8 0b 3e 6c 8f 6d bd 6e fa 1c 3e
       -0.084978685 0.1365057 -0.057998106 0.15329906
000370 93 a0 cd bd 1d 30 98 3c 66 62 25 bc 4b 5e 00 bd
       -0.10040393 0.01857763 -0.010094261 -0.031339925
000380 ee ab 10 3e 8f a8 cc 3d 9c 2d 37 3e 7e 9a e1 3c
       0.14128086 0.099930875 0.17888492 0.027539488
000390 98 54 38 3e 53 02 41 3d 24 96 01 be 6d ec b1 bc
       0.1800102 0.047121357 -0.1265493 -0.021719182
0003a0 5f 69 4d bd 0f 89 14 be b2 8c 47 3e c5 8c d1 3d
       -0.050149318 -0.14505409 0.19487265 0.10231928
0003b0 bf 71 dc bd bd c0 88 bd bb ac 25 3e d3 89 c2 bc
       -0.10763883 -0.06677387 0.16179173 -0.02374736
0003c0 d4 3f 9a 3c 1d 27 0c 3d 91 ca 5f 3e 84 e5 56 be
       0.018829264 0.03421699 0.21854617 -0.20985991
0003d0 49 3c e9 bd 0c f2 c1 3d 2e 0c 1f 3e 38 6c a9 bc
       -0.113884516 0.09469995 0.1553199 -0.020681486
0003e0 8a 1e 3e 3c e7 80 fa 3d
       0.011603961 0.122316174

layers.1.weight f4 [250, 250]
000000 31 e5 90 bc 42 31 34 bb 23 a7 c0 bd 8b ed 48 bd
       -0.017687412 -0.002749518 -0.09406879 -0.049054664
000010 48 bf 90 bc dd af 2d bd 89 14 b4 bc a7 a3 4e 3d
       -0.017669335 -0.042404044 -0.021982448 0.05044904
000020 40 c8 0f bd e8 a4 1b 3d 22 c5 ef bc 6c 14 c8 ba
       -0.035103083 0.037999064 -0.029268805 -0.0015264875
000030 ec af 16 bd 1b 0e a3 bd c8 82 2a 3d 49 9b e9 3c
       -0.036788866 -0.07961675 0.04162863 0.028516429
000040 7a 23 7f bd 1e c6 b0 bd 66 d3 01 3d 10 f1 3e bd
       -0.062289692 -0.08631538 0.031695746 -0.046616614
000050 0d 8b c5 3d 2a 28 84 bc ea 6b 5c 3c ae 11 de bb
       0.096456625 -0.016132433 0.013453463 -0.00677701
000060 bf b5 f1 3c b4 87 50 3d 2e c7 6c bc 58 69 ca bd
       0.029505609 0.050910667 -0.014451785 -0.09883374
000070 f1 a0 93 3c 9e cc 83 bb 05 85 02 bd 80 1e a8 3d
       0.018021079 -0.004022195 -0.03186514 0.082089424
000080 1d dd 05 bd 7e 25 49 bd 75 e6 0f be 67 b2 ee bd
       -0.032681573 -0.04910802 -0.14052756 -0.11655121
000090 79 47 14 bd e4 a6 60 3d 93 1e da 3c e5 49 1b bd
       -0.036200974 0.05484666 0.026625907 -0.03791227
0000a0 5b f8 9d 3a c4 7a 08 bd 37 9b 8f bc 82 da 48 3d
       0.0012052165 -0.033320203 -0.017530067 0.04903651
0000b0 a0 3c 3b 3d d7 7e 1c bd ea 25 93 3c a5 b9 db bc
       0.045712113 -0.0382069 0.017962415 -0.02682192
0000c0 ef 8c 75 bd a1 5c 02 bd d6 e6 85 3d 1c fd b9 3b
       -0.059948858 -0.03182662 0.06538169 0.005675925
0000d0 d0 58 11 be db ce ea 3c 25 aa a4 bc 44 25 5e bc
       -0.14194036 0.02866309 -0.020100662 -0.0135586895
0000e0 63 79 94 bd dc 68 8b bc 19 50 54 3d df b2 0c bd
       -0.07249715 -0.017017774 0.0518342 -0.034350272
0000f0 1d 6a 94 bd cb 93 06 be 45 a0 3d 3c 5d b0 ea 3b
       -0.07246802 -0.13142316 0.011573856 0.0071621374
000100 04 dd 3a 3c b2 c9 29 bc 36 fa 84 bd db 65 8f 3c
       0.011405233 -0.010363029 -0.064930364 0.017504623
000110 50 d3 e3 3c 50 28 8a 3d 69 05 b9 bd 4b 01 1c bd
       0.027810723 0.0674597 -0.09034235 -0.03808717
000120 a5 55 9c ba d0 44 6a bd 28 a1 2b bd 56 91 08 bb
       -0.001192738 -0.05719453 -0.041901737 -0.002083858
000130 1a 82 1e bd 69 29 18 3d 68 19 50 3d 96 bb 9d 3d
       -0.038698293 0.037148867 0.05080548 0.07701795
000140 45 86 98 bb f2 c4 af bc 40 fd 57 bd d0 d2 0b bc
       -0.004654678 -0.021456216 -0.052731752 -0.008534148
000150 28 06 72 3c 2f 59 31 3d ed cb 4b bd 05 0f 25 bd
       0.014771976 0.043297943 -0.049755026 -0.040297527
000160 b4 0a 83 bd 3a a2 8e bd 46 eb 8a bd f2 b5 c3 3c
       -0.06398526 -0.06964536 -0.06783156 0.02389047
000170 2b fd 05 bd 09 87 22 bd 94 80 7c bd e4 a2 cf bd
       -0.032712143 -0.03967956 -0.06164606 -0.10138491
000180 aa 96 9b bd d5 88 27 3d 24 4c 65 bc 17 23 d9 3c
       -0.07597096 0.040901978 -0.013995204 0.02650599
000190 7c 5a 13 bd ba 9b aa bd 33 6f 68 bd 21 9e 38 3d
       -0.035974964 -0.08330484 -0.056746673 0.04507268
0001a0 0a da 69 3a 2b 19 a0 bd db e7 3f 3d eb bb 5d 3d
       0.0008920735 -0.078173004 0.046851974 0.05413429
0001b0 4d 01 a9 3c 5a 96 18 bd 20 94 c1 bc 9c 4c a6 bc
       0.020630503 -0.03725276 -0.023630202 -0.020300202
0001c0 05 dd e4 3a 89 dd 29 be 2a 13 ce 3c 74 cc 84 bc
       0.0017460888 -0.16588415 0.025155623 -0.016210772
0001d0 20 c0 bb bc ad f8 06 bd 0a a8 27 3d 62 6e cf 3c
       -0.02291876 -0.032952 0.04093174 0.02532119
0001e0 fa f6 e9 bd 5a 98 9b bd 11 7f 1f 3d 43 c2 51 3d
       -0.1142406 -0.07597418 0.03893954 0.051210653
0001f0 61 27 f5 bc 8f 57 15 bd cc fc 17 bd 4d 56 87 bd
       -0.029926004 -0.036460456 -0.03710632 -0.066082574
000200 94 3b ca bc a6 ff 46 bd 8a 05 90 bd c3 67 ac 3c
       -0.024686612 -0.04858365 -0.070323065 0.021045571
000210 3b 50 82 bd fb 13 55 3c 70 78 a8 bd cc f6 27 bb
       -0.06362959 0.013005252 -0.08226097 -0.002562928
000220 00 b7 cb bd 3e ac 25 bd cb ec cb 3b 0c ae 00 3c
       -0.09947014 -0.040447466 0.0062232963 0.007853996
000230 4b 7e c8 bd c7 8a 96 bd 93 da 1e bd 3c ec 5a bd
       -0.097897135 -0.073506884 -0.038782667 -0.053447947
000240 aa b4 cf 3c 3d 00 73 3d f7 cf ff bc f2 28 9a 3c
       0.025354702 0.0593264 -0.031227095 0.018818352
000250 2c 6f a0 bc e1 2f 24 3c f4 b0 cc bd c9 41 90 3c
       -0.01958426 0.010021181 -0.09994689 0.017609494
000260 08 09 94 3b 89 6e ad 3d 08 2f 24 bc 4c 5f 26 bd
       0.004517678 0.084683485 -0.010020979 -0.040618226
000270 de aa f5 bb 72 26 ec bc 1d 2b 9c bd 60 7a ee bc
       -0.0074971756 -0.028826926 -0.07625411 -0.029111087
000280 b9 0e 5e 3d be 71 83 bd d8 b2 b3 3d e2 71 6b bd
       0.05421326 -0.06418179 0.08774346 -0.057481654
000290 dd b0 e3 bd 04 3b 85 bd f3 22 e4 3c f2 3a 0b 3d
       -0.11117718 -0.06505397 0.027848696 0.03399176
0002a0 4a ef ed bd da 75 1d 3d f0 9b 22 3a a0 2b b4 bb
       -0.116179064 0.03844247 0.0006203046 -0.0054983646
0002b0 ce 7d bd 3c d8 41 3a bc 2a 1b 47 3d 47 56 9e 3b
       0.023131277 -0.011368237 0.04860989 0.0048320624
0002c0 a1 7f 4b bc b2 c2 9b bc b6 66 f9 3b d8 dd 9d bd
       -0.012420566 -0.019013736 0.007611121 -0.07708329
0002d0 e7 a9 b6 bb 41 40 4c bd 5d dc 0b 3d 68 dc 80 bd
       -0.005574453 -0.049865965 0.0341457 -0.06292039
0002e0 a2 31 97 3d be c7 80 3d cb 36 28 3d c6 c5 cc 3b
       0.073825136 0.06288098 0.04106788 0.0062491624
0002f0 c5 4e d9 3c 35 4f 59 bb 29 bc fe 3c 1d 4c 4e 3d
       0.026526818 -0.0033158783 0.031095581 0.050365556
000300 75 7a e1 bd ff 65 43 bd 18 58 8a 3c fc c7 bb bc
       -0.11009685 -0.047704693 0.01688771 -0.022922508
000310 c1 74 ee bc b1 b5 1d bd bd ab 6c 3d 87 7c 11 bd
       -0.029108407 -0.038503353 0.05778097 -0.03551915
000320 21 6d b4 bc cf 51 2e bd 8c 30 17 3c db f5 2b bd
       -0.022024693 -0.042558488 0.009227883 -0.041982513
000330 ee 5b 07 3d fd 60 1c bd 68 f8 47 3c fb e6 13 bd
       0.033046655 -0.038178433 0.012205221 -0.036108952
000340 10 e8 ba bd a4 bb 48 3c 5e cd 8d bd 6a ea c2 3c
       -0.09126294 0.012251768 -0.06923936 0.023793418
000350 b2 c4 d3 3b 5d 8c 63 bc 68 9d 32 3d fb c8 5f bd
       0.006462657 -0.013888446 0.043607146 -0.05463503
000360 27 52 6e bc 34 db 62 bc 3c 45 dc 3c 30 de 88 bd
       -0.014545954 -0.013846207 0.026888482 -0.06683004
000370 20 a1 48 be 7b c1 05 bd 85 03 8b bd 60 22 89 3c
       -0.19592714 -0.03265522 -0.06787781 0.016740024
000380 a8 62 a5 bc 31 26 13 bd c6 a8 39 3d bc 83 ac bc
       -0.020188645 -0.035925094 0.04532697 -0.02105891
000390 73 f4 06 bd be 9b a5 bd 51 7b b7 3b 91 7c c9 bb
       -0.03294797 -0.08086346 0.0055994173 -0.0061488827
0003a0 fe 12 eb bc 0f 85 04 bd 12 f3 99 bc fe 51 89 bd
       -0.02869558 -0.032353457 -0.018792663 -0.06705092
0003b0 65 b5 41 3b eb 44 6e 3c 0d d0 27 3d 6f aa 85 bd
       0.0029557582 0.0145427985 0.040969897 -0.06526648
0003c0 ea 30 c0 bc bc 32 ff 3c 8b 20 19 bd 31 d7 90 3d
       -0.023460824 0.031152122 -0.03738455 0.070722945
0003d0 29 c6 05 bd b3 1e 1d be 8b 38 ae bc 0e 91 79 3c
       -0.032659683 -0.15343742 -0.021267196 0.015232338
0003e0 af 0e e5 bc 8e 49 24 bc e2 06 a5 bd 86 5e a6 3d
       -0.027961103 -0.010027302 -0.080579534 0.08123498
0003f0 76 1d ed 3c 73 e3 86 bd f8 1d 55 3b 15 9e 8e bd
       0.028944712 -0.06586351 0.0032519083 -0.069637455

layers.1.bias f4 [250]
000000 b4 9f b2 3c c5 5a 15 3d f0 d0 5b 3c aa f1 49 bc
       0.021804668 0.036463518 0.013416514 -0.012325684
000010 f2 46 13 bd 9e 3b 2f 3c 79 96 a2 3c 3d 45 99 3c
       -0.03595633 0.010695366 0.019847142 0.018709773
000020 9b c9 34 3d bf fe 35 bd e4 f1 5c 3d 37 00 0f bd
       0.04413758 -0.044432398 0.053941622 -0.034912314
000030 26 8b df bc 4a f5 22 bd 3d 83 96 3c ac ac 7b 3d
       -0.02728803 -0.039784707 0.018373126 0.06144397
000040 05 53 39 bd 7f 27 af bc 1f c6 38 3d ac ce 52 3b
       -0.04524519 -0.021381138 0.045110818 0.0032166643
000050 f4 12 68 bd e0 2a b3 bc 92 c7 e2 3b de eb 1f 3d
       -0.0566587 -0.02187103 0.0069207633 0.0390433
000060 9d c3 1c 3d af 07 24 3c 2a a5 91 3c 5a 69 a1 bc
       0.03827249 0.010011598 0.017778952 -0.019703556
000070 8e 4e 18 bd ac 0d 0f 3d ce 55 7f 3d ca ae 19 bd
       -0.03718429 0.034925148 0.06233769 -0.037520207
000080 dd df 69 bd bc aa 88 3c e6 ac 72 bc a8 7b fb bc
       -0.05709826 0.016682975 -0.01481173 -0.030698612
000090 1c 72 00 bd 50 14 f4 3c c6 bb 63 3d 8d fa f6 bb
       -0.031358823 0.029794842 0.055598997 -0.007537192
0000a0 25 f5 18 bd 79 8e a4 bc ca ca 94 bd a2 aa b9 bb
       -0.037343163 -0.020087468 -0.072652414 -0.005666093
0000b0 66 0d 66 3d 6e d1 85 bc 70 92 84 bb 7d d5 53 3d
       0.05616512 -0.016335215 -0.004045777 0.05171727
0000c0 61 b1 59 3d be 39 3f bd c1 31 16 bd 11 d0 4b 3d
       0.053147677 -0.046685927 -0.036668543 0.049758974
0000d0 4a 0d 13 3c 82 a7 17 3c 52 dd 66 3d 17 80 0b 3d
       0.008975336 0.009256246 0.05636341 0.034057703
0000e0 78 c2 2f 3c 50 cc 24 ba aa 2a 0b 3d dc a8 c6 3c
       0.010727517 -0.00062865485 0.033976234 0.02425044
0000f0 e5 a3 f1 3c 4e 96 27 bd 86 0a 81 bc 07 e3 51 bd
       0.029497096 -0.040914826 -0.015752088 -0.0512419
000100 9f 84 3b 3d b6 5d 0d 3d ad d1 2d 3d 13 68 1c 3d
       0.045780774 0.034513198 0.04243629 0.03818519
000110 6e 28 e3 3c a9 28 61 bd da 61 5d 3d d8 96 4a 3d
       0.02772924 -0.054970417 0.054048397 0.049460262
000120 34 c5 86 3d 8f 44 5b 3d 89 86 04 3d b7 72 f7 ba
       0.06580582 0.05353218 0.032354865 -0.0018878792
000130 90 0f 85 3d 45 b8 94 3c 5e b4 34 3d a7 ff 89 3c
       0.06497109 0.018154273 0.044117324 0.016845537
000140 7c c3 46 bc d1 13 16 bd a8 47 a8 bb 19 aa 37 3c
       -0.012131568 -0.036639992 -0.005135495 0.011209988
000150 b0 ef 2f 3d 65 e6 ea 3a 90 d7 04 3d 32 4f 8a bc
       0.042953193 0.0017921446 0.03243214 -0.016883466
000160 a9 e0 fd 3c 5e 2b 49 3d 73 d8 37 bc 8a e0 82 bc
       0.030990915 0.049113624 -0.011221039 -0.01597621
000170 30 af 05 bb 6f dc 92 bd af 42 44 bd fb 14 80 3c
       -0.002039861 -0.071709506 -0.047915157 0.015635004
000180 d6 13 a5 3c 3b f5 0a bd 94 4a 1d bd 88 10 f2 3b
       0.02015106 -0.033925276 -0.0384012 0.0073872246
000190 43 67 73 3c 69 81 44 3d 29 ec e9 bb 77 a8 4b 3d
       0.0148561625 0.047974978 -0.007138748 0.049721207
0001a0 5c 93 11 3d 25 81 91 3c cd 63 81 3d 6c b5 31 bd
       0.035540923 0.017761776 0.063178636 -0.043385908
0001b0 db 10 35 bc 2c f1 50 3d 10 71 74 3d 32 37 3d 3c
       -0.011051382 0.05101125 0.059678137 0.011548804
0001c0 21 0d 1c 3d 5a a7 d3 3c 40 a9 16 3c ab aa 12 3c
       0.03809846 0.025836635 0.009195626 0.008951823
0001d0 ac c8 64 3c b6 8c 61 3d b5 4f d0 3c b1 45 a0 3d
       0.0139638595 0.055065833 0.025428632 0.078257926
0001e0 13 3d 00 3d 0a aa 12 3d a1 16 10 bd 51 dd 11 bd
       0.031308245 0.035806693 -0.03517783 -0.035611454
0001f0 aa 3d 39 bb 6c 4c 95 bb 9f 7a 7e 3d b0 82 6e 3c
       -0.0028265514 -0.0045562293 0.06212866 0.0145575255
000200 7e c8 be bc cf af 51 3d 11 47 41 3d de ba d1 3c
       -0.023288961 0.051193055 0.047186915 0.0256018
000210 6c 61 8b 3d fb f2 44 bd d0 23 56 bd 2e e5 4a bd
       0.06805691 -0.048083287 -0.052280247 -0.04953497
000220 49 a8 e0 3c ed b0 9d bc 3c da 16 bd b0 a8 7e 3d
       0.027423995 -0.019249404 -0.03682922 0.06217259
000230 44 30 14 3d 89 eb ed 3c ee 35 49 bd a6 ba 50 3d
       0.036178842 0.029042976 -0.049123697 0.05095925
000240 2b f7 d0 3c 20 39 9d bc fa a4 ce bc 61 fb 42 bd
       0.025508484 -0.019192278 -0.025225151 -0.047603015
000250 eb c6 97 bc 09 35 34 3d 2f a9 2d bd 21 40 0f 3d
       -0.018527469 0.04399589 -0.042397674 0.034973267
000260 6c d6 51 3d d8 6b 38 3d c3 c0 00 3a a2 23 11 bd
       0.05122988 0.045024723 0.0004911536 -0.035434373
000270 0e 9a 39 bc 2d 0e 44 3d db 94 f8 bb a3 a5 2c 3c
       -0.011328233 0.04786508 -0.0075861043 0.010537538
000280 c1 93 c0 bc 8d 90 1e bd 54 fa 0d 3d 3b 46 52 3d
       -0.023507955 -0.038712073 0.03466256 0.05133651
000290 99 75 64 3d 3f bb 90 bc d5 cc 58 3c 2c d2 b8 bc
       0.055776212 -0.01766741 0.0132324295 -0.022561155
0002a0 a7 bb ae 3c 9a dd 88 bd 2b eb 3e 3c d3 0a 68 bc
       0.021329714 -0.06682892 0.011652748 -0.014162737
0002b0 4d 27 48 bc 5d 93 48 bd cd bc 8e 3d 60 12 c1 bc
       -0.012216401 -0.04896866 0.06969605 -0.023568332
0002c0 ea 87 f2 3c e6 a7 95 bc 31 7f 85 3d ff 07 90 ba
       0.029605825 -0.018268537 0.065184005 -0.0010988711
0002d0 ad b2 24 3d 3f 94 81 bd db c9 c0 bb 92 9e 49 3d
       0.04020946 -0.06327104 -0.005883438 0.04922349
0002e0 db 69 f9 bc 6e 4e 35 3c fd bb 82 b9 5d 62 58 bd
       -0.030445984 0.011066062 -0.00024935594 -0.05282818
0002f0 1b 49 3a 3d b0 b9 84 3b ed 3f 5c 3d 2d bb 3d bd
       0.045479875 0.004050456 0.053771902 -0.046321083
000300 01 0d 88 3a c6 90 26 bc 95 04 4e 3b b7 fe d3 3c
       0.0010379852 -0.010166353 0.0031435837 0.025878293
000310 87 1c 30 3c db b4 3a bd bb 40 89 3d cc 1d 7c bc
       0.010748989 -0.045582633 0.067017995 -0.0153879635
000320 d0 eb 0e bd 1e 87 83 3d 80 ac 6b 3d d7 c1 19 bd
       -0.034892857 0.06422256 0.057537556 -0.037538376
000330 15 92 2d 3c 12 bb 9a 3d f4 eb 20 bd 9e 50 38 bc
       0.010593911 0.07555212 -0.039287522 -0.011249689
000340 98 41 3d bd e0 12 12 bd 26 28 ff 3c 7d 2b dc bc
       -0.046205133 -0.03566253 0.031147074 -0.026876206
000350 0d a6 00 bb 44 7a f6 bc f0 ad 0c bb ac 46 2e 3d
       -0.0019630224 -0.030087598 -0.002146598 0.042547867
000360 b7 b9 cf bc 3f 96 39 3d 89 91 21 3d 73 d8 1b bd
       -0.02535711 0.0453093 0.039445434 -0.03804822
000370 cc e2 a8 bb be 98 04 bd 7e 7d c8 3b 89 1f 4f 3d
       -0.0051539894 -0.03237223 0.0061184755 0.050567184
000380 97 d6 f1 bc 49 40 68 bd 8b a4 90 3c 60 93 04 3d
       -0.02952127 -0.056701932 0.017656585 0.03236711
000390 00 ed ee 3c 1e 14 bd 3b f4 f3 6f 3c 15 6a f2 3c
       0.029165745 0.0057702204 0.014645565 0.0295916
0003a0 6a 65 35 3c 6e 0e 1b 3d d5 bf 9b bc c2 f6 32 bd
       0.011071542 0.037855558 -0.019012371 -0.043692358
0003b0 5f bd 02 3d a2 78 c0 bc b8 86 a7 bc f3 6a 92 bc
       0.03191888 -0.023495022 -0.020449981 -0.017873263
0003c0 06 43 45 3d 6d 0d 2c 3d ad 62 2d 3d 80 aa 0d bd
       0.04815962 0.04200499 0.042330433 -0.03458643
0003d0 0c 88 63 bd 3b 76 c8 3c 56 45 97 ba 7d fe 16 bc
       -0.055549666 0.02447044 -0.001154105 -0.009215948
0003e0 3a f2 a1 bc 28 3c 91 3d
       -0.019768823 0.07091552

layers.2.weight f4 [250, 250]
000000 fb 8b fa 3b 2e 70 fb 3c a1 53 12 bd 80 e7 34 3d
       0.0076460815 0.03069314 -0.035724286 0.044166088
000010 82 ad 37 bc 65 b8 68 3b b6 8c 53 3a 34 a1 33 bd
       -0.011210801 0.0035510298 0.0008069979 -0.043854907
000020 b5 dc 19 bd fe 2d be 3c 86 af 34 3d 97 35 86 bd
       -0.037564 0.02321529 0.044112705 -0.0655319
000030 d5 61 7f bd b5 9a df bc d2 10 84 3c d3 bf 71 bc
       -0.06234916 -0.02729545 0.016121302 -0.014755207
000040 8f 17 bc bc a2 3a 74 bc 68 b0 7b bd 26 dd d5 3c
       -0.022960452 -0.014906557 -0.06144753 0.026106428
000050 84 c2 3a 3c 6d 2c 23 3d b6 bb 6b 3c a8 c0 73 3c
       0.011398915 0.03983729 0.0143880155 0.014877476
000060 ed 2d 61 bd 45 60 54 bd 56 00 9d bd 2c 85 b9 3c
       -0.05497544 -0.051849622 -0.0766608 0.02264651
000070 1d 2d bd bc 68 37 12 bc 91 7d 85 3d 76 12 e4 bc
       -0.0230928 -0.008924343 0.065180905 -0.027840834
000080 09 ad cf bd 38 82 75 bd db 3d 80 bd ca ae c6 3b
       -0.10140426 -0.05993864 -0.06261798 0.006063317
000090 87 91 a0 bd cb d8 c7 bb f7 af c4 bc a3 db 7a bd
       -0.07840257 -0.006098842 -0.024009688 -0.06124462
0000a0 55 16 da 3b c5 22 d5 3c 48 84 99 bd f8 51 69 3d
       0.006655494 0.026017556 -0.07495934 0.056962937
0000b0 6e 6c 3f bd 26 e7 1e bd 8c 5f 30 bd 4b 0b cc bc
       -0.046734266 -0.03879466 -0.04305987 -0.024907729
0000c0 20 83 5c 3c ec bb 8a 3d f1 be 43 bd 7d 13 84 3d
       0.013458997 0.067741245 -0.047789518 0.064490296
0000d0 b2 cb 73 3d 3d 22 c2 bc 38 19 a2 bc e0 66 c8 ba
       0.05952043 -0.023697967 -0.019787416 -0.0015289448
0000e0 55 e4 08 3d 41 13 7d bd 1a ea 31 bd c4 42 09 3c
       0.03342088 -0.06178594 -0.043436147 0.008377735
0000f0 81 b3 1c 3c 64 7e 18 bd e0 2b 09 bd 5b f8 c4 bc
       0.009564281 -0.03722991 -0.033489108 -0.024044206
000100 e0 5b c3 bc 05 63 e8 3c 54 33 89 3d 03 43 a7 bd
       -0.02384752 0.028367529 0.06699243 -0.08167078
000110 b3 c3 b2 3b 1a 6c 7a bd af a4 17 3d 69 92 2f 3d
       0.005455458 -0.06113825 0.03702229 0.042864237
000120 94 3f 06 bd 43 07 16 3c 0c c5 77 bc c5 6d 22 bc
       -0.032775477 0.009157005 -0.015122663 -0.009913866
000130 ae 90 f4 bc 1f 3b 3d 3d 48 ff 0a 3d 56 ac d5 3c
       -0.029854145 0.04619896 0.03393486 0.026083153
000140 ba 52 3e 3d 35 ad 8f bc ff 0d 1f 3c 8b a0 92 bd
       0.046465613 -0.017538646 0.009707927 -0.071595274
000150 b0 6b 73 bc 1c 72 18 3d dd af 16 3d bf 19 7c bc
       -0.014857218 0.0372182 0.03678881 -0.015386998
000160 af 00 b8 3c 38 ab 73 bd 4e 6c fb 3c 81 fc 57 bd
       0.022461263 -0.05948946 0.030691292 -0.05273104
000170 b5 75 9e bd 4e 7c 0a bd b6 c8 97 bc c6 7f db bc
       -0.077372946 -0.033809952 -0.018528324 -0.026794326
000180 61 ad e3 3c d2 ab 34 3d 87 3c 00 3d 79 04 d9 3c
       0.027792634 0.044109173 0.031307723 0.02649139
000190 f9 68 2f 3d 68 12 98 3c 1c 9c 1a 3d ea 28 16 bd
       0.04282472 0.018563464 0.037746534 -0.036660112
0001a0 61 bc 29 3d c9 2a 86 bd d6 68 40 3d 03 49 81 bd
       0.041439418 -0.06551129 0.04697498 -0.06312754
0001b0 ce a8 3c bc 56 87 1d bd f7 22 82 bc 02 f4 c2 bc
       -0.011514856 -0.038459145 -0.015885813 -0.023797993
0001c0 7d 9d ae 3b d0 60 62 bd 48 fb 73 3d 16 3e e5 bc
       0.0053288327 -0.05526811 0.059565812 -0.027983706
0001d0 01 dc db 3c 43 9c 39 bd 1b 89 29 3d 88 3e 54 bd
       0.026838304 -0.04531504 0.04139052 -0.051817447
0001e0 07 14 84 bd 09 db d8 bc fc 1c 21 bc 53 0a 04 bd
       -0.064491324 -0.026471632 -0.009833571 -0.03223641
0001f0 66 90 3e 3d 52 09 f1 bb 3e e5 05 3d 6f b8 5a 3c
       0.046524428 -0.0073558474 0.032689326 0.013349636
000200 5e 78 2a 3d 04 dd 34 3d 46 2f 31 3c 50 a2 77 bd
       0.041618697 0.04415609 0.0108144935 -0.060457528
000210 58 e6 26 3c ee 04 bb bd 11 1b 90 bd 6c 85 b9 bc
       0.010186754 -0.091318 -0.070364125 -0.022646628
000220 b3 9d f8 bc cb b9 5c bc c9 7a 44 3c 69 21 9c bc
       -0.030348634 -0.013472031 0.011992165 -0.0190589
000230 6a 7a d6 bc ee cb ec bc 9c 26 1f 3c b7 45 3f bd
       -0.026181418 -0.028905835 0.009713795 -0.046697345
000240 87 e9 ef bb 97 71 15 bd 5f ce 51 bc 1d f7 03 3d
       -0.00732154 -0.03648528 -0.01280555 0.032218087
000250 0a 6f 1d 3c b8 0a 23 3d 32 19 99 bd 1f cb 44 3d
       0.009608993 0.039805144 -0.07475509 0.048045274
000260 db d7 8e 3c e7 53 45 bd 36 86 0b 3c b7 93 4b 3c
       0.017436912 -0.04817572 0.008515885 0.012425355
000270 02 0f 87 3c b8 2c 28 3d 87 02 03 bd a0 80 40 bd
       0.016486648 0.041058272 -0.031984832 -0.046997666
000280 55 ae 49 bc f7 43 06 bd 66 7a 9e bd 52 1e be bc
       -0.01230963 -0.03277966 -0.077381894 -0.023207817
000290 25 a0 f1 bc 53 21 ad 3b bf 20 11 bc 4d 10 3b 3d
       -0.029495308 0.0052835136 -0.008857905 0.045669843
0002a0 86 58 e6 bc 11 87 01 bd b5 06 32 3d 77 b0 7e 3c
       -0.028118383 -0.03162295 0.043463428 0.015545002
0002b0 a9 9d e0 3c 80 95 9b bc b8 b8 ef 3b 45 69 48 bd
       0.027418928 -0.018992186 0.0073157214 -0.048928518
0002c0 3f 7f 4f bb b2 f2 00 3d 34 47 02 3d b0 c0 c5 bc
       -0.0031661538 0.031481452 0.031806186 -0.024139732
0002d0 e8 fd f6 3c 0f 41 92 bd 5d e0 ba 3b cf 1e 1a 3c
       0.030150369 -0.07141315 0.0057030157 0.009406759
0002e0 75 6f 7d 3d 30 43 bb bc 57 86 48 bd 91 d1 6d bd
       0.06187387 -0.022859186 -0.04895624 -0.058061186
0002f0 e9 63 ef bb 63 87 44 3d e3 05 8d ba e4 7f 60 3d
       -0.0073056114 0.047980677 -0.0010759201 0.054809466
000300 db f6 b0 3d 26 be c9 3b 8a 43 27 bd 6a a2 86 3c
       0.08640834 0.0061567007 -0.040835895 0.016434867
000310 0a c6 ca 3b 5a 45 ad bb 17 ca 98 bd 3f 2f ad 3c
       0.006188159 -0.0052878084 -0.074604206 0.021140693
000320 91 e0 78 b9 e8 8f f8 bc 78 fe 34 3d bf 3d 91 bc
       -0.0002373478 -0.030342057 0.044187993 -0.017729638
000330 6c f8 ab bb bd 32 82 bd 1e a2 5d bd 2a 00 bd bd
       -0.00524812 -0.06357334 -0.054109685 -0.09228547
000340 e3 81 16 3c a7 c2 88 3c ab cf c2 3c d5 28 d0 bc
       0.009186241 0.01669438 0.023780664 -0.025410095
000350 34 00 c4 3c 62 cc 56 3d b1 45 41 bc 90 0f 93 bc
       0.023925878 0.05244101 -0.011796401 -0.017951757
000360 ca 30 82 3d a5 d9 3b bd 79 d5 36 bd 07 db 02 bd
       0.06356962 -0.04586186 -0.044637177 -0.031947162
000370 31 fa a1 bb 9a 0a 72 bb bb d7 5c bd 2d a0 84 bd
       -0.004943155 -0.0036932589 -0.053916674 -0.064758636
000380 8e bc 28 bd ee 1e 3e 3d 07 c7 4c 3c 8a bb 23 bd
       -0.041195445 0.046416216 0.012498624 -0.039973773
000390 c4 17 c3 ba d4 ff 71 bd 5c a9 8d bd b6 c2 80 bd
       -0.0014884402 -0.059081867 -0.06917068 -0.06287138
0003a0 fb 1f 23 bc f5 4e 5b 3c 44 8e 63 bd 0e 78 29 3d
       -0.009956355 0.013385524 -0.055555597 0.04137426
0003b0 02 a2 8b bd 80 8f 33 bd 03 3e 0f 3c 64 42 d8 3b
       -0.0681801 -0.043838024 0.008742812 0.0065997113
0003c0 87 d5 88 bd 6d 5a a5 bb be a5 88 3a 24 0f 5c bd
       -0.06681352 -0.00504618 0.0010425372 -0.053725377
0003d0 03 30 14 3c 4f 7d 69 bd 3b 75 81 bd 98 1f 72 bd
       0.00904465 -0.05700427 -0.06321188 -0.05911216
0003e0 b8 a6 b6 b9 d9 eb 94 bc 43 3a b9 3b d1 e1 25 3e
       -0.0003483796 -0.018178867 0.0056526973 0.16199423
0003f0 b7 14 42 bb ef 2b 2b 3d 0b 03 37 bb 01 49 05 3e
       -0.0029614398 0.041789945 -0.0027925398 0.1301613

layers.2.bias f4 [250]
000000 b3 13 15 bd 44 39 f9 bb b7 09 8b bd d7 d5 6c 3d
       -0.03639574 -0.0076057035 -0.06788962 0.05782112
000010 2e f4 e2 ba e1 c5 88 bc 3f 43 4b bd 49 7f 11 3d
       -0.0017315203 -0.016695919 -0.049624678 0.03552178
000020 bb 74 3d 3d 7c d2 be 3d e0 ed d6 3c a6 2a d9 3c
       0.0462539 0.093174905 0.026236475 0.026509594
000030 ea c8 9c bc 7f 57 65 bd c8 6c 2c bd 29 b0 b2 3d
       -0.019138772 -0.055991646 -0.04209593 0.08725006
000040 fb 4e 18 bc be 6b 3c 3d c4 67 6d bd fc 17 c2 3d
       -0.009296174 0.04600119 -0.057960287 0.09477231
000050 19 2f a7 3d 92 c3 62 3c f5 bd 93 bb 9a 4a ac 3c
       0.0816328 0.013840573 -0.0045087286 0.021031667
000060 7d b9 77 3d ad ef 00 3d ea 5c a3 3d 13 10 e5 3c
       0.06047963 0.031478573 0.07976706 0.027961766
000070 6f 2a 92 3d 0a e0 84 3d 8d 2a 91 3d 5c 07 63 3b
       0.07137 0.064880446 0.07088194 0.0034641838
000080 54 24 53 bd e3 49 82 bd 00 82 f9 bb cf 51 9a 3d
       -0.051548317 -0.06361749 -0.007614374 0.07535135
000090 97 f5 8c bd 48 75 83 3d 39 45 45 3d c5 ed 1a 3c
       -0.0688278 0.06418854 0.04816172 0.009456103
0000a0 bc 46 a9 3d a1 51 38 bd 30 06 d1 bc 45 d1 9f bc
       0.08265445 -0.044999722 -0.025515646 -0.019508967
0000b0 36 a6 6d bd 96 b1 94 bc ce ff 7f 3d 72 d5 37 bc
       -0.05801984 -0.018151086 0.062499814 -0.011220323
0000c0 23 36 e9 3c 8f ce fe 3b 3f 69 5a bd 3e fa bb bc
       0.028468197 0.0077760885 -0.053323027 -0.022946473
0000d0 c0 45 0a 3d ad 03 67 bb f0 67 b6 3d 38 4e af 3c
       0.033757925 -0.0035249994 0.08906543 0.021399602
0000e0 7e 33 f3 bc 33 fc 64 3b 66 32 56 bd 8e 1f ab 3d
       -0.02968764 0.0034940362 -0.052294157 0.08355628
0000f0 9f a4 3a bc 8c d1 a0 3b dc 0f c2 bc e3 1d bc bc
       -0.011391788 0.0049077924 -0.023689203 -0.02296347
000100 31 46 81 bd 1d 9e c5 bc 95 6e 7e 3c 20 63 54 3d
       -0.06312216 -0.024123246 0.0155292945 0.051852345
000110 c5 e7 b9 bc 1c 27 3a bd f1 2a 58 3d 22 62 8e 3d
       -0.022693524 -0.045447454 0.052775327 0.06952311
000120 30 1a 6a bd a4 68 62 3d 00 84 99 bd f1 65 31 bd
       -0.05715388 0.055275574 -0.0749588 -0.04331011
000130 69 f4 a5 3c 1a 6f c4 bb 11 e8 a5 ba c4 97 55 bd
       0.020258145 -0.0059946897 -0.0012657662 -0.052146688
000140 da ea 6d 3c 41 1a 54 bd 72 a0 42 3d 22 32 47 3d
       0.014521325 -0.05178285 0.047516294 0.048631795
000150 4e 56 1f 3d 65 b0 79 3c 04 2e 44 bd c4 f6 b7 3d
       0.038900666 0.01523981 -0.047895446 0.08982614
000160 29 54 c8 3c 8e fa 1b 3d b7 d2 51 3d 14 a0 f2 bc
       0.024454193 0.038080744 0.051226344 -0.029617347
000170 36 59 8b bc 54 33 43 3d b7 95 ba bc 59 85 ea bc
       -0.017010313 0.047656372 -0.022776468 -0.028628038
000180 a7 1d 37 bd 33 7f 00 3d e8 b8 d9 3c ec fe 13 bd
       -0.044706013 0.031371307 0.026577428 -0.036131784
000190 27 4a dc 3b 57 c7 6a bd 3d 8a ac 3c 41 53 5d 3d
       0.006722707 -0.05731901 0.02106201 0.054034475
0001a0 d5 87 2c 3d b3 9a 45 bc 33 8b 7d 3b ab 56 91 3d
       0.042121727 -0.012060809 0.0038687706 0.07096609
0001b0 10 52 04 3d 7b 3a 97 3d 58 7b a1 bc 3b 86 12 bd
       0.032304823 0.07384201 -0.019712135 -0.035772543
0001c0 4e ed 1e bd 00 de 84 3d 8e 31 be bb e1 ff c3 3b
       -0.03880053 0.06487656 -0.005804247 0.005981431
0001d0 38 57 a3 3d 73 d5 8a bd 0d d1 96 3d 09 30 b7 3c
       0.0797562 -0.067789935 0.07364092 0.022361772
0001e0 1d 00 67 3d 61 7b ce 3c 58 ae 36 bc 6b 97 62 bb
       0.056396592 0.025205316 -0.011149965 -0.0034575115
0001f0 73 8a 57 bd 7a 03 35 3d 80 37 7b bd f9 ce 1f bd
       -0.05262227 0.04419277 -0.061332226 -0.039015744
000200 0e ba 5e bd 00 d8 59 3d d1 35 9e 3d 75 d6 29 bd
       -0.054376654 0.05318451 0.077251084 -0.041464288
000210 f0 eb 13 3d 03 35 3f 3d cb 60 03 bd bd a2 79 bd
       0.03611368 0.046681415 -0.03207473 -0.060946215
000220 07 2e b3 bc 3a 3c 5a 3c e2 20 cf 3c de 55 ee 3c
       -0.021872533 0.013320023 0.025284234 0.029093679
000230 24 f7 be bc f3 59 61 bd 69 ce 8f 3d 74 2d 27 3d
       -0.023311205 -0.055017423 0.070217915 0.04081483
000240 4f 8c 84 3d fd d0 98 bc 2e 9b 12 3c 8c 5e b1 bc
       0.06472074 -0.01865434 0.0089481305 -0.021651529
000250 c6 f8 e8 3c 96 8d f3 3c 36 47 aa bc d8 92 cf 3c
       0.028438937 0.0297306 -0.02078591 0.025338575
000260 ab fb 17 bd f1 be a2 3d 0f 8f 37 bd 8b ef d7 3c
       -0.037105244 0.079465754 -0.044814166 0.02635934
000270 c1 90 1f 3d 3c 7d 51 3d d9 9a 00 bd 22 3e 3c bd
       0.038956407 0.051144823 -0.031397674 -0.045957692
000280 68 c4 b4 bc f8 45 59 bd bd 74 9f bd a0 f6 28 3d
       -0.02206631 -0.053045243 -0.07785938 0.041250825
000290 77 37 a3 bb 30 11 23 bd 29 3f 06 3c e6 4e e3 3c
       -0.004980977 -0.039811313 0.0081937695 0.027747583
0002a0 6d fd ed 3b a2 e9 84 bd 31 47 7e bd ad 63 37 3d
       0.0072628767 -0.064898744 -0.062079612 0.044772793
0002b0 78 fa 6d 3d 8f 99 5e bd a4 91 d4 bc 14 a2 b2 3c
       0.058100194 -0.054345664 -0.025948353 0.0218058
0002c0 b2 f0 0a bb 90 07 42 bd 39 e9 fc 3c db 57 7f 3d
       -0.0021200594 -0.047370493 0.030872928 0.062339645
0002d0 11 77 06 3d 76 17 f6 bc 5a f3 29 3d 6d d7 a6 3c
       0.032828394 -0.030040484 0.041491844 0.020366395
0002e0 b8 7a 0b 3d 5b 95 5e bd 2e 29 10 3d be 01 3e bc
       0.03405258 -0.054341655 0.035195522 -0.011597095
0002f0 7e 28 ff bc 5e 93 1b 3d 59 c4 a8 3d 4c 95 62 bd
       -0.031147238 0.037982337 0.08240575 -0.05531816
000300 b7 3d 20 bc 4e 77 0e bd 26 22 16 3d 95 10 72 bd
       -0.009780339 -0.034781747 0.03665366 -0.059097845
000310 3c 9c 97 3d 20 9f ce bc 4a 5e 67 bc b5 5f 80 bc
       0.07402846 -0.025222361 -0.014121601 -0.015670637
000320 30 65 e5 bc 2c 5b 2a 3d 2f 71 b4 3c 92 b9 ae ba
       -0.028002352 0.041590855 0.022026626 -0.0013330451
000330 b9 e8 2b 3c 9a 79 92 bc f6 ed 88 3a f1 bf e7 bc
       0.010492497 -0.01788025 0.0010446894 -0.028289767
000340 f5 41 10 3c 4c ed 1f bb 15 ad 8e bd b3 0f 50 bd
       0.008804788 -0.0024402915 -0.069666065 -0.050796222
000350 a5 c3 65 bc 4b 6f 02 bd ac c1 22 bc 74 b5 24 3c
       -0.014023696 -0.03184442 -0.00993387 0.010053027
000360 95 85 5f bc ca b6 50 bb 96 f1 77 3d ce 5e 26 bd
       -0.013642688 -0.0031847232 0.06053313 -0.040617757
000370 fb 04 6a bd 6a be 0c 3d b4 df 01 3c a6 57 f3 bb
       -0.057133656 0.03436128 0.00792687 -0.00742622
000380 d2 c6 e9 bc 38 ce d2 bb 43 4b c8 3d e7 5d ec bc
       -0.028537188 -0.0064332746 0.0977998 -0.02885337
000390 c0 aa e5 3c 6c 01 62 3d f0 6b c2 bc 03 ec 44 3d
       0.028035522 0.055177137 -0.02373311 0.04807664
0003a0 e0 34 94 bc c0 a6 ae bc 36 c8 5d bc a3 68 43 3d
       -0.018091619 -0.021319747 -0.013536504 0.04770721
0003b0 7c 40 94 3d 7b 3e 8e 3d 25 d1 42 bd 2d 92 c8 bc
       0.07238862 0.06945511 -0.047562737 -0.024483765
0003c0 0d e9 af bc fd 3e 84 3d 8f b8 35 bd 18 a4 1a bd
       -0.021473432 0.064573266 -0.044365462 -0.03775415
0003d0 0a 4e 2b bc 05 b2 1a 3d 14 9a 7f 3d f3 37 61 3d
       -0.010455618 0.03776743 0.0624028 0.054984998
0003e0 fe 21 83 3d 8b 27 8c 3d
       0.06402968 0.0684348

layers.3.weight f4 [8, 250]
000000 0c f8 9d ba 9b b6 37 3d f0 c6 ec 3c e9 a6 0f be
       -0.0012052073 0.04485188 0.028903455 -0.14028515
000010 c1 14 b4 bd 11 fc 1b 3d d5 3c a8 bd 11 8e 9f 3d
       -0.08793021 0.038082186 -0.08214728 0.07790769
000020 11 6a dd 3c 23 66 96 3d 2b 20 e2 3c 1a 3a 4c 3d
       0.027028115 0.073437 0.02760323 0.049860097
000030 41 8e 72 3d ba 16 0b 3d 3f 4b 08 be 02 37 b4 3d
       0.059217695 0.03395722 -0.13309954 0.087995544
000040 b2 dd 95 bc 3b ac 01 3d 99 1c 4e bc fc 12 7b 3d
       -0.01829419 0.031658392 -0.01258006 0.0612974
000050 8f 6c 29 3d 8c d8 40 3d b6 ac a9 bd 90 28 cd bd
       0.041363295 0.047081515 -0.08284895 -0.10017502
000060 d3 62 6a 3d 1f 10 35 3d 5a 43 a2 3d 23 e4 e3 bd
       0.057223152 0.044204827 0.079230025 -0.11127498
000070 b8 45 97 3d a0 bd b0 3d 35 40 81 3c 88 75 08 bc
       0.07386345 0.08629918 0.015777687 -0.008328803
000080 c7 cf 3c 3c fd 42 35 3d d8 44 97 bd 55 3c 98 3d
       0.011524147 0.044253338 -0.07386178 0.074333824
000090 c7 74 e0 3c 58 36 45 3d 73 71 7e 3d 44 9d ce 3c
       0.027399434 0.04814753 0.062119912 0.025221474
0000a0 46 f7 74 3d 94 d9 bd bd 5f 4b 2d 3d b0 fd 9a 3d
       0.05980613 -0.09270015 0.042308208 0.07567918
0000b0 6b 96 59 bb c1 67 4f 3c 59 71 bc 3d 0b c1 59 3d
       -0.0033201228 0.012659014 0.09201307 0.053162616
0000c0 d3 f1 cf 3c 6e f4 19 be f9 3d ba 3d 17 20 c8 bc
       0.025383865 -0.15034649 0.090938516 -0.024429364
0000d0 fa a3 bb 3d 2a 6a 7f be 16 a4 90 3d 82 5b 5e 3d
       0.091621354 -0.24942842 0.07062547 0.054286487
0000e0 05 6d f3 3c 3a b5 72 3d 22 ae 67 bd 9e 82 31 be
       0.02971507 0.059254862 -0.05656255 -0.17334983
0000f0 20 73 7a 3d 44 c7 20 bd 53 10 1b 3d 82 45 65 bc
       0.061144948 -0.039252535 0.037857365 -0.013993623
000100 96 90 83 bd 7f 70 40 bd 1a 07 19 3d c6 a5 e6 3d
       -0.06424062 -0.046982285 0.03736029 0.112620875
000110 43 09 68 be 77 c2 c0 bd c7 c0 01 bd 31 c1 f8 3c
       -0.22659783 -0.09412091 -0.031677987 0.030365558
000120 5e 35 cb bc 98 51 72 3d f2 90 85 bc 47 bb de bc
       -0.02480572 0.059159845 -0.016304467 -0.02718891
000130 37 31 7c bc 57 6c 4c bc 0a fd 37 bd 99 bd 08 3d
       -0.015392593 -0.012477002 -0.04491905 0.03338394
000140 85 17 72 3c d8 51 da 3b 0b 82 0c bd 11 6a ad bd
       0.014776115 0.0066625886 -0.034303706 -0.08467496
000150 ba 75 01 3d 2f 33 45 3d a8 7e 1b bd 0c 63 c7 3d
       0.031606413 0.048144516 -0.037962586 0.097356886
000160 d0 a7 c2 bc 42 4f 1d bd 7b d3 c2 3d 79 55 e1 3c
       -0.02376166 -0.038405664 0.09512993 0.027506577
000170 27 01 62 3d 24 17 c9 3c 67 82 39 3d 83 f7 2e 3d
       0.05517688 0.024547167 0.045290377 0.042716514
000180 51 ea 5c be 74 5f ff bb f9 b7 ac 3d c3 9e 1a bd
       -0.2157376 -0.0077933613 0.084335275 -0.037749063
000190 0d ff 72 3c d9 26 11 bd 3a 6e b0 3d 1d 91 34 be
       0.014831317 -0.03543744 0.08614774 -0.17633481
0001a0 f8 db a3 bd b0 59 11 3d a7 c0 ed bc ba 9a 25 3d
       -0.0800094 0.035485923 -0.029022528 0.040430762
0001b0 dd 3a 2f be ae 00 67 3d c0 4f 49 3d 96 38 34 3d
       -0.17112298 0.056397133 0.04914832 0.043999277
0001c0 66 23 1c bd 2b 62 f3 3b 25 76 81 bc 39 62 36 be
       -0.038119696 0.007427474 -0.015803406 -0.17810906
0001d0 ff a7 77 3d 50 b8 29 3a ce f0 70 3d 30 77 28 bc
       0.060462948 0.0006474303 0.0588234 -0.010282323
0001e0 a8 a7 06 3d 61 f2 0b 3d 44 d1 93 3d 62 65 9a bb
       0.032874733 0.034166697 0.072176486 -0.004711793
0001f0 97 45 42 3d f4 e2 a9 3d eb 1b 4b 3c 55 cb 2e 3d
       0.047429647 0.08295241 0.012396793 0.04267438
000200 82 2e aa bc 6a 54 bd bb be 70 bd 3d 71 51 63 be
       -0.02077413 -0.005777885 0.092500195 -0.22199036
000210 e7 04 21 be 20 8b db 3b c0 a9 15 3d 32 10 30 ba
       -0.15724526 0.0066999346 0.03653884 -0.00067162805
000220 7a de 03 bd a1 51 11 be 22 76 bc 3c 48 ab 9b bc
       -0.032194592 -0.14191295 0.023005549 -0.019002572
000230 d5 b9 78 3d 36 fd 4d 3c c1 74 4e be 38 50 a5 3d
       0.0607241 0.012572577 -0.20161726 0.08071941
000240 bd 20 6f 3d ff 64 bf 3c c9 e4 44 bd 39 40 fe bd
       0.05838083 0.023363588 -0.04806975 -0.12414593
000250 61 2d 5d bd c2 de b7 3d 1c 99 1c bb 3c 3c 9f 3b
       -0.053998355 0.089780346 -0.0023894971 0.0048594754
000260 96 db 5d bc 84 2d 25 3d 7f de 53 3d 5e ea 00 3c
       -0.013541123 0.04032661 0.05172586 0.0078683775
000270 3e 72 86 bc 3e 42 13 bc cc d5 c9 bc 18 af 33 bd
       -0.016411897 -0.008987961 -0.02463808 -0.043868154
000280 a7 af e3 bc f1 13 a2 bb 09 fc 36 bd 95 9b f0 bd
       -0.027793719 -0.004946225 -0.044673953 -0.11748425
000290 62 72 2b be 84 51 a4 bd 67 25 2c 3d d7 9f 3c be
       -0.16742852 -0.0802336 0.042027857 -0.18420349
0002a0 22 15 51 bc d6 9e c7 3a 1c 36 d9 bc 9c 6a 73 3d
       -0.012761386 0.0015229832 -0.02651506 0.059427842
0002b0 a8 eb 99 3d c9 90 8c bd 31 61 d7 bd 13 92 37 3c
       0.07515651 -0.06863553 -0.10516585 0.01120426
0002c0 02 c6 e7 bd 7a e4 e3 bb 54 8a 0c bb 70 7e 1f be
       -0.11317064 -0.0069547268 -0.0021444755 -0.15575576
0002d0 8f 18 20 3d 07 a0 b7 3c 3c 85 c3 bd 85 aa 86 3c
       0.03908592 0.022415174 -0.09546897 0.016438732
0002e0 ae 37 16 3d 0b 69 eb bc cd 35 81 bc 34 0b 0c bd
       0.036674194 -0.028736612 -0.015772725 -0.03419037
0002f0 1b 10 cd bc 66 4f 60 be d1 2d a9 3d 97 01 37 3d
       -0.025032094 -0.21905288 0.08260692 0.04467925
000300 d2 df a9 3c 32 02 78 3a c0 1e 5a 3d 96 ac df bb
       0.020736609 0.00094607763 0.05325198 -0.006825994
000310 d7 0b 92 bd f4 e9 75 bd 03 66 6b 3d ee e3 d4 bd
       -0.071311645 -0.06003757 0.057470333 -0.10395037
000320 19 cd 76 bb fe 1b 30 bd 1b 3c 67 be db e7 88 bd
       -0.0037658869 -0.042995445 -0.22581522 -0.06684848
000330 70 15 c3 bd 5f 72 2d bd 3f 23 94 bd dd 0a 86 bd
       -0.09525573 -0.0423454 -0.07233285 -0.06545041
000340 f6 ca 19 3d 4c 37 03 be 19 4f c3 3c 2a 32 dc bd
       0.037547074 -0.12814063 0.023841428 -0.107517555
000350 dc cb a7 3d 65 58 2f 3d 3d 68 38 be 2d e5 1e ba
       0.0819318 0.04280891 -0.18008514 -0.00060613715
000360 b1 41 d2 3c 34 7c d7 3c e8 74 f8 bc a1 1c 48 bd
       0.02566609 0.026304342 -0.030329183 -0.048855428
000370 29 ab 36 bd 5d 08 17 bd df af 99 3d d7 6c 2d 3d
       -0.044596825 -0.03687321 0.07504248 0.042340126
000380 e1 ce 3d 3d f4 46 ab bd e6 70 5e 3d 90 cb a9 3d
       0.046339873 -0.083631426 0.054306887 0.082907796
000390 44 05 48 3d 03 3b c5 3d 60 96 3f ba 5c a7 9e 3d
       0.048833147 0.09630396 -0.00073084794 0.07746765
0003a0 a3 06 9a 3d ab 5d 24 bc bd 89 2e be 67 98 af 3d
       0.07520797 -0.010032098 -0.1704473 0.0857399
0003b0 51 f1 21 3d 12 c3 91 3d 28 f6 e7 bb 28 11 4b 3d
       0.039536778 0.07117285 -0.0070789047 0.04957691
0003c0 3b 15 34 3d 63 db 1a 3d ed 65 76 be 0f 99 4e 3c
       0.04396556 0.03780688 -0.24062319 0.012609734
0003d0 73 d4 0d be 8a 80 b0 3d 75 34 ef 3c 7e 0b 4e be
       -0.13850574 0.08618267 0.029199818 -0.20121571
0003e0 9f 14 18 be 45 65 8a 3d be 1c 0e 3d 41 d8 95 3d
       -0.14851616 0.06757597 0.03469538 0.07316638
0003f0 92 b8 66 3c 44 36 6f 3d 35 12 60 3d 3f c5 e6 3c
       0.014082091 0.05840136 0.054704864 0.028170226

layers.3.bias f4 [8]
000000 fa e3 80 3d e9 53 12 bd 82 6d 23 3d 7e 19 ee bc
       0.06293483 -0.035724554 0.039899357 -0.02906489
000010 70 e3 76 3c c7 de 4a bd c6 f1 1a bd a1 35 64 bc
       0.015068874 -0.049528863 -0.03782823 -0.013928802
