actor.pth (torch, 735246 bytes, 117 tensors)

projection.layers.0.weight f4 [16, 4]
0	0x3ce9c3b7	0.028535707
1	0x3ed541dc	0.4165181
2	0x3e743020	0.23846483
3	0x3eb43132	0.35193783
4	0xbeba264f	-0.36357352
5	0x3d6bf9d0	0.057611287
6	0x3ecfe2a7	0.4060261
7	0x3de53440	0.111916065
8	0x3e4a8a33	0.19779281
9	0x3eb8c19c	0.36085212
10	0xbb0eaf3f	-0.0021771935
11	0xbe3d4454	-0.18483096
12	0x3e0e7ce4	0.1391483
13	0xbe1fd67c	-0.15609163
14	0xbce4c99d	-0.027928168
15	0x3e6db788	0.23214543
16	0x3dad80fd	0.08471868
17	0x3e102f24	0.14080483
18	0x3e7142d2	0.23560646
19	0xbe47c844	-0.19509989
20	0xbceb30b9	-0.028709756
21	0xbe80c6ae	-0.2515158
22	0xbeea943f	-0.45816228
23	0xbe238370	-0.15968108
24	0xbd91983a	-0.07109113
25	0x3ea60df0	0.32432508
26	0x3d88d099	0.06680412
27	0xbebcba08	-0.3686068
28	0xbdc9488a	-0.09828289
29	0x3e42cb78	0.1902293
30	0x3eef90b9	0.46790102
31	0xbeacfbea	-0.33785945
32	0xbdf5c094	-0.11999622
33	0x3effc808	0.499573
34	0xbef565a4	-0.47929108
35	0xbd2bfe60	-0.041990638
36	0xbe6fa607	-0.23403178
37	0xbec4bc10	-0.3842473
38	0x3e3abffd	0.182373
39	0xbe185fe0	-0.14880323
40	0x3edbc7b3	0.42925796
41	0xbce09e60	-0.02741927
42	0x3dbdc097	0.09265249
43	0x3e6fc7fc	0.23416132
44	0x3ef5cd4c	0.48008192
45	0x3ed0e6ea	0.40801173
46	0x3d6e884a	0.058235444
47	0x3e616bf0	0.22013831
48	0x3eba721e	0.3641519
49	0xbe90868c	-0.2822765
50	0x3e4f8bd5	0.20268185
51	0xbea8b648	-0.3295157
52	0xbe279b53	-0.16367845
53	0x3ea7230e	0.32643932
54	0xbef9574b	-0.48699412
55	0x3e856122	0.2605067
56	0x3df8aee5	0.121427335
57	0x3da63f78	0.081175745
58	0x3eab3fc5	0.3344709
59	0x3c7fb6c0	0.015607536
60	0xbe91f2c2	-0.28505522
61	0xbea537a8	-0.32269025
62	0x3e612e74	0.21990377
63	0xbdc9e1e8	-0.09857541

projection.layers.0.bias f4 [16]
0	0xbda1d94d	-0.07902775
1	0x3df7075d	0.12061951
2	0xbd462947	-0.04837921
3	0xbcec109c	-0.028816514
4	0xbaaf531c	-0.0013376209
5	0xbe6fc1c8	-0.23413765
6	0x3ed3eb1e	0.41390318
7	0xbef79c6a	-0.48361522
8	0xbec72904	-0.3889848
9	0x3eabcc1c	0.3355416
10	0xbef665d0	-0.48124552
11	0x3edf29ce	0.43586582
12	0xbe38f333	-0.18061523
13	0x3e1d917e	0.15387532
14	0xbe925249	-0.28578404
15	0xbc1df6fb	-0.009641404

projection.layers.1.weight f4 [20, 16]
0	0x3e6f8b51	0.23392989
1	0xbe6581d4	-0.22412807
2	0x3e41ac8d	0.18913479
3	0xbcc279ae	-0.023739662
4	0xbe277517	-0.1635326
5	0xbc979d60	-0.01850766
6	0x3e3a8f65	0.18218763
7	0x3e105eed	0.14098711
8	0x3d8ff87b	0.07029816
9	0xbd40c8f1	-0.047066633
10	0xbe561c6d	-0.20909281
11	0x3c345554	0.011006672
12	0x3e4001e0	0.18750715
13	0x3e581018	0.2109989
14	0x3e579e6a	0.21056524
15	0xbdd47efe	-0.10375784
16	0xbdd188a5	-0.10231141
17	0xbda5a024	-0.08087185
18	0xbaecc280	-0.0018063337
19	0x3da042fd	0.07825277
20	0x3e5c5087	0.21515094
21	0xbdf97755	-0.12180964
22	0xbe0af4be	-0.13569924
23	0x3e474dc2	0.19463256
24	0xbd597407	-0.053089168
25	0x3e69e36a	0.22840658
26	0xbd8caa05	-0.06868366
27	0x3e165976	0.14682564
28	0x3dffaa64	0.12483671
29	0xbdee7c93	-0.116448544
30	0x3d687d62	0.0567602
31	0xbe3d6166	-0.18494186
32	0x3c392868	0.0113011375
33	0xbdf505c0	-0.11963987
34	0x3cddc328	0.027070597
35	0x3d251702	0.040305145
36	0xbe6fe9d8	-0.23429048
37	0xbe6c8b84	-0.23100096
38	0x3dea4d59	0.11440534
39	0x3e102566	0.14076766
40	0xbda24fab	-0.07925352
41	0x3e100dfc	0.14067835
42	0x3cb420d5	0.021988312
43	0x3cd5cff0	0.026100129
44	0x3e542115	0.20715745
45	0x3d9281fc	0.07153699
46	0x3d4d4440	0.050113916
47	0x3d94f2c7	0.072728686
48	0x3e132ffa	0.1437377
49	0xbe508f67	-0.20367204
50	0x3e37a2f0	0.1793325
51	0x3dfac837	0.12245219
52	0xbdf3602b	-0.11883577
53	0xbcc82851	-0.024433287
54	0xbdb5b4ce	-0.088723764
55	0xbe039dce	-0.12853166
56	0xbd2eec95	-0.04270609
57	0x3d8482de	0.064702734
58	0x3e7480e2	0.2387729
59	0xbd1e4829	-0.038643036
60	0x3ddbd280	0.10733509
61	0x3d438d42	0.047742136
62	0xbcb99ba2	-0.02265722
63	0xbe2466fb	-0.16054909
64	0xbdd2dd23	-0.10296085
65	0x3e23feb7	0.16015135
66	0x3e6743cf	0.2258446
67	0xbd0d82a8	-0.03454843
68	0xbe051fb2	-0.13000372
69	0x3c308a3c	0.010775145
70	0xbe51617d	-0.20447345
71	0xbd0d1812	-0.034446783
72	0x3d47b574	0.04875703
73	0x3dee694a	0.11641176
74	0x3e31e0c5	0.17370899
75	0x3e0320c3	0.12805466
76	0xbe16bf34	-0.14721376
77	0x3d33466f	0.043768343
78	0xbd9695db	-0.073528014
79	0x3e40b384	0.1881848
80	0x3d5161cb	0.051118653
81	0xbde809e0	-0.113300085
82	0xbd4899f2	-0.04897494
83	0x3e20bb00	0.15696335
84	0xbe4e4237	-0.20142446
85	0x3e100e39	0.14067926
86	0xbe514cde	-0.20439479
87	0xbe2b901b	-0.1675419
88	0x3da3d957	0.08000439
89	0xbd9356ad	-0.071942665
90	0x3b601b09	0.0034195802
91	0x3e282604	0.16420752
92	0x3e5015eb	0.20320861
93	0xbbccc992	-0.006249615
94	0xbd8937f3	-0.067001246
95	0x3e2fa321	0.17152072
96	0xbc1a8b88	-0.009432681
97	0xbdfadc2e	-0.12249027
98	0xbcefaf46	-0.029258382
99	0xbd8ba6ad	-0.068189
100	0xbe20d1b2	-0.15704992
101	0xbe0d1953	-0.13779192
102	0xbd204984	-0.03913261
103	0xbcc395b8	-0.023875102
104	0xbd69cb8c	-0.057078883
105	0x3e309927	0.17245923
106	0x3dcab24b	0.09897288
107	0x3e787fcb	0.24267499
108	0x3dc7bd10	0.09752858
109	0x3cfa44f5	0.03055046
110	0x3e7cc5b2	0.2468479
111	0xbe1ebe05	-0.15502174
112	0x3d98f453	0.07468476
113	0xbe77fcf9	-0.24217595
114	0xbd4040fa	-0.046936966
115	0x3d26c48a	0.040714778
116	0x3e020e7f	0.12700842
117	0x3e4683a1	0.1938615
118	0xbe349990	-0.17636704
119	0xbe523807	-0.20529185
120	0x3d8633b1	0.06552828
121	0xbe6f6a77	-0.23380457
122	0x3e67c484	0.22633559
123	0xbc3700e4	-0.011169646
124	0xbcef1fe9	-0.02919002
125	0xbbaff4cc	-0.0053697582
126	0xbe01af3e	-0.12664506
127	0x3e0b1373	0.13581638
128	0x3da383ec	0.079841465
129	0xbe2062dc	-0.15662712
130	0xbe334c49	-0.17509569
131	0x3e10279e	0.14077613
132	0xbddc1dfd	-0.10747907
133	0xbe23978d	-0.15975781
134	0xbdf7a2b4	-0.1209158
135	0xbe49582d	-0.19662543
136	0x3b082d01	0.0020778778
137	0x3e4567ee	0.19277927
138	0xbdcc2f90	-0.09970009
139	0xbe6438f9	-0.22287358
140	0xbd945dd6	-0.0724446
141	0xbe2d96bc	-0.16952032
142	0x3e3e72e7	0.1859852
143	0xbe3f5ece	-0.18688509
144	0xbe52728f	-0.20551513
145	0x3dba060d	0.09083185
146	0xbd976281	-0.07391835
147	0xbe0bdb8c	-0.13657969
148	0x3cb8d831	0.022564026
149	0x3e54e3a1	0.20789959
150	0xbde52de0	-0.111903906
151	0xbe6db202	-0.23212436
152	0x3d938fb4	0.072051436
153	0xbd9d388d	-0.07676802
154	0x3c9e5d85	0.019331703
155	0xbe19413b	-0.1496629
156	0x3e17657d	0.14784808
157	0xbd7bb6c1	-0.061453585
158	0x3e4bc963	0.19901042
159	0xbe422f41	-0.18963338
160	0x3e56ffd4	0.20996028
161	0x3e52b5ca	0.2057716
162	0xbe239b14	-0.15977126
163	0x3e0d66c8	0.13808739
164	0x3e5634a1	0.20918514
165	0xbe01fc1d	-0.1269383
166	0xbda3ecd8	-0.08004159
167	0xbd17c4a5	-0.03705277
168	0x3e358e60	0.17730093
169	0x3db7ed54	0.089808136
170	0xbe05bab2	-0.130595
171	0x3c448c48	0.011996336
172	0x3daad7cb	0.083419405
173	0xbe799f94	-0.2437728
174	0x3e285058	0.16436899
175	0xbddc3087	-0.10751443
176	0xbe0dc654	-0.13845187
177	0x3e086d53	0.13322954
178	0xbe55d392	-0.20881489
179	0x3e102e03	0.14080052
180	0x3e4ed792	0.20199421
181	0xbdb64ac0	-0.08900976
182	0x3da5beff	0.0809307
183	0x3e28a46d	0.16468973
184	0xbe024754	-0.12722522
185	0x3de28a45	0.11061529
186	0x3dd0af25	0.10189656
187	0xbe1c12ca	-0.15241542
188	0x3e6fabd8	0.23405397
189	0x3e564130	0.20923305
190	0x3e6fda2e	0.23423073
191	0xbd01beaa	-0.031675972
192	0xbe375c2b	-0.17906253
193	0xbd33dea0	-0.043913484
194	0xbe2836c2	-0.16427138
195	0x3e5ef417	0.217728
196	0x3e1ef232	0.15522078
197	0xbca93c16	-0.020658534
198	0x3e42e8c9	0.19034113
199	0xbe02092c	-0.12698811
200	0xbd3c0932	-0.045907207
201	0x3e1e9a7c	0.15488619
202	0xbe57cd65	-0.21074446
203	0x3ca10458	0.019655392
204	0xbde062ae	-0.10956322
205	0x3cb39730	0.021922678
206	0x3d376175	0.044770677
207	0xbdc6cb7b	-0.097067796
208	0xbe32a590	-0.1744597
209	0x3b0ec181	0.0021782818
210	0xbe45c755	-0.1931432
211	0xbd818697	-0.06324499
212	0x3e3a3b34	0.18186647
213	0x3e35a28c	0.17737788
214	0x3d505906	0.05086615
215	0x3dac4fd6	0.08413665
216	0x3ce98dcf	0.028510002
217	0xbe376a12	-0.17911556
218	0xbcd556a9	-0.0260423
219	0x3bd89491	0.0066095074
220	0x3e55bcc1	0.20872785
221	0xbd896b4b	-0.06709918
222	0xbd58a720	-0.052893758
223	0xbddabfe4	-0.106811315
224	0x3dcfe03e	0.10150193
225	0x3e6e8ec9	0.23296656
226	0x3df7cade	0.12099241
227	0xbd9c8c7a	-0.07643981
228	0xbdf9e59a	-0.12201996
229	0x3e0a07bf	0.13479517
230	0xbe22f367	-0.15913163
231	0x3e4c7f64	0.1997047
232	0xbe7b3339	-0.24531259
233	0xbe02f605	-0.12789162
234	0x3bf6fff5	0.0075378367
235	0xbe5caf88	-0.21551335
236	0xbc62f570	-0.013852462
237	0x3b26f088	0.0025472958
238	0x3e7bc00b	0.24584977
239	0xbe2bd770	-0.16781402
240	0xbd2fac02	-0.04288865
241	0xbe381b28	-0.1797911
242	0x3cbfd138	0.023415193
243	0xbd918290	-0.07104981
244	0x3d4c0d22	0.049817212
245	0xbad5fe4b	-0.0016326396
246	0xbe5b07e3	-0.21389727
247	0x3e38867e	0.18020055
248	0x3e41d69a	0.1892952
249	0x3e28e575	0.16493781
250	0xbd272d7a	-0.040814854
251	0xbe3cdd34	-0.18443757
252	0xbe57be7f	-0.21068762
253	0x3d30b2e8	0.04313937
254	0x3e1f531d	0.15559049
255	0xbc1c6a3b	-0.009546812

projection.layers.1.bias f4 [20]
0	0xbe041408	-0.12898266
1	0x3ad05bf0	0.001589654
2	0xbd6c4446	-0.057682298
3	0xbd3929fb	-0.04520605
4	0x3e389e0e	0.18029043
5	0xbe52f270	-0.20600295
6	0xbdcaf8c2	-0.09910728
7	0x3d5d3f8a	0.054015674
8	0xbe5c7e1e	-0.21532485
9	0x3e0456a6	0.12923679
10	0xbcc7f59f	-0.024409113
11	0x3e0525a1	0.13002636
12	0x3e53cff6	0.206848
13	0xbdfe4542	-0.12415554
14	0x3e0ab5af	0.1354587
15	0xbe2afd5e	-0.16698214
16	0xbd098776	-0.03357645
17	0x3decdb6a	0.115652874
18	0xbdbbb933	-0.09166183
19	0xbdba9f8b	-0.09112462

projection.layers.2.weight f4 [20, 20]
0	0xbe6216d0	-0.22079015
1	0x3dab8837	0.0837559
2	0x3d9c3660	0.07627559
3	0xbe27b6d7	-0.16378342
4	0x3c0bafd3	0.0085258065
5	0xbe18651d	-0.14882322
6	0xbdd69791	-0.10478128
7	0xbcbb5570	-0.022867888
8	0xbe35691f	-0.17715882
9	0x3b943522	0.0045229355
10	0x3d814617	0.06312197
11	0x3e642fcb	0.22283857
12	0x3d0dff8e	0.034667544
13	0x3cf165a4	0.029467411
14	0xb98c8876	-0.00026804552
15	0x3e3b2240	0.18274784
16	0x3e5f9a58	0.21836221
17	0xbe18e74c	-0.14931983
18	0xbe31e7f4	-0.1737364
19	0x3de0aaa7	0.10970049
20	0x3e3c4967	0.18387376
21	0xbdcfa975	-0.10139743
22	0xbe4af60d	-0.19820423
23	0xbe2bbd05	-0.16771324
24	0x3e4a9fd9	0.1978754
25	0x3d10dc0d	0.035366107
26	0xbe3cf113	-0.18451338
27	0x3e44c8b0	0.19217181
28	0xbd551781	-0.05202437
29	0x3c453e3a	0.012038762
30	0xbe0b3a62	-0.1359649
31	0xbe4072b5	-0.18793757
32	0x3dce4e2a	0.10073502
33	0xbe08979f	-0.13339089
34	0xbdaf504c	-0.08560237
35	0xbe333b2e	-0.17503044
36	0x3e0bbcb0	0.13646197
37	0x3e47f2ac	0.19526166
38	0x3db822e1	0.089910276
39	0x3e13468a	0.14382377
40	0xbe160be8	-0.1465298
41	0xbe4be7a2	-0.1991258
42	0x3cc63d50	0.024199158
43	0x3d416e9d	0.04722463
44	0xbe264ae8	-0.16239512
45	0xbd8dd6a1	-0.06925703
46	0xbe4552a9	-0.19269814
47	0xbd0ee600	-0.034887314
48	0xbddd5fbf	-0.10809278
49	0xbe0135fd	-0.12618251
50	0xbe623e92	-0.22094181
51	0xbd9070ec	-0.07052788
52	0x3e31653c	0.17323774
53	0xbdad9c03	-0.084770225
54	0xbd201244	-0.03907992
55	0xbde9b0f7	-0.114107065
56	0x3d7a3145	0.061082143
57	0x3e1dc3ed	0.15406771
58	0xbdcf20a9	-0.10113651
59	0x3e596d9c	0.21233219
60	0xbe12e003	-0.14343266
61	0x3e462a3b	0.19352047
62	0x3c1a624a	0.009422848
63	0x3d0aea39	0.03391478
64	0xbda0e476	-0.078560755
65	0x3e4916fe	0.19637677
66	0x3e0d4c7f	0.13798712
67	0xbd144a9a	-0.036203958
68	0x3d5e0764	0.054206267
69	0xbd9599ba	-0.07304712
70	0x3e48c3ff	0.19606017
71	0xbd8b4850	-0.06800902
72	0x3e14288c	0.14468592
73	0x3e129a04	0.14316565
74	0x3e61d897	0.22055279
75	0x3d943a56	0.07237689
76	0x3e1e0c37	0.15434347
77	0x3e4f545a	0.20247021
78	0xbe0c0b7b	-0.13676254
79	0xbe16fbef	-0.14744543
80	0x3e663e43	0.22484688
81	0xbcf18e03	-0.029486662
82	0xbd8bff33	-0.06835785
83	0xbdb8231e	-0.08991073
84	0xbe6944c9	-0.22780146
85	0x3e0505b8	0.12990463
86	0x3c509057	0.012729726
87	0xbe33ba0d	-0.17551441
88	0x3d84ff63	0.06494024
89	0x3e50e650	0.20400357
90	0x3e066d59	0.1312765
91	0xbe5bbe83	-0.21459393
92	0x3da1a1ce	0.0789219
93	0xbdff04ad	-0.12452064
94	0x3e5def53	0.21673326
95	0xbe4d607a	-0.20056334
96	0xbc2a04f5	-0.010377158
97	0xbe1562fb	-0.1458854
98	0xbdce8fa7	-0.10085993
99	0x3e5667bb	0.20938008
100	0x3e59876d	0.21243067
101	0x3e31b59f	0.17354439
102	0xbe07f4bb	-0.13276951
103	0xbe0cecd8	-0.13762224
104	0xbca74b61	-0.020421686
105	0x3caf14a0	0.02137214
106	0xbcdee768	-0.027209952
107	0x3da0f3b0	0.0785898
108	0x3e4c4af2	0.19950464
109	0x3e5e6529	0.21718277
110	0x3d067fa9	0.03283659
111	0x3d7ce63f	0.061743017
112	0xbdcd8a15	-0.10036103
113	0x3ce6fa24	0.028195448
114	0xbe4dd64a	-0.20101276
115	0xbe4f9008	-0.20269787
116	0xbe5eb190	-0.21747422
117	0xbe3209c8	-0.17386544
118	0x3e540108	0.20703518
119	0x3ddbbf54	0.10729852
120	0xbdb8567b	-0.0900087
121	0xbd60be68	-0.054869086
122	0x3d0a083d	0.033699263
123	0xbd7c6c0c	-0.06162648
124	0x3e5d00bb	0.2158231
125	0x3d974fbb	0.07388254
126	0x3e231885	0.15927322
127	0x3e46ffb8	0.19433486
128	0xbe54a633	-0.20766525
129	0xbe04d89b	-0.12973253
130	0xbe62ee4d	-0.22161217
131	0xbd92e6d0	-0.0717293
132	0x3d44b414	0.0480233
133	0xbdeac473	-0.11463251
134	0x3dc565a7	0.09638529
135	0x3e5fc782	0.2185345
136	0xbe076c1e	-0.13224837
137	0xbe5c3dac	-0.21507901
138	0xbe572398	-0.21009672
139	0xbca6cd61	-0.020361604
140	0xbe1e54e1	-0.15462066
141	0xbe331bae	-0.17491028
142	0x3d9d648e	0.07685195
143	0x3dbd6d40	0.092493534
144	0xbe3c1ba2	-0.18369916
145	0xbb88dda8	-0.004176814
146	0xbe453cbd	-0.19261451
147	0xbe500fa2	-0.20318463
148	0x3e4e1e25	0.20128687
149	0x3d06b505	0.032887477
150	0x3d9a01e7	0.07519894
151	0x3dcba689	0.099438734
152	0x3d8502ac	0.0649465
153	0xbe0ef88b	-0.13961999
154	0x3dd5d574	0.104411036
155	0xbc9c6134	-0.019089319
156	0xbe51b825	-0.20480402
157	0xbdc8c911	-0.098039754
158	0xbd550e2b	-0.052015465
159	0xbe34437c	-0.17603868
160	0x3e5a8c25	0.21342523
161	0x3e5c6b8b	0.215254
162	0x3df3b75c	0.119002074
163	0x3e26aa20	0.16275835
164	0x3e039b4b	0.12852208
165	0xbcb4bc1d	-0.022062356
166	0x3e50f53a	0.20406047
167	0x3dc44193	0.0958282
168	0xbdb10ab1	-0.08644617
169	0xbe2c7646	-0.16841993
170	0xbe407e1a	-0.18798104
171	0xbc7d694d	-0.015467
172	0x3d147804	0.03624727
173	0x3b17f4a2	0.0023186584
174	0xbc6aa9ee	-0.014322741
175	0xbda774ab	-0.081765495
176	0x3dd8dc69	0.10588915
177	0xbe3c2a0d	-0.18375416
178	0x3c825d8e	0.015913751
179	0x3e664aa1	0.22489406
180	0xbe50392d	-0.20334311
181	0x3c567fd9	0.013092005
182	0xbd4dfe97	-0.050291624
183	0xbdee141a	-0.11624928
184	0x3d621490	0.05519539
185	0x3e3783c8	0.17921364
186	0x3daaae26	0.083339974
187	0x3db9890c	0.09059343
188	0x3e01eb2e	0.1268737
189	0xbd5795eb	-0.052633207
190	0x3cbfe84b	0.023426196
191	0x3e5358af	0.20639299
192	0xbdcb4271	-0.09924782
193	0x3d964ba7	0.07338648
194	0xbe6350e6	-0.22198829
195	0x3d731d76	0.059354268
196	0x3d308959	0.043099735
197	0x3da36b93	0.079795025
198	0x3d8ed834	0.06974831
199	0xbdf1c916	-0.11805932
200	0x3e50e881	0.20401193
201	0xbe290d26	-0.16508922
202	0x3e108b41	0.14115621
203	0xbd93c42c	-0.07215151
204	0xbe1b6290	-0.15174317
205	0x3e4145c3	0.18874268
206	0xbd95f751	-0.073225625
207	0x3e5b849e	0.21437308
208	0xbe5f5b3c	-0.21812147
209	0x3cd5cf5e	0.026099857
210	0xbdbd3381	-0.09238339
211	0xbe2bfeaf	-0.16796373
212	0x3e648958	0.22318017
213	0xbcda05ce	-0.026614096
214	0x3e4ae759	0.19814815
215	0xbd1e073b	-0.038581114
216	0x3e17a5e5	0.14809377
217	0xbe488e67	-0.19585572
218	0x3e24a6ab	0.16079204
219	0x3d77ba84	0.06048061
220	0x3e455935	0.19272311
221	0x3e424871	0.18972947
222	0x3c8a7c10	0.01690486
223	0xbe4e7e77	-0.2016543
224	0x3e5c37f7	0.21505724
225	0xbdbd45ca	-0.09241827
226	0xbda4e8b8	-0.080522
227	0x3e5262d7	0.20545517
228	0x3e352533	0.17689972
229	0x3e34e0ea	0.17663923
230	0x3d716d2b	0.058942
231	0xbe4403fd	-0.19142146
232	0xbe0d3dd4	-0.13793117
233	0x3d5a526b	0.053301256
234	0x3e4cd878	0.20004451
235	0x3e54e3e2	0.20790055
236	0xbdf34c4b	-0.11879786
237	0x3d6bf64f	0.057607945
238	0x3cd6d577	0.026224835
239	0x3e4291dd	0.19000955
240	0xbd9d3926	-0.07676916
241	0xbe2d927b	-0.16950409
242	0x3dc373e1	0.095435865
243	0x3deb8caa	0.11501439
244	0x3dea215a	0.114321426
245	0x3c9a3a2d	0.018826568
246	0xbdcd92d1	-0.10037769
247	0x3e4a349c	0.19746631
248	0x3c2c74da	0.010525906
249	0x3e2ce17e	0.16882893
250	0xbe157b91	-0.14597918
251	0xbe3cdb00	-0.18442917
252	0x3e42f908	0.1904031
253	0xbe39787e	-0.1811237
254	0x3d8f90d1	0.070100434
255	0xbded041b	-0.11573049

projection.layers.2.bias f4 [20]
0	0x3cb1a073	0.021682953
1	0xbd6c7b26	-0.05773463
2	0xbe3b24a9	-0.18275703
3	0x3d61be21	0.05511296
4	0x3e0033a3	0.12519698
5	0xbd105fb3	-0.035247516
6	0x3e59c5df	0.21266888
7	0xbe510f0c	-0.20415896
8	0x3da49855	0.080368675
9	0xbcd21ab5	-0.0256475
10	0x3e003a8c	0.12522334
11	0x3d182d07	0.037152316
12	0x3d6313bc	0.055438742
13	0x3d103160	0.035203338
14	0xbe3b79f5	-0.18308242
15	0xbd64c24f	-0.05584937
16	0xbe0e1622	-0.1387563
17	0xbe2dee69	-0.16985478
18	0x3dede88f	0.11616623
19	0x3b3e5e40	0.0029047877

projection.layers.3.weight f4 [16, 4]
0	0xbe785c59	-0.24253978
1	0x3e196204	0.14978796
2	0x3e1e47eb	0.15457122
3	0xbb98a980	-0.004658878
4	0x3e87d2b7	0.2652795
5	0xbeb49c10	-0.35275316
6	0x3ddc02a7	0.107426934
7	0xbe4db464	-0.20088345
8	0xbed8c4a4	-0.42337525
9	0x3e8da61a	0.27665788
10	0x3e8ee7e1	0.27911285
11	0x3ef760d6	0.48316067
12	0x3c7fd536	0.015614798
13	0x3ef2ae28	0.47398496
14	0xbee65095	-0.44983354
15	0xbeeb7fc2	-0.4599591
16	0x3e963a90	0.29341555
17	0x3efe642a	0.49685794
18	0x3e4dbf66	0.20092544
19	0x3e39936c	0.18122643
20	0xbe5ce597	-0.21571957
21	0x3d823e18	0.063595
22	0xbef2fdae	-0.47459167
23	0x3e51bc04	0.20481879
24	0x3ba97690	0.0051716045
25	0x3efeb2d6	0.49745816
26	0xbef33343	-0.47500047
27	0xbe9eebf4	-0.31039393
28	0x3e6e4093	0.2326682
29	0x3eee563c	0.46550167
30	0x3d1bc61d	0.038030732
31	0x3ef48574	0.47758067
32	0xbe9eb580	-0.3099785
33	0xbec1480e	-0.37750286
34	0x3e74aa46	0.23893079
35	0x3eb55ca6	0.35422248
36	0xbe23b1ca	-0.1598579
37	0x3c75e5c0	0.01500839
38	0xbef9db57	-0.48800156
39	0x3d1b06b0	0.037848175
40	0x3eb24242	0.34816176
41	0xbe2a05f4	-0.16603833
42	0xbea14679	-0.3149908
43	0x3e9b047e	0.30276865
44	0x3ef25ba5	0.47335544
45	0x3e47c928	0.19510329
46	0xbdbf4d74	-0.09340945
47	0x3d6a98f0	0.05727476
48	0xbde2cba0	-0.11073995
49	0x3c096dc0	0.008387983
50	0xbdea233f	-0.11432504
51	0x3e5ae75c	0.21377319
52	0xbe7143e1	-0.2356105
53	0x3eaf6e5a	0.3426388
54	0x3d4802e8	0.048830897
55	0x3dc4b118	0.096040905
56	0xbdd8578e	-0.10563575
57	0x3e67f61c	0.22652477
58	0xbe926c60	-0.2859831
59	0x3d8d5830	0.06901586
60	0xbdae9bf3	-0.08525839
61	0xbe2bce04	-0.16777807
62	0x3d0cdc5a	0.03438983
63	0x3eacc586	0.33744448

projection.layers.3.bias f4 [16]
0	0xbe4b2035	-0.19836505
1	0xbd4f389d	-0.0505911
2	0xbe9162c0	-0.28395653
3	0xbe70baa8	-0.23508704
4	0x3e0b04a4	0.13575989
5	0x3ef712e0	0.48256588
6	0x3c360316	0.011109134
7	0x3eaeb53b	0.34122643
8	0xbdf353ff	-0.11881255
9	0x3e428f9a	0.19000092
10	0xbe8aebdf	-0.2713308
11	0x3d9ca666	0.076489255
12	0xbe959b65	-0.2922012
13	0x3ee61156	0.449351
14	0x3ec37fac	0.38183343
15	0x3ef808fe	0.4844436

projection.layers.4.weight f4 [20, 16]
0	0xbe26a6e3	-0.162746
1	0x3d97f7fa	0.07420345
2	0x3d54b3f9	0.051929448
3	0xba005e72	-0.0004896886
4	0x3d87ed93	0.066371106
5	0x3e33f2d6	0.17573103
6	0x3d6e2c42	0.058147676
7	0x3d98d23d	0.07461975
8	0x3e1fd470	0.15608382
9	0x3e0888a4	0.13333374
10	0x3de9a30b	0.11408051
11	0xbe4db131	-0.20087124
12	0x3d1714e8	0.036885172
13	0x3e753dec	0.23949403
14	0x3e4e88b9	0.20169343
15	0x3e1716d1	0.14754798
16	0x3db32220	0.08746743
17	0x3e2e59fd	0.17026515
18	0xbc1a927c	-0.009434339
19	0xbe3eab21	-0.18619968
20	0xbd387f43	-0.04504324
21	0xbda72b1c	-0.08162519
22	0xbe15f7cb	-0.14645307
23	0x3db1a15f	0.08673357
24	0xbe4be2c6	-0.19910726
25	0xbd58a176	-0.052888356
26	0x3c3ad729	0.011403837
27	0x3e02eef3	0.12786464
28	0x3e676a0c	0.22599047
29	0xbdc0b622	-0.09409739
30	0x3e1bb241	0.15204717
31	0x3dab45c4	0.08362916
32	0x3c143f50	0.009048298
33	0x3e73b6d1	0.23800208
34	0xbd7b35f7	-0.06133076
35	0xbd9dd3e4	-0.077064306
36	0x3d500843	0.05078913
37	0xbccd2823	-0.025043553
38	0xbe0ab9d2	-0.13547447
39	0x3e659a18	0.22422063
40	0x3d963749	0.073347636
41	0xbde73724	-0.11289814
42	0x3e361bf0	0.17784095
43	0xbe061713	-0.1309474
44	0xbc70822f	-0.014679476
45	0xbd8c3833	-0.06846657
46	0x3d37574e	0.044760995
47	0xbdc84319	-0.09778423
48	0xbe2f0fef	-0.17095922
49	0xbe40c614	-0.18825561
50	0xbd10ade0	-0.03532207
51	0xbe3192ea	-0.173412
52	0xbe4f82de	-0.20264766
53	0x3e496d7b	0.1967067
54	0x3e6756ab	0.22591655
55	0x3dd3e7de	0.103469595
56	0x3de06cee	0.10958277
57	0x3df8f1b6	0.12155478
58	0x3e7ef2d5	0.2489732
59	0x3c92f8b2	0.017940853
60	0x3e5656a2	0.20931485
61	0x3d6ecd37	0.058301177
62	0xbdad5e4d	-0.08465252
63	0xbdfa1b3d	-0.122122265
64	0xb9824a3d	-0.00024850844
65	0x3de3a750	0.11115897
66	0x3e5bbc13	0.21458463
67	0xbe148599	-0.14504088
68	0xbe6e450f	-0.23268531
69	0x3e61cca1	0.22050716
70	0xbe211104	-0.15729147
71	0x3e1835a2	0.1486421
72	0x3de734b5	0.1128935
73	0x3e35ba54	0.1774686
74	0x3e01afed	0.12664767
75	0x3ccd5ca1	0.025068583
76	0x3d609a65	0.054834742
77	0x3c9cbeab	0.019133886
78	0xbde49a43	-0.111622356
79	0x3dc93afa	0.09825702
80	0x3e21d52a	0.15803972
81	0xbe26d7f6	-0.1629332
82	0x3e2baa21	0.16764118
83	0x3e79c756	0.24392447
84	0x3e193057	0.14959846
85	0x3e3b284c	0.18277091
86	0x3ded8316	0.11597268
87	0xbe3cdc8c	-0.18443507
88	0xbe21f6c2	-0.15816787
89	0xbd042831	-0.032264892
90	0xbc685602	-0.014180662
91	0x3d932c0d	0.071861364
92	0x3e298618	0.16555059
93	0x3cb4a3bc	0.02205073
94	0x3df66169	0.12030298
95	0xbe68efb0	-0.22747684
96	0xbe64cf81	-0.22344781
97	0x3ddf6a19	0.109089084
98	0xbe569f77	-0.20959269
99	0xbdc49f2a	-0.09600671
100	0xbe37d2c9	-0.17951502
101	0x3ce3e5fa	0.027819622
102	0xbe5a61fb	-0.21326439
103	0x3deaed87	0.11471086
104	0x3e02d37f	0.12775992
105	0x3dffa1c1	0.12482024
106	0x3e4e8b85	0.2017041
107	0x3d27f8ba	0.04100869
108	0xbd94d7b4	-0.072677046
109	0xbe3a9370	-0.18220305
110	0xbaaa30b4	-0.0012984485
111	0xbd807115	-0.06271569
112	0xbe0b8612	-0.13625363
113	0x3cd3c5e7	0.025851203
114	0x3dc78a60	0.0974319
115	0x3c91e39a	0.017808724
116	0x3da2ded6	0.07952659
117	0xbe02f85d	-0.12790056
118	0x3deaf2b0	0.1147207
119	0xbe6a8e9b	-0.22905962
120	0xbd207070	-0.03916973
121	0xbd4c1248	-0.04982212
122	0x3cc6618f	0.024216441
123	0x3e2fa352	0.17152146
124	0xbe71267f	-0.23549841
125	0xbe16706c	-0.14691323
126	0xbe79a4d3	-0.24379282
127	0xbe79ab46	-0.24381742
128	0x3b20d4a5	0.0024540809
129	0x3d1bf026	0.03807082
130	0xbe6b7458	-0.229936
131	0x3e5b8ab2	0.21439627
132	0x3c857e31	0.016295524
133	0x3e50ded2	0.20397499
134	0x3dc8b4e1	0.09800125
135	0xbe7557e6	-0.23959312
136	0x3ca0f462	0.01964778
137	0x3dfbe268	0.12299043
138	0xbde5cc81	-0.11220647
139	0x3dbb48da	0.09144755
140	0xbe5ac65d	-0.21364732
141	0xbe4998ca	-0.1968719
142	0x3e4faac0	0.2027998
143	0x3d9d5c1d	0.07683585
144	0x3e348baa	0.17631403
145	0xbe1b0ef1	-0.15142418
146	0xbded52db	-0.11588069
147	0x3e480088	0.19531453
148	0x3e0e3f54	0.13891345
149	0xbe3c01c9	-0.18360056
150	0xbdf4b452	-0.11948456
151	0xbe7523b1	-0.23939396
152	0xbe3df12a	-0.18549028
153	0x3c993626	0.018702578
154	0xbe6b3470	-0.22969222
155	0x3e099c1f	0.13438462
156	0xbdbfbc43	-0.0936208
157	0x3e46e65e	0.19423816
158	0x3e107103	0.1410561
159	0x3dcc8779	0.09986777
160	0xbda85b62	-0.08220555
161	0xbe79a74c	-0.24380225
162	0x3e305d34	0.17223054
163	0xbe12d5fb	-0.1433944
164	0xbbfdec94	-0.0077491496
165	0xbe0c0364	-0.13673168
166	0x3e370b86	0.1787549
167	0x3d7e9547	0.06215408
168	0xbdf862d7	-0.12128227
169	0x3d111466	0.035419844
170	0xbe67795b	-0.22604887
171	0xbe6d5eaf	-0.2318065
172	0x3e3d7482	0.18501475
173	0x3d877d91	0.06615747
174	0x3e6349cd	0.22196122
175	0x3def97ca	0.11698873
176	0x3d9a70c1	0.07541037
177	0x3d78d91c	0.060753927
178	0x3e42bcac	0.19017285
179	0xbe03b810	-0.12863183
180	0xbe279c19	-0.1636814
181	0x3e477d61	0.19481422
182	0xbd69f6c6	-0.057120107
183	0xbcd98725	-0.0265537
184	0x3e41fbf6	0.18943772
185	0xbdbd61c0	-0.0924716
186	0x3e70a623	0.23500876
187	0xbd94f97c	-0.07274148
188	0xbe029cd6	-0.1275514
189	0x3e471fc5	0.19445713
190	0x3dd82dbe	0.105556
191	0x3e6f69f5	0.23380263
192	0xbd8cc3d1	-0.068732865
193	0xbdffa6af	-0.12482964
194	0x3e7c0923	0.2461286
195	0x3d7f8682	0.062384136
196	0x3e5a5ad9	0.21323718
197	0xbd8982b0	-0.0671438
198	0x3e3bfba2	0.18357709
199	0x3e5dc397	0.21656643
200	0xbcf92617	-0.03041367
201	0x3dd18af7	0.102315836
202	0xbe176768	-0.1478554
203	0x3995f31f	0.00028600634
204	0x3c566efe	0.013087986
205	0xbe2dd55a	-0.16975918
206	0xbe1f2289	-0.15540518
207	0x39cec8cf	0.00039440996
208	0xbd56efac	-0.052474663
209	0x3e7f18f1	0.24911858
210	0x3d394cb5	0.04523917
211	0x3e13308e	0.14373991
212	0xbdded60e	-0.108806714
213	0xbd118d73	-0.035535287
214	0xbe122fe4	-0.14276081
215	0xbd8ccf2a	-0.06875451
216	0x3e2c6e8d	0.16839047
217	0x3e5e66cc	0.21718901
218	0x3d7d5677	0.061850037
219	0xbe75cb17	-0.24003254
220	0x3d2006c5	0.039068956
221	0xbe2dd94a	-0.1697742
222	0x3e50ff93	0.20409994
223	0x3e54a19c	0.20764774
224	0x3e25161b	0.16121714
225	0xbda4f377	-0.0805425
226	0xbddb0b25	-0.10695485
227	0x3e7ea1a8	0.24866354
228	0x3e646322	0.22303441
229	0x3e372f71	0.17889191
230	0x3e6ed597	0.23323666
231	0xbe1c4af6	-0.1526297
232	0xbdd10985	-0.10206894
233	0xbd999045	-0.0749822
234	0xbb4498d7	-0.0029998326
235	0xbdc73cec	-0.09728417
236	0x3e131d81	0.14366724
237	0xbe5e8766	-0.21731338
238	0x3e554049	0.20825304
239	0x3dff5412	0.12467207
240	0xbc0b51cc	-0.008503389
241	0xbd70ced0	-0.05879098
242	0xbe19b72a	-0.15011278
243	0xbd72856f	-0.059209283
244	0xbe037aeb	-0.12839858
245	0xbd19942a	-0.037494816
246	0x3e35d964	0.17758709
247	0x3cb3b041	0.02193463
248	0x3de4cb70	0.11171615
249	0xbe73cde7	-0.23809014
250	0x3e02645a	0.12733594
251	0xbe2557e1	-0.16146804
252	0x3db2ccc1	0.0873046
253	0xbded5ef8	-0.115903795
254	0x3d064778	0.032783
255	0x3e35fddb	0.1777262

projection.layers.4.bias f4 [20]
0	0x3d308c02	0.04310227
1	0xbdd7e4ed	-0.10541711
2	0x3cc64b52	0.024205837
3	0x3de671d5	0.112521805
4	0xba276861	-0.0006386098
5	0xbd895499	-0.06705589
6	0xbdea94b7	-0.11454146
7	0xbe370b9f	-0.17875527
8	0x3e139924	0.14413887
9	0x3e36f047	0.17865096
10	0xbe4b3c54	-0.19847232
11	0x3e5bc1bf	0.21460627
12	0xbcdc4e4a	-0.0268928
13	0xbd8f5a5e	-0.06999658
14	0x3e46ae63	0.19402461
15	0x3db60ab7	0.088887624
16	0x3e6eb30c	0.23310488
17	0xbe6ad25a	-0.22931805
18	0x3e13637d	0.1439342
19	0x3cf48195	0.029846946

projection.layers.5.weight f4 [20, 20]
0	0xbe37fe91	-0.17968203
1	0xbc7432e5	-0.014904712
2	0x3db82cb5	0.08992902
3	0xbd3ac8ea	-0.045601763
4	0xbd8df273	-0.06931009
5	0x3d3b06ea	0.04566089
6	0x3e57822c	0.2104575
7	0xbe0f043e	-0.13966462
8	0x3d388350	0.045047104
9	0xbdf79738	-0.120893896
10	0x3e62a96f	0.22134946
11	0x3d07aa8a	0.033121623
12	0x3e0d4c29	0.13798584
13	0x3da37fd8	0.07983369
14	0x3d414acd	0.047190476
15	0x3e2288cf	0.15872501
16	0x3e26c0a7	0.16284429
17	0xbdca2585	-0.098704375
18	0x3d4f7a22	0.050653584
19	0xbe33cac6	-0.1755782
20	0x3e5583c1	0.20851041
21	0xbdba2997	-0.09089964
22	0x3df14fdf	0.11782812
23	0x3e4fda24	0.20298058
24	0xbdd5b457	-0.10434788
25	0xbd567910	-0.052361548
26	0xbe02b4a5	-0.12764223
27	0xbdca0d3d	-0.09865806
28	0xbddd86b6	-0.1081671
29	0x3d8813ad	0.06644378
30	0xbd7a5f40	-0.061125994
31	0xbd87a3df	-0.06623053
32	0xbadc03e0	-0.0016785823
33	0xbe1959ec	-0.14975709
34	0x3e2e9002	0.17047122
35	0x3e21ac52	0.15788391
36	0x3e016fb0	0.12640262
37	0x3d7c6ad7	0.061625328
38	0x3df41e04	0.119197875
39	0x3e289bd1	0.16465689
40	0xbe35bdf1	-0.17748238
41	0xbe121e98	-0.14269483
42	0xbe005f03	-0.12536244
43	0xbe4e1d2c	-0.20128316
44	0xbe3b6823	-0.18301444
45	0xbe481b39	-0.19541635
46	0x3e375c0a	0.17906204
47	0xbe4c4cdd	-0.19951196
48	0xbe6040a5	-0.2189966
49	0xbe2898db	-0.1646456
50	0x3de73d7f	0.11291026
51	0x3d644716	0.055731855
52	0xbe0af610	-0.13570428
53	0x3cdc5727	0.026897026
54	0x3e5aafa1	0.2135606
55	0xbe0b3514	-0.13594466
56	0xbe2b2135	-0.16711886
57	0x3e35efc7	0.17767249
58	0x3ae4eaf0	0.0017465036
59	0x3d0c4457	0.03424486
60	0xbd608e91	-0.054823462
61	0xbdeec259	-0.116581626
62	0xbda89921	-0.08232332
63	0xbe5b7add	-0.21433587
64	0xbd5d93a3	-0.054095875
65	0xbd9cef42	-0.07662822
66	0x3de99e4b	0.11407145
67	0x3e20137b	0.15632431
68	0xbde98788	-0.11402804
69	0x3da32a05	0.07966999
70	0x3d8e8af3	0.06960096
71	0x3de0940a	0.10965736
72	0xbe45feca	-0.19335476
73	0x3c8179e2	0.015805189
74	0xbdb147c7	-0.086562686
75	0x3e2b9cb9	0.16759004
76	0x3e2d0f68	0.16900408
77	0xbd3d6897	-0.046242323
78	0xbdeca195	-0.11554257
79	0xbe36dd13	-0.1785777
80	0xbcb6732c	-0.022271715
81	0xbe412b88	-0.18864262
82	0xbdb84b5f	-0.08998751
83	0xbd3fe87d	-0.046852577
84	0x3dbbeabc	0.091756314
85	0xbc2a28f4	-0.010385741
86	0xbdeb71b3	-0.11496296
87	0x3e0e9d3d	0.13927169
88	0x3e05d369	0.13068928
89	0x3e3770a7	0.17914067
90	0x3e4cf052	0.2001355
91	0x3e4753fc	0.19465631
92	0xbe119157	-0.14215599
93	0x3d7a1302	0.061053284
94	0x3e380851	0.17971922
95	0xbe54bd06	-0.20775232
96	0x3e3fca3e	0.18729493
97	0xbe348f7a	-0.17632857
98	0xbe1cca0b	-0.15311448
99	0x3d7d9a07	0.06191447
100	0x3ca7a0ee	0.02046248
101	0x3df9eeac	0.12203726
102	0x3d8a8585	0.06763748
103	0xbcf3cfd7	-0.029762192
104	0x3e4efcaf	0.20213579
105	0x3e6a123f	0.22858523
106	0xbdf8e37b	-0.121527635
107	0xbd059496	-0.032612406
108	0x3e526677	0.205469
109	0x3e1069af	0.14102815
110	0x3d2367b9	0.03989384
111	0x3cb9594c	0.022625588
112	0x3e4d3769	0.20040669
113	0x3e5d0b88	0.2158643
114	0xbda346c3	-0.07972481
115	0x3e3b93d0	0.18318105
116	0xbe0f8cd6	-0.14018568
117	0xbd85e9e1	-0.065387495
118	0xbe4a87b0	-0.19778323
119	0x3dd1bff4	0.1024169
120	0x3a822823	0.0009930175
121	0x3e38b5ca	0.18038097
122	0x3de9a058	0.11407536
123	0xbcd72754	-0.02626387
124	0xbba83d07	-0.005134228
125	0xbe34d47b	-0.1765918
126	0x3e2d6e90	0.16936707
127	0xbddfdae2	-0.109304205
128	0x3e586530	0.2113235
129	0x3ba33fa4	0.004981952
130	0xbc1ead2a	-0.00968484
131	0xbccfa60f	-0.025347738
132	0xbc144a07	-0.009050853
133	0x3e35db2a	0.17759386
134	0x3e381558	0.17976892
135	0x3cb5a5a8	0.022173718
136	0x3d995088	0.07486063
137	0x3e12be01	0.14330293
138	0xbe488fa3	-0.19586043
139	0xbe11eb1f	-0.14249848
140	0x3b5d972a	0.0033812025
141	0xbd90477f	-0.07044887
142	0x3da1d48f	0.079018705
143	0x3c1f8858	0.009737097
144	0xbe3bf410	-0.18354821
145	0x3e081a08	0.1329118
146	0x3e2d99b7	0.16953169
147	0xbc691373	-0.014225828
148	0x3e62891c	0.22122616
149	0x3cea6cca	0.028616328
150	0xbdf1ff2d	-0.11816249
151	0xbd679570	-0.056539
152	0xbe10e351	-0.14149214
153	0x3e4eccb3	0.20195274
154	0x3e3bbd79	0.18333997
155	0x3c2c1222	0.01050237
156	0xbd82b238	-0.06381649
157	0xbe378339	-0.17921151
158	0x3e27da7a	0.16391936
159	0xbdf75ffc	-0.120788544
160	0xbe2e83c0	-0.17042446
161	0x3c9521b1	0.018204542
162	0x3d93235a	0.07184477
163	0x3e2249b3	0.15848427
164	0xbcc654d8	-0.024210379
165	0x3e2a9ae4	0.16660649
166	0x3c83ab82	0.016072992
167	0xbe310292	-0.17286137
168	0x3d2a36f8	0.04155633
169	0x3e425247	0.18976699
170	0xbe36c6e0	-0.17849302
171	0x3e0694cb	0.13142698
172	0x3e04185c	0.12899917
173	0xbbc86aba	-0.0061162384
174	0x3e286cd9	0.16447772
175	0x3e3b9afe	0.18320844
176	0x3e14a559	0.145162
177	0xbe6379e0	-0.2221446
178	0xbe53b2e2	-0.20673707
179	0x3d84ef22	0.064909235
180	0x3d2bf47c	0.041981205
181	0xbc87059a	-0.016482163
182	0xbe2cf538	-0.16890419
183	0xbddf4466	-0.10901718
184	0xbd001be6	-0.031276606
185	0x3e1e5bb6	0.15464672
186	0xbd53761e	-0.051626317
187	0xbdb2b6f6	-0.08726303
188	0xbe4ef134	-0.20209199
189	0xbe072feb	-0.13201873
190	0xbe124d28	-0.14287245
191	0x3de9663b	0.11396452
192	0xbda815b8	-0.082072675
193	0x3e1e9b71	0.15488984
194	0xbdc78e70	-0.09743965
195	0xbe29c34b	-0.16578405
196	0xbd48f45e	-0.04906117
197	0xbdfe862f	-0.12427937
198	0x3d16a47a	0.03677795
199	0xbe261de6	-0.16222343
200	0xbe5ad3fc	-0.21369928
201	0x3d81b3f7	0.06333154
202	0xbdb12bf9	-0.08650965
203	0x3a95f7f1	0.001144169
204	0xbc6dded3	-0.014518457
205	0xbce05f1e	-0.027389105
206	0xbdd28a8b	-0.10280331
207	0xbe243725	-0.16036661
208	0x3dd83c77	0.10558408
209	0x3d9e8c09	0.07741553
210	0xbe28cb46	-0.16483793
211	0x3d4f0abf	0.050547358
212	0xbe563a77	-0.2092074
213	0x3de4d884	0.111741096
214	0x3deed8f9	0.11662478
215	0x3d47cfa3	0.048782002
216	0xbdac5071	-0.084137805
217	0x3da4d186	0.08047776
218	0x3e52748d	0.20552273
219	0xbbe300e8	-0.0069275983
220	0x3e54148c	0.20710963
221	0xbda84fcb	-0.08218344
222	0x3df7ffb4	0.121093184
223	0xbb90896a	-0.0044109123
224	0x3d3d8f85	0.04627945
225	0x3df458c3	0.119309925
226	0xbd96b87a	-0.07359405
227	0x3e4400c6	0.1914092
228	0xbe062f07	-0.13103877
229	0xbde83212	-0.11337675
230	0xbe374815	-0.17898591
231	0x3dcb5b32	0.099295035
232	0x3ca11ea6	0.019667935
233	0x3c8692e6	0.016427469
234	0x3dd891da	0.10574694
235	0x3bc9c270	0.006157212
236	0x3e3f2f7c	0.18670458
237	0x3d519259	0.05116496
238	0x3e5b1dd3	0.21398096
239	0xbd477879	-0.048698876
240	0x3dd6b95d	0.10484574
241	0xbe0c84ed	-0.13722582
242	0x3c9bab83	0.019002682
243	0x3d974590	0.07386315
244	0xbe59f37b	-0.21284287
245	0xbe036666	-0.1283203
246	0x3e3d0d8a	0.18462196
247	0xbd8f9fa9	-0.07012875
248	0xbd6f8f22	-0.05848611
249	0x3e14d5d5	0.14534695
250	0xbe24d739	-0.16097726
251	0xbe4cfeb7	-0.20019041
252	0xbd5f5fc3	-0.054534685
253	0xbe1c024e	-0.15235254
254	0x3e5d20a5	0.21594484
255	0x3e0abaff	0.13547896

projection.layers.5.bias f4 [20]
0	0x3c7d4def	0.015460475
1	0xbe58d949	-0.21176638
2	0x3e59eee8	0.21282542
3	0x3d142144	0.036164537
4	0x3e17c6e2	0.14821962
5	0x3daeb630	0.08530843
6	0xbde5c7fe	-0.11219786
7	0xbdbc24e8	-0.09186727
8	0x3d646a19	0.055765245
9	0xbdd0e471	-0.10199822
10	0xbe0f33c5	-0.13984592
11	0x3e067ae7	0.13132821
12	0xbb679d0b	-0.0035341408
13	0xbcf91e57	-0.030409975
14	0xbdf630cb	-0.12021025
15	0x3e0527c2	0.13003448
16	0x3e237470	0.15962386
17	0xbd431fb5	-0.04763766
18	0x3d69e1a3	0.05709995
19	0x3e0f6dba	0.14006701

projection.layers.6.weight f4 [16, 4]
0	0xbd8d69ba	-0.06904931
1	0x3eb3f140	0.35144997
2	0x3e8112cc	0.25209653
3	0xbd1f5100	-0.038895607
4	0x3e84e1f4	0.2595364
5	0xbd876af0	-0.066121936
6	0xbeffff37	-0.499994
7	0xbecb7ee8	-0.3974526
8	0x3dda3e87	0.106564574
9	0x3efa51a4	0.48890412
10	0x3eabed5a	0.33579522
11	0x3e961e42	0.2931996
12	0x3e1fa8c7	0.15591727
13	0x3ea483e8	0.32131886
14	0xbefb4b9f	-0.49081132
15	0xbe8da8f8	-0.27667975
16	0xbeba1266	-0.36342162
17	0xbe8a4a58	-0.27009845
18	0x3e9c5145	0.30530754
19	0xbeb62cce	-0.35581058
20	0xbeccf769	-0.4003251
21	0x3e9b75aa	0.30363208
22	0x3e08065d	0.13283677
23	0xbefd3f92	-0.49462563
24	0xbe907ca1	-0.28220084
25	0xbee89c90	-0.45431948
26	0x3e21ee5f	0.15813588
27	0xbe5edb0c	-0.21763247
28	0xbe905b22	-0.2819453
29	0xbefb1718	-0.49041057
30	0xbeb3f1fa	-0.3514555
31	0xbebefd8a	-0.3730281
32	0x3edd51c1	0.43226436
33	0xbea2719c	-0.31727302
34	0x37b4b9c8	2.1544183e-05
35	0xbe3044e8	-0.17213786
36	0x3ec7dc9d	0.39035502
37	0xbed7e282	-0.42165
38	0xbc0dbc4f	-0.008650853
39	0x3ee23c98	0.44186854
40	0xbd1dca79	-0.03852317
41	0x3ed0a426	0.40750235
42	0xbe60ec3d	-0.21965118
43	0x3def7730	0.11692655
44	0xbcd64e7e	-0.026160475
45	0xbeb58c5a	-0.35458642
46	0xbc49d5bb	-0.012319024
47	0x3ec1c54a	0.37845832
48	0x3e29e1e8	0.16590083
49	0x3eee11e6	0.4649803
50	0xbd8703b0	-0.065925
51	0x3cb94740	0.022616982
52	0x3ce0f1b3	0.027459001
53	0x3db26ee8	0.0871256
54	0x3d38b2d3	0.045092415
55	0x3e053a6c	0.13010567
56	0xbdf40573	-0.11915102
57	0xbe6f37ec	-0.23361176
58	0x3e460c02	0.19340518
59	0xbebf023e	-0.37306398
60	0xbe983b4c	-0.2973274
61	0x3e87d9ce	0.2653336
62	0x3db0e841	0.08638049
63	0xbed36894	-0.41290724

projection.layers.6.bias f4 [16]
0	0x3e8da3f8	0.2766416
1	0x3e73098b	0.23734109
2	0x3d30161c	0.042989835
3	0x3eae3857	0.3402736
4	0xbeb9cb32	-0.36287838
5	0x3e9551fa	0.29164106
6	0x3eeb73f2	0.45986897
7	0x3eef6a01	0.46760562
8	0x3d87fb1c	0.06639692
9	0x3ea7b158	0.3275249
10	0xbe24a138	-0.16077125
11	0xbda0921d	-0.07840369
12	0x3e48bde5	0.19603689
13	0xbdf7f8fd	-0.121080376
14	0xbdc38dc8	-0.09548527
15	0x3e271113	0.16315107

projection.layers.7.weight f4 [20, 16]
0	0xbd9375d3	-0.072002076
1	0x3bbe013b	0.0057984865
2	0x3dbefa7f	0.09325122
3	0x3db7a8f0	0.08967769
4	0xbe531e41	-0.2061701
5	0x3e2c41ac	0.16821927
6	0xbe7a6670	-0.2445314
7	0xbc113d2c	-0.008864682
8	0x3e36bd6a	0.17845693
9	0x3c05178c	0.00812329
10	0xbe53b827	-0.20675717
11	0xbe06a4d8	-0.1314882
12	0x3ded6c12	0.115928784
13	0x3c25a3fc	0.010109898
14	0xbe061fd5	-0.1309808
15	0xbde825f4	-0.11335364
16	0xbd1ce2da	-0.03830228
17	0x3e822de4	0.25425637
18	0x3e0ebce3	0.13939242
19	0xbe3d1be3	-0.18467669
20	0xbe42f87c	-0.19040102
21	0x3e56be8d	0.20971127
22	0x3de1b528	0.11020881
23	0x3e0be1fc	0.13660425
24	0xbe3e562a	-0.18587556
25	0x3df73763	0.12071111
26	0xbdff978f	-0.124800794
27	0x3e35b411	0.17744471
28	0xbe039b49	-0.12852205
29	0xbce3f233	-0.02782545
30	0xbd3292e8	-0.043597132
31	0x3e3f8f70	0.18707061
32	0x3e115e23	0.14196067
33	0x3e10cdd4	0.14141017
34	0xbe1adc4f	-0.15123104
35	0x3e4c7678	0.19967067
36	0x3e1671e4	0.14691883
37	0xbda11791	-0.07865823
38	0x3e0a3848	0.13498032
39	0xbe05b95a	-0.13058987
40	0x3e2d1878	0.16903865
41	0xbe0d0cc8	-0.13774407
42	0xbd9f2c6a	-0.07772143
43	0xbd73ea0d	-0.05954938
44	0x3c037a2b	0.008024733
45	0x3e58a31f	0.21155976
46	0xbdf6c61c	-0.12049505
47	0xbe636387	-0.22205935
48	0xbd68ad0b	-0.05680565
49	0x3dd25301	0.10269738
50	0x3e03beb1	0.12865712
51	0xbc2057d2	-0.009786563
52	0x3dc1aba3	0.09456565
53	0x3e5445cc	0.2072975
54	0x3e6f752c	0.23384541
55	0xbdd5f565	-0.10447196
56	0xbe333a03	-0.17502598
57	0x3e11677e	0.14199635
58	0xbde654e3	-0.112466596
59	0xbdc6ac76	-0.09700863
60	0x3e5e919b	0.21735232
61	0x3e6d5f91	0.23180987
62	0x3e7a6612	0.24452999
63	0x3c0c5326	0.008564746
64	0xbd27e74d	-0.04099207
65	0xbda03887	-0.07823282
66	0x3e1f7e0c	0.15575427
67	0x3e6ed01b	0.23321573
68	0x3e35cdc1	0.1775427
69	0xbd672044	-0.056427255
70	0xbe5fdefe	-0.21862409
71	0x3e18258d	0.14858074
72	0xbd13452e	-0.035954647
73	0xbde5933d	-0.11209724
74	0xbe44e304	-0.19227225
75	0xbe20d8a9	-0.1570765
76	0x3e5a415f	0.21314
77	0xbe002696	-0.1251472
78	0x3e5c783b	0.2153024
79	0xbdff86e9	-0.12476904
80	0xbd59421b	-0.05304156
81	0x3ddbc424	0.1073077
82	0x3d581eb9	0.052763674
83	0xbdb23891	-0.087021954
84	0x3e7f8aa6	0.24955234
85	0x3e2435c6	0.16036138
86	0x3d97fb61	0.074209936
87	0x39d3b8e2	0.00040382805
88	0x3dcb60e0	0.09930587
89	0x3e17d6d2	0.14828041
90	0xbe133640	-0.14376163
91	0xbe5dc16c	-0.21655816
92	0xbd920faa	-0.07131894
93	0xbdbea582	-0.09308912
94	0xbe657377	-0.22407328
95	0xbcfb4d1b	-0.030676415
96	0xbe2fc8c0	-0.17166424
97	0xbe3c6989	-0.18399633
98	0xbe12b580	-0.1432705
99	0x3e6c4ef7	0.23076998
100	0x3d66424c	0.05621557
101	0x3dfed02d	0.1244205
102	0x3e51898d	0.20462628
103	0xbd169094	-0.036758974
104	0x3d5876ce	0.052847676
105	0xbdb620cb	-0.088929735
106	0xbddaf386	-0.1069098
107	0x3e393365	0.18086012
108	0x3cfdf03a	0.030998338
109	0xbe61cca3	-0.22050719
110	0x3d170ad0	0.036875546
111	0x3ce92320	0.028459132
112	0xbe175e48	-0.14782059
113	0xbe264169	-0.1623589
114	0xbd619430	-0.055072963
115	0xbd291371	-0.041278306
116	0x3e724e06	0.23662576
117	0xbe57b08a	-0.21063438
118	0xbd538d14	-0.051648214
119	0xbe4f0605	-0.2021714
120	0x3dd5c698	0.104382694
121	0xbc8014a3	-0.01563484
122	0x3d4d25b9	0.050084803
123	0xbe4fee30	-0.20305705
124	0x3e7b94c3	0.24568467
125	0x3e22de77	0.15905176
126	0x3e50db3b	0.2039613
127	0xbdeb1bb3	-0.114798926
128	0x3da35e87	0.07977014
129	0x3e592196	0.21204218
130	0xbe30d35d	-0.17268129
131	0xbe1cf3fb	-0.15327446
132	0xbe5fbd0b	-0.21849458
133	0x3e452670	0.19252944
134	0x3e19a713	0.1500514
135	0xbe61bba0	-0.2204423
136	0x3e70ca1f	0.23514603
137	0xbdca83cf	-0.09888422
138	0xbdea029f	-0.11426281
139	0x3d0c0d79	0.034192536
140	0x3e48f865	0.19626005
141	0xbc875fb4	-0.016525127
142	0xbe4dfb3e	-0.20115373
143	0xbe3ef0f7	-0.18646608
144	0xbe55c7b4	-0.20876962
145	0x3e1bbbde	0.15208384
146	0x3d988c3d	0.07448623
147	0x3e18b247	0.14911757
148	0x3e058c15	0.13041718
149	0x3d64f8a5	0.05590119
150	0xbe6e6347	-0.23280059
151	0xbd138bd0	-0.036022007
152	0xbc9eef7e	-0.019401308
153	0xbe4290a5	-0.1900049
154	0x3c61b130	0.013775155
155	0x3d961cec	0.07329735
156	0x3d1b41ee	0.037904672
157	0xbdf52cbf	-0.11971425
158	0x3d2f49b1	0.042794887
159	0x3da51865	0.080612935
160	0x3df9590c	0.121751875
161	0xbe248e58	-0.16069925
162	0xbdae82b0	-0.085210204
163	0xbc8fed75	-0.017569283
164	0xbe65a7fb	-0.2242736
165	0xbe4311b8	-0.19049728
166	0x3e5c39d9	0.21506442
167	0xbe38a3f8	-0.18031299
168	0xbe7ac14c	-0.244878
169	0xbe796fba	-0.24359027
170	0x3e523c27	0.20530759
171	0xbd0837af	-0.03325623
172	0xbd29269f	-0.041296598
173	0xbd1a5241	-0.0376761
174	0xbe42935b	-0.19001524
175	0xbdb15313	-0.08658423
176	0xbd870129	-0.06592018
177	0x3e4bf052	0.19915894
178	0x3e27cf85	0.16387756
179	0x3e59429b	0.21216814
180	0xbe783e5a	-0.24242535
181	0xbe025a98	-0.12729871
182	0xbdb1d1ec	-0.086826175
183	0xbe103464	-0.14082485
184	0xbd67f833	-0.056633186
185	0xbd25f8e9	-0.040520582
186	0x3cb497ac	0.022044979
187	0x3db50bd4	0.08840147
188	0x3cb9bcc9	0.022673028
189	0xbe7ebf7e	-0.24877736
190	0xbd132029	-0.035919342
191	0xbe583bd6	-0.21116576
192	0xbe4e7e41	-0.2016535
193	0x3e38b764	0.18038708
194	0xbb4fbeec	-0.0031699492
195	0x3e23c86f	0.15994428
196	0x3e6b81f5	0.22998793
197	0xbe0e1824	-0.13876396
198	0xbd874f1a	-0.06606884
199	0xbd8501d2	-0.06494488
200	0xbd880f4f	-0.06643545
201	0xbe2f9d4e	-0.1714985
202	0xbca3bdc9	-0.019987958
203	0xbd31da0e	-0.043420844
204	0xbd914533	-0.07093277
205	0xbdfaf611	-0.12253965
206	0x3e3d93ce	0.18513414
207	0xbdf6f23c	-0.12057921
208	0x3e1c2958	0.15250146
209	0x3dec1633	0.11527672
210	0xbd286fdb	-0.0411223
211	0x3e59eb00	0.21281052
212	0xbe14b175	-0.1452082
213	0x3dce98ac	0.100877136
214	0x3e610014	0.21972686
215	0x3e3d0380	0.18458366
216	0x3d61dbe1	0.055141333
217	0x3e4f6adb	0.20255606
218	0x3ca79cb5	0.020460466
219	0xbdb3cd98	-0.08779448
220	0x3e7570bb	0.23968785
221	0x3e4e7338	0.2016114
222	0x3dcc8144	0.09985593
223	0x3e5a92b1	0.21345021
224	0xbe2cea81	-0.16886331
225	0x3d471045	0.0485995
226	0xbe77b235	-0.24189074
227	0xbc419339	-0.011814886
228	0x3e54dac4	0.20786577
229	0x3e1b8f22	0.1519132
230	0x3e09e4cc	0.13466185
231	0x3e269347	0.1626712
232	0xbddaaab2	-0.10677089
233	0x3e51ba77	0.20481287
234	0xbdd625be	-0.104564175
235	0xbe33c306	-0.17554864
236	0x3dd66729	0.10468895
237	0xbcf0078d	-0.029300475
238	0x3e57671d	0.21035428
239	0xbcf8fa08	-0.030392662
240	0xbdef191b	-0.1167471
241	0xbb87f21f	-0.004148736
242	0x3d279608	0.040914565
243	0xbdee2145	-0.116274394
244	0x3d0d7b77	0.034541573
245	0xbe4ee422	-0.20204213
246	0x3e1cc8e0	0.15311003
247	0xbdbe4ca8	-0.09291965
248	0xbd565325	-0.052325387
249	0x3e4cdb2b	0.20005481
250	0x3a5a535a	0.00083284604
251	0x3e549c51	0.20762755
252	0xbe623a34	-0.22092515
253	0x3d35a79a	0.04434929
254	0xbd2813cf	-0.041034516
255	0xbd8c8057	-0.068604164

projection.layers.7.bias f4 [20]
0	0xbe084010	-0.13305688
1	0xbd1881f5	-0.03723331
2	0xbe430b61	-0.1904731
3	0x3e1cde72	0.15319231
4	0x3e03a55a	0.12856045
5	0xbe4bb188	-0.19891942
6	0xbdeb943d	-0.115028836
7	0x3e3aab97	0.18229519
8	0x3e3514af	0.17683671
9	0x3e6ae234	0.22937852
10	0x3e66f8d3	0.22555856
11	0x3e120e2c	0.14263219
12	0x3deb0b8b	0.11476811
13	0x3e1c5837	0.15268026
14	0xbdd9ef19	-0.106413074
15	0x3c4260f8	0.011863939
16	0x3e6b6991	0.22989489
17	0x3e51bc59	0.20482005
18	0x3e16f1c2	0.14740661
19	0x3dbf1ea6	0.093320176

projection.layers.8.weight f4 [20, 20]
0	0xbdbe2778	-0.09284872
1	0xbd8c210e	-0.06842242
2	0xbe48998d	-0.19589825
3	0x3d53336e	0.05156272
4	0xbd38a4bf	-0.04507899
5	0x3e3c95d8	0.18416536
6	0xbda07110	-0.07834065
7	0x3d741e40	0.05959916
8	0x3d99efba	0.07516427
9	0xbdbb4fbf	-0.0914607
10	0xbe672052	-0.22570923
11	0xbe0c4f69	-0.13702168
12	0x3e500afd	0.20316692
13	0x3e03720d	0.12836476
14	0x3db369d6	0.08760421
15	0xbe021ed8	-0.12707078
16	0xbe010d92	-0.12602833
17	0xbe54a2aa	-0.20765176
18	0x3da8be59	0.08239431
19	0x3db30b89	0.087424345
20	0xbd43e194	-0.04782255
21	0xbe096b3f	-0.13419817
22	0x3dac97ab	0.08427366
23	0x3d503189	0.05082849
24	0xbd1e083d	-0.038582075
25	0x3e2bab78	0.16764629
26	0xbd52216a	-0.051301397
27	0xbe2463e0	-0.16053724
28	0x3dbcc1b1	0.09216631
29	0xbdbe7787	-0.09300142
30	0x3e5d0b73	0.21586399
31	0x3d2e1343	0.04249884
32	0xbd7035ed	-0.058645178
33	0xbd38c54e	-0.04511004
34	0x3c6e9587	0.014562017
35	0xbe11fffb	-0.14257805
36	0xbe1a5f68	-0.15075457
37	0xbe0f40cc	-0.13989562
38	0x3d82ec10	0.063926816
39	0x3dceeb83	0.10103514
40	0xbdd86023	-0.105652116
41	0xbd440808	-0.04785922
42	0xbdc523a2	-0.09625937
43	0x3dcc0be7	0.09963208
44	0xbe4a868f	-0.19777893
45	0x3e0a2d4d	0.13493843
46	0x3e32aa9c	0.17447895
47	0xbd826f95	-0.06368939
48	0xbc427b74	-0.011870254
49	0xbe0fc5eb	-0.14040343
50	0x3d6e82c6	0.058230184
51	0xbd9cd855	-0.076584496
52	0xbe20a195	-0.15686639
53	0x3e2e24fc	0.17006296
54	0x3e035113	0.12823896
55	0x3ca0829d	0.019593531
56	0xbe048e14	-0.12944824
57	0xbddfd226	-0.109287545
58	0x3d4841cd	0.048890878
59	0x3decf4aa	0.115701035
60	0x3e5b5c84	0.2142201
61	0x3d52d88d	0.05147605
62	0xbe08828a	-0.13331047
63	0xbdad4fe8	-0.084625065
64	0x3dfbfc46	0.12303977
65	0xbd8c9da1	-0.06866003
66	0xba24e6cc	-0.0006290495
67	0x3dc66c96	0.0968868
68	0x3d22834b	0.039675992
69	0xbd54f970	-0.051995695
70	0x3e2885ea	0.16457334
71	0x3dcc7104	0.099824935
72	0xbe45aea8	-0.19304907
73	0xbe6289c8	-0.22122872
74	0x3dace79f	0.08442616
75	0x3e4c22b5	0.19935115
76	0xbe56ec53	-0.20988588
77	0x3e38965f	0.18026112
78	0xbd6c9269	-0.057756815
79	0x3cf65b7a	0.030072916
80	0xbe09e715	-0.13467057
81	0x3dcb48fd	0.09926031
82	0xbd01b3b6	-0.031665526
83	0xbd65b08f	-0.056076583
84	0x3e43e9bc	0.19132131
85	0xbd017f50	-0.031615555
86	0xbd499896	-0.049217783
87	0xbe0496d0	-0.12948155
88	0x3d2cb46e	0.04216426
89	0x3e4d7794	0.20065147
90	0x3d0566a0	0.032568574
91	0xbe217361	-0.1576667
92	0x3e098216	0.1342853
93	0x3db2197d	0.08696268
94	0x3e0bca0b	0.13651292
95	0x3cc801f8	0.024415001
96	0x3d2c6265	0.042086024
97	0xbdc10066	-0.09423904
98	0xbde187e9	-0.11012251
99	0x3db9a7fd	0.09065244
100	0x3e189838	0.14901817
101	0xbdd651fc	-0.10464856
102	0xbdd75ecc	-0.10516128
103	0xbd3715b5	-0.044698436
104	0xbe04b623	-0.12960105
105	0xbdc113a5	-0.09427575
106	0xbe061eb2	-0.13097647
107	0xbdc1cd7f	-0.094630234
108	0xbe649f2f	-0.22326349
109	0xbd3ea901	-0.046547893
110	0xbb3bc8f0	-0.0028653704
111	0x3db9eab2	0.09077968
112	0x3da3414e	0.0797144
113	0xbd20d289	-0.039263282
114	0xbe18d879	-0.14926328
115	0xbd840fac	-0.06448302
116	0x3e2d625a	0.1693205
117	0xbe2e5329	-0.1702391
118	0xbe03874d	-0.12844582
119	0xbdf34383	-0.11878111
120	0x3e2e3c89	0.1701528
121	0x3e0ca64c	0.13735312
122	0xbe4ce271	-0.20008256
123	0xbd7c68e9	-0.061623488
124	0xbe637d3a	-0.22215739
125	0x3e070139	0.1318406
126	0x3dd61809	0.10453803
127	0xbcbe2663	-0.023211664
128	0x3e0ff055	0.14056523
129	0x3e23dd72	0.16002443
130	0x3d9e92b2	0.07742824
131	0xbc121b71	-0.008917675
132	0xbe46b71a	-0.19405785
133	0xbd0b37f7	-0.03398892
134	0xbe1e1909	-0.15439238
135	0x3c3f54a1	0.011677892
136	0x3dcb9dad	0.09942184
137	0x3d532174	0.051545575
138	0xbe27c582	-0.16383937
139	0xbe12c645	-0.14333446
140	0xbdd868d7	-0.105668716
141	0x3de16ebd	0.1100745
142	0x3e19a2b5	0.15003474
143	0xbdad88ab	-0.08473333
144	0xbde6c2f3	-0.11267652
145	0xbe5ca2e9	-0.2154652
146	0xbe4bc1b3	-0.19898109
147	0x3ca9521e	0.02066904
148	0x3d959ee0	0.073056936
149	0x3e4498a3	0.19198851
150	0xbd39ce96	-0.04536303
151	0xbe401ac2	-0.18760207
152	0xbd9809a4	-0.07423714
153	0xbe550dd5	-0.20806058
154	0xbd2f630d	-0.04281907
155	0x3e50d3de	0.20393321
156	0x3dd32761	0.10310245
157	0x3e1ad0db	0.15118735
158	0xbe122f68	-0.14275897
159	0x3d621efd	0.055205334
160	0x3da11579	0.07865424
161	0x3e1cdb81	0.15318109
162	0x3dd7a257	0.10529011
163	0x3d3874ce	0.04503327
164	0x3e3f4ceb	0.18681686
165	0x3ae540df	0.0017490647
166	0xbd44551d	-0.047932733
167	0x3e339f4c	0.17541236
168	0xbe39b8f1	-0.18136956
169	0xbe3d505f	-0.1848769
170	0xbe1830df	-0.14862393
171	0x3c8412a7	0.016122175
172	0xbd80e4aa	-0.06293614
173	0x3d7a54ac	0.061115906
174	0x3d794bfc	0.06086348
175	0x3e3c754b	0.18404119
176	0xbe4c0a31	-0.19925763
177	0x3e5577b1	0.2084644
178	0x3d8c8787	0.06861787
179	0xbd79e2fd	-0.06100749
180	0x3e3f1410	0.18659997
181	0x3d7a1694	0.06105669
182	0xbe1b3efc	-0.15160745
183	0x3d560fd1	0.052261177
184	0x3e52bb41	0.20579244
185	0xbde14bd7	-0.110007934
186	0x3e32aee1	0.17449524
187	0xbe4bcd97	-0.19902645
188	0xbc94505f	-0.01810473
189	0xbddf48fe	-0.10902594
190	0xbe23790f	-0.15964149
191	0xbe4f9254	-0.20270663
192	0xbce89942	-0.028393392
193	0xbe60da02	-0.21958163
194	0xbe0a0962	-0.13480142
195	0x3e6014e8	0.21882975
196	0x3d62cff6	0.05537411
197	0x3d538c9b	0.051647764
198	0xbd18980c	-0.03725438
199	0xbe1636c4	-0.14669329
200	0xbcb47e96	-0.022033017
201	0x3e5e71b7	0.21723066
202	0x3db97725	0.09055928
203	0xbe1634fb	-0.14668648
204	0xbda9fe84	-0.08300498
205	0xbd8eabcb	-0.06966361
206	0x3e091a1c	0.13388866
207	0xbdc6e11d	-0.09710906
208	0x3e08b692	0.13350895
209	0x3e4deda7	0.20110188
210	0xbdfe13e3	-0.12406137
211	0x3e15e847	0.14639388
212	0xbdc29377	-0.09500783
213	0xbde40eba	-0.11135621
214	0x3e338b0b	0.1753351
215	0xbe719470	-0.2359178
216	0xbdfb5123	-0.12271335
217	0x3ce79289	0.028268116
218	0xbe44b917	-0.19211231
219	0x3d9af054	0.0756537
220	0x3d7476d1	0.059683625
221	0x3be70e4c	0.007051265
222	0x3d98ab48	0.07454544
223	0xba85e358	-0.0010214848
224	0x3e3c7041	0.18402196
225	0xbe2b321f	-0.16718338
226	0x3e499fb3	0.19689827
227	0xbe5c3371	-0.21503998
228	0x3cd819ec	0.026379548
229	0xbd87ba59	-0.0662734
230	0xbdc0ba10	-0.094104886
231	0x3dbd9e11	0.092586644
232	0xbdda02e9	-0.10645086
233	0xbe5b64e7	-0.2142521
234	0xbda2d66c	-0.07951054
235	0x3e25a0a3	0.1617456
236	0xbd47d252	-0.04878456
237	0xbc3e7908	-0.011625536
238	0x3e242949	0.16031374
239	0x3dfc500c	0.12319955
240	0xbe329980	-0.17441368
241	0x3d94cf81	0.07266141
242	0x3dd8d6fd	0.10587881
243	0xbd9eef93	-0.07760539
244	0x3e167055	0.14691289
245	0x3e115df0	0.1419599
246	0xbdb6eb2c	-0.08931574
247	0x3d5aea25	0.053445954
248	0x38ada7ff	8.2805745e-05
249	0x3e41d6b8	0.18929565
250	0x3c30f30c	0.010800134
251	0xbdf4b2d0	-0.11948168
252	0xbd6c3893	-0.05767114
253	0xbdd5646e	-0.10419546
254	0x3dba4b02	0.09096338
255	0x3cafea64	0.02147407

projection.layers.8.bias f4 [20]
0	0x3e0a9d3e	0.13536546
1	0x3c23da30	0.01000075
2	0xbc3391b6	-0.010960033
3	0x3d69d914	0.057091787
4	0xbde0bb20	-0.10973191
5	0x3b783457	0.0037872994
6	0x3d228a47	0.039682653
7	0x3deebd85	0.11657242
8	0xbaf56d9c	-0.0018724683
9	0x3e10a188	0.1412412
10	0xbdc1c3e5	-0.09461192
11	0x3d3b8b83	0.045787346
12	0xbdf3da22	-0.1190684
13	0x3c68e459	0.014214599
14	0xbddca60a	-0.10773857
15	0xbe2f6d1a	-0.17131463
16	0xbd2ea2cc	-0.042635724
17	0xbe0355c9	-0.12825693
18	0x3e4da30a	0.20081726
19	0xbe1039c8	-0.14084542
