actor.pth (torch, 582820 bytes, 34 tensors)

projection.layers.0.weight f4 [10, 2]
0.038324013 0.61142313 0.34358788 0.54118943 -0.52267975 0.08147466 0.56621695 0.12599789
0.3134219 0.5194103 -0.011296777 -0.25344408 0.19406585 -0.21679083 -0.031806946 0.32830316
0.12638682 0.19417223 0.3271737 -0.2975375
00000000: a4f9 1c3d 3a86 1c3f c0ea af3e 648b 0a3f
00000010: 57ce 05bf 30dc a63d 98f3 103f 9705 013e
00000020: d678 a03e 13f8 043f 1e16 39bc 6cc3 81be
00000030: 33b9 463e 6afe 5dbe 0048 02bd 5a17 a83e
00000040: 8c6b 013e 16d5 463e 5083 a73e d656 98be

projection.layers.0.bias f4 [10]
-0.037925187 -0.3381297 -0.6624188 -0.23437645 -0.09598555 0.46710968 0.08958051 -0.52128875
-0.1499158 0.25278974
00000000: 7157 1bbd 561f adbe 4794 29bf 6100 70be
00000010: 1294 c4bd 0029 ef3e fd75 b73d 2e73 05bf
00000020: 8783 19be a86d 813e

projection.layers.1.weight f4 [10, 4]
0.4726123 -0.3288666 -0.108477406 0.51719207 -0.49606752 -0.041990638 -0.23218668 -0.3842473
0.18843296 -0.119401924 0.444513 -0.01472735 0.09716317 0.24358085 0.50803095 0.42072713
0.07098503 0.2019965 0.33892515 -0.2822765 0.22057246 -0.326878 -0.16344637 0.3423689
-0.48815793 0.23190854 0.06730388 0.04283118 0.3417913 0.0672549 -0.3236133 -0.31558654
0.24475887 -0.08985404 -0.078235246 0.14099638 -0.0463565 -0.027634919 0.0014374256 -0.23931974
00000000: 3dfa f13e 3461 a8be 6729 debd b366 043f
00000010: 90fc fdbe 60fe 2bbd 58c2 6dbe 10bc c4be
00000020: 92f4 403e ff88 f4bd 3597 e33e fc4a 71bc
00000030: 7cfd c63d 426d 793e 510e 023f 8c69 d73e
00000040: 9960 913d 2cd8 4e3e 9987 ad3e 8c86 90be
00000050: bfdd 613e 8e5c a7be 7c5e 27be fa4a af3e
00000060: d6ef f9be 6f79 6d3e 9ed6 893d bf6f 2f3d
00000070: 45ff ae3e f0bc 893d a4b0 a5be 8f94 a1be
00000080: 12a2 7a3e 6505 b8bd cd39 a0bd 5b61 103e
00000090: 50e0 3dbd a062 e2bc 0068 bc3a 3c10 75be

projection.layers.1.bias f4 [10]
0.41202596 -0.4841845 -0.39136264 0.35297635 -0.501449 0.46055964 -0.21267393 0.17922106
-0.2641123 -0.00572747
00000000: 11f5 d23e 08e7 f7be af60 c8be 51b9 b43e
00000010: f65e 00bf 79ce eb3e 32c7 59be ba85 373e
00000020: ba39 87be 80ad bbbb

projection.layers.2.weight f4 [10, 4]
0.44175303 -0.53590775 0.37808812 -0.035129003 -0.38140708 0.0003497854 0.34547496 0.27843028
0.13288584 -0.1443792 -0.39403248 0.0047473507 0.38039446 0.47926742 0.4072217 -0.22798866
-0.20816506 -0.16739923 -0.011563254 0.17319079 0.4533645 -0.26855522 -0.30867797 0.3746979
-0.14668177 0.4581371 -0.17856562 0.28735235 0.30304992 -0.30271807 0.13464342 -0.33869442
0.040198814 -0.2532243 0.053230546 0.09458557 -0.457718 -0.47236162 0.27299216 0.300903
00000000: 742d e23e 4031 09bf c494 c13e 6ee3 0fbd
00000010: ca47 c3be 6763 b739 18e2 b03e 6a8e 8e3e
00000020: 3a13 083e 24d8 13be a0be c9be aa8f 9b3b
00000030: 10c3 c23e 8a62 f53e 5d7f d03e dc75 69be
00000040: 3929 55be b46a 2bbe cd73 3dbc ed58 313e
00000050: 641f e83e 1280 89be 0a0b 9ebe 67d8 bf3e
00000060: bf33 16be f290 ea3e e8d9 36be d91f 933e
00000070: 5c29 9b3e ddfd 9abe f7df 093e 5b69 adbe
00000080: 83a7 243d 9ea6 81be 4608 5a3d 14b6 c13d
00000090: 045a eabe 62d9 f1be a1c5 8b3e f50f 9a3e

projection.layers.2.bias f4 [10]
-0.17002702 0.27645835 0.008278878 0.07225682 0.41024092 0.13790645 0.06443522 0.17179866
0.30339134 -0.36463523
00000000: 901b 2ebe f38b 8d3e 22a4 073c 62fb 933d
00000010: 190b d23e 5937 0d3e 9df6 833d fdeb 2f3e
00000020: 1c56 9b3e 78b1 babe

projection.layers.3.weight f4 [10, 4]
0.36416438 0.21999756 -0.24128102 -0.02356186 -0.17130738 -0.25433463 -0.093117274 0.1254229
0.48889658 -0.108248614 0.1981143 0.09566001 0.014450236 -0.2884557 -0.15745641 0.35385504
0.45490572 -0.012171948 -0.3185836 -0.00090119784 -0.41200462 -0.058298204 0.0898562 0.24805091
0.32251891 0.28236517 -0.25601658 0.048479587 -0.10732629 0.42085463 0.18164565 -0.19015385
-0.11984213 0.29983363 -0.42960438 0.27910608 -0.4119476 -0.33257365 0.1528044 -0.14582413
00000000: c173 ba3e 0a47 613e 5f12 77be cd04 c1bc
00000010: 346b 2fbe 2638 82be 45b4 bebd dc6e 003e
00000020: a750 fa3e 73b1 ddbd 7ade 4a3e 65e9 c33d
00000030: afc0 6c3c 77b0 93be 413c 21be 7d2c b53e
00000040: 67e9 e83e da6c 47bc 641d a3be 5d3e 6cba
00000050: 45f2 d2be 19ca 6ebd 8706 b83d 0f01 7e3e
00000060: 3321 a53e 2b92 903e 9b14 83be 8892 463d
00000070: e3cd dbbd 427a d73e 5101 3a3e b1b7 42be
00000080: ca6f f5bd cb83 993e 1bf5 dbbe fee6 8e3e
00000090: ccea d2be 1847 aabe c278 1c3e ec52 15be

projection.layers.3.bias f4 [10]
0.02895453 0.3137898 0.40585855 0.02082513 -0.15466693 0.36167574 -0.020529468 -0.16969387
-0.08583006 -0.15329084
00000000: 0d32 ed3c 0fa9 a03e b1cc cf3e 7799 aa3c
00000010: 0261 1ebe 902d b93e 6a2d a8bc 3bc4 2dbe
00000020: acc7 afbd 46f8 1cbe

projection.layers.4.weight f4 [10, 4]
-0.29965675 -0.2904482 -0.06340605 -0.05241829 -0.13772058 0.3858419 0.20557003 0.5198405
0.19409391 0.064441174 0.5034906 -0.30931208 0.14304358 -0.49260706 -0.07980919 0.09282732
0.33862704 0.4682613 -0.2953351 -0.41216105 0.14395735 -0.5144401 0.45967066 -0.040184528
-0.0737087 -0.024872815 -0.26755488 0.267658 0.1631916 -0.31534386 -0.3638549 0.2804589
-0.22920847 -0.3051346 -0.25897533 -0.376341 0.009716434 0.40819427 -0.13131768 -0.44194165
00000000: 9c6c 99be a0b5 94be 08db 81bd 90b4 56bd
00000010: a006 0dbe 128d c53e f380 523e 4414 053f
00000020: 8ec0 463e bcf9 833d c3e4 003f 275e 9ebe
00000030: 047a 123e fe36 fcbe 0073 a3bd 401c be3d
00000040: 8660 ad3e f2bf ef3e 2a36 97be c606 d3be
00000050: 8e69 133e 59b2 03bf f459 eb3e 8898 24bd
00000060: 96f4 96bd 13c2 cbbc f4fc 88be 780a 893e
00000070: b31b 273e c074 a1be 304b babe 4f98 8f3e
00000080: a0b5 6abe 9a3a 9cbe 6a98 84be c4af c0be
00000090: ae31 1f3c d7fe d03e 2478 06be 2d46 e2be

projection.layers.4.bias f4 [10]
-0.16308534 -0.3248967 0.39977932 -0.36722016 -0.35302734 0.15344238 -0.14097741 -0.25953862
0.077483155 0.48377824
00000000: d8ff 26be dc58 a6be e0af cc3e 4804 bcbe
00000010: 00c0 b4be 0020 1d3e 625c 10be 3fe2 84be
00000020: 7daf 9e3d c8b1 f73e

projection.layers.5.weight f4 [10, 1]
-0.5118952 -0.9017271 0.34535885 -0.36971244 0.11705927 -0.6486517 0.57533115 -0.19381368
0.81282884 -0.78026044
00000000: 900b 03bf 96d7 66bf e0d2 b03e f34a bdbe
00000010: c5bc ef3d 0a0e 26bf e748 133f 1877 46be
00000020: 8d15 503f 26bf 47bf

projection.layers.5.bias f4 [10]
0.87436134 0.88627356 -0.6586586 0.55220985 0.84887546 -0.5121803 -0.3046546 -0.13062108
0.6862243 0.36187765
00000000: 25d6 5f3f d3e2 623f da9d 28bf a05d 0d3f
00000010: e74f 593f 401e 03bf b0fb 9bbe 88c1 05be
00000020: 65ac 2f3f 0748 b93e

projection.layers.6.weight f4 [10, 1]
-0.55334365 0.036749363 0.28293353 -0.98767376 0.68175983 -0.42751294 -0.53863966 0.553754
-0.91969 0.5391974
00000000: eea7 0dbf 8086 163d aadc 903e 30d8 7cbf
00000010: d087 2e3f fae2 dabe 4ae4 09bf d2c2 0d3f
00000020: ce70 6bbf d708 0a3f

projection.layers.6.bias f4 [10]
0.8021241 -0.348261 0.3140836 0.7291309 -0.49072558 0.41573894 0.44215956 -0.64169896
0.90696865 0.84042245
00000000: 0158 4d3f 444f b2be 91cf a03e 53a8 3a3f
00000010: 6240 fbbe bcdb d43e bd62 e23e 6246 24bf
00000020: 192f 683f ed25 573f

projection.layers.7.weight f4 [10, 1]
0.98311615 -0.08802904 -0.69436526 -0.17522416 -0.61440456 0.9178475 0.69611675 -0.14332235
0.80497223 -0.5688157
00000000: 80ad 7b3f 9248 b4bd ecc1 31bf f66d 33be
00000010: 9e49 1dbf 0ef8 6a3f b534 323f 18c3 12be
00000020: a912 4e3f e89d 11bf

projection.layers.7.bias f4 [10]
-0.24532543 0.6705421 -0.8917934 0.19077982 -0.37219644 0.027790405 0.1462529 -0.40928173
-0.7085579 0.018212529
00000000: 9736 7bbe a6a8 2b3f 924c 64bf c95b 433e
00000010: 8890 bebe b4a8 e33c 52c3 153e 608d d1be
00000020: 0d64 35bf 7132 953c

projection.layers.8.weight f4 [10, 1]
-0.8412878 -0.2969246 0.7303751 0.68207914 0.1820737 0.40236878 0.11555775 -0.71879125
-0.10383332 -0.026635181
00000000: a35e 57bf 8006 98be ddf9 3a3f bd9c 2e3f
00000010: 8771 3a3e 4803 ce3e 8ba9 ec3d b402 38bf
00000020: 90a6 d4bd 0632 dabc

projection.layers.8.bias f4 [10]
0.8303058 -0.27161252 -0.15937302 -0.4261867 0.42255396 0.94493616 0.47003153 -0.29300487
-0.47134185 0.5371613
00000000: ec8e 543f cc10 8bbe ae32 23be 2535 dabe
00000010: fe58 d83e 56e7 713f f9a7 f03e bc04 96be
00000020: b853 f1be 6783 093f

projection.layers.9.weight f4 [10, 1]
-0.6190382 0.7862474 -0.998497 -0.49751174 0.009256508 -0.84240913 -0.039153814 -0.0007177028
0.979956 -0.67298084
00000000: 4a79 1ebf 8247 493f 809d 7fbf dcb9 febe
00000010: 9ca8 173c 20a8 57bf c05f 20bd 3824 3cba
00000020: 65de 7a3f 7948 2cbf

projection.layers.9.bias f4 [10]
-0.1534679 -0.6975504 0.1370974 -0.28146505 0.23969103 -0.035246015 -0.8261992 0.71624506
0.7346086 0.66127354
00000000: b026 1dbe aa92 32bf 4363 0c3e 301c 90be
00000010: 9171 753e 205e 10bd ca81 53bf d65b 373f
00000020: 4f0f 3c3f 3949 293f

attention.layers.0.weight f4 [64, 100]
-0.025221407 -0.06399502 -0.082573235 0.053825114 0.066236995 -0.032237213 -0.0062225554 -0.09466293
0.08960894 0.026276655 0.05385376 -0.07886098 0.03823459 -0.07476947 0.039461408 -0.060684282
0.025383972 -0.024815245 0.031531233 0.06281901 0.020462563 0.045571942 -0.06430847 0.090207055
0.02919453 0.068141885 0.007638459 -0.066530995 -0.05924401 0.10186326 -0.036079254 -0.0701046
-0.10242649 -0.053137098 -0.027995028 -0.09824083 -0.01024372 0.03300519 -0.046568047 -0.040271536
0.099134214 -0.114757836 -0.036057074 -0.012477137 0.028031895 0.029512528 0.050991274 0.13252397
-0.14110775 -0.009606808 0.046116166 -0.06590599 0.09428003 -0.08437682 -0.10646892 0.08019293
0.12807484 0.05184629 0.04852 -0.05958819 -0.029609386 0.08020913 0.059418943 -0.101367496
0.12878446 -0.13798283 -0.12643407 -0.01437974 -0.07308049 -0.023513934 -0.012981208 -0.022257933
-0.020446047 -0.055493597 0.07487374 -0.04627275 -0.017669344 0.022712052 -0.048832417 0.014086262
-0.048651602 0.049662687 0.13177875 -0.010322337 0.03683604 -0.083760194 -0.032811485 0.045500107
-0.041426804 -0.067473195 -0.09913819 0.079383835 -0.0030831117 -0.07270249 -0.02073174 -0.06652993
-0.045938637 -0.036239028 -0.086938955 -0.035661057 0.0055076294 0.07367226 0.016107976 0.00941082
-0.016013777 0.08290877 0.11774099 -0.06662208 -0.10975432 0.055200152 0.07876619 -0.046929624
-0.031535096 -0.0743635 0.09144778 0.01222827 -0.09302944 0.07914805 -0.01886456 0.009430848
-0.010808184 -0.091666654 0.028067349 -0.052085694 -0.052242387 -0.0820293 0.038276818 0.13913345
0.043390322 0.09253045 -0.077864625 -0.10559138 0.011364181 0.0037530381 -0.08378251 -0.043048885
-0.109193146 -0.023436075 -0.052191664 -0.05545093 -0.09556017 -0.052264977 0.097235195 -0.035713635
-0.018417686 -0.003075248 0.0036094445 0.06679856 -0.103002094 0.092897564 -0.07844454 0.077896945
0.007509254 0.0031927666 -0.037574932 0.08525475 0.068863004 -0.017871082 0.018179249 -0.046754956
0.076542966 -0.028568603 0.06589368 0.048401095 0.101160645 0.016085181 0.056288864 0.09315676
-0.07721606 -0.07325337 0.09998604 -0.01801182 -0.026414752 -0.054734774 -0.09804366 0.056493707
0.009689132 -0.08271991 0.031069802 0.079294495 0.050005373 -0.09185976 0.042884864 -0.055355065
0.09422021 -0.09776927 -0.015058834 -0.06102643 -0.04822148 0.082956225 0.09930233 0.0735927
-0.07578562 -0.060753714 -0.020213103 0.013344191 -0.017557755 0.030548824 0.09290213 0.087611794
0.037850995 0.06413264 -0.050214745 0.012428883 -0.07388281 -0.07243875 -0.12022857 -0.08146028
0.14855441 0.04736313 -0.030068785 -0.022543907 -0.04129644 -0.021090476 0.13113697 0.048350476
0.09444398 0.10517489 -0.115680404 -0.059907734 -0.16724047 -0.019294044 0.05465777 -0.06062326
0.06428454 0.10538414 -0.024266684 -0.14424382 -0.08992904 -0.04667751 -0.054046296 -0.045251112
0.031464588 0.081842154 -0.08558934 0.027551603 -0.07149204 -0.056186944 0.10922949 0.017362967
0.03183221 0.05830199 0.0076925987 -0.059665192 0.075321406 -0.04695161 -0.054685608 -0.055572525
0.04738738 -0.059738476 0.1227125 0.13571502 0.055659063 0.10411583 0.078535356 -0.011738084
00000000: 209d cebc d20f 83bd 281c a9bd b977 5c3d
00000010: 43a7 873d 2b0b 04bd 94e6 cbbb a3de c1bd
00000020: e484 b73d 2442 d73c c395 5c3d de81 a1bd
00000030: e09b 1c3d bc20 99bd 49a2 213d 1590 78bd
00000040: 0cf2 cf3c 5749 cbbc e526 013d 41a7 803d
00000050: 1ba1 a73c a5a9 3a3d 29b4 83bd 7abe b83d
00000060: 5e29 ef3c f98d 8b3d 0a4c fa3b 6741 88bd
00000070: d9a9 72bd af9d d03d d7c7 13bd 0093 8fbd
00000080: fbc4 d1bd 49a6 59bd d455 e5bc 7d32 c9bd
00000090: 47d5 27bc 7330 073d 23be 3ebd c4f3 24bd
000000a0: e106 cb3d 2806 ebbd 95b0 13bd e86c 4cbc
000000b0: 25a3 e53c 42c4 f13c 3adc 503d 5db4 073e
000000c0: 8d7e 10be e065 1dbc 4ee4 3c3d b8f9 86bd
000000d0: e315 c13d c1cd acbd 610c dabd 313c a43d
000000e0: 0d26 033e c65c 543d e8bc 463d bf12 74bd
000000f0: 628f f2bc af44 a43d 4761 733d c399 cfbd
00000100: 13e0 033e 5f4b 0dbe ef77 01be 0099 6bbc
00000110: 39ab 95bd 4ba0 c0bc 22af 54bc 4556 b6bc
00000120: 787e a7bc 414d 63bd 6757 993d 7f88 3dbd
00000130: 4dbf 90bc a00e ba3c 8004 48bd 11ca 663c
00000140: e746 47bd 1a6b 4b3d 02f1 063e 051f 29bc
00000150: 63e1 163d 778a abbd 5665 06bd 525e 3a3d
00000160: 27af 29bd 632f 8abd f708 cbbd fe93 a23d
00000170: 080e 4abb 0be5 94bd 9cd5 a9bc d840 88bd
00000180: 272a 3cbd 606f 14bd 0d0d b2bd 5411 12bd
00000190: 5879 b43b 7be1 963d e0f4 833c d72f 1a3c
000001a0: 532f 83bc 13cc a93d 3022 f13d 2871 88bd
000001b0: dfc6 e0bd 8e19 623d 2b50 a13d 4739 40bd
000001c0: f22a 01bd e44b 98bd f948 bb3d 1559 483c
000001d0: 3886 bebd 5f18 a23d da89 9abc d883 1a3c
000001e0: cf14 31bc babb bbbd 7fed e53c cf57 55bd
000001f0: 1dfc 55bd fafe a7bd 27c8 1c3d 0079 0e3e
00000200: 0dba 313d 9b80 bd3d 7d77 9fbd 4b40 d8bd
00000210: d430 3a3c 88f5 753b 2a96 abbd 0754 30bd
00000220: a8a0 dfbd 03fd bfbc edc6 55bd 8420 63bd
00000230: 0db5 c3bd cd13 56bd 3f23 c73d 7648 12bd
00000240: b0e0 96bc 1a8a 49bb 6e8c 6c3b afcd 883d
00000250: c3f2 d2bd 1441 be3d 88a7 a0bd 6f88 9f3d
00000260: 3010 f63b bc3d 513b 2ce8 19bd 0b9a ae3d
00000270: 0c08 8d3d 6066 92bc a6ec 943c 2082 3fbd
00000280: 8fc2 9c3d b408 eabc 44f3 863d 3a40 463d
00000290: 502d cf3d 12c5 833c 278f 663d f9c8 be3d
000002a0: 7423 9ebd dd05 96bd 7bc5 cc3d 868d 93bc
000002b0: c063 d8bc 9231 60bd 1dcb c8bd f265 673d
000002c0: 2abf 1e3c 0e69 a9bd 1986 fe3c 2765 a23d
000002d0: 6fd2 4c3d f820 bcbd 0aa8 2f3d febb 62bd
000002e0: 87f6 c03d 413b c8bd 54b9 76bc daf6 79bd
000002f0: e383 45bd f4e4 a93d 055f cb3d c5b7 963d
00000300: 7e35 9bbd e3d8 78bd f395 a5bc 98a1 5a3c
00000310: 48d5 8fbc 8741 fa3c 7943 be3d d06d b33d
00000320: a509 1b3d f957 833d faad 4dbd 84a2 4b3c
00000330: df4f 97bd c45a 94bd 663a f6bd a6d4 a6bd
00000340: a61e 183e d7ff 413d d052 f6bc 00ae b8bc
00000350: 7526 29bd efc5 acbc c548 063e 260b 463d
00000360: d86b c13d ef65 d73d d9e9 ecbd d061 75bd
00000370: 1641 2bbe 8b0e 9ebc d3e0 5f3d 1850 78bd
00000380: 9da7 833d a4d3 d73d edca c6bc a7b4 13be
00000390: b72c b8bd eb30 3fbd a65f 5dbd 3b59 39bd
000003a0: 03e1 003d dc9c a73d 7749 afbd e6b3 e13c
000003b0: 6b6a 92bd 4824 66bd b6b3 df3d c83c 8e3c
000003c0: 7e62 023d 11ce 6e3d 3212 fc3b 7d63 74bd
000003d0: 1c42 9a3d 5550 40bd 04fe 5fbd 04a0 63bd
000003e0: 4519 423d 55b0 74bd b150 fb3d e1f8 0a3e
000003f0: c2fa 633d ae3a d53d 25d7 a03d 1851 40bc

attention.layers.0.bias f4 [64]
0.072266474 0.04765288 0.06519107 -0.08319458 0.09913751 -0.07007383 -0.0019000423 -0.04417271
-0.08340072 -0.038085416 -0.045604985 0.08268685 0.10300912 0.09095409 -0.059374746 0.0050535607
-0.0787938 0.08522524 0.06099874 0.020254215 0.10789407 0.022341715 0.026109846 0.018903896
0.11391109 0.052994296 -0.05698242 0.11806718 -0.01701347 0.06331132 0.008925882 0.07171156
-0.0866069 -0.07307365 -0.005496721 -0.040073987 -0.010293458 -0.036061566 0.071354486 -0.0054305536
-0.002688567 0.06495044 0.084187016 -0.018245507 0.017919283 -0.05839191 0.0056022266 -0.09036213
-0.015553525 -0.06920592 -0.022529032 0.0068064793 0.016071254 -0.117281 0.017979076 0.0064160773
0.0097225895 0.09495441 -0.059461053 0.055726245 -0.05618089 -0.008327209 -0.030947328 0.059546113
00000000: 7200 943d ab2f 433d e582 853d ec61 aabd
00000010: 9b08 cb3d de82 8fbd d70a f9ba 72ee 34bd
00000020: ffcd aabd 74ff 1bbd 4bcc 3abd b957 a93d
00000030: 72f6 d23d 2346 ba3d ef32 73bd 5798 a53b
00000040: a55e a1bd 928a ae3d d1d9 793d 2bec a53c
00000050: 91f7 dc3d f905 b73c 51e4 d53c 58dc 9a3c
00000060: 384a e93d 8c10 593d 6666 69bd 35cd f13d
00000070: d55f 8bbc 5ea9 813d dd3d 123c 83dd 923d
00000080: f55e b1bd a3a7 95bd d61d b4bb 9f24 24bd
00000090: e4a5 28bc 4bb5 13bd 4d22 923d c9f2 b1bb
000000a0: ab32 30bb bc04 853d 3e6a ac3d 9a77 95bc
000000b0: 76cb 923c 5b2c 6fbd e292 b73b c80f b9bd
000000c0: 36d4 7ebc d5bb 8dbd ce8e b8bc e308 df3b
000000d0: dda7 833c 0531 f0bd db48 933c f53d d23b
000000e0: 7f4b 1f3c 7577 c23d 6f8d 73bd 3441 643d
000000f0: ef1d 66bd d96e 08bc 4085 fdbc a0e6 733d

attention.layers.1.weight f4 [10, 64]
0.11886824 -0.08886331 -0.12594102 -0.03023189 -0.016227424 -0.010639396 -0.08388087 -0.06722119
-0.09657022 0.07288308 -0.047907792 -0.15718181 -0.12158053 -0.13926217 0.05830804 -0.08529529
0.059154548 0.0592736 0.054900315 -0.11752712 0.07482441 0.093269154 -0.11979364 -0.08729596
-0.08167472 0.031158358 0.05183658 -0.16199984 -0.06510822 0.0048969355 -0.05135011 -0.08099348
-0.06863374 -0.12333123 -0.1400549 -0.095377326 -0.09218925 0.07707929 -0.13503371 -0.09703096
-0.061030183 0.07625963 -0.083420716 -0.13515751 -0.014419642 0.10058608 0.105084024 0.05524584
-0.03453659 0.14104104 -0.11958137 0.117610864 -0.036191616 0.09432643 -0.040661756 -0.10573552
0.093154564 0.052941095 0.03817779 0.04412961 -0.0059929937 -0.12871368 -0.1307859 0.060568567
-0.0027325456 -0.028830113 -0.07849478 -0.04270168 -0.057336774 0.05904784 -0.08924931 0.07053954
-0.11772586 0.02243441 -0.038768187 0.060712714 -0.017296439 -0.04133119 0.08707529 0.09028965
-0.094016604 0.08057543 0.07261105 -0.02441043 -0.03313553 0.024921976 0.09306301 0.034330875
-0.08584685 -0.017428713 0.041689776 0.05849521 0.08228601 0.08194492 -0.08940895 -0.06411791
0.023726594 -0.08874847 0.011420482 -0.023341114 0.05385771 -0.087675914 0.039097708 -0.0910299
-0.064251 -0.06090836 -0.07103285 0.0934846 -0.08046238 0.10443826 -0.051092993 0.032036696
-0.04243522 0.023573272 -0.029324887 0.07139402 0.0273965 0.005302869 -0.0951838 -0.088791326
0.017444434 -0.06076155 -0.115581855 -0.032423664 0.05935403 -0.06306786 0.022059813 0.09277495
0.076362945 0.026539713 -0.12402839 -0.027428582 -0.059466634 -0.1286406 -0.041510373 -0.08480006
-0.10674254 0.08630873 0.0863509 -0.08920864 0.06920301 -0.077745445 -0.0071154153 -0.058398623
0.071709245 0.051764812 0.101027004 -0.02460104 -0.09589591 0.12899996 -0.008530766 -0.015435327
0.07408128 0.07728236 0.056502175 -0.04692557 -0.05227513 -0.042803485 -0.044545256 -0.0656066
-0.023545725 -0.10880296 -0.0074795163 0.111250445 0.010370613 0.067269355 0.07377035 -0.10261993
-0.004949702 0.09197104 -0.0009957362 -0.06737397 0.004595654 -0.07477579 0.12460883 0.01784325
-0.10060342 -0.11605462 0.08579856 0.108093254 -0.12091489 0.006457217 -0.014565866 -0.11194303
0.08218363 -0.12783073 0.06754533 0.0036844597 0.0060246084 -0.01061884 -0.026126493 0.09459875
0.070211135 -0.008439478 -0.12722066 0.1313183 -0.07894673 0.034853324 0.09817588 -0.09545019
-0.10999983 0.029037846 -0.03447986 0.0533713 0.06689415 -0.0676464 0.11359544 0.1336505
0.074229024 0.085326865 -0.021621544 -0.057032634 -0.13663688 0.12583698 -0.12390645 -0.047896292
-0.15011069 0.03454183 0.093420714 0.011583349 -0.03874832 0.0469543 0.089666024 -0.01110625
0.11464143 0.028389037 -0.13266376 -0.04304464 0.13545866 -0.04438028 -0.032953788 -0.050741047
-0.14783575 -0.13190931 -0.116058275 -0.10466935 0.062469803 0.019969314 -0.10800019 0.079855494
-0.036039993 0.13499434 0.034119144 -0.044445224 -0.13438128 0.13251294 -0.059476454 0.11937804
0.0903926 -0.00034253567 0.0013482764 -0.027144253 -0.031071177 0.018955491 -0.104185015 0.11631046
00000000: 3171 f33d f8fd b5bd aff6 00be dea8 f7bc
00000010: 60ef 84bc dc50 2ebc bcc9 abbd 43ab 89bd
00000020: 9cc6 c5bd b943 953d f63a 44bd 45f4 20be
00000030: 37ff f8bd be9a 0ebe 69d4 6e3d 4caf aebd
00000040: 0a4c 723d e0c8 723d 27df 603d 0fb2 f0bd
00000050: 8a3d 993d e603 bf3d 5e56 f5bd 39c8 b2bd
00000060: 1345 a7bd d03f ff3c 9852 543d 49e3 25be
00000070: 7557 85bd 7976 a03b 7e54 52bd e9df a5bd
00000080: d98f 8cbd 1595 fcbd 8d6a 0fbe 3055 c3bd
00000090: b8cd bcbd bfdb 9d3d 4746 0abe 2bb8 c6bd
000000a0: c9fa 79bd 022e 9c3d 7bd8 aabd bb66 0abe
000000b0: 5d40 6cbc 1300 ce3d 4b36 d73d 7649 623d
000000c0: 3d76 0dbd 106d 103e 14e7 f4bd f7dd f03d
000000d0: a93d 14bd 372e c13d f18c 26bd dd8b d8bd
000000e0: d2c7 be3d c3d8 583d 5060 1c3d 40c1 343d
000000f0: e060 c4bb 85cd 03be bdec 05be bf16 783d
00000100: 8214 33bb 212d ecbc dfc1 a0bd f5e7 2ebd
00000110: f7d9 6abd 26dc 713d 58c8 b6bd 0977 903d
00000120: 411a f1bd 5ec8 b73c 64cb 1ebd e5ad 783d
00000130: 43b1 8dbc e54a 29bd 8854 b23d c8e9 b83d
00000140: c78b c0bd bb04 a53d 1ab5 943d 62f8 c7bc
00000150: 1fb9 07bd 2c29 cc3c d297 be3d 889e 0c3d
00000160: 79d0 afbd a9c6 8ebc e6c2 2a3d ac98 6f3d
00000170: 9185 a83d bdd2 a73d 0a1c b7bd 4050 83bd
00000180: 465e c23c c2c1 b5bd f91c 3b3c dd35 bfbc
00000190: e799 5c3d 6e8f b3bd eb24 203d e26d babd
000001a0: 0796 83bd 0b7b 79bd ac79 91bd db74 bf3d
000001b0: 76c9 a4bd bae3 d53d e346 51bd e938 033d
000001c0: 8ed0 2dbd bc1c c13c bf3a f0bc 0737 923d
000001d0: a06e e03c b0c3 ad3b b9ef c2bd 3ad8 b5bd
000001e0: a1e7 8e3c 1ae1 78bd 2eb6 ecbd adce 04bd
000001f0: 361d 733d b929 81bd c8b6 b43c cb00 be3d
00000200: 2d64 9c3d d069 d93c 9902 febd e8b1 e0bc
00000210: 4993 73bd 5dba 03be c806 2abd a7ab adbd
00000220: d59b dabd a2c2 b03d bed8 b03d 05b3 b6bd
00000230: 4fba 8d3d 0139 9fbd 6e28 e9bb 6533 6fbd
00000240: 4cdc 923d 5707 543d 3fe7 ce3d 1f88 c9bc
00000250: 1365 c4bd 9118 043e a0c4 0bbc 74e4 7cbc
00000260: edb7 973d 3746 9e3d d36e 673d 0735 40bd
00000270: 721e 56bd b552 2fbd 1675 36bd c15c 86bd
00000280: f7e2 c0bc 16d4 debd bb16 f5bb 46d7 e33d
00000290: 81e9 293c 84c4 893d e914 973d 662a d2bd
000002a0: 1c31 a2bb 505b bc3d 5d83 82ba 5dfb 89bd
000002b0: 2497 963b 0d24 99bd ea32 ff3d 022c 923c
000002c0: 2a09 cebd 0bae edbd 28b7 af3d ff5f dd3d
000002d0: 3aa2 f7bd 1097 d33b aca5 6ebc 6342 e5bd
000002e0: e44f a83d 0fe6 02be 3555 8a3d fa76 713b
000002f0: 146a c53b a5fa 2dbc 3a07 d6bc fdbc c13d
00000300: dbca 8f3d bd45 0abc 2246 02be 4e78 063e
00000310: d3ae a1bd 5cc2 0e3d 7010 c93d 647b c3bd
00000320: 9747 e1bd c7e0 ed3c c13a 0dbd dd9b 5a3d
00000330: cdff 883d 328a 8abd baa4 e83d addb 083e
00000340: 6305 983d dabf ae3d aa1f b1bc 0d9b 69bd
00000350: 8aea 0bbe 69db 003e aac2 fdbd e72e 44bd
00000360: 9eb6 19be bc7b 0d3d 5c53 bf3d 16c8 3d3c
00000370: 8fb6 1ebd 2753 403d d2a2 b73d fdf6 35bc
00000380: 20c9 ea3d 2090 e83c 02d9 07be 944f 30bd
00000390: adb5 0a3e 19c8 35bd 8dfa 06bd d8d5 4fbd
000003a0: 4162 17be 3c13 07be f6af edbd e25c d6bd
000003b0: 56e0 7f3d b096 a33c 342f ddbd 478b a33d
000003c0: ac9e 13bd f53b 0a3e 84c0 0b3d 320c 36bd
000003d0: 3f9b 09be 79b1 073e 959d 73bd 797c f43d
000003e0: c11f b93d 5c96 b3b9 a6b8 b03a a05d debc
000003f0: fb88 febc 8c48 9b3c f45e d5bd 2e34 ee3d

attention.layers.1.bias f4 [10]
0.0036060389 -0.0216706 0.023792826 0.03330646 0.08704067 -0.04898871 -0.05247188 0.0021540106
0.075804286 -0.003169169
00000000: 4b53 6c3b 8b86 b1bc 2ce9 c23c 5b6c 083d
00000010: 6142 b23d 63a8 48bd c1ec 56bd 4d2a 0d3b
00000020: 473f 9b3d d5b1 4fbb

layers.0.weight f4 [23, 100]
6.1541796e-06 -0.015634917 -0.080520965 0.01938051 0.08399581 -0.057011094 -0.051277507 -0.0037374124
0.04577077 0.06694121 -0.019784093 -0.065253854 -0.0591259 -0.019257069 -0.013693348 0.004099928
-0.094871454 -0.0964371 0.088489555 -0.042391647 0.068186276 0.08054229 -0.097504966 0.056864597
0.05000422 -0.05129726 -0.074675836 0.09712765 -0.0368487 -0.07658146 -0.0048573613 -0.09790976
0.024804607 -0.07880857 0.008684024 -0.058485247 0.0042615533 0.051500194 0.04367777 0.02899108
-0.008440137 -0.018644795 -0.05527855 0.008298658 0.06157536 0.033827655 -0.09898843 -0.02681528
0.031486593 0.056605212 0.060539387 0.043014996 0.0025292635 -0.0027409643 -0.08907813 0.049655892
0.085815646 -0.09998363 0.06420671 -0.05335584 -0.09867404 0.08070163 -0.084291294 0.09080053
0.056664772 0.07195092 0.032976173 -0.0026939511 -0.07298336 -0.03541504 -0.018119335 -0.037180945
0.015632614 -0.043402005 0.061969824 0.0857807 0.066767715 -0.09564515 -0.04423919 0.0049401373
-0.059443366 0.026260622 -0.027383126 0.017105386 -0.044924654 -0.08898874 0.0084846765 0.0781234
-0.092766225 0.017866567 -0.0034431815 0.017412089 0.08446246 0.06788812 -0.018590584 0.0739739
-0.008440986 -0.09600579 -0.07377881 -0.09841931 0.035272494 0.10618011 0.03012725 -0.03957151
-0.06621492 0.043323822 0.04702419 -0.06508067 0.122925 0.02282502 0.10132591 0.09672294
-0.12880594 0.080786444 0.080540285 -0.05061534 -0.030533927 0.031942934 0.060317554 -0.032281436
-0.06902465 0.12165548 -0.06144483 -0.028597254 0.103536054 -0.04159413 0.057240088 -0.050163154
-0.0008221325 0.053674772 -0.06850288 0.021123493 0.019844411 0.10733486 0.102117315 0.077853195
-0.06004568 0.08630283 0.09635751 -0.0039631464 -0.048196208 0.106565185 0.01205102 0.07003272
-0.062197797 -0.10766507 0.07417685 -0.047329273 -0.011447125 0.06146699 -0.03782551 0.12848242
0.09584459 0.11525225 0.08129299 0.0656992 -0.11151131 -0.096481554 0.00049192645 0.06393557
-0.05712894 -0.018554784 0.09546946 0.009471182 -0.123321936 -0.034396186 0.104696766 -0.049362328
0.035432816 -0.018336684 0.06593879 0.005684597 -0.035517313 -0.04567661 0.091386594 -0.06763379
0.035518687 0.055278547 0.033658165 0.0041240724 0.10200701 0.05997724 -0.060174916 -0.09889516
0.053413432 -0.06588624 -0.07637616 0.09255982 -0.007968962 0.108120665 -0.073636554 -0.013875029
0.06359937 -0.0653459 0.10095893 -0.08856328 -0.035823688 -0.052353114 0.026455378 0.047634423
0.0010868186 0.07164979 0.07483073 -0.02624919 -0.0868738 0.036929436 0.040149625 -0.05882131
0.08685336 0.010824782 0.012131407 -0.0028184429 0.06519587 0.05862768 -0.0502326 -0.08709915
0.016268505 -0.032627285 0.080280125 -0.039856292 0.03813108 0.085265376 -0.009000604 -0.0060667223
0.054558568 -0.016145622 0.082766525 0.00360032 0.011843428 -0.06351113 0.07009183 -0.05192221
-0.02028859 -0.114035256 0.050398983 0.071368136 0.049036924 -0.083206706 -0.09882203 -0.05271999
0.085853584 0.06360405 -0.053724978 0.09698749 0.06525833 0.054868575 -0.054655407 -0.05655242
0.022248033 -0.102546684 -0.101714544 0.018363202 -0.09614656 -0.084937565 -0.0073259934 -0.015064381
00000000: 0080 ce36 cc14 80bc 2de8 a4bd e0c3 9e3c
00000010: ff05 ac3d 7784 69bd 5d08 52bd 60ef 74bb
00000020: 227a 3b3d 7918 893d 4012 a2bc d0a3 85bd
00000030: 002e 72bd 00c1 9dbc 105a 60bc b058 863b
00000040: f74b c2bd d080 c5bd 033a b53d dda2 2dbd
00000050: 3fa5 8b3d 5bf3 a43d afb0 c7bd daea 683d
00000060: 3ad1 4c3d 131d 52bd a5ef 98bd ddea c63d
00000070: aaee 16bd bed6 9cbd 802a 9fbb ea84 c8bd
00000080: 0833 cb3c 6366 a1bd 7047 0e3c 3a8e 6fbd
00000090: 80a4 8b3b def1 523d 76e7 323d b47e ed3c
000000a0: 8048 0abc f8bc 98bc c36b 62bd 18f7 073c
000000b0: 7236 7c3d de8e 0a3d 72ba cabd b8ab dbbc
000000c0: 16f8 003d deda 673d 26f8 773d 7e30 303d
000000d0: 00c2 253b c0a1 33bb 986e b6bd fa63 4b3d
000000e0: 1dc0 af3d 38c4 ccbd cf7e 833d a78b 5abd
000000f0: 9d15 cabd e546 a53d eaa0 acbd a1f5 b93d
00000100: 5219 683d 015b 933d 0612 073d 008d 30bb
00000110: 4d78 95bd 5c0f 11bd 006f 94bc 0c4b 18bd
00000120: f80f 803c 4dc6 31bd 12d4 7d3d cbad af3d
00000130: 83bd 883d 9be1 c3bd 2734 35bd e0e0 a13b
00000140: e37a 73bd 8420 d73c 9452 e0bc 9820 8c3c
00000150: ea02 38bd bb3f b6bd 5003 0b3c 29ff 9f3d
00000160: 38fc bdbd e85c 923c 00a7 61bb cca3 8e3c
00000170: a7fa ac3d ed08 8b3d 484b 98bc a17f 973d
00000180: 104c 0abc af9e c4bd 5819 97bd 1090 c9bd
00000190: e479 103d f574 d93d 6ccd f63c bc15 22bd
000001a0: b09b 87bd 5274 313d 709c 403d 0449 85bd
000001b0: 1ac0 fb3d 89fb ba3c f583 cf3d ad16 c63d
000001c0: b4e5 03be 5d73 a53d 4ef2 a43d 0852 4fbd
000001d0: 4922 fabc 98d6 023d 8a0f 773d 8a39 04bd
000001e0: cc5c 8dbd 8226 f93d 93ad 7bbd ca44 eabc
000001f0: b60a d43d 9b5e 2abd 9574 6a3d e177 4dbd
00000200: 6184 57ba 14da 5b3d 3d4b 8cbd 2d0b ad3c
00000210: bf90 a23c 61d2 db3d e222 d13d 7f71 9f3d
00000220: 75f2 75bd 8abf b03d 1657 c53d 48dd 81bb
00000230: 6369 45bd d93e da3d a471 453c 516d 8f3d
00000240: 1ec3 7ebd 817f dcbd 08ea 973d 57dc 41bd
00000250: b98c 3bbc cfc4 7b3d ecee 1abd e590 033e
00000260: 2b4a c43d 5f09 ec3d f07c a63d 4d8d 863d
00000270: 0b60 e4bd 1f98 c5bd a0f4 003a a7f0 823d
00000280: 0900 6abd 3400 98bc 7e85 c33d 042d 1b3c
00000290: 3690 fcbd 04e3 0cbd 426b d63d 2730 4abd
000002a0: 0022 113d d036 96bc eb0a 873d db45 ba3b
000002b0: 9a7a 11bd 6617 3bbd e528 bb3d 9683 8abd
000002c0: 0b7c 113d c26b 623d 25dd 093d 3a23 873b
000002d0: 0de9 d03d b2aa 753d f979 76bd 8c89 cabd
000002e0: 0bc8 5a3d 5def 86bd 1b6b 9cbd 0190 bd3d
000002f0: 4090 02bc 5e6e dd3d c3ce 96bd 1754 63bc
00000300: 6340 823d 12d4 85bd 8ec3 ce3d aa60 b5bd
00000310: dcbb 12bd 3870 56bd f3b8 d83c 501c 433d
00000320: 9573 8e3a 20bd 923d db40 993d 8b08 d7bc
00000330: e4ea b1bd 5243 173d ef73 243d 9dee 70bd
00000340: 2de0 b13d 6d5a 313c cfc2 463c a0b5 38bb
00000350: 6a85 853d 9423 703d b3c0 4dbd 0a61 b2bd
00000360: 8745 853c 30a4 05bd e869 a43d 5a40 23bd
00000370: 562f 1c3d 9d9f ae3d 4577 13bc 5bcb c6bb
00000380: ce78 5f3d d343 84bc 7f81 a93d 59f3 6b3b
00000390: f00a 423c 2012 82bd 4e8c 8f3d 62ac 54bd
000003a0: 4234 a6bc 518b e9bd 2a6f 4e3d 7529 923d
000003b0: f1da 483d 4768 aabd 3463 cabd ebf0 57bd
000003c0: 01d4 af3d d742 823d b90e 5cbd 61a1 c63d
000003d0: 29a6 853d dfbd 603d 59de 5fbd 83a3 67bd
000003e0: 8241 b63c ff03 d2bd b74f d0bd 6d6e 963c
000003f0: 7de8 c4bd bff3 adbd e30e f0bb 98d0 76bc

layers.0.bias f4 [23]
0.072427414 0.097366 -0.009138519 -0.08244247 -0.073435046 0.024823997 -0.057308223 0.03007146
-0.041232947 -0.011671043 -0.06859572 0.08944597 0.02272803 -0.06790072 0.114157245 0.111479394
0.031388346 0.09535986 0.0873684 -0.04133723 -0.076716736 0.003131078 -0.022571947
00000000: d354 943d d367 c73d bab9 15bc 99d7 a8bd
00000010: 1d65 96bd b25b cb3c 07bc 6abd 6c58 f63c
00000020: e1e3 28bd e737 3fbc ea7b 8cbd 732f b73d
00000030: 2230 ba3c 880f 8bbd 46cb e93d 4f4f e43d
00000040: 1191 003d 084c c33d 34ee b23d 3a51 29bd
00000050: aa1d 9dbd c632 4d3b cee8 b8bc

layers.1.weight f4 [250, 23]
-0.13560677 0.12797523 0.16844973 -0.22587834 -0.09507587 -0.012154723 0.122670695 0.12570171
0.04760472 -0.12606771 0.18088003 0.060142353 -0.030269034 -0.00914675 0.14170039 -0.021217337
-0.080226645 -0.017847763 0.032975275 -0.023580462 0.012984202 0.020813197 0.07179302 -0.14777102
0.07968785 -0.18291898 -0.1792353 0.0155080855 -0.02361384 -0.112246074 -0.07359971 0.007877141
0.04879792 0.19204648 0.17273591 0.03681387 -0.067678556 0.018008485 -0.17148505 0.029044732
0.0624993 -0.19992048 -0.09482333 -0.028492019 0.09032221 -0.13250291 0.083776906 0.028588023
0.110081404 -0.13566756 0.004838482 0.1907475 0.0708947 0.15815108 0.16209826 -0.03864826
-0.14947623 -0.19565298 0.13656905 -0.050100654 -0.07204637 -0.054728054 0.15391022 -0.038465273
-0.0065916837 0.09801306 0.07266461 -0.101335 0.14590132 0.0018049031 0.0012553455 0.09001681
0.15507962 -0.16008693 0.013632711 -0.1381801 -0.19044402 -0.19689026 -0.05787881 -0.19250962
0.16142617 0.1431439 0.0050411224 0.18760422 0.021811565 0.1034186 0.12424432 0.19708079
-0.107009426 -0.19404171 -0.11297611 0.0042851917 -0.029813886 -0.06705323 -0.13205746 0.015580952
-0.056192443 0.0390739 -0.00827688 -0.11138195 0.19716682 0.14728488 -0.07760817 0.1072108
-0.0865984 -0.03143415 0.16695075 0.058805093 -0.12600638 -0.083345085 -0.12145549 -0.055773318
-0.032179505 0.14927979 0.007030219 0.120814934 0.065694846 0.100482725 0.06297262 -0.18701461
-0.017589957 0.01572889 0.07369943 -0.14118354 -0.043527663 -0.1709868 0.16401042 -0.034167804
-0.09155369 0.16883631 0.17724538 0.11456084 0.16259918 0.23385018 0.066032395 0.17207113
-0.06222438 -0.12619215 -0.13051589 0.024692662 -0.13829759 0.04897749 -0.07175794 -0.08817839
0.14429708 -0.059430182 -0.037479565 0.11507434 0.111868575 0.032568917 -0.17122714 -0.12827596
-0.16763505 -0.092685394 0.0958044 0.065269 0.030486587 -0.043052465 0.15951224 0.108539484
-0.014631979 0.20641513 -0.16852647 -0.012863158 -0.083014406 -0.101446815 0.22349912 0.16473024
0.11215983 0.09334459 0.21816711 -0.00811179 0.20817383 0.19636704 -0.14080536 -0.17612733
-0.05396423 0.12443293 0.16228679 0.012357525 0.06725626 -0.02982132 -0.015824432 -0.1967026
-0.19479479 0.20519234 -0.14635551 -0.16997051 -0.19308661 0.0862201 0.15406145 0.14344345
0.0018706424 -0.18453398 0.14135401 0.047305122 0.18212007 -0.06416866 0.011122667 -0.009567127
-0.015971046 -0.079698615 -0.09870576 -0.17287546 -0.107441574 -0.055357233 -0.012814787 0.15198325
-0.19968587 -0.20300205 0.0038994998 0.07031353 0.11397593 -0.078234285 -0.07794982 -0.15962785
-0.16216262 0.079337314 0.031746358 0.05599381 -0.16568518 0.074416354 -0.023445949 0.04858063
0.032991365 -0.11589155 -0.010124639 0.11809309 0.036998212 -0.028617874 0.10247494 0.12905976
-0.09872271 0.17637329 0.06475261 -0.060222916 0.08251132 0.07511227 0.07020998 -0.08322014
0.023258686 -0.14473778 -0.02346554 0.082691655 0.21970752 -0.19135477 -0.12015057 0.007617095
0.17473608 -0.20288485 -0.17646152 -0.024841815 0.038625527 -0.09462687 0.056631256 0.16602138
00000000: 80dc 0abe f00b 033e 167e 2c3e a74c 67be
00000010: 23b7 c2bd 9a24 47bc c63a fb3d f3b7 003e
00000020: 2bfd 423d e517 01be 9d38 393e d457 763d
00000030: c4f6 f7bc 40dc 15bc e819 113e fbcf adbc
00000040: de4d a4bd 7935 92bc 1511 073d d02b c1bc
00000050: b1bb 543c 7080 aa3c 3808 933d 4951 17be
00000060: 6233 a33d 1d4f 3bbe 7589 37be a015 7e3c
00000070: d071 c1bc 45e1 e5bd 72bb 96bd 200f 013c
00000080: 54e0 473d d5a7 443e afe1 303e 24ca 163d
00000090: 0e9b 8abd 8886 933c c799 2fbe 38ef ed3c
000000a0: 44ff 7f3d f4b7 4cbe bc32 c2bd 1868 e9bc
000000b0: dafa b83d d8ae 07be 3a93 ab3d 6e31 ea3c
000000c0: 5c72 e13d 70ec 0abe 218c 9e3b 5053 433e
000000d0: 3e31 913d 5bf2 213e 16fd 253e a34d 1ebd
000000e0: 4c10 19be 4159 48be c2d8 0b3e 5836 4dbd
000000f0: 0c8d 93bd 862a 60bd a49a 1d3e c38d 1dbd
00000100: 0dff d7bb 12bb c83d 2fd1 943d b988 cfbd
00000110: 2867 153e 8092 ec3a 688a a43a bc5a b83d
00000120: 31cd 1e3e d4ed 23be bc5b 5f3c 167f 0dbe
00000130: c203 43be 9a9d 49be 5512 6dbd 3e21 45be
00000140: e74c 253e 5194 123e 0030 a53b 521b 403e
00000150: 2bae b23c 22cd d33d ce73 fe3d 8ccf 493e
00000160: c227 dbbd dfb2 46be 0560 e7bd cb6a 8c3b
00000170: 403c f4bc 3453 89bd 123a 07be 4047 7f3c
00000180: 0c2a 66bd f40b 203d c09b 07bc 381c e4bd
00000190: 19e6 493e d9d1 163e 08f1 9ebd 5691 db3d
000001a0: 805a b1bd 18c1 00bd 23f5 2a3e 9cdd 703d
000001b0: d107 01be d4b0 aabd a8bd f8bd 9072 64bd
000001c0: a8ce 03bd cddc 183e c05d e63b d26d f73d
000001d0: 058b 863d e3c9 cd3d caf7 803d c280 3fbe
000001e0: d018 90bc e0d9 803c baef 963d 6b92 10be
000001f0: 104a 32bd 2a17 2fbe 59f2 273e 8af3 0bbd
00000200: 8080 bbbd 6de3 2c3e d07f 353e e09e ea3d
00000210: 6680 263e 6c76 6f3e fe3b 873d 6a33 303e
00000220: fede 7ebd 8438 01be f5a5 05be 4448 ca3c
00000230: e29d 0dbe 9f9c 483d d4f5 92bd df96 b4bd
00000240: 9dc2 133e 106d 73bd 2c84 19bd 18ac eb3d
00000250: 5a1b e53d fc66 053d 2b56 2fbe c65a 03be
00000260: 86a8 2bbe d7d1 bdbd 1935 c43d c1ab 853d
00000270: 02bf f93c c857 30bd 2d57 233e f349 de3d
00000280: f8ba 6fbc 7d5e 533e 3492 2cbe ffbf 52bc
00000290: 7503 aabd 59c3 cfbd f4dc 643e 0baf 283e
000002a0: 0eb4 e53d 732b bf3d 3367 5f3e 50e7 04bc
000002b0: 852b 553e 7114 493e 482f 10be b95a 34be
000002c0: 9909 5dbd b1d6 fe3d 822e 263e 3777 4a3c
000002d0: a6bd 893d d74b f4bc 3da2 81bc 686c 49be
000002e0: 4978 47be f11d 523e 38de 15be c00c 2ebe
000002f0: 7fb8 45be 2a94 b03d 49c2 1d3e d7e2 123e
00000300: 5830 f53a 7af6 3cbe 1bbf 103e 04c3 413d
00000310: af7d 3a3e dc6a 83bd d93b 363c 70bf 1cbc
00000320: b6d5 82bc 0739 a3bd 3f26 cabd 4406 31be
00000330: 540a dcbd 44be 62bd 1df5 51bc 7fa1 1b3e
00000340: 747a 4cbe c5df 4fbe c08e 7f3b 8a00 903d
00000350: 366c e93d 4c39 a0bd 28a4 9fbd 7c75 23be
00000360: f50d 26be 9a7b a23d 7808 023d c459 653d
00000370: 60a9 29be 9a67 983d b811 c0bc 7cfc 463d
00000380: f421 073d 8d58 edbd d0e1 25bc cada f13d
00000390: 708b 173d 0870 eabc 62de d13d 3e28 043e
000003a0: 222f cabd 339b 343e 049d 843d 4eac 76bd
000003b0: b2fb a83d 76d4 993d 40ca 8f3d 526f aabd
000003c0: 0089 be3c 2436 14be ce3a c0bc 3e5a a93d
000003d0: 02fb 603e 81f2 43be 8111 f6bd d398 f93b
000003e0: 04ee 323e 0cc1 4fbe 54b2 34be 1081 cbbc
000003f0: cd35 1e3d bbcb c1bd 2df6 673d 8201 2a3e

layers.1.bias f4 [250]
-0.14678162 -0.04491335 0.19258727 0.12387919 -0.19999292 0.17332022 0.13706744 -0.069944896
0.06710142 -0.033578828 0.06271066 -0.2039601 -0.09158742 -0.17253964 0.054150414 0.094690554
-0.04503253 0.18313389 -0.044806413 -0.16388552 -0.061990015 0.20750688 -0.15314373 -0.04843308
0.078978494 -0.084569156 -0.018509094 -0.12226291 -0.15486103 0.08450149 -0.0852526 0.039853826
-0.0075070877 0.18560691 0.11074114 0.07143567 0.034692466 0.0021947536 0.067551844 -0.22586302
0.13906375 -0.0042601316 -0.13000177 0.14558767 -0.125465 -0.15051022 0.19250248 0.18939444
-0.06163919 -0.0036323816 0.20865126 -0.037910223 -0.050439272 0.16635661 0.21671145 0.21063538
0.1438104 0.17358793 0.20647895 0.21297322 0.11743109 -0.01098067 -0.09314803 -0.05969671
0.06409709 0.10641241 -0.021686139 0.14186306 0.14040105 0.12998194 0.10274802 0.1956777
-0.06594888 0.001747999 0.1438043 0.014329024 -0.054260835 0.1101811 0.2063123 -0.058019124
-0.12341987 0.095608994 0.07218012 -0.14470477 -0.042272724 0.018705174 -0.16555324 0.13079473
0.1761195 0.1975192 0.1379905 -0.19693847 0.16393834 0.2118698 -0.15746441 0.03439091
-0.10772444 0.018583443 0.052054748 -0.16126794 0.1485376 -0.17803839 0.09268542 -0.024637073
-0.008450591 -0.1915158 0.0011512906 0.1177584 -0.04879432 -0.06708312 -0.14667663 0.23712565
0.21249206 0.13761742 0.053187195 -0.1859063 0.03390683 0.12988603 0.011196418 0.09199255
0.07244966 0.048673034 0.14496501 -0.101526976 0.026588077 0.19500543 -0.0306824 0.0015275786
0.18340534 0.02262669 0.052389964 -0.11724792 -0.08461425 -0.17811614 -0.18684961 0.050659113
-0.15354924 0.21768367 -0.03466957 -0.15067658 0.014181803 0.05236512 -0.038856924 -0.1296366
-0.14733581 -0.026342923 -0.16318768 -0.03540108 -0.031149164 -0.17118035 0.11695921 0.02767032
-0.18205006 0.061146397 0.19957012 -0.1900186 0.19636357 -0.042801734 0.15193568 0.095215775
0.123945676 0.10886397 -0.2194106 -0.011914252 0.013617852 -0.11565263 -0.07576558 0.003930429
0.17284049 0.20674859 -0.13970444 -0.19321626 0.12018648 0.22195086 0.082809076 0.1629533
-0.13054948 0.12827587 -0.054018214 -0.10321346 0.08004598 0.01754013 -0.08495724 0.16279447
-0.101360485 0.20384628 -0.01654598 0.06949327 -0.09483012 -0.0032479912 0.05344733 -0.14174797
0.0093126325 -0.19363579 -0.097685896 0.18151957 0.20898522 0.07476433 0.06292623 -0.06366566
0.0704523 0.057860978 0.2107056 -0.06532727 -0.1839839 0.06259881 -0.18597372 -0.15117519
-0.13278657 -0.065294795 -0.12976548 0.033651363 -0.08277729 -0.04121209 -0.08179546 0.0811468
0.018826114 -0.19737473 -0.08777848 0.026149558 -0.091743916 -0.07249381 -0.01970767 -0.0023306406
0.03398414 -0.15519655 0.0041945158 -0.1934388 0.23443519 0.17319517 -7.82311e-06 0.11168147
0.21847382 0.033131745 0.11392518 0.1036987 0.05262274 -0.1465506 0.20905523 -0.18292652
0.04473111 0.200376 0.1270565 -0.119036816 0.048042852 -0.05835843 0.085501775 0.08911611
-0.10534189 -0.20643182
00000000: ec4d 16be 10f7 37bd 9935 453e 5fb4 fd3d
00000010: f2ca 4cbe db7a 313e 685b 0c3e 453f 8fbd
00000020: 786c 893d f489 09bd 726e 803d ebda 50be
00000030: 2f92 bbbd 3bae 30be d3cc 5d3d 1fed c13d
00000040: 0874 38bd 7387 3b3e ee86 37bd 9bd1 27be
00000050: 3ee9 7dbd af7c 543e b6d1 1cbe c461 46bd
00000060: 7abf a13d 9832 adbd 62a0 97bc fa64 fabd
00000070: e493 1ebe 1e0f ad3d ea98 aebd c43d 233d
00000080: 04fe f5bb bd0f 3e3e 40cc e23d dd4c 923d
00000090: b019 0e3d dbd5 0f3b 9f58 8a3d a348 67be
000000a0: ba66 0e3e 9398 8bbb 2f1f 05be ef14 153e
000000b0: e679 00be 5a1f 1abe 5f1f 453e 9ef0 413e
000000c0: 6079 7cbd 400d 6ebb ada8 553e c047 1bbd
000000d0: 6999 4ebd 6359 2a3e 9be9 5d3e cdb0 573e
000000e0: 0943 133e 09c1 313e 386f 533e a715 5a3e
000000f0: b67f f03d 45e8 33bc 65c4 bebd 8a84 74bd
00000100: 5645 833d c0ee d93d 21a7 b1bc 8d44 113e
00000110: 4bc5 0f3e fc19 053e 8e6d d23d bc5f 483e
00000120: 3510 87bd 1d1d e53a 6f41 133e 48c4 6a3c
00000130: 9c40 5ebd a1a6 e13d 8843 533e 76a5 6dbd
00000140: 8fc3 fcbd a6ce c33d 2cd3 933d 7d2d 14be
00000150: 2a26 2dbd 983b 993c ca86 29be 0eef 053e
00000160: ac58 343e 7942 4a3e 624d 0d3e 3daa 49be
00000170: 74df 273e 66f4 583e 5a3e 21be 7cdd 0c3d
00000180: a29e dcbd 4e3c 983c 5c37 553d 6c23 25be
00000190: 3e1a 183e b24f 36be dad1 bd3d b0d3 c9bc
000001a0: 5974 0abc b81c 44be e7e6 963a 512b f13d
000001b0: 8edc 47bd e062 89bd 6632 16be 11d1 723e
000001c0: 8597 593e 95eb 0c3e d1da 593d 395e 3ebe
000001d0: e3e1 0a3d d800 053e 2e71 373c 9766 bc3d
000001e0: 7d60 943d 605d 473d b571 143e 60ed cfbd
000001f0: 3dcf d93c 81af 473e a859 fbbc 0839 c83a
00000200: 9cce 3b3e 9c5b b93c dc96 563d ad1f f0bd
00000210: 3c4a adbd 1464 36be 8155 3fbe ee7f 4f3d
00000220: 033c 1dbe 78e8 5e3e ae01 0ebd f64a 1abe
00000230: cb5a 683c cf7c 563d 7028 1fbd 75bf 04be
00000240: 33df 16be 1dcd d7bc ac1a 27be b900 11bd
00000250: 882c ffbc e749 2fbe 4f88 ef3d deac e23c
00000260: 556b 3abe a574 7a3d 1c5c 4c3e 3c94 42be
00000270: 8813 493e df50 2fbd 0795 1b3e 7d00 c33d
00000280: 3bd7 fd3d 13f4 de3d 2cad 60be ff33 43bc
00000290: 691d 5f3c 49db ecbd fc2a 9bbd d4ca 803b
000002a0: 19fd 303e e7b5 533e ae0e 0fbe 7cda 45be
000002b0: 5424 f63d 1647 633e ce97 a93d 3bdd 263e
000002c0: c3ae 05be c05a 033e 3442 5dbd 9461 d3bd
000002d0: 26ef a33d 52b0 8f3c 10fe adbd 98b3 263e
000002e0: 1696 cfbd 14bd 503e 6f8b 87bc 7d52 8e3d
000002f0: 4b36 c2bd 40dc 54bb 96eb 5a3d 6126 11be
00000300: 0394 183c 7648 46be 8b0f c8bd 44e0 393e
00000310: 3900 563e 0b1e 993d 78df 803d 2463 82bd
00000320: 4c49 903d a2ff 6c3d 35c3 573e 4eca 85bd
00000330: 4766 3cbe ce33 803d e56f 3ebe abcd 1abe
00000340: 34f9 07be 47b9 85bd 3ee1 04be 03d6 093d
00000350: 2487 a9bd 02ce 28bd 6184 a7bd 4b30 a63d
00000360: 3939 9a3c 9a1c 4abe 34c5 b3bd 9937 d63c
00000370: 3ce4 bbbd a277 94bd fb71 a1bc a9bd 18bb
00000380: f432 0b3d d8eb 1ebe 2672 893b d214 46be
00000390: c70f 703e 135a 313e 0040 03b7 41b9 e43d
000003a0: 9ab7 5f3e 27b5 073d 9b51 e93d fc5f d43d
000003b0: f18a 573d 5c11 16be 9312 563e 1751 3bbe
000003c0: f837 373d 5e2f 4d3e 191b 023e 93c9 f3bd
000003d0: 95c8 443d 4009 6fbd 8e1b af3d 8282 b63d
000003e0: 7dbd d7bd dd62 53be

layers.2.weight f4 [250, 250]
0.005414901 -0.007956978 -0.021755815 -0.0040718527 0.045370772 0.03107608 -0.029813828 -0.021110425
0.05926233 0.04524114 0.021692876 0.02756461 0.033597313 -0.026205866 0.046876144 0.0040268
0.04375968 0.027612425 0.03649963 -0.050669886 -0.059534308 -0.02879853 -0.03275837 0.023815103
0.029884813 0.054795034 -0.005804939 -0.031704143 -0.0413469 0.045946993 0.04423245 0.0548089
0.012366465 0.042434342 0.04133649 0.032336056 0.02620864 0.061340384 -0.049259406 -0.05924578
0.054946207 0.06640107 0.02679979 0.047713257 0.05918724 -0.041367095 0.07124424 0.06242658
0.0002785027 -0.023061119 0.06433629 -0.058419038 -0.012560191 0.024571214 -0.02414567 0.021124793
0.014664748 -0.0033294302 0.048131596 0.04447865 0.009700321 0.049385045 -0.034884557 0.018250754
-0.030804511 -0.032096624 -0.014943917 -0.050956883 -0.006854406 -0.047482565 0.06859827 -0.008101964
-0.010672104 0.068087235 -0.035810992 0.07299862 -0.017710255 0.04758201 -0.056710284 0.007136732
-0.043178685 0.054208167 -0.023707002 0.038314834 -0.05407667 0.029152144 -0.027167596 -0.014687951
0.051465277 0.052302953 0.034294643 -0.023807624 0.08025816 0.06922705 -0.011000015 0.05678997
-0.03842954 0.017765334 -0.0061645163 0.05475069 0.022021277 0.0050728545 -0.042599417 -0.001532469
-0.025612714 0.041075073 -0.0013148767 0.06928389 -0.038387846 -0.020589974 -0.050361365 -0.024492979
-0.014081881 -0.006411057 0.019098863 -0.011575781 -0.05202767 -0.05730793 -0.008866298 0.06920222
-0.015024477 -0.0484657 -0.042876195 -0.011027081 -0.02606049 0.0075330534 0.019640893 -0.031601597
0.0064086663 -0.017842155 -0.021448977 0.0147726685 -0.013965042 -0.021459896 -0.044215135 -0.049400005
-0.047536135 0.0057381527 0.007891356 0.023985954 0.042589415 -0.05309827 0.0077823773 -0.05205351
0.05603429 -0.004913343 0.044113003 0.001194333 0.006797567 0.04993102 0.02142636 -0.021439346
0.051653124 0.05708804 0.055032432 0.0022615609 -0.0047027827 0.034550346 0.038802862 0.017243482
0.010129276 0.030210847 0.029140877 0.02277125 -0.047367822 -0.039361402 -0.01324824 0.053625405
-0.014069602 0.010218164 0.021868944 0.014797078 0.040999465 -0.034039795 0.041633505 -0.048006684
-0.061329056 0.010567204 -0.020981636 -0.05067766 0.019054815 -0.035998493 -0.0010413124 0.014466397
0.042465754 -0.042141013 -0.038952306 0.049009442 0.060345948 0.005625196 0.02481161 -0.053674042
0.06354389 -0.0053437576 0.027149007 -0.011299 -0.06221002 0.027214648 0.04039352 0.043178193
-0.021639151 0.06538075 0.020317098 -0.022929214 0.0030219413 -0.03474371 0.059671648 0.025551662
-0.03093091 -0.0015269995 -0.030128848 -8.609136e-05 -0.03515485 0.004395404 -0.01099266 0.060187444
0.03616124 -0.044641323 -0.011543322 -0.008628992 -0.055239875 0.0072113844 0.072612055 -0.054915924
-0.011497945 0.04989311 -0.02074228 -0.020545147 0.020401131 -0.043311838 0.030655973 -0.03917595
-0.00010935054 0.0313356 0.0038389864 0.010190337 -0.053716082 -0.060084496 -0.022093466 0.01876889
0.0084972065 0.024389522 -0.022995267 -0.028544866 0.017837714 0.032259054 -0.042049866 0.020409323
0.027107794 -0.026936688 -0.046817716 -0.006310791 0.019714434 -0.023899896 -0.030614879 -0.015852835
00000000: 7b6f b13b fc5d 02bc 4039 b2bc 2d6d 85bb
00000010: b4d6 393d 4393 fe3c 213c f4bc c5ef acbc
00000020: 0fbd 723d c64e 393d 42b5 b13c 2dcf e13c
00000030: 569d 093d afad d6bc 3301 403d 3ff3 833b
00000040: 5a3d 333d 7433 e23c a380 153d 3a8b 4fbd
00000050: 3fda 73bd e5ea ebbc a42d 06bd e417 c33c
00000060: ffd0 f43c c270 603d 5c37 bebb 34dc 01bd
00000070: 5e5b 29bd ea32 3c3d 162d 353d 4c7f 603d
00000080: b79c 4a3c a2cf 2d3d 7450 293d d072 043d
00000090: 80b3 d63c 0e40 7b3d 3bc4 49bd b4ab 72bd
000000a0: 460f 613d 49fd 873d 3c8b db3c fa6e 433d
000000b0: 526e 723d 8b70 29bd 80e8 913d 03b3 7f3d
000000c0: 0004 9239 acea bcbc bfc2 833d cd48 6fbd
000000d0: 42c9 4dbc 9249 c93c 24cd c5bc e70d ad3c
000000e0: 6944 703c 9232 5abb a325 453d 3f2f 363d
000000f0: 18ee 1e3c f947 4a3d 1ce3 0ebd 9b82 953c
00000100: be59 fcbc c077 03bd 55d7 74bc 2ab8 50bd
00000110: ed9a e0bb 147d 42bd 407d 8c3d 1abe 04bc
00000120: 0cda 2ebc 5271 8b3d 8cae 12bd 4d80 953d
00000130: 1915 91bc 5be5 423d 0b49 68bd 3fdb e93b
00000140: 22dc 30bd 6209 5e3d 3035 c2bc 04f0 1c3d
00000150: 807f 5dbd 7ad0 ee3c 948e debc bba5 70bc
00000160: 41cd 523d 9f3b 563d 8a78 0c3d 3508 c3bc
00000170: 645e a43d e9c6 8d3d 6839 34bc 999c 683d
00000180: 4b68 1dbd 9b88 913c b6ff c9bb 4242 603d
00000190: f765 b43c 303a a63b ba7c 2ebd 20dd c8ba
000001a0: c1d1 d1bc 563e 283d f157 acba b6e4 8d3d
000001b0: 933c 1dbd 4eac a8bc b847 4ebd 80a5 c8bc
000001c0: b1b7 66bc d813 d2bb 3875 9c3c 58a8 3dbc
000001d0: f71a 55bd b8bb 6abd f343 11bc e5b9 8d3d
000001e0: 3929 76bc f883 46bd f39e 2fbd eeaa 34bc
000001f0: cf7c d5bc d5d7 f63b f0e5 a03c ad70 01bd
00000200: caff d13b b629 92bc c4b5 afbc 1009 723c
00000210: a2cd 64bc aacc afbc ee1a 35bd a957 4abd
00000220: 40b5 42bd 1d07 bc3b bf4a 013c 317e c43c
00000230: 3d72 2e3d 927d 59bd 5003 ff3b 1036 55bd
00000240: 3684 653d 1c00 a1bb d6af 343d 2a8b 9c3a
00000250: 20be de3b 7884 4c3d 5586 af3c 91a1 afbc
00000260: 3a92 533d 26d5 693d b069 613d b236 143b
00000270: cd19 9abb aa84 0d3d c0ef 1e3d 3442 8d3c
00000280: 43f5 253c bd7c f73c d9b8 ee3c c68a ba3c
00000290: c304 42bd 6c39 21bd 250f 59bc 50a6 5b3d
000002a0: 3084 66bc 166a 273c 8026 b33c 726f 723c
000002b0: 0eef 273d 506d 0bbd e587 2a3d a8a2 44bd
000002c0: 2d34 7bbd 1122 2d3c aee1 abbc 6193 4fbd
000002d0: d818 9c3c 2873 13bd a57c 88ba 7804 6d3c
000002e0: 92f0 2d3d 0e9c 2cbd 748c 1fbd 20be 483d
000002f0: 502d 773d 9053 b83b b841 cb3c 50d9 5bbd
00000300: 4d23 823d b01a afbb 9867 de3c 711f 39bc
00000310: efcf 7ebd 41f1 de3c ad73 253d 9edb 303d
00000320: 9744 b1bc 58e6 853d 0b70 a63c 0cd6 bbbc
00000330: c30b 463b 6c4f 0ebd 426a 743d b851 d13c
00000340: d262 fdbc 9a25 c8ba c6d0 f6bc f28b b4b8
00000350: 88fe 0fbd 5207 903b 8f1a 34bc 1c87 763d
00000360: cf1d 143d d2d9 36bd 3420 3dbc 9e60 0dbc
00000370: 3543 62bd 7a4d ec3b a1b5 943d 85ef 60bd
00000380: e061 3cbc b85c 4c3d b7eb a9bc 4c4e a8bc
00000390: 4620 a73c c167 31bd 3c22 fb3c f676 20bd
000003a0: 2053 e5b8 c259 003d 8197 7b3b 5ff5 263c
000003b0: 6505 5cbd 291b 76bd 5bfd b4bc 37c1 993c
000003c0: de37 0b3c 89cc c73c 9260 bcbc ecd6 e9bc
000003d0: 6620 923c 1222 043d 7b3c 2cbd 7431 a73c
000003e0: 2a11 de3c 54aa dcbc efc3 3fbd c0ca cebb
000003f0: 2a80 a13c b7c9 c3bc 0ecc fabc cedd 81bc
