actor.pth (torch, 533928 bytes, 8 tensors)

layers.0.weight f4 [250, 20]
00000000: 9a5b a7bd cc2f 4c3e 8bea 14bc 1753 173d
00000010: d808 3f3e 46da 493e 40ed 993d 53e9 83bd
00000020: 6616 a73b c2fc b3bd b6d3 853d 2d61 303e
00000030: dbbc 2ebe 388e 043d 6479 26bd 3aff 2b3e
00000040: 5ab1 3ebe f0fb b83c c56e 633e 7b5c bbbd
00000050: 7ad3 c63c 2ebd b23d 0e52 443e fc3d 6f3e
00000060: 02d3 2abe 943c 153e 0564 bdbd 48f4 90bd
00000070: 580a 903d d20e d1bc 1437 d8bd 74f6 433e
00000080: 9068 14be c1aa 15bd 00fe 923c f011 8dbd
00000090: 01d5 f0bd 1b4f 45be 5f6d f03d b756 ec3d
000000a0: e86c 823c 8459 e9bd 43cf 08be 6f55 31be
000000b0: 4f44 b23d 47b7 d2bb 1df9 d7bd 109c da3d
000000c0: 13d5 5cbe f651 da3d b6ca 1abe e300 db3c
000000d0: 7de4 9e3d 32f0 a03d 4722 16be 0816 f0bd
000000e0: 760b b1bd 9a91 4e3e 62a4 46be e047 47be
000000f0: 7370 c3bd 68ac e5bd 5a54 f03d a0d4 4ebd
00000100: aa63 af3d ba6f 58be c2a6 f23d 5800 a93d
00000110: f2d5 6c3e 849b 50be 68d4 843d bac6 0dbd
00000120: de66 f83d e819 e23d b6ba 98bd adde 323e
00000130: aeec d2bd 60b6 643d 951f f83d 645c 663d
00000140: 69f9 f6bd f584 f83d ee9d 86bd 7729 08be
00000150: 970f 1a3e bd31 98bd 84c0 4dbe 9360 8abd
00000160: 0faa 60be f989 a33d 7b85 1dbe d5fb 53be
00000170: a996 81bd 5791 1a3d 70e0 dfbc 493b 21be
00000180: 2ced 1a3e 7cce a43d d03e 123c 508d 0ebe
00000190: a9ea 0d3d 36ca 0d3e 0180 4abe a5b7 56bd
000001a0: 353a 0c3d fb70 fc3d 0d58 a0bc dc14 3dbe
000001b0: 4b8c 63be 8f83 133e 79f7 ac3c 2f18 9b3d
000001c0: 32d4 a63d 7925 f2bd c687 5bbe 3f9a f53d
000001d0: 18ac 163e 785d c7bd bcee 6e3e 00e2 73bd
000001e0: edf6 643e 2cd3 a63d 49a3 ffbd 3fe9 e6bd
000001f0: 8b74 2ebe 22e8 52be 8d94 843e 935c 4e3e
00000200: 5329 89bd 0eab 0e3e b480 a53d 791a 00be
00000210: 693d acbd e7f4 f9bd 215a f5bd f4f2 34be
00000220: e011 f4bc 4845 e63d 1a35 4d3e 13e8 2dbd
00000230: 843a 4abe 3cad 3f3e b56e 163d 9a68 553e
00000240: 4dde 8abd 85ea 8d3d 0d96 623d c20d 3c3e
00000250: 4bab 1cbe 2029 993c 05c6 17be 88f0 783d
00000260: bb85 343d 8182 8b3d 7406 d43d 254a 14be
00000270: 0e61 033e da67 42be 9955 35bd 0fe5 4d3e
00000280: 5778 823d 6b6d fe3d f444 6b3c 497a 303e
00000290: 4da5 20be 7218 413e e1bb 113e 2ac1 0f3e
000002a0: 33c7 3dbe 23a9 a5bd 609e efbd a882 983c
000002b0: 68f9 ef3d 03a2 303d 1703 0ebe 2b43 c63c
000002c0: 38e7 d33d 2077 ae3d 447e 45be ce94 c63d
000002d0: cc69 3bbd e087 22bc 9cd0 ef3d e49e efbd
000002e0: f4ce 0bbe cc4d 53be 5067 1a3c 496a 22be
000002f0: 0897 873d 502a 57be 9052 df3c 8c25 b3bd
00000300: fe27 63be 0eb4 523e 80ad 933a 684f 103d
00000310: 22e0 183e 98b3 973c 2c92 3dbe 78d9 f3bc
00000320: 3952 4f3e b790 bfbd dd5d 35be 1911 443e
00000330: ffa4 793c b8a4 0abe c5e1 923d ead7 583d
00000340: 6c6d 4dbe d188 1dbe e0f6 c33c 3f64 38be
00000350: 70cf 35be b206 4a3e 4cbb 9e3d f505 cdbd
00000360: 2152 57be 4048 97bc 748c 22be 6ab6 e63d
00000370: c89f 27be 7ee6 1bbe 5de9 1f3e b7d8 c93d
00000380: cbe5 82bd 9728 51bd db81 1fbe 23a5 5ebd
00000390: 2e3c f4bd abf1 8cbd 57d9 4fbc 8ef9 473e
000003a0: fe7e 673e 467c 913d 5033 843d 051e 563e
000003b0: 9506 5abe 32d6 4d3e 8027 e43d 33d4 22be
000003c0: 0bec 55be 4da9 03bc defd a8bc 77db 013d
000003d0: 232f 83bd 8960 1fbd 030e 45be e43c dfbd
000003e0: 43b3 2abe bef8 193e 6787 193e d81c 5bbe
000003f0: e5b8 613e 8d36 2abe 20ca 68bd 3fac 3a3e
-0.081717685 0.19940108 -0.0090891225 0.036944475 0.18655717 0.19712171 0.07515955 -0.064409874
0.0050991056 -0.08788444 0.06534521 0.1722457 -0.1706423 0.032362193 -0.04064311 0.1679658
-0.18622342 0.02258107 0.22210224 -0.091484986 0.024270762 0.087274894 0.19171926 0.23363489
-0.16682056 0.1457389 -0.09247593 -0.07077843 0.07033223 -0.025519762 -0.1055738 0.19136983
-0.14493012 -0.036539797 0.017943382 -0.06888187 -0.11759377 -0.19268458 0.11739611 0.11539977
0.015921071 -0.11394027 -0.13360314 -0.17317747 0.08704435 -0.00643054 -0.105455615 0.10674298
-0.21565656 0.10660164 -0.1511639 0.026733821 0.077584244 0.078583136 -0.14661513 -0.11722952
-0.08644764 0.2017273 -0.19398645 -0.19461012 -0.09542932 -0.112145245 0.11734839 -0.050495744
0.08563931 -0.2113637 0.11848213 0.08252019 0.23128489 -0.20371825 0.06485826 -0.03461335
0.12128995 0.110400975 -0.07457487 0.17467757 -0.10299049 0.05583799 0.12115399 0.056240454
-0.1205929 0.121347345 -0.065730914 -0.13297068 0.1504501 -0.07431362 -0.2009297 -0.06756701
-0.21939872 0.079853006 -0.1538295 -0.20701535 -0.06327564 0.037736263 -0.0273287 -0.15745272
0.15129536 0.08047196 0.0089261085 -0.13921094 0.034647617 0.13846669 -0.19775392 -0.05242123
0.034235198 0.12326237 -0.019573236 -0.18464988 -0.22221486 0.14405654 0.021114098 0.07572972
0.08145942 -0.118235536 -0.21438512 0.11992311 0.14714086 -0.097346246 0.23333257 -0.059541702
0.2235982 0.081457466 -0.12482316 -0.11274957 -0.17036645 -0.20596364 0.25894585 0.20152502
-0.06697335 0.1393244 0.08081189 -0.12510099 -0.084101506 -0.122049145 -0.11980081 -0.17670804
-0.02979368 0.11243683 0.20039788 -0.04245765 -0.19748884 0.18718427 0.036726672 0.20840684
-0.06780682 0.06929497 0.05531888 0.18364623 -0.15299718 0.018696368 -0.14821632 0.060776263
0.044072848 0.06812001 0.10352793 -0.14481409 0.12829992 -0.18984929 -0.044271085 0.2010691
0.06370609 0.124232136 0.014359701 0.17234148 -0.15688057 0.18856981 0.14231826 0.1403853
-0.1853302 -0.08088901 -0.117001295 0.01861699 0.11717492 0.043123256 -0.13868366 0.02420195
0.10346836 0.08518815 -0.19286448 0.09696351 -0.045755193 -0.00992009 0.11709711 -0.11700228
-0.13653165 -0.20635146 0.009424046 -0.15860857 0.06620604 -0.21012235 0.027261049 -0.08747396
-0.22183225 0.20576498 0.0011266917 0.035231978 0.1492925 0.018518254 -0.18512791 -0.029766783
0.20246209 -0.09353774 -0.17711587 0.19147147 0.015237092 -0.13539398 0.07171968 0.052940287
-0.20061272 -0.15384223 0.02392143 -0.18006991 -0.17754912 0.19729117 0.07750568 -0.10010902
-0.21027423 -0.018467069 -0.15873891 0.112652615 -0.16369545 -0.15224645 0.15616365 0.09855788
-0.06391486 -0.0510641 -0.1557688 -0.054356705 -0.11925541 -0.06882032 -0.012686095 0.19528791
0.22607037 0.071037814 0.064550996 0.20909889 -0.21291573 0.2010124 0.111403465 -0.1590126
-0.20890824 -0.00803597 -0.020628866 0.03170344 -0.06405475 -0.038910422 -0.19243626 -0.10900286
-0.16669945 0.15036294 0.14993058 -0.21397722 0.22043188 -0.16622372 -0.056833386 0.18229769

layers.0.bias f4 [250]
00000000: 3b02 32be 57a9 96bd 0f32 99bc d36b 533e
00000010: a92a 5dbd 29b7 353e 15cc 70bd a636 433d
00000020: a070 073e 33a8 32be 3935 153e 456b 4f3e
00000030: 05e1 763d f6c4 26be a071 1ebe 0be3 953d
00000040: 78fa 7ebb 219f c4bd 36d3 233e 4178 b83d
00000050: fbd1 f4ba 9459 d43c f1ce a13d 783b 31be
00000060: 1c86 b03d 6419 823d 4176 07be c6ac 4c3d
00000070: e474 eb3d 3a8b 28be ac64 39be 634e e83d
00000080: 9b13 183e 2087 113e 019e b9bc bce8 6d3e
00000090: f3f7 85bd 35d5 25be e04c 2abb 0ab1 623e
000000a0: f8d2 663e 161f 2abe 92be 4a3c 3078 a2bd
000000b0: 9f53 2bbd e256 363e 3e4f 33bc 2799 923d
000000c0: 48f2 d33d fb4e 1ebe f06d 12ba a231 f73d
000000d0: 74be 90bd 979d 153e 1dc7 5f3e f5f1 11bc
000000e0: a95e 273e 1a7a dd3d 310b 4ebe 78ed 00be
000000f0: 91d0 4e3e ae50 8c3d f7c0 3fbe 0a32 5c3e
00000100: 87dd d33c 2cc3 9cbd 1cb9 0e3e 0f28 c43d
00000110: a59d 053d ad45 3f3d f5ff 4dbd fe76 3a3e
00000120: 75c9 263e b61d 053e 0b48 5e3e f2de a8bd
00000130: 2c20 873d dc83 e83d 0b10 2abe e033 63bd
00000140: edd7 bb3d bb8a b7bd 62d3 d53d 5e5f 4abe
00000150: 5487 24be 2bba 5f3e e51f 333e b8d7 8fbd
00000160: 300f edbd 7202 66bd 23c3 4e3d b5f3 31bb
00000170: 809c 15be 7519 edbc 67ce 2abe 5089 c43d
00000180: b542 173e 3740 4c3e 005a f23d 223c 393e
00000190: 6493 b0bd 98bd e13d 3af4 48bd f98e c73d
000001a0: b6af 0cbe c5fa adbd e52c 73bd 50f1 d43d
000001b0: 4257 293e 1d23 013e e944 483e 28ed 48be
000001c0: ca0f b13d efbe a83d 3b61 033e b87f b7bd
000001d0: aaa4 8dbd 88ba 9cbc 971c 343e bbd5 a6bd
000001e0: 9d0d 0bbd 7a64 6a3e 7205 66be 736c 1dbe
000001f0: ad31 adbd 5fbb 543e fc62 673e b9a9 413e
00000200: 17e3 35be 167a 17be 7c6f bd3c e224 6a3d
00000210: 361d 4bbd 8b8e b13c 0fe7 9f3d 6e44 9abd
00000220: 8d24 f53d cc1e 9a3b b68e 753d 6cfa 823d
00000230: a881 523d 3502 3d3e 2cb8 0fbe 5c72 bc3d
00000240: 7e5e 673e a5fc 8e3d 46c3 4ebe c6ed 103e
00000250: afc0 48bb e062 5c3e 591e 28be 30e3 c4bc
00000260: 61a9 d2bd c6f5 eb3d 1206 49be c6c1 333d
00000270: 779c 56be f727 b93d 6d7c 4f3e 113e 313e
00000280: 128d 16bc 94e6 2ebe b90c a0bc 777d 763d
00000290: 640b 4e3d 401a f7bc 02fc 293d 55ba 6d3e
000002a0: 080c 113e 8172 583e 1519 fbbd 8575 663e
000002b0: 0e06 503d 502f 1a3e 6f57 823d 9b87 afbd
000002c0: f9c8 14bc 2622 d33d ae5f f83d ab24 0abe
000002d0: ed80 453e 3097 4ebe 7570 703d 7f11 7dbd
000002e0: 983c 243e 5d9e 2dbe d2a3 083e 0eea 8f3d
000002f0: b0ce 5d3e 580d bb3d 57d1 0d3e 6f83 833d
00000300: c284 5dbe 250f f23a 31b6 693c 77b7 22be
00000310: a862 ec3c ffcf 0a3e 01f2 42bd bb80 92bb
00000320: 6144 ebbd ad9c 1f3d 7f2b 8cbd 024d 4e3e
00000330: c22a 19be a17c 3cbe 1ea9 183c 772c 02be
00000340: f444 2fbe 02ed 3dbe ae2a a63a aa9b 3fbe
00000350: 9ce7 193e eeb6 b9bd 28be 6e3d 5d49 55bd
00000360: ba40 9abd 9b86 1abe 6d7c 0d3d 7541 fb3d
00000370: 572f 323e 91fd ecbd ff60 0b3e 5a34 b8bd
00000380: c57d 51be 8f47 16bc 7ee1 163e 24c1 0cbc
00000390: 2d2a ca3d 70e6 47bd a506 9fbd 5946 89bd
000003a0: f575 303e dd66 aebc 080a 4c3d 4ebc 303d
000003b0: 40c2 6c3e 1223 b1bd 7740 233e fb27 c03b
000003c0: 8312 40be 8e1f 003e fd10 4b3e 1957 d3bc
000003d0: b680 603e bb7f 373e 70c4 0cbe 14ba 2b3e
000003e0: 7af5 c9bd 5ed1 263e
-0.17383663 -0.07356518 -0.018700628 0.206466 -0.053995762 0.17745651 -0.058788378 0.04765954
0.13226557 -0.17446975 0.14571084 0.20255764 0.06027319 -0.16286072 -0.15473032 0.07318696
-0.0038906615 -0.09600664 0.1599854 0.090073116 -0.0018678302 0.02592162 0.07900799 -0.17307842
0.08619329 0.06352499 -0.13228704 0.049969457 0.114969045 -0.1645936 -0.1810481 0.11343076
0.14851229 0.14211702 -0.02265835 0.23233312 -0.06541433 -0.16194613 -0.0025985762 0.22137848
0.22541416 -0.16613421 0.012374537 -0.0793308 -0.041827794 0.1780658 -0.010944186 0.07158118
0.10348946 -0.15459816 -0.000558584 0.120700136 -0.07067576 0.14610897 0.218533 -0.008907785
0.16344704 0.10814305 -0.20121457 -0.12590587 0.2019675 0.06851326 -0.18725954 0.21503463
0.025862468 -0.076544136 0.13937801 0.09577953 0.032621045 0.046697307 -0.050292928 0.18209454
0.16287787 0.12999615 0.2170717 -0.082456484 0.06597933 0.11353275 -0.16607682 -0.055469394
0.09172044 -0.089620076 0.10440709 -0.19762942 -0.16067249 0.21848361 0.17492636 -0.07023567
-0.115751624 -0.056154676 0.050479066 -0.0027153317 -0.14610481 -0.028942803 -0.16680299 0.09596503
0.1477154 0.19946371 0.118335724 0.18089345 -0.086218625 0.1102249 -0.049061038 0.09744067
-0.13738903 -0.08495096 -0.059368987 0.10397589 0.16537192 0.12611051 0.19557537 -0.19621718
0.0864559 0.08239543 0.12830059 -0.08959907 -0.06916173 -0.019131914 0.17589031 -0.081462346
-0.03394853 0.22889891 -0.22463015 -0.15373401 -0.084567405 0.20774601 0.22596353 0.189124
-0.17762409 -0.14792666 0.023124449 0.05716408 -0.049588405 0.021674415 0.07807743 -0.07532583
0.11969862 0.0047033783 0.059950553 0.063954204 0.05139318 0.18457873 -0.140351 0.092015
0.2259464 0.06981782 -0.20191678 0.14153203 -0.0030632426 0.21522093 -0.16417827 -0.024034113
-0.10286213 0.11521487 -0.19631222 0.04388597 -0.20958124 0.09040826 0.20262308 0.17308833
-0.009188907 -0.17080146 -0.019537317 0.060178246 0.05030383 -0.030163884 0.0415001 0.23215611
0.14164746 0.2113743 -0.122606434 0.22505768 0.050787024 0.15057111 0.06364333 -0.085707866
-0.009081119 0.10309248 0.121276245 -0.1349055 0.19287463 -0.20174861 0.058700997 -0.061784264
0.1603874 -0.16954942 0.13343742 0.07027064 0.21660876 0.091334045 0.13849388 0.06421553
-0.21632674 0.0018467648 0.014264629 -0.15890299 0.028855637 0.13555907 -0.047594074 -0.0044709123
-0.114876516 0.038967777 -0.06844234 0.20146564 -0.14957717 -0.18406917 0.009317664 -0.12712274
-0.17116147 -0.18547443 0.0012677514 -0.18711725 0.15029758 -0.09068094 0.058286816 -0.052071918
-0.07531877 -0.1509041 0.03454249 0.12268344 0.17400871 -0.115718015 0.1361122 -0.0899436
-0.20458134 -0.009172334 0.14734456 -0.00859097 0.09871326 -0.048803747 -0.07764939 -0.06702871
0.17232497 -0.021289283 0.049814254 0.04314833 0.23120975 -0.08649267 0.1594256 0.005864141
-0.18757062 0.12512037 0.198307 -0.025798367 0.219241 0.17919819 -0.1374681 0.16770202
-0.09861274 0.16290805

layers.1.weight f4 [250, 250]
00000000: f05f 663d 4f11 bcbb ad6b 273c 1cb0 77b9
00000010: dc16 643b 5c83 363c b770 fa3c b447 ad3c
00000020: 5ec7 253d be08 31bd 272e 813c b756 2d3d
00000030: ae9b 013d f91f 7abd e6bd 3bbc 260a 463d
00000040: 41e7 c03c 1538 34bc da43 ee39 6e35 183d
00000050: a749 21bd 1065 54bc 5fa5 523d 68e3 3c3d
00000060: bf01 8b3d e559 d53c fcd8 5bbd c99a 8c3b
00000070: a03c dc3b e0f0 43bc 7ed5 dd3c c3cb ddbc
00000080: a43c 2abd 0d99 7d3d 3fdf 1f3d a08b 7d3d
00000090: b673 d93a d168 01bc a55e 23bd a8a3 5d3d
000000a0: 0bfa 903c 33ad f33c 5a73 b23c be65 eb3c
000000b0: aba3 08bc 05f4 3b3d 9767 c8bc 14e7 393d
000000c0: b523 1bbd f1cd c0bc 4020 ec3c 4854 d8bb
000000d0: 244a 493d 0ad4 ecbc 7e4e 04bd 7bf2 32bd
000000e0: 235c 86bc c6f0 5b3d 5590 493d 77ad 0bbd
000000f0: f375 bfbc ed56 cabb d49d 2e3d eb6b 01bd
00000100: 73d7 1c3d df6e f5bb ad98 493d 52f5 0c3d
00000110: b3a1 51bd c0a2 47bd 517c 6b3c e56c 10bd
00000120: 2723 c3bc eb8c 3cbd 2104 983d c469 0c3d
00000130: 2a1d debc 2123 c63c e42e bd3c 7bfe a0bc
00000140: d191 aabc 526f 833d b5f3 93bc c08b 81bd
00000150: ab05 d23c 2e91 27bc 7741 9a3d 2399 b53c
00000160: 502a 33bd a602 8c3d bf1b 12bd 88d4 3ebd
00000170: d1a8 2a3d 4c3c 043d 57aa ed3b 8f76 02bd
00000180: 6811 253d 907a 4a3d 2994 f9bc 005c 49bd
00000190: 7ad1 ec3b 99e3 e53c d5d5 823c 1a5c 9cbc
000001a0: d6ff 753d e756 afbd e982 75bb 0c12 493b
000001b0: 0224 b8bc 4bb4 543c 996f b93c 9966 4fbc
000001c0: 7f74 ef3c c846 583d f575 5a3d 5f57 86bd
000001d0: 1a9b 673d 003a f33c 39ee e5bc 1d7e 27bd
000001e0: 30fd 8e3c 38a7 9b3d 60d0 183d 8a0f 3fbc
000001f0: 43b3 6fbd c71e 2ebd c8a1 373d 6ada 383d
00000200: 3635 d6bc 8d03 9bbb a633 8c3d 6432 513d
00000210: 94bf 4fbc 0fbc c7bc 6cfc 08bd a0bd 033c
00000220: 1b1a 553c f5c8 00bc 8e6b 1c3d 6296 2d3d
00000230: 4295 3b3d 6d4c 52bb 9991 5d3d e0ec 2cbd
00000240: 0435 b8bc 0354 0fbd 26a3 eb3c b42b 36bd
00000250: a433 363d 8cd5 363d f669 a63d c34d 6fbc
00000260: 9886 bc3c 4037 dcbb 57a1 2ebd 43df 29bd
00000270: b3de c13b 7934 413d 3e90 d43b 4cbd a6bc
00000280: 9efd 22bd 45b3 3d3d cb29 54bd 1131 323b
00000290: 61e6 28bd 0dc5 ff3c 92a7 573d fd54 35b9
000002a0: 4bb7 ecbc cbe5 37bc 40a7 1ebc fb19 d5bc
000002b0: bdce eb3c 4745 383c 0ae1 cb3c b3ce c7bc
000002c0: 4a27 aa3c 9f54 493d 7234 b83c 9ff7 813d
000002d0: cfe1 38bd 234f d5bc 4f79 91bc e4ec 6dbc
000002e0: 821f 153d 42f3 2abd 7b08 5fbc eb37 cb3c
000002f0: 0ac2 a63d 1b68 6abc 69b8 81bd b6a6 23bd
00000300: ece8 183d 4e63 8dbc eab4 57bd bc19 80bc
00000310: ef8a fcbc e322 1abd 3533 873c 5aae 923d
00000320: 8917 673c e17a 2b3c 6b71 863d ec03 473d
00000330: dcf1 82bd 9df9 3bbb ed7a 29bc 2cbd 0fbc
00000340: 1a15 3fbc a6fb 1a3d 7475 de3c 74b8 0f3d
00000350: d6e7 883d 27b6 50bd b167 01bd e165 a43b
00000360: 3d05 f33c 6e99 0c3d addf 863c 242c a7bc
00000370: 05da cc3c 93a2 20bd 2f7e 2f3c 126b 22bd
00000380: 46a5 0e3d ac31 96bc 68a2 75bd 94a1 4c3d
00000390: 931c 433d 55ef 8ebc 3931 af3c cefc 19bd
000003a0: 0b02 053d 05d2 d83c dbc5 773d 7635 55bd
000003b0: bc4c 12bc 1c68 5cbc 8d62 03bd 289a e7bc
000003c0: 216d f9ba 8892 4b3c 522f 893d 5eb1 783d
000003d0: b619 993b f3d0 a13c ad95 423d f1a2 66bc
000003e0: 07e9 653d 25ec 69bb 1fb1 23bd 2a43 573d
000003f0: 8f94 713c 5f27 943c 4635 c73c 27ff 14bb
0.056243837 -0.005739368 0.010218543 -0.00023621361 0.0034803664 0.011139717 0.030571325 0.021152355
0.040473334 -0.043221228 0.015769077 0.042319026 0.03164261 -0.061065648 -0.01145885 0.048349522
0.02354777 -0.010999699 0.0004544545 0.03716033 -0.03937688 -0.012963548 0.05142724 0.04611531
0.067874424 0.026043842 -0.05367373 0.0042909128 0.0067210943 -0.011959285 0.02707934 -0.0270747
-0.041561738 0.06191354 0.039031263 0.061900735 0.0016590271 -0.007898525 -0.039885182 0.054111153
0.017697355 0.029745674 0.02178352 0.028735038 -0.008339803 0.045887012 -0.024463458 0.04538639
-0.03787585 -0.0235357 0.028823972 -0.006601844 0.04914297 -0.028909702 -0.03230142 -0.04368828
-0.016401356 0.053696416 0.04920991 -0.034100976 -0.023371672 -0.006174913 0.042630985 -0.03159706
0.038291406 -0.0074900235 0.04921787 0.034413643 -0.0511796 -0.048739195 0.014372901 -0.0352601
-0.023820473 -0.046032827 0.074226625 0.034280553 -0.027113516 0.024186673 0.023093648 -0.019652596
-0.020821484 0.06417717 -0.018060545 -0.06325483 0.025637468 -0.010227485 0.07532018 0.022167748
-0.043741524 0.06836443 -0.035670992 -0.046589404 0.041664902 0.032284066 0.007252972 -0.031851348
0.040299803 0.04943329 -0.030466156 -0.049160004 0.00722712 0.028062629 0.015971104 -0.019086886
0.060058437 -0.08561497 -0.0037462062 0.0030680923 -0.022478107 0.012982438 0.022636222 -0.0126587385
0.029230354 0.052801877 0.05333515 -0.065596335 0.0565444 0.029690742 -0.028067695 -0.040891755
0.017454714 0.07600254 0.037308097 -0.01166142 -0.058520567 -0.04250982 0.04483202 0.04513017
-0.02614842 -0.004730648 0.06845789 0.051073447 -0.012679953 -0.024381666 -0.033443853 0.008040816
0.013006712 -0.007860412 0.03818851 0.042379744 0.04579664 -0.003208901 0.05409393 -0.04221809
-0.022486217 -0.03499223 0.028764319 -0.044475272 0.044482842 0.044637248 0.08125679 -0.014605942
0.023013398 -0.0067204535 -0.042634334 -0.041472685 0.0059164404 0.047169182 0.0064869216 -0.020353936
-0.03979265 0.046313543 -0.05179767 0.002718989 -0.04123533 0.03122189 0.052650042 -0.00017293166
-0.028895995 -0.0112242205 -0.00968343 -0.026013365 0.028785104 0.011246986 0.02488758 -0.024390554
0.020770688 0.049152967 0.022485945 0.06346058 -0.045137223 -0.026038712 -0.01775804 -0.014521811
0.036407 -0.041735895 -0.013612862 0.024806937 0.08142479 -0.014307047 -0.063340016 -0.03995391
0.037331507 -0.017259266 -0.052662767 -0.015637271 -0.030827967 -0.037630927 0.01650391 0.07162161
0.014104732 0.010466308 0.065646015 0.048587725 -0.06393787 -0.0028682717 -0.010344249 -0.008773129
-0.011662746 0.037837647 0.027155615 0.035088018 0.06684844 -0.050954964 -0.03159303 0.0050170277
0.029665584 0.03432601 0.016464079 -0.02040679 0.025006304 -0.039217543 0.010711237 -0.03965289
0.034825586 -0.018334232 -0.059969336 0.04995878 0.047634672 -0.017448107 0.021385776 -0.03759461
0.03247265 0.026467333 0.060491424 -0.052052937 -0.008929428 -0.013452556 -0.032076407 -0.02827175
-0.0019029715 0.0124250725 0.06698479 0.060716026 0.0046722544 0.019752955 0.047506023 -0.014076934
0.056130435 -0.0035693732 -0.039963838 0.052554287 0.014744892 0.01808518 0.024317395 -0.002273509

layers.1.bias f4 [250]
00000000: 46cf 91bc 76d5 8e3c da16 fd3b 9e0e 84bb
00000010: 7ed2 31bd 42cd ab3c d3e4 37bd 564c 253b
00000020: 371e 073d 9fd5 083d 28f4 c6bc 01a2 123d
00000030: 1bac 8c3c ce09 5ebc 07a7 36bd c2bd 333d
00000040: 54d1 083c bc66 c93c 470d 00bd 0b14 023d
00000050: c6ef f83c 5aec 913c 1592 803b e470 db3c
00000060: 6c04 ebbc 27df 37bd 8af6 16bd af02 553d
00000070: 7281 3fbb a1f9 133d ccf3 ed3c 6b22 72bc
00000080: 95ba b9bc 39e2 4f3d b0bb 773d ce28 683d
00000090: 95ab 023c 92ad 74bd 7231 aa3c d1f7 5eba
000000a0: 6a6e ecbc b354 35bd 94ab a33c 3af8 10bd
000000b0: b7e5 493b 7c38 2b3d e170 53bd c4f9 f23b
000000c0: 45ae ffbc 7f01 e33c 891c e7bc 50ad 14bd
000000d0: 449c 253b a55b 3b3d 95fa 0b3d 7dc7 10bd
000000e0: b864 73bd d8f0 cf3c 49fe 353d f822 893c
000000f0: 7cd2 c23c 6ba0 d4bc a89b fbbc 0563 463d
00000100: a927 2ebc 41a3 3e3c 40ed 853d abfe 283d
00000110: 7b35 33bc 4291 dd3c 2435 893c cd3f 4fbd
00000120: 5e64 5ebd f761 ed3c 2159 7a3d e337 983c
00000130: 554c bebc a6e9 023c 66b2 603d 645f 153d
00000140: 3d69 50bd 867a a13c 1571 1cbd 69fe 9a3c
00000150: 953e 20bd b7f6 053c 1682 dbbc ee78 5e3d
00000160: 552c 1c3c 92c9 5b3c e730 80bc c398 3d3d
00000170: 3921 4c3c 87d2 5d3d 2122 173d 3360 0d3d
00000180: e553 24bd a130 c3bc 513b 643d 38cf edbc
00000190: 27fc 4d3c e152 393d 1515 e13c 76c6 b7bc
000001a0: 0b40 733d b39b 22bd f3aa f9bb 5d64 883d
000001b0: afe0 6f3d a141 dabb bc79 593d 31fc e2bc
000001c0: ca4f 91bb 985e 673d ae87 143d fa1c f93b
000001d0: e616 6d3d a49b 043d e023 d7bc 3d39 213d
000001e0: a186 663c 01cb 083d 1773 6b3d efed 033d
000001f0: 2143 4c3a 3d1b b4bc 1e75 8bbc 9f36 b3bc
00000200: 3a8b 55bd d593 843c a5c4 863d 9687 0dbd
00000210: b5c5 d13c a989 0cbd f1b8 a13c c9d3 5e3d
00000220: 4c40 47bd 49fa d93b f06c d9bc 999f 373d
00000230: 665f 49bd b1f6 84bc 97b6 cfbc 5e83 db3c
00000240: 1ade 493d ba37 623c ab62 6b3d 25d0 623c
00000250: 6ee6 7bba 7caa 3b3d 30fa 39bd a04d 7abd
00000260: f15a 5d3c 4960 4ebc c48d 913d 9083 963c
00000270: 99f5 0a3d 271e 04bd 2965 4c3b 2d7c 593d
00000280: 8d53 84bc 79fe 1abc d389 60bd 00fa 56bd
00000290: b634 283c 7db7 153d f08f 443d 607d 3a3d
000002a0: 58d2 42bd 9188 573d 0462 dc3c 8df3 8dbc
000002b0: c092 a0bb 88ee 8d3d f31b 333d 235c c5b9
000002c0: 9127 223b bc60 aabc 390f 73bc 26ae 8e3c
000002d0: 40e6 c53c 75f3 ee3b 999f 273d eac5 2b3d
000002e0: 3b3c d93c 299e c83c 7bf1 ddbc 2e13 1a3b
000002f0: 4450 793c f52d 823d 167a 67bd c7b8 ecbc
00000300: 40c3 af3b 2906 183d 4c26 9dbc d601 873d
00000310: ae73 f33c be66 15bd a2d9 673d 1246 94bc
00000320: 0f6f c43c 226c 333d ba8c 07bd 728f 0c3d
00000330: b689 d8bb 230e b43c dd44 5bbc db6a 37bd
00000340: e674 453d aa7c 1c3d f6ab 383d 4739 f6bc
00000350: b8a4 943d 449b 403d aef3 833d d8ad 2d3c
00000360: d3b1 bb3c dae4 eb3c b9dc 443d 7f67 0f3c
00000370: 6808 463d aacc 3cbd 7e0d 6f3b 30ec 203c
00000380: 50f1 e7bc ee62 3ebd 0bb8 363d 1dea 79bc
00000390: 9bca f63c 5238 0a3d 2e9e 873d 3361 023d
000003a0: 6748 17bd f421 393c cb5a 593b ad4c 283d
000003b0: 4706 ba3c 13b7 2dbc 79fc 49bc a66e dfbc
000003c0: 9c19 bc3b 680e e13c 8c60 3f3d e7ff 813d
000003d0: d75a 71ba aeb0 24bd 1ec9 41bc e0e6 233c
000003e0: 1ed8 97bc 9da4 ddbc
-0.017799031 0.01743577 0.0077236714 -0.004030063 -0.04341363 0.020971898 -0.04489596 0.0025222502
0.0329878 0.03340685 -0.024286345 0.03579903 0.01717191 -0.013552142 -0.044592883 0.04388214
0.008350689 0.02458512 -0.031262662 0.031757396 0.03038777 0.017812897 0.0039236643 0.026787229
-0.028688632 -0.04489055 -0.03685621 0.052004512 -0.0029221443 0.036126737 0.029046915 -0.014778714
-0.022671977 0.050752852 0.060481727 0.05667954 0.007975479 -0.059735842 0.02077553 -0.00085055555
-0.028861243 -0.04427023 0.019979276 -0.035392977 0.0030807087 0.041801915 -0.05162132 0.0074150283
-0.031211028 0.027710674 -0.028211849 -0.036298096 0.0025270144 0.045741696 0.03417452 -0.035346497
-0.059422225 0.025383398 0.04443196 0.016740307 0.023782007 -0.0259554 -0.030713871 0.048434276
-0.010629573 0.011635602 0.065393925 0.041258495 -0.010938044 0.027046803 0.016748972 -0.050597955
-0.054294936 0.028977377 0.061120156 0.018581336 -0.023229757 0.007990276 0.054857634 0.036467925
-0.050881613 0.019711744 -0.03819378 0.01892014 -0.039122183 0.008176497 -0.026795428 0.054314546
0.009532054 0.013414757 -0.015648318 0.046288263 0.012459093 0.054155853 0.036897782 0.03451557
-0.04011907 -0.023826899 0.05572063 -0.029029474 0.012572325 0.045245055 0.027475873 -0.0224335
0.059387248 -0.039699268 -0.0076192557 0.06659768 0.058563884 -0.0066606556 0.05309461 -0.027708145
-0.0044345604 0.056486696 0.036262207 0.007602331 0.057883166 0.032374993 -0.026262224 0.039361227
0.014070184 0.033396725 0.057482805 0.032209333 0.00077919854 -0.021985644 -0.01702362 -0.021876631
-0.05213473 0.016183773 0.06580476 -0.034553133 0.02560697 -0.03431097 0.019741507 0.054401193
-0.048645303 0.006652151 -0.026541203 0.04482994 -0.049163245 -0.016230913 -0.02535562 0.02679604
0.04928408 0.013807232 0.057467144 0.013843571 -0.0009609227 0.045816883 -0.045404613 -0.061109185
0.013510452 -0.012596198 0.07107118 0.01837328 0.033925626 -0.032255318 0.0031188226 0.05309694
-0.016153121 -0.009460085 -0.05481894 -0.052484512 0.0102664735 0.03655194 0.047988832 0.045529723
-0.04756388 0.052620474 0.026902206 -0.017328048 -0.0049003065 0.06930262 0.043727826 -0.00037643415
0.0024742822 -0.02079808 -0.014835172 0.017417025 0.024157643 0.007292206 0.04092369 0.041936792
0.026517978 0.02448948 -0.027092686 0.0023509967 0.015216891 0.06356422 -0.056512915 -0.028896702
0.005363852 0.03711525 -0.0191833 0.06592147 0.029718246 -0.036474936 0.056604035 -0.018099818
0.023978738 0.043804295 -0.03309319 0.034316488 -0.0066082133 0.021979397 -0.0133831175 -0.04477964
0.048207186 0.038204826 0.04508587 -0.030056609 0.0725798 0.047023073 0.064429626 0.01060053
0.022911942 0.028795648 0.04806206 0.008752703 0.04834786 -0.04609362 0.0036476548 0.0098219365
-0.028313309 -0.046481065 0.04460911 -0.015253571 0.030125907 0.033745117 0.06621967 0.031830978
-0.036934283 0.011299599 0.003316569 0.04108875 0.022708071 -0.01060273 -0.012328261 -0.027274441
0.0057403576 0.02747269 0.046722934 0.063476376 -0.00092069566 -0.040207557 -0.011827735 0.010003775
-0.01853567 -0.027056033

layers.2.weight f4 [250, 250]
00000000: f081 76bd 0273 37bc 8402 a63b 1dc9 b23a
00000010: f5eb 5b3d 1180 00ba 4297 663d 83a2 69bd
00000020: 3ae1 9ebc c62f 4a3d ae7c 3bbd 76f3 5b3d
00000030: b2ee 10bd e573 3e3d 32de 5bbc 1af4 3abd
00000040: ad61 17bd 04b8 d5bb dc5e 7dbc 6371 583d
00000050: c928 393d e495 19bd 5cd0 143d aee6 2b3d
00000060: 6a3f 53bd 6e15 1cbd 54d3 4a3d 54e2 7f3c
00000070: 7b05 a63c 0c51 caba 9bac 47bc d512 813b
00000080: ba8d 66bc 6151 fbbc f2e0 50bd ce63 503d
00000090: f878 c63c 8870 673d 38b3 3fbd f560 37bd
000000a0: b2aa 633d 1348 59bd 8e68 83bd f096 9fbc
000000b0: ee13 683d 1eca 7abc 21d0 01bd 6932 87ba
000000c0: d4c6 3b3d 66f0 9c3c f1cd 2e3d 7220 6cbc
000000d0: 462a a9bc 5dfd 433d 25d4 023c 15a7 eabc
000000e0: 9631 663d e98f c93c 4e7b 4dbd cb5e 85bd
000000f0: 410c 0d3d 18b2 12bd 8a12 d7bc 3afd 77bd
00000100: 9c0b 303d 7a0d 203c 8a9c ef3b f33d 65bd
00000110: dce1 5d3d b707 14bd 848f 4b3d 7c0e 583d
00000120: 8530 563d dcd8 f83c 1116 6abd ea7c 40bd
00000130: 52ea b83c 9bcb 403d ec94 83bb c27f 1ebc
00000140: 9575 59bd 67c5 b43c 2a33 2f3c 905d df39
00000150: 000b 80bc c691 1fbc 8694 3b3d 6155 f2bc
00000160: 4d4a eb3b 2363 4b3d 9f64 63bd c6b8 1fbb
00000170: bec9 6d3d 5880 f7bc d2b6 263d 6cf7 b2bc
00000180: a642 183b a420 36bd de49 14bd b551 d43c
00000190: 0a26 413d 5256 3fbc 6f37 ccbc 7904 473d
000001a0: c80c 7d3d f23f 49bd a435 113d e8ba 433d
000001b0: 9844 6f3b c5be 0e3c b6f4 593d 9023 8abd
000001c0: 117b ba3c 8df3 653d 5249 513d ef84 a4bc
000001d0: 9ec8 baba 02db 263d 9c55 ef3c 479a 223d
000001e0: 867e 97bc d879 3e3d f21f 043d 253f 6bbd
000001f0: 6719 55bd adba 5abd e64d 243d 9475 023b
00000200: ece3 163d bf88 84bc 91e7 6dbd d4e4 183d
00000210: ab82 023d 71a7 66bd 7fa8 f33c 8638 c33c
00000220: edeb 193d 435c cfbc bed6 60bd 5996 71bd
00000230: b743 b5bc 5196 293d e5b8 41bd 80f4 69bd
00000240: b74c 363d 3110 473d 4724 f1bb 4a5d 183d
00000250: 978f 1bbd a7c7 fd3b 76a5 e13c e34d 883c
00000260: d262 6dbd 6988 e03c 4bb9 56bc 6c24 3abd
00000270: 538d d3b8 cc87 be3c dd0b 5f3c 3605 173d
00000280: fa8e d3bc ea8d 71bc a0e7 0c3c f6c6 09bd
00000290: 1dd0 68bb e1ce b2ba 9aac fb3c c1e7 6c3a
000002a0: a391 bc3c 9a3c 66bd 4c77 a8bc ab2e 243d
000002b0: 30c4 79bc 6614 debc e3e4 86bd 08bb 123d
000002c0: a3f3 80bd 1076 d5bc e078 573d 179c 263d
000002d0: 1b63 853c b235 373d b58a aabc 976c af3c
000002e0: e4fc b2bc 5945 333d 89f4 3d3d 35a6 093d
000002f0: ef9e eebc c155 87bd b23f efbc ca8f 273c
00000300: 046b 893c ee31 143d 639f 323d abf6 78bc
00000310: e55e db3c 35c0 6abd cea9 023c 8425 7cbb
00000320: a273 e4bc dfca d2bc 5340 dc3c 6847 3d3d
00000330: 4c4c 053d 6ff2 81bd a246 39bd c968 3e3d
00000340: f4b8 f3bb bb2e 88bc 96be 50bd 57fa b03c
00000350: a1bd dabb 257d 6d3a b55c 383d 175c 153d
00000360: 295f 153c 9584 70bd 5e2b abbc cce7 9c3c
00000370: 0a05 fbbc e6ab 85bd f98e 5c3c a39d 4ebd
00000380: b13f 253d 655f 6c3d 8ffb 653c a683 20bd
00000390: 3bf4 29bd 892e 5abb ce58 31bd 263e 81bc
000003a0: 0e27 06bc c99a 0a3d 4bc9 37bd c79c 1e3d
000003b0: ef0d 82bd ee76 35bd be13 143d 39b4 a1bc
000003c0: 754b 343d eda6 52bd ab10 a4bc ef15 bfbc
000003d0: edd6 bdba 02af d6bc 9c84 343d 80d3 623d
000003e0: d2b6 733d dedb 57bd e14d e33b aae3 bc3c
000003f0: 51f0 153b fc29 9bbb 438b 29bd 8002 a4ba
-0.06018251 -0.011196854 0.005066218 0.0013640259 0.053691823 -0.0004901896 0.056296594 -0.05703975
-0.019394506 0.049361967 -0.0457732 0.05369898 -0.035383888 0.046497244 -0.013419675 -0.04564295
-0.036958385 -0.0065221805 -0.015464511 0.05284251 0.04520491 -0.037496462 0.03633152 0.04196804
-0.05157415 -0.038106374 0.049517944 0.015617926 0.020266285 -0.0015435531 -0.012187148 0.0039390125
-0.014071876 -0.030678453 -0.050995775 0.05087643 0.024227604 0.056503803 -0.046801776 -0.0447702
0.05558271 -0.05304725 -0.064164266 -0.019481152 0.05665963 -0.015306978 -0.031692628 -0.0010314706
0.045843914 0.0191576 0.04267687 -0.014412032 -0.02065004 0.047849048 0.0079851495 -0.028644124
0.056199633 0.024604755 -0.05016642 -0.06512221 0.034435514 -0.035814375 -0.026253957 -0.06054423
0.04297982 0.009768838 0.007312362 -0.055967283 0.054170474 -0.03614017 0.049697414 0.05274819
0.052292366 0.030376844 -0.05714995 -0.046994127 0.02257267 0.047069173 -0.0040155556 -0.0096740145
-0.05309065 0.022066785 0.010693351 0.00042603584 -0.015630245 -0.009739345 0.04579594 -0.029581727
0.007180488 0.04965509 -0.05551588 -0.0024371608 0.058053724 -0.030212566 0.040701695 -0.021846496
0.0023233085 -0.044464722 -0.036203258 0.025917867 0.047155418 -0.011678295 -0.024928777 0.04858825
0.061779767 -0.04913325 0.035451546 0.04778567 0.003650939 0.008712475 0.05321189 -0.06745064
0.02276376 0.05614047 0.051095314 -0.020082919 -0.0014250462 0.040736206 0.029215626 0.03969791
-0.018492948 0.046502918 0.032257028 -0.057433266 -0.05202618 -0.053400684 0.040113352 0.0019906508
0.036838457 -0.016178487 -0.058082167 0.037327603 0.031862896 -0.05631203 0.029743431 0.023830663
0.037578512 -0.025312549 -0.054892294 -0.058981273 -0.022127016 0.04140312 -0.04729547 -0.05711794
0.044506755 0.048599426 -0.007359061 0.037198342 -0.037978735 0.0077447477 0.027544718 0.016638702
-0.05795557 0.027408795 -0.013105701 -0.04544489 -0.00010087588 0.023258112 0.013613668 0.036870204
-0.025825012 -0.014743308 0.008600146 -0.03363701 -0.0035524436 -0.0013641977 0.030721951 0.00090372196
0.023018664 -0.056210138 -0.020564698 0.04008357 -0.015244529 -0.027109336 -0.065866254 0.0358229
-0.0629647 -0.026057273 0.05260551 0.040676203 0.016282609 0.044728942 -0.020818094 0.021414084
-0.021849103 0.043767307 0.046375785 0.033605773 -0.02912852 -0.06608153 -0.029205177 0.010227153
0.016774662 0.03618043 0.043609034 -0.015195529 0.026778648 -0.05731221 0.007975055 -0.003847451
-0.02788717 -0.025731502 0.02688614 0.046210676 0.032543465 -0.06345069 -0.045233376 0.04648665
-0.0074378196 -0.016623845 -0.050963007 0.021603746 -0.0066754376 0.00090594805 0.045010287 0.036464777
0.009116926 -0.05872019 -0.020894703 0.019153498 -0.030642051 -0.06526928 0.013461822 -0.050443303
0.040343944 0.057708163 0.014037027 -0.03918805 -0.041492682 -0.0033291897 -0.04329758 -0.015776705
-0.008188022 0.03383902 -0.044869702 0.038723733 -0.06350314 -0.044302873 0.03615164 -0.019739257
0.044017274 -0.051428724 -0.02002748 -0.023325888 -0.0014483609 -0.026206497 0.04407178 0.055377483
0.059500523 -0.052699916 0.006936774 0.023057777 0.0022878835 -0.0047352295 -0.041392576 -0.0012512952

layers.2.bias f4 [250]
00000000: 89e3 5d3d ba56 283d 3d36 773d 6d64 c93c
00000010: 1fed 0f3d 5285 46bd 4083 433b 0cb9 123c
00000020: ce84 cb3c a48f 263d b540 093d 1de8 4dbd
00000030: 2bbd 2c3d 64c0 73bd 56c7 40bd a3f1 c13c
00000040: 698e 733b 0931 55bd da29 9d3c 11d8 783d
00000050: 5a90 9c3a 976c dabc 8747 b9ba 5dd5 3dbc
00000060: b9d4 4a3d d3d8 18bc c266 773d 4cfb e33c
00000070: 7129 8a3d 123e 6dbc 4311 0cbc 9c76 f9bb
00000080: 27de 863c 8d2d 02bd 5a9b ecbc 1294 823c
00000090: afe1 d8bc 9318 613c 2931 e7bc 1682 38bd
000000a0: b9b5 513c f6b6 02bc 3a6b ecbc eded 733d
000000b0: cf90 873c a69b e73c 32ed 523c d155 37bd
000000c0: 2d79 c6bc 9f46 b63b d248 93bb 0327 11bd
000000d0: 7e59 35bd 5c69 00bc bb4b 61bd 79f3 66bd
000000e0: dd5f 5dbc 0752 29bd 6b4d 243d 9df1 41bd
000000f0: 9300 6b3d f4b5 f4bc d88a 56bc de33 bc3c
00000100: a9f8 1f3d 7584 3b3d 9742 833c 0c0b 0c3d
00000110: 2cff b8b9 20dd 2d3d 6d84 133d 46aa c73b
00000120: b0f6 d43c 5960 263d 71d9 593d 6df8 34bd
00000130: fe85 27bd 8b5f 3fbd cccd 0fbb f6d4 6abd
00000140: c49b 183d 44d7 a0bc 490d 34bd ba6a 7e3d
00000150: bb64 22bd eb7c 2fba 55a1 73bc 13e7 6a3d
00000160: 0bc4 893d 18c8 6f3c 92e1 103d 2442 73bd
00000170: 4f81 48bd ab12 23bd 2790 0c3d e409 01bd
00000180: bd7a 07bc 5225 2abd f747 ee3c 025a 8d3c
00000190: 6998 743d 39ae 7a3d e12f 453d 659c 203d
000001a0: 1565 b53c bac1 18bd 5e9a bbbb 1462 febc
000001b0: 1816 10bd dc66 6abd 2b5f 293d 03ea 62bd
000001c0: 3445 00bd 7f4e 533d 2759 d03b 0bfc 653d
000001d0: 190c 203a 4a43 47bd b1d0 ca3c 024e 2a3d
000001e0: d4d6 64bc f855 fd3c b5a9 1fbd 4bb6 3bbd
000001f0: 3829 b63c 4d67 873d 1fa0 72bd 0b36 01bd
00000200: 4179 1c3a ce1b 36bd 0469 6ebd dc4e 4fbd
00000210: c052 8a3d cc18 48bd 5bf7 6a3d 767c 63bd
00000220: 160c 6cbd 90aa 80bc e54a 7c3d c0de 5abc
00000230: ba5f 70bd b283 833d f52b c1bc 4540 443d
00000240: ddf7 a7bb a53a 68bd c209 d93c b072 9b3c
00000250: 57bd 863b 54da 393d f22a c7bc b433 523b
00000260: 9c63 03bd 22d8 21bc 90c3 293d 8b78 e93c
00000270: ac7f 073d 3167 3ebc 209c 2f3d aeaa 3f3d
00000280: 0385 eb3c d75b 543d 9668 d03c 6600 dfba
00000290: 0587 a93c aecb 193d 9a0e 1f3d 16a0 493d
000002a0: 9de6 f03c 1d1a 6abd 3ea7 723d a4ee 573a
000002b0: 0eab 683d dc7d 2bbd 014a 31bd 3327 97bc
000002c0: f29c f3bc 3f80 d13c 353f 623c 5e65 bcbc
000002d0: 8ac1 5fbd 85bf 46bd 9fc8 6dbc 59ba ed3c
000002e0: 2f0f 98bc 3ba1 46bd 93ab 31bd 87a3 90bc
000002f0: 730e 623d 50e9 8abb 6db9 37bc 2f34 bcbc
00000300: d28e 4a3d 4b4c 5a3d 5d54 4e3c c8d8 c6bc
00000310: fd0f 77bd 8cee 44bc c257 273d 7bc1 5dbc
00000320: 88da 14bd 2c3c 5e3c 5d07 27bd 563a 00bd
00000330: 4f4c 82bd b452 8c3c 392d 533d 7274 813d
00000340: b56d 133d 55a5 78bc 4ac8 763d cb19 283b
00000350: 9165 3ebd 0613 a53b 6086 8a3d 45be 543d
00000360: aa00 cfbc 31a5 4c3d 0cd7 8a3d 1067 5dbd
00000370: ded0 863d 7d08 8b3d 9edd d2bc 55e1 0bba
00000380: b16e 21bc 7d81 313c 8fcf d2bc 446a 82bb
00000390: 5478 19bd 4fcc e83c daa6 2e3d bd90 4abd
000003a0: c04c 783d 4061 cebc 0a34 773c 26ac 63bc
000003b0: 59e6 e1bc 1bf4 72bd ad2b 4b3d 481f 613c
000003c0: e7e5 83bc 865a f83b 48bc 4bbd 33fc a33b
000003d0: 8d5f 993c cd2c 903d f0eb 013c 178c f03c
000003e0: 5198 6f3d f083 4f3d
0.054172073 0.041098334 0.06035446 0.02458402 0.035138246 -0.048466988 0.002983287 0.008955251
0.0248436 0.04066433 0.033508975 -0.05027019 0.042172592 -0.05950965 -0.0470651 0.023674792
0.003716374 -0.052048717 0.019184995 0.060752932 0.0011944876 -0.026663108 -0.0014135697 -0.011586514
0.049519274 -0.009329039 0.06040073 0.027829789 0.067461856 -0.014480131 -0.008549037 -0.0076130163
0.016463352 -0.03178172 -0.028882671 0.015939746 -0.026474802 0.013738769 -0.028221684 -0.045045935
0.012799674 -0.007978192 -0.028859723 0.059553076 0.016548542 0.028272461 0.012873935 -0.044759575
-0.024227703 0.005562618 -0.004494765 -0.035437595 -0.0442748 -0.00783762 -0.055003863 -0.056384537
-0.013511625 -0.041337993 0.040112894 -0.04734956 0.057373594 -0.029871918 -0.013094626 0.022973951
0.0390555 0.045780618 0.016022963 0.034190223 -0.00035285333 0.04244721 0.036014963 0.006093296
0.025996536 0.040619228 0.053185884 -0.04418223 -0.04089927 -0.046721976 -0.0021942733 -0.057332
0.037257925 -0.019633897 -0.043957982 0.0621135 -0.039646845 -0.00066943344 -0.0148700075 0.057349276
0.06726845 0.014635108 0.03537137 -0.05938925 -0.048951443 -0.039812725 0.034317162 -0.031503573
-0.008269009 -0.041539498 0.02908705 0.017254833 0.059715662 0.061201308 0.048141364 0.03921165
0.022142926 -0.037294127 -0.005725189 -0.031052627 -0.03517732 -0.057227 0.041350525 -0.055398952
-0.031315997 0.05158853 0.006358284 0.05614857 0.00061053183 -0.048648156 0.024757715 0.0415783
-0.013967235 0.030924782 -0.038980205 -0.045828145 0.022236452 0.066115 -0.059234735 -0.03154568
0.0005968996 -0.04446011 -0.05820562 -0.050612316 0.067540646 -0.048851773 0.057364803 -0.055538617
-0.057628714 -0.01570633 0.061594862 -0.013358772 -0.058685042 0.06421603 -0.02358053 0.047912855
-0.005125983 -0.056696553 0.02649391 0.018975586 0.0041119265 0.04537423 -0.02431247 0.0032074274
-0.032077417 -0.00987819 0.04144627 0.028499862 0.03308074 -0.011621282 0.0428735 0.046793632
0.028749948 0.051845398 0.025440495 -0.0017013669 0.020694265 0.03754776 0.038832285 0.049224935
0.02940684 -0.05715381 0.059241526 0.00082371593 0.056803755 -0.041868076 -0.043283466 -0.018451309
-0.029737923 0.025573848 0.013809015 -0.022997554 -0.054627933 -0.04852249 -0.014513164 0.029019522
-0.018561928 -0.048493605 -0.043376517 -0.0176561 0.05518956 -0.004239239 -0.011213643 -0.022974102
0.04945261 0.053295415 0.012593356 -0.024273291 -0.060317982 -0.012019765 0.040855177 -0.013534899
-0.03634122 0.013564151 -0.040778507 -0.031305633 -0.06362211 0.01712928 0.0515568 0.06321038
0.035993297 -0.015176137 0.060249604 0.002565014 -0.04648358 0.005037668 0.06763911 0.051939268
-0.025268871 0.049962226 0.06779298 -0.054053366 0.06582807 0.067887284 -0.025740441 -0.0005336006
-0.009853051 0.010834095 -0.025733737 -0.003979953 -0.03746827 0.028417734 0.04263959 -0.04945444
0.06062007 -0.025192857 0.015088091 -0.013896024 -0.027575659 -0.05931483 0.0496022 0.013740368
-0.016100837 0.0075791506 -0.049740106 0.0050044297 0.01872232 0.07039795 0.007929787 0.029363675
0.05849487 0.050662935

layers.3.weight f4 [8, 250]
00000000: 081b 843d be77 aabc 9bd6 dbba 9966 253d
00000010: 5c1d 4cbc f7b3 09bd d312 dcbc 71a1 423d
00000020: 4dca 49bd 1d92 43bb f381 04bc 8029 3a3c
00000030: a63a 583b aa63 bfbc 95fe 8cbc 12ba e9bc
00000040: 6c1a a23c c80a 99bd 661e 733c e847 57bd
00000050: c6bd 37bc 20ce 613d 787b 23bd b357 b53c
00000060: 623f 8dbd fc41 04bd 722a 60bc e8e1 cebd
00000070: 6a19 963d b349 833d ea22 c7bd d81f 10bc
00000080: 63c2 a7bb 225f 603d e06e 313d c52d e5bc
00000090: 3de1 b5bb 56d2 d5bb da6b b5bc b004 6d3d
000000a0: e2c9 163d a502 943d 6ee2 82bc 759a 90bd
000000b0: 4252 d0bd 4cf4 b1bc 3ebf 8f3c 1473 b33c
000000c0: 3a88 983c 3578 233d 2cf8 f23b 6337 38bc
000000d0: 0df3 923c 93e4 043d c30b d8bc 72c1 62bd
000000e0: e226 8dbd 8cbf a23c ee6d 033d b28f 2c3c
000000f0: 83a5 26bc aad4 2f3d 68c4 4d3d 2fe5 6abd
00000100: a246 adbd db55 533d 67b1 e53c da5a 5bbc
00000110: 37fb eebc 42aa a63c 9ea1 173c 18d0 2dbd
00000120: 2888 3fbd dedf 84bd f620 a5bd 74fa 91bd
00000130: d535 1f3b d833 f83c d75e 20bd ad74 1cbb
00000140: 2795 5ebd c418 823d 5f66 62bd bffe 89bc
00000150: 93f0 71bd 7ed7 973d 4498 8d3d 91df 2abd
00000160: 425f 103b f7cf 76bd 1114 4b3c 8a8e 823d
00000170: 4b71 813d 6b2f 393d 06b9 56bc 56c0 b03c
00000180: 4488 263c 4847 fcba 0d54 813d 4517 e83c
00000190: 9c16 453d 10a7 563c 285b 823d ec96 62bd
000001a0: 997b dbbc 9e2e 4dbd 5fc9 d43a 29fb a53c
000001b0: 0131 67bd 39e0 473d 3228 28bd c151 25bc
000001c0: 04b8 1bbd 1bd9 8b3d b622 fd3a c6b5 3abd
000001d0: 216f 9dbd 6e9c 593c 3297 703d 6cf5 5fbd
000001e0: 2e4c 0bbd b3a7 d5bc ac4c 3d3d b03f 253d
000001f0: b2b6 c9bc aec5 313d ac8b 28bd ed22 943d
00000200: 7dbe 04bd 0f4f 82bc c803 00bc 2717 173c
00000210: 17a0 8e3b 03af 833c 5d9e df3a 6e6f 65bd
00000220: 4df8 1fbd 7dbe 133c 3b13 ff3c 24ae 5d3d
00000230: c3a7 05bd a20a 16bd a01e 0c3d 3b9a 533d
00000240: 8871 ecbd f2a3 b4bc cad6 e8bc 1a15 82bd
00000250: 8283 04bc 0962 2b3b c1a5 373d 2be1 9cbd
00000260: 8bed 24bd 9907 02bb dd67 04bd 7909 1c3d
00000270: 9f2c 843d fb4d 693d 19fb 42bd 25b9 5dbd
00000280: f724 f1bc 2745 f6bc 9dcb a5bd 50e7 d7bd
00000290: e3e2 223d ad72 983b bc53 cbbc cabf 13bd
000002a0: 88d1 6cbc d352 debc 3092 2abd f868 42bd
000002b0: 5219 c6bb d393 a2bd 592c 87bb de70 813b
000002c0: d129 8c3c 354b 973d b6f3 b13c 8d82 ecbc
000002d0: 054b a43d d032 ce3c c845 6b3d b65f 8b3d
000002e0: 1034 0b3c a67b 233d 643a bd3c b5ed 04bd
000002f0: fde4 e9bc d92b 93bd f6fd ed3c 7acb 123d
00000300: b670 583c 53e6 8fbc fecf 893d 4a75 3e3d
00000310: 7677 17bd dfd9 a73c 8282 58bc ca8a 6ebc
00000320: f181 cf3c e413 6d3c 56aa 6d3d bd14 933c
00000330: c962 1a3d 6cd6 f83c 5186 fd3c f501 d5bc
00000340: 977d 3abc b0a0 6e3b 8a77 043d 89fa 90bd
00000350: 48f3 d7bc e5c9 1bbd cc35 113d b2de f93b
00000360: 98b6 e73c ea57 39bd 2fb7 43bc b2c3 483d
00000370: 4373 3abd 4f5b 393d f12d a8bc 75df 3e3d
00000380: b52d a339 d174 4c3c 887a 863d 667d 07bd
00000390: b72e 3a3d 264d 57bd b545 ec3c e661 363d
000003a0: 09ad 4e3d 8f11 543d fa89 163c 043f 1f3d
000003b0: 567d e13c d6ba 0fbd 12af 7e3d fa1d 353d
000003c0: af78 623d 1fca a9bc 504b 253d 17f8 70bb
000003d0: 7dba 07bd ac6a 2d3d 1c62 353d 08c9 1e3d
000003e0: ced5 b4bc 1bb7 7dbc 85f7 153c fe13 d5bc
000003f0: 4b28 dd3a d356 8e3d 21f0 943c bbd7 1c3d
0.06450468 -0.02080905 -0.0016772331 0.040381048 -0.012458172 -0.033618893 -0.026864445 0.047517244
-0.049265195 -0.002984173 -0.008087623 0.011362433 0.0032993942 -0.023362953 -0.017211238 -0.028531108
0.01978799 -0.074727595 0.0148387905 -0.05255881 -0.011214679 0.055128217 -0.03991267 0.022136545
-0.06896855 -0.03228949 -0.013681995 -0.10101682 0.07329066 0.064105414 -0.09723456 -0.008796655
-0.0051196082 0.054778226 0.04331863 -0.027975926 -0.005550532 -0.006525318 -0.022146154 0.0578658
0.036813624 0.07227067 -0.01597711 -0.0706071 -0.101719394 -0.021722935 0.017547246 0.02190546
0.018619645 0.03990956 0.0074148383 -0.011243674 0.017938161 0.032444548 -0.026372796 -0.055360265
-0.06892182 0.019866727 0.03208726 0.0105323065 -0.010171297 0.04292742 0.050236136 -0.057347473
-0.08460738 0.05159555 0.028038694 -0.01338836 -0.029172523 0.020344857 0.009254841 -0.04243478
-0.046760708 -0.06488012 -0.080629274 -0.07127848 0.002429356 0.030298159 -0.039152946 -0.0023873255
-0.05434146 0.0635238 -0.05527341 -0.016845105 -0.05906732 0.07414149 0.06913808 -0.041717116
0.0022029434 -0.060256924 0.012394921 0.063748434 0.06320437 0.045211237 -0.013105636 0.021576088
0.010164324 -0.0019247318 0.063148595 0.028331408 0.048117265 0.013101354 0.06365043 -0.05531971
-0.026792334 -0.050093286 0.001623433 0.020261364 -0.05644322 0.04879782 -0.04105396 -0.010090292
-0.038017288 0.06828519 0.0019312713 -0.04558351 -0.07687212 0.013281925 0.05873794 -0.054677412
-0.034008197 -0.026080942 0.046215698 0.04034394 -0.024623249 0.043401413 -0.041148826 0.07233224
-0.032408226 -0.015906839 -0.0078134015 0.009221829 0.0043525803 0.016074663 0.0017060746 -0.05601447
-0.039055157 0.009017584 0.0311371 0.05412115 -0.032630693 -0.036631234 0.034208894 0.051660758
-0.11545092 -0.022050831 -0.028422732 -0.06351681 -0.0080879945 0.0026150963 0.04483581 -0.07660135
-0.0402656 -0.0019840954 -0.032325614 0.03809497 0.06453823 0.056959134 -0.047602747 -0.054131646
-0.029436572 -0.030062271 -0.08095477 -0.10542166 0.039767157 0.0046523423 -0.024820201 -0.036071576
-0.014454253 -0.027139103 -0.04164332 -0.047463387 -0.006045499 -0.079383515 -0.0041251597 0.0039502224
0.017109783 0.073873915 0.021722656 -0.028870845 0.08022121 0.025170714 0.057439595 0.06805365
0.008496299 0.039912842 0.023099132 -0.032453258 -0.028551573 -0.07186098 0.029051762 0.03583858
0.013210466 -0.017565882 0.067291245 0.046498574 -0.03697916 0.020489631 -0.013214709 -0.014559457
0.025330516 0.014470074 0.058023773 0.017954225 0.037691865 0.030375682 0.030947836 -0.02600191
-0.011382482 0.0036411695 0.032340564 -0.07079036 -0.026361123 -0.03803434 0.035451695 0.0076254243
0.02828531 -0.045249857 -0.01194553 0.049014755 -0.04552008 0.045253094 -0.02052972 0.046599824
0.00031123837 0.012479023 0.0656634 -0.033078574 0.045454707 -0.05256381 0.028841833 0.044526957
0.050457988 0.051774558 0.00918817 0.038878456 0.027525585 -0.03509029 0.06217868 0.04421804
0.055290874 -0.020726262 0.040355027 -0.0036768967 -0.033136833 0.04233806 0.044283018 0.038765937
-0.022074606 -0.01548555 0.009153252 -0.02601051 0.001687297 0.06950154 0.018180909 0.038291674

layers.3.bias f4 [8]
00000000: 393c 8a3d 5b8e 173d e4bf 583c 7c1c 69bd
00000010: 5817 62bc 3bfe 1e3d 147b f03c 8c17 2a3d
0.06749768 0.037000995 0.013229344 -0.05691193 -0.013799511 0.03881667 0.029355563 0.041526362
