actor.pth (torch, 662585 bytes, 81 tensors)

projection.layers.0.weight f4 [4, 4]
00000000: 00ce fe3c 58e4 cc3e 53fc 5c3e d55d c33e
00000010: 4981 cdbe 51c7 843d 52e8 e43e 4e7e ad3d
00000020: 42f5 763e 462f ab3e a8b1 37bd 7632 65be
00000030: 1ec2 ef3d d9a4 38be e03f fcbb 6ce2 8d3e
0.031104088 0.40017962 0.21580629 0.38157526 -0.401377 0.06483329 0.44708496 0.08471356
0.24116996 0.33434504 -0.04484716 -0.2238253 0.11706947 -0.18031634 -0.007698044 0.2771181

projection.layers.0.bias f4 [4]
00000000: e124 c63d a015 143e ec78 4f3e 40c3 32be
0.09675003 0.14461374 0.20260972 -0.17457294

projection.layers.1.weight f4 [10, 4]
00000000: aaec 1f3b 34ec 66be 4412 ecbe e2a9 2ebe
00000010: 2d23 b5bd 75da a73e 1a42 9b3d edc8 ccbe
00000020: 3c31 f0bd b8d1 403e 9e77 e83e 4be1 a6be
00000030: e5bf a9bd 1027 0c3f ec5d eebe cb44 c8bd
00000040: 7d60 82be cf07 c9be 09ca 4e3e 3199 32be
00000050: 4782 ea3e 784a fbbb 0294 973d 896a 813e
00000060: 2411 003f 1ae7 d33e 84f3 933d 2427 503e
00000070: e60d b33e 3dc4 a0be cbfc 553e 7991 a7be
00000080: 7d2f 02be a163 bb3e f08a f8be b1f8 793e
00000090: c51a df3d 083c a43d 299f b13e 0f6e 0ebc
0.0024402537 -0.22551042 -0.46107686 -0.17056993 -0.088446 0.32783857 0.07580967 -0.39997044
-0.11728141 0.18830001 0.4540376 -0.3259376 -0.08288554 0.54747105 -0.46556032 -0.09778746
-0.2546424 -0.3926377 0.20194258 -0.1744125 0.4580252 -0.0076687895 0.07401277 0.25276592
0.50026155 0.41387254 0.07224181 0.20327431 0.3497154 -0.31399718 0.20897214 -0.32728174
-0.12713428 0.36599448 -0.485435 0.24411274 0.10893778 0.080192626 0.34691742 -0.008693232

projection.layers.1.bias f4 [10]
00000000: b006 89be 19c7 adbe 377d 533e 9b68 9cbd
00000010: f42e d8bd e6d6 0c3e 8922 45bd 5172 fbbc
00000020: 7262 a53c 3188 81be
-0.26762915 -0.33940962 0.20653234 -0.076371394 -0.105558306 0.13753852 -0.04812864 -0.030694159
0.020188544 -0.25299218

projection.layers.2.weight f4 [25, 10]
00000000: e0b0 5c3e 10ea b6be 3963 63be e2f7 413e
00000010: f242 b5be 8b9d aa3e 4466 86bd a717 303e
00000020: 12dd 04be b0f8 58bd 8195 8f3e 3c2b 99be
00000030: ea99 7f3e 0096 9abc bea8 62be a017 15bc
00000040: 0ade 5f3e c242 323e d88a d03d bc92 98bd
00000050: 9e7a 7abe 30f8 ed3b 9144 6f3e b1ea 933e
00000060: 86d9 813e 9162 19be ec84 fbbd b707 d3bd
00000070: ca03 543c d5fb b93d 88ed 953e d66c 27be
00000080: cbd4 24be e5c2 6d3e 2b7d 9ebd c728 983e
00000090: fb62 d9bd 3d25 4a3e ce77 293e df5e 1ebe
000000a0: 179b ba3d f221 56be 3832 99bb dfda 12be
000000b0: 6581 283d 5100 ba3c b5ab 95be f91f 9ebe
000000c0: 922a 1f3e ec13 513e 0b0f e3bd 5b6d 373e
000000d0: fb0f d83c cbe6 4c3d 5659 893e da83 b33d
000000e0: 34e2 723d d114 b63d 9bb7 3c3e 069b 82be
000000f0: aafb 603e 6622 163e 1d01 17be 804f 0bbd
00000100: a2b5 e1bd bbdc 20be 2061 67bd a4ee af3d
00000110: af7a 983e b03b 4fbd 528a 1d3e 568a 683d
00000120: c47a 41bd 8d9c 4dbe c9f6 e2bd 02df 353e
00000130: d2b8 8c3e 821e 21bd e02f 20be a6ab 523c
00000140: 1f52 86be d4cb bbbd 91d4 713d d8ed 153e
00000150: 822b 4f3e 43b8 423e 8e2b 24be 33a5 5a3d
00000160: 30d0 d0bd 5db1 3f3e ec0d 563d ab6a 38be
00000170: 838e 70bd afbf 493e 24d3 8ebe 48fa 4c3e
00000180: e3ec 7abe c7d9 5bbe ff6c e93d c614 0dbe
00000190: e1c6 e83c a0d3 693e 1651 6a3e add1 a23c
000001a0: b48b a9bd f100 4b3e 969d 26bc 4ee6 33be
000001b0: f963 fabb d503 b7bd 8b4b 4cbe 43dd 34be
000001c0: 83bb e4bc b61a 39bd 55e5 acbd 0a4a 6f3e
000001d0: 4539 ff3d 0a46 a73e 6169 ea3d f923 383d
000001e0: fbe1 a03e 5937 42be 9dad b53d be95 9ebe
000001f0: 98b5 55bd bbed 683d ee85 263e caca 783e
00000200: c911 60be 7461 88be cdce 9f3d 6dab a6be
00000210: fca3 913e a238 8fbc 9050 03bd 44d2 6e3b
00000220: ad7f 2ebe 9357 263e cd7d ce3d c6d5 69be
00000230: 4c10 75be a47a 0c3e a256 12be 1864 4fbe
00000240: 0bb8 30be bfd9 64be a1c8 873c 82ec 713e
00000250: 462e efbd 9fcc a8be 6b56 d8bd 4e05 6cbe
00000260: becd 773e cc89 75be 8bf0 8dbe fb86 db3d
00000270: 7831 c2bd 814f 2ebe 4cc4 413c 1bab 843e
00000280: 0807 1abe 5d31 9abe 3e86 ba3d 16cf cabd
00000290: 4255 053d 9368 52be b23f 363e 1b89 aabd
000002a0: a3a3 8f3e fb2f 8cbe 9367 8a3e 812a 883e
000002b0: f648 55be e8ef 2d3e 134d 883e 52da 25be
000002c0: 3a7e d0bd 8030 29bd 8e69 653e 7c8c ed3d
000002d0: 7759 14be 6f3b 953b 72a5 9b3d cae2 a6be
000002e0: 7834 813e 1e36 20be a734 5abe d72a 273e
000002f0: 610c 8ebe 02bf 2b3e 186d 693e 8689 18be
00000300: 3200 f23d c328 703e 3025 3cbe 3093 2e3e
00000310: 10b2 1f3e a70f 41be df2c 9c3e c69a 6a3e
00000320: 336c 963e 3805 88bd 7aa1 59be 2754 51bd
00000330: 1b02 5fbe c343 9d3e 54a6 6e3e b9df 43bd
00000340: 4925 8c3e c2ad 64be 2a39 a2bd 0aaf 593e
00000350: 9863 90be d0c1 453d 180c f1bd a011 6d3c
00000360: 903d 2c3d 5088 04be a0c7 5cbe 60f1 0d3c
00000370: d787 89be b767 f3bd 3fa5 6d3e a05c 6e3e
00000380: d639 133d d556 0b3e 3c52 6e3d 44a1 6ebe
00000390: 5973 aabc 8a26 14bd 258d 803e d8e7 afbd
000003a0: 0046 5cbd 2237 fdbd ea52 053e f3b1 973e
000003b0: 9652 203e 92c2 bdbd eda0 18be cc60 293e
000003c0: d7e0 66be bb23 493e d527 9abe a3ce 0bbe
000003d0: fe28 31bd faf5 5dbe 5d04 153d f256 843c
000003e0: 7bfc be3e 647e 87be
0.21551847 -0.3572545 -0.22205819 0.18942216 -0.35402638 0.3332332 -0.06562474 0.17196523
-0.12974957 -0.052971542 0.2804375 -0.29915798 0.24961057 -0.018870354 -0.22134683 -0.009099871
0.21862045 0.17408279 0.10182732 -0.07449862 -0.24460837 0.0072622523 0.23366 0.28889993
0.2536127 -0.14979006 -0.12281212 -0.10304206 0.0129403565 0.09081236 0.29282784 -0.16350111
-0.16096799 0.23218878 -0.07738718 0.2971861 -0.10614582 0.19740768 0.16549608 -0.15465878
0.09111612 -0.20911387 -0.004675176 -0.14341305 0.041139025 0.022705229 -0.29232565 -0.30883768
0.15543583 0.20417756 -0.110868536 0.1791281 0.026374808 0.05002479 0.2682597 0.08765383
0.059297755 0.08890689 0.18429415 -0.25508898 0.21971002 0.1466156 -0.14746518 -0.034011364
-0.11020972 -0.15709202 -0.05648911 0.08590439 0.297811 -0.05059403 0.15384796 0.056772552
-0.04723622 -0.2007925 -0.11082227 0.17760852 0.27484757 -0.039335735 -0.15643263 0.012858307
-0.26234528 -0.091697365 0.05904061 0.14641511 0.2023144 0.19015603 -0.1603224 0.053380203
-0.101959586 0.18720002 0.05225937 -0.1800944 -0.05872966 0.19702028 -0.27895463 0.2001735
-0.24504428 -0.21469794 0.113977425 -0.13777456 0.028415145 0.22834635 0.22882494 0.019875372
-0.082785994 0.19824578 -0.010169407 -0.17568323 -0.007641312 -0.08936278 -0.19950692 -0.1766253
-0.027921444 -0.04519149 -0.08442179 0.23368087 0.12462095 0.32670623 0.11445881 0.04495618
0.3142241 -0.18966426 0.08871005 -0.3097362 -0.052175134 0.056867342 0.16262028 0.24296108
-0.21881784 -0.2663685 0.07803116 -0.32552662 0.28445423 -0.01748306 -0.032059252 0.0036441246
-0.17040892 0.16244344 0.10082588 -0.22835454 -0.23931998 0.13718659 -0.1429086 -0.20253026
-0.17257707 -0.22348689 0.01657516 0.23625377 -0.11678748 -0.32968614 -0.10563358 -0.23048899
0.24199578 -0.23978347 -0.27722582 0.10719105 -0.09482092 -0.17022516 0.011826586 0.25911793
-0.15041745 -0.30115786 0.09107636 -0.0990278 0.03255201 -0.20547704 0.17797735 -0.08326932
0.28054532 -0.27380356 0.27032146 0.26594928 -0.20828614 0.16986048 0.26621303 -0.16196564
-0.10180326 -0.04130602 0.22403547 0.11599061 -0.14487253 0.004554204 0.075999156 -0.325949
0.25235343 -0.15645644 -0.21309148 0.16324936 -0.2774382 0.16772082 0.22795522 -0.14896211
0.118164435 0.2345305 -0.18373561 0.17048335 0.15595269 -0.18853627 0.30502984 0.22910604
0.29379424 -0.066416204 -0.21253005 -0.051105645 -0.21778147 0.3071576 0.23305637 -0.04782078
0.27372196 -0.22331908 -0.079210594 0.21258178 -0.28200984 0.048280537 -0.11769885 0.014469534
0.042050898 -0.12942624 -0.21560526 0.008663505 -0.2686145 -0.118850164 0.23207568 0.23277521
0.03594383 0.13607343 0.058183894 -0.23303705 -0.020806955 -0.036169566 0.25107685 -0.085891426
-0.053777695 -0.123640314 0.1301991 0.29627952 0.15656504 -0.09265627 -0.14905138 0.16540831
-0.22546707 0.19642536 -0.30108514 -0.13653044 -0.043251984 -0.21675864 0.036381114 0.01615474
0.37302002 -0.26463616

projection.layers.2.bias f4 [25]
00000000: 0f8f 5dbb b62f 63be e5a0 f33c 37c4 c1bd
00000010: 4b71 373d dce2 edbb cec4 85be b83e 523e
00000020: d433 7e3e 458c 743e 49da a5bd 54e8 5fbe
00000030: 8897 86be 5c5b 6b3d 3cac 583e 6c80 0bbb
00000040: 1726 abbc 7744 99be 1f4a 723e 1423 083e
00000050: 0078 843e 8f5d 7fbe a3e2 dfbc 33b1 40be
00000060: 7f8d 303e
-0.0033807193 -0.22186169 0.029739806 -0.09461253 0.04478578 -0.0072597098 -0.26126713 0.20531738
0.24824458 0.23881634 -0.08098275 -0.2186597 -0.26287484 0.057460174 0.21159452 -0.0021286262
-0.020892186 -0.29935047 0.23661087 0.13294631 0.25872803 -0.24938034 -0.027329748 -0.18817596
0.17241476

projection.layers.3.weight f4 [4, 4]
00000000: 6db3 46be 4d3d 873e e55e 6bbd d3c2 22bd
00000010: 5c3a a63e 575b 79be 9375 b23e 4895 17be
00000020: dc1d b13e 4c70 bc3e c1a9 e33e 2db0 de3d
00000030: b6e3 09bf f468 dfbd acbc d23e 1f87 d0be
-0.19404383 0.26413956 -0.057463545 -0.03973658 0.324664 -0.2435125 0.34855327 -0.1480304
0.34593093 0.36804426 0.4446545 0.108734466 -0.53863084 -0.1090869 0.4115957 -0.4072809

projection.layers.3.bias f4 [4]
00000000: 43f9 17be c013 e9be e6e0 84bd 36f3 4ebe
-0.1484118 -0.4552288 -0.064882085 -0.20209965

projection.layers.4.weight f4 [10, 4]
00000000: 6209 b7be 57c4 e8bd 379a 783e 8f3e 69be
00000010: acfd 3bbe 69e3 013f 7244 ffbe e4ac 78be
00000020: f3ff 95bc 98e4 923e b7f4 463d bfd3 c43e
00000030: 9e79 003f 7ba8 a7be a4c9 1cbc 0094 dc3e
00000040: 2937 56be 176c e93e 2ac2 6dbe 0257 f0be
00000050: ae05 dc3e 72ef d93e 1546 903e 1a65 a63e
00000060: e8eb 7bbd 777e 4f3c 4703 e53e dd38 c03e
00000070: fd1d afbe 6944 e33e aaf1 03bf cf1a f0be
00000080: 02e9 ffbc 743a 2dbe 9dfd 08bd ba42 76be
00000090: 8d39 24bb 44c4 d9bd be26 bfbd 951d b03e
-0.35749346 -0.11365574 0.24277578 -0.2277777 -0.18358487 0.50737625 -0.49856907 -0.24284703
-0.018310523 0.28690028 0.048573222 0.384428 0.50185573 -0.32745728 -0.009569559 0.43081665
-0.2091948 0.45590279 -0.23218599 -0.46941382 0.42973083 0.42565495 0.28178468 0.3249901
-0.061504275 0.012664429 0.44729063 0.37543383 -0.34202567 0.4438813 -0.51540625 -0.46895453
-0.031239036 -0.1691683 -0.03344499 -0.24048892 -0.0025058717 -0.10633138 -0.09333561 0.3439757

projection.layers.4.bias f4 [10]
00000000: 5903 d9be a497 4fbe 6278 cb3d e4eb e9be
00000010: c7fa 863e 3447 47bd 40e1 883e 0bf2 e43e
00000020: ee2d 8bbe 5afa 933e
-0.42385367 -0.2027269 0.099350706 -0.45687783 0.26363203 -0.04865189 0.26734352 0.44715914
-0.2718348 0.2890194

projection.layers.5.weight f4 [25, 10]
00000000: c6dd 59be 6da4 22bd 2d7c fd3d 93af 20be
00000010: 5cbf bebd 79da afbe b1a5 013e 6895 133e
00000020: b630 6bbe 4480 853c 1091 5cbe b5f4 15be
00000030: 2f2b 4abd bfca 8ebe 5d6f 4d3d 4773 7a3d
00000040: d3c1 a23e 22b9 b33d b47c 2c3d 72e0 ecbb
00000050: 8991 8d3e 5dad ab3e 9bf2 61be 30ab 82be
00000060: 7cf7 353e ae49 853e fc0f 30be 8656 8bbe
00000070: ebaa 4abe 4d9c 803e 1ca9 d23d 072d 68be
00000080: 6041 773e 6158 bcbd 36a1 a63d c84b 72be
00000090: 946b acbe e2c0 343e 7a95 c7bd 5718 49be
000000a0: 607f 48be a0c2 823e 0a6a 9b3e b829 213e
000000b0: 1653 373e c0ea 29be 1722 aabe 8872 03b9
000000c0: 54b7 cd3d 1e0e 93be f014 8abd 02fb 87be
000000d0: 56a7 9fbd 4012 27be d625 0abe b659 a5be
000000e0: aa71 03be 43b4 8a3e 8579 89bd 76f6 9bbd
000000f0: 20dd 2abe 3c3d 573d 1f42 393e 3d2c 21be
00000100: 5405 af3e 192d 83be 4b8b 973e 0eaf 593d
00000110: cb78 1f3d ce5c 8abd 0509 8c3e 3b36 5a3e
00000120: 63a2 9dbd 98a0 4f3d a51f a2bd ca46 843e
00000130: ddb0 c9bd c9ee 763e 8be9 503e d1a3 963e
00000140: 70c3 b93d 1aff 5d3e 2dd4 963e 8809 52be
00000150: e353 61be a56c 9c3e 40b7 f9bc 3012 abbd
00000160: 633c 0fbe babd 9ebe 6b12 4a3e bd9a 513d
00000170: 4954 90be 3296 463d f36f aa3e 0517 333e
00000180: c518 a1be 6e9a 2c3e 66b2 23be be10 863e
00000190: 9cb3 a1be 17b9 4ebd 55f9 4ebe 121c 55be
000001a0: 6692 b93e 10dc 7c3e ccfb 7b3e d3b9 07be
000001b0: 2a0f 4fbe 16e7 12bd d8d7 2c3d 906b 63bd
000001c0: 5cfc f43d 6d11 993e 7b8d a13e 1078 2e3d
000001d0: 0431 a03d 9f9a 22be 5827 663d 6350 8cbe
000001e0: fce1 82be ec9d 95be 2237 92be 0a80 943e
000001f0: 08c2 553e 5dc2 22be 14a8 b5bd e2cf ac3d
00000200: a041 83bd d47d 953e 1a6d f53d 8952 823e
00000210: 782c 813e 2efd 9ebe 1ad1 21be 36da a6be
00000220: c344 f7bd 7c3a c53d 78cb 11be c5be d13d
00000230: 1c8c 993e 670f 44be 7005 a6be 4450 aabe
00000240: 2b12 bf3b ac92 74be bb35 86be f7cb 0c3e
00000250: b0ff 253e f332 8ebe eba6 edba fcd3 93be
00000260: 199a 97be ab44 8d3e 9561 b23d 33c4 ad3d
00000270: f0d6 0a3e 1399 d93d b45e 3bbe b96e 123e
00000280: a524 e53b 893f 82be 5ac5 21be aef5 2cbd
00000290: 0711 80be db5f a13e 5fa0 953e 7b67 1c3e
000002a0: 70b4 813e 863d 313e 27c0 05bc dac1 aa3e
000002b0: 445c ca3d 51f0 1fbe 8e74 44be 60c4 95be
000002c0: 4348 3bbd 06c4 c93d 321f ba3c 5db4 91bd
000002d0: 50dd edbd 3328 293e f61a 89be f34d 98bc
000002e0: 4650 b73e 58ac 9cbe ea21 5a3c a769 e4bc
000002f0: 9af9 27be 5b27 3b3d f7c5 823e 5c37 ee3d
00000300: 32c6 043e 30ae 383e c263 98bd b09e 013d
00000310: d36b 943e 70af 11be 98a9 da3d 02a9 a0be
00000320: f29f 943d 2077 583d a1c8 df3d ca97 993d
00000330: 52c1 04be 59eb 873e c095 65be 01da 6e3e
00000340: 3b99 dfbd 759b 53be 77cd 883e 1d9e cdbd
00000350: 11a2 933e 1e64 aabe 74d0 9f3d 13b8 23be
00000360: 2451 78be 9e05 b33e 4365 f3bc a42b 8a3e
00000370: d09a 61bd 32aa 593e 47c5 8ebe 0a3c 6b3e
00000380: f8bd ad3d 7b4e 903e dd5d 843e 2007 773c
00000390: 5ecd 8ebe 4513 963e 74b0 f8bd 3c31 fcbd
000003a0: 0112 993e 9f8b 853e 7196 843e 04c8 9d3d
000003b0: b0ca 8ebe 927c 52be 9087 af3d 9b96 903e
000003c0: 0033 923e 4fec 35be 31af fc3c de64 34bb
000003d0: ca21 a83e f3b2 30be e81a 56be a23e 4f3e
000003e0: 3829 1f3e e350 423e
-0.21276006 -0.03970759 0.123772 -0.15691976 -0.09313843 -0.3434637 0.12660863 0.14412463
-0.229678 0.016296513 -0.21539712 -0.1464413 -0.04935759 -0.27889058 0.050155032 0.061145093
0.317885 0.08775546 0.042111114 -0.0072289044 0.27650097 0.33530703 -0.22065203 -0.2552123
0.17770189 0.26032776 -0.17193598 -0.2721445 -0.19791763 0.25119248 0.10286161 -0.22673427
0.24146032 -0.091965444 0.08136217 -0.23661721 -0.33675826 0.17651704 -0.09745307 -0.19638191
-0.1957984 0.25539112 0.3035434 0.1573857 0.17902789 -0.16593456 -0.33229133 -0.000125358
0.10044733 -0.28721708 -0.06742275 -0.2655869 -0.07795589 -0.16315556 -0.13490996 -0.32295007
-0.12836328 0.27090654 -0.06712631 -0.07615368 -0.16685915 0.052548632 0.1809163 -0.15739532
0.34183753 -0.25620344 0.2959846 0.05314546 0.038933557 -0.06755982 0.2735063 0.2130975
-0.076969884 0.050690264 -0.07916192 0.25835258 -0.09848187 0.24114527 0.2040159 0.29421857
0.0907048 0.21679345 0.29458752 -0.20511448 -0.22004656 0.3055164 -0.030482888 -0.08353078
-0.1398788 -0.31004125 0.19733588 0.05117296 -0.28189304 0.04848308 0.33288535 0.1748925
-0.3146421 0.16855785 -0.15986022 0.26184648 -0.31582344 -0.050469484 -0.202123 -0.20811489
0.36244506 0.24693322 0.24607772 -0.1325448 -0.20220628 -0.035864912 0.042198032 -0.0555225
0.11962196 0.29896107 0.31553254 0.04259497 0.07821849 -0.15879296 0.056189865 -0.2740508
-0.25563037 -0.29222047 -0.28557688 0.29003936 0.20874798 -0.15894456 -0.08869949 0.08438088
-0.06409001 0.29197562 0.119837 0.25453594 0.2522924 -0.31052536 -0.15802422 -0.32588357
-0.12073662 0.09630296 -0.14237773 0.102414645 0.29989707 -0.191465 -0.32426023 -0.33264363
0.005831023 -0.23884076 -0.26212868 0.13749681 0.16210818 -0.27773246 -0.001813141 -0.2887267
-0.29609755 0.27591452 0.087100185 0.08484688 0.13558555 0.106249 -0.18297845 0.1430005
0.0069928938 -0.25439098 -0.1579794 -0.042226486 -0.2501299 0.31518444 0.29223916 0.1527385
0.25332975 0.17308626 -0.0081634885 0.33351022 0.098808795 -0.15619017 -0.19185087 -0.29251385
-0.04572321 0.09851842 0.022719953 -0.0711448 -0.11614478 0.16519241 -0.26778382 -0.018591857
0.3580343 -0.30600238 0.01331375 -0.02788241 -0.16403809 0.04569183 0.2554166 0.11631653
0.1296623 0.18035197 -0.07440902 0.031645477 0.28988513 -0.1422708 0.10676879 -0.31378943
0.0725707 0.05284798 0.10926939 0.074996546 -0.12964371 0.26546744 -0.22420406 0.2332535
-0.10917898 -0.20664771 0.26719257 -0.10039923 0.28834584 -0.33279508 0.07803431 -0.15988187
-0.24249703 0.34965223 -0.029711371 0.2698642 -0.05507928 0.2125633 -0.27884886 0.22972122
0.08483499 0.28184876 0.25852862 0.015077382 -0.27891058 0.29311576 -0.12143031 -0.12314078
0.29896548 0.26083085 0.25896028 0.077041656 -0.27889013 -0.20555332 0.08570778 0.28239903
0.28554535 -0.17765926 0.030845257 -0.0027525942 0.3283828 -0.17255764 -0.20908701 0.20238736
0.15543067 0.18976168

projection.layers.5.bias f4 [25]
00000000: c080 fc3c 939d debd a94b 843e 80ed 1cbc
00000010: 87c7 413e f0ea 4dbe 2a7e 67be 2183 953e
00000020: c21d 8cbe a175 c43d 02d8 12be 9571 81be
00000030: b666 623d 13b2 383e a6fc 28be d13b 673d
00000040: ff4f 89be 8daa fa3d 9b64 9abd 58cc 013d
00000050: 5f58 843e c5bc 053e 68c1 f0bd 3a11 c0bd
00000060: 25cc 66bd
0.030823112 -0.10869899 0.25838974 -0.009578109 0.1892377 -0.20109153 -0.22606722 0.29201606
-0.27366453 0.095927484 -0.14340213 -0.2528197 0.055273734 0.1803668 -0.16502628 0.05645353
-0.26818845 0.12239561 -0.0753872 0.031689018 0.25848672 0.13060291 -0.11755639 -0.09378286
-0.05634703

projection.layers.6.weight f4 [4, 4]
00000000: 264b f9be 9ed1 a33e 6d53 0ebe 89e9 2abe
00000010: e46e 4abe 1fc4 443e 0c02 b2be 4ef7 ec3e
00000020: 7295 b8be 70c0 ba3e 8359 d2be cbb9 29be
00000030: ddf8 cdbe 1022 f23e cd2a c13e 4ffb c83e
-0.48690146 0.31995863 -0.13899012 -0.16690649 -0.19768864 0.1921544 -0.34767187 0.46282429
-0.36051518 0.36474943 -0.41083917 -0.1657478 -0.4022893 0.47291613 0.37727967 0.39254233

projection.layers.6.bias f4 [4]
00000000: 4d19 2a3e f633 9ebe fe12 c23e 5779 76be
0.16611214 -0.30899018 0.37905115 -0.24069725

projection.layers.7.weight f4 [10, 4]
00000000: 0c88 9a3e a86d 88bc f27a c8be 1a91 ac3d
00000010: 5701 7e3e 722d bcbe 349a 9abe b9c2 43be
00000020: 7385 dfbc ae2c ff3e d87a eb3d 051f c83e
00000030: 8bbf b3be c4c9 e2be b0d9 2e3e f532 763e
00000040: d4e4 9ebd 30c0 5d3d b091 efbe ab4a 5f3e
00000050: e818 d0bd 8474 acbe 6bd8 433e 7bcc aa3e
00000060: fb85 08be 1e21 8bbe b25b 0b3e 518e bcbe
00000070: 2166 413e cb85 8ebe 2da3 c43e f1a8 92be
00000080: 7cd3 033f 0571 9cbd a97a 033e 1c18 923e
00000090: ae35 a3be 5494 dabc f03a d4be 8d75 773e
0.3018192 -0.01665385 -0.391563 0.084261134 0.24805199 -0.36753422 -0.30195773 -0.1911725
-0.027285313 0.49838775 0.1149804 0.39086166 -0.35107073 -0.4429456 0.17075229 0.24042876
-0.07758489 0.054138362 -0.46790838 0.21805827 -0.101610005 -0.33682644 0.19125526 0.3335913
-0.1333236 -0.27173704 0.13609198 -0.3682733 0.18886615 -0.2783645 0.38405743 -0.28644517
0.51494575 -0.07638744 0.1283976 0.2853402 -0.31876892 -0.026682056 -0.41451216 0.24165936

projection.layers.7.bias f4 [10]
00000000: fb2e 8ebd 379a 00bf 630b e8be 24ba a73e
00000010: 44b4 bd3d fddf c8be 1099 adbd 610c 1bbe
00000020: 4fed 85be 6c66 fc3c
-0.069425546 -0.50235313 -0.45321187 0.32759202 0.092628986 -0.3923339 -0.0847646 -0.15141441
-0.26157615 0.030810557

projection.layers.8.weight f4 [25, 10]
00000000: 2433 b43c f214 91be ea3b 723c 610a 673e
00000010: f1cf b2bd 6b46 4dbe 8650 263e 3956 c03d
00000020: 0b2f 0dbd 2c2f 043c 7c3e d2bc 8052 993d
00000030: 8645 5d3e 9468 003e 1954 973d 9f27 a1be
00000040: 178e fd3d 929e 7cbe 885c 423c 6fc1 d53c
00000050: e315 94be d30b 89be 2170 d73d 0d36 773e
00000060: 6413 9f3e 91a8 92be edd6 163c e3b6 243e
00000070: 80cb 24be 81b7 4a3b 23f5 02be e46b eebd
00000080: 5ed2 7dbd a468 1fbd a8e9 1cbe 6286 f03d
00000090: 9f06 9d3d a58c 04be a6b4 4bbe 7a66 8fbe
000000a0: 5609 b03d 6dc4 ecbc b0ae 853c 243c 9b3e
000000b0: 7946 02be 13bc dcbd 6c32 8c3e 94a7 703d
000000c0: e8f2 4c3d d179 633d 9812 0abd 7d6b 36be
000000d0: 1c8f c73d 4079 e5bc a081 f83c 8c35 943d
000000e0: 5443 38be dc35 243e 9479 82be b388 a1be
000000f0: 293d 633d 516b a1bd 0645 84be ff5e af3d
00000100: 7dda 563e 2fcf 44bd e9ca 913e 0041 a1be
00000110: e2fe 163e a395 04bd 917e 4b3e f36a 673d
00000120: 4877 fe3d c3c9 d53b 0161 77be e940 93bd
00000130: 1b42 5dbe 4eb2 96be 2b25 0d3e 5f9d 1d3d
00000140: e335 1fbe 0404 c23d 6029 cd3d 801a 41bb
00000150: b600 2a3e 8274 64be e097 7a3d 5b19 02be
00000160: 5430 89be 562c 333e 45a2 2b3e a317 a03e
00000170: 91cc 523c 8b0b 953e d14b a2be 9295 98be
00000180: 20a0 473e af50 a93e 478f f83d f54e c63d
00000190: cd6d 05be 256a 373d 4c61 95be fae0 ff3d
000001a0: 7acd 183b 0666 a33e c9a6 99be 004e 48be
000001b0: bac1 1e3e 667c 943e 4cca 69bc 7315 8d3e
000001c0: b116 65be 8bff 5abe d074 f03d dd3e 423e
000001d0: 5a12 8bbd 6c5e 423d a148 b0be 174a f73c
000001e0: b9e9 703e f7be b4bd 3efe 3cbe 8704 333e
000001f0: 5822 903e 0349 0f3e 9eec 92bd 669c bf3c
00000200: c8c9 69bd 171a 3ebc c46c 9ebd 2cc5 113e
00000210: 57cc 1abe d80a 543e a69c 5b3d c31d 4d3d
00000220: e559 81bd 13fc ea3d b2ff 56be 34cd 7b3d
00000230: 3ff2 6abd a5cd ecbd 4042 7b3a 9c27 623e
00000240: ed18 e5bd d52a 88bd 0e3f 32be 2388 33be
00000250: ac61 463d 095b a53e d948 f23b 0d07 4d3e
00000260: a880 8cbd a1dd 023e 85a7 3ebe c98e 873d
00000270: 7731 68be b8d4 a03e 30df 8f3e 8175 8c3e
00000280: 32e3 48be 4150 943d 72b1 883d 7de0 473c
00000290: 8093 a43d 8cf9 3e3e 5e8c 993d 200c 6f3d
000002a0: 83a2 343e 7b58 3c3e 62c3 0e3e 413b 8fbe
000002b0: 4077 263d abc8 9b3e 6681 813e 0be3 103e
000002c0: ca96 ea3d 8e6c 3b3e 4d76 69bd 3091 49be
000002d0: e939 afbd 7602 dfbd 56bd 2dbe 2fda c63d
000002e0: 4eed 85be 3fed 8ebd 52cb 773d 1627 1a3e
000002f0: d733 893e cd1c 09be f905 443e adfd b83d
00000300: c6f0 023c a10d 9c3e 253a aebd bb1c b6bd
00000310: a851 7d3d 9289 edbc 773c 22be 0535 943e
00000320: b894 3d3d 5817 32be 3c5f 333e a12f e8bd
00000330: c31b 3ebc 768a 18be af49 373d 1dce 22be
00000340: db40 93be 60e1 78be d4c8 16bd 07cc 4ebe
00000350: f215 83be 305a 7d3e e1c2 843e 7fcb 1d3e
00000360: 4bf0 2c3e 1e23 493e c2ee a13e fe15 2a3c
00000370: e976 853e 4450 a13d e639 d6bd 8392 19be
00000380: 20e0 15bc 72a4 183e f390 863e 45ec 3cbe
00000390: 8429 94be 0724 933e d466 74be 7ae3 0a3e
000003a0: 9977 dc3d 906b 823e 44ef 263e e8fc eabb
000003b0: 399d 653d cd8f d5bb 2121 29be debe bf3d
000003c0: 97ce 483e 2f2a 64be 4f51 4d3e 0b91 a13e
000003d0: 71ef 5a3e 2f6d 4e3e d538 073e 4589 8dbe
000003e0: 5cd8 6fbe 794f d8bc
0.021997042 -0.28336293 0.014784792 0.22562553 -0.08731068 -0.20046394 0.16241655 0.09391446
-0.03446869 0.008067887 -0.02566456 0.07486439 0.21608552 0.12539893 0.07389087 -0.3147554
0.12380617 -0.24669865 0.0118628815 0.026093213 -0.28922948 -0.26766834 0.10519434 0.24141712
0.3106948 -0.2864423 0.009206516 0.16085391 -0.16093254 0.003093213 -0.12788825 -0.11641672
-0.0619682 -0.038918152 -0.15323508 0.117443815 0.076672785 -0.12944277 -0.1989313 -0.2800787
0.08595531 -0.028902257 0.016318649 0.3031932 -0.12722196 -0.1077806 0.2738222 0.058753565
0.05003634 0.055536095 -0.03370914 -0.17814441 0.09744093 -0.028011918 0.030335248 0.07236776
-0.17994434 0.1603617 -0.25483382 -0.31549606 0.05547825 -0.07881797 -0.2583391 0.08563041
0.20981784 -0.04804915 0.2847512 -0.31494904 0.14745668 -0.032369267 0.198725 0.05649848
0.12425095 0.006524296 -0.24158098 -0.07190115 -0.21607248 -0.2943291 0.1378371 0.03848016
-0.155479 0.09473422 0.10017657 -0.0029465258 0.16601834 -0.22310069 0.061179996 -0.12704985
-0.26794684 0.17497382 0.1676112 0.31268033 0.012866155 0.2911037 -0.31698468 -0.29801613
0.19494677 0.3306937 0.12136703 0.096830286 -0.13030167 0.04477896 -0.29175794 0.12494083
0.0023315833 0.31913775 -0.3001006 -0.19561005 0.15503588 0.29001158 -0.014269423 0.27555427
-0.22371937 -0.21386544 0.1174103 0.18969293 -0.0679061 0.04745333 -0.3443041 0.030186696
0.23526658 -0.08825486 -0.1845636 0.17482196 0.28151202 0.13992696 -0.071740374 0.023390006
-0.0570772 -0.0116029 -0.07735589 0.14235371 -0.15117012 0.20707262 0.05361619 0.05007721
-0.06315974 0.114738606 -0.20995978 0.061474994 -0.05735993 -0.11562661 0.0009584762 0.22085422
-0.11186395 -0.066487946 -0.17406866 -0.17532401 0.04843299 0.32296017 0.007393938 0.20022221
-0.06860477 0.12779857 -0.18618591 0.06619031 -0.2267512 0.31412292 0.28099966 0.27433398
-0.19617918 0.0724187 0.0667447 0.012199518 0.08035946 0.18649882 0.07497476 0.058361173
0.17640118 0.18393128 0.1394172 -0.27974895 0.04064107 0.30426535 0.25294036 0.1414911
0.11454542 0.18303129 -0.056997586 -0.19684291 -0.08555967 -0.10889141 -0.16966757 0.09709584
-0.26157612 -0.06978845 0.060496636 0.15053973 0.26797363 -0.13389893 0.19142903 0.0903276
0.007991975 0.30479148 -0.08507184 -0.08892199 0.06184545 -0.028996263 -0.15843378 0.289467
0.046284407 -0.17391717 0.17516798 -0.113372095 -0.011603299 -0.14896569 0.044748005 -0.15898938
-0.28760418 -0.24304724 -0.03681262 -0.20195018 -0.2560268 0.24741435 0.2592993 0.15409659
0.1688854 0.19642302 0.3162747 0.01038122 0.26067284 0.078766376 -0.10460262 -0.14997296
-0.009147674 0.14906481 0.26282462 -0.18449505 -0.28937924 0.28738424 -0.23867351 0.13563338
0.10764999 0.2547269 0.1630221 -0.007171262 0.056058142 -0.0065173865 -0.16516544 0.09362577
0.19610058 -0.22281717 0.20050548 0.31555972 0.21380402 0.20158838 0.13205273 -0.2764379
-0.23422378 -0.026405083

projection.layers.8.bias f4 [25]
00000000: 0218 31bc e654 df3d c380 5f3e 02e1 a63c
00000010: 4a26 243e 59d2 92be 89cb 94be 6ef8 f13d
00000020: b3d2 87be 46e3 fcbd db58 6fbe f250 803d
00000030: 6937 90be b33a 0d3e f70e 313e d149 2d3e
00000040: b3f9 893e 35c9 8d3d 545e a3bd 1b2f 76be
00000050: 1195 313d f496 c0bd 23e9 34be 7438 a13d
00000060: 0a62 0a3e
-0.010808947 0.10904865 0.21826462 0.020370964 0.16030231 -0.28676108 -0.29061535 0.11814962
-0.26527938 -0.123480365 -0.2337374 0.06265439 -0.28167275 0.13791923 0.17290865 0.1692269
0.26948318 0.06923143 -0.07976976 -0.24041407 0.04335505 -0.09403792 -0.1766706 0.07872096
0.13513961

projection.layers.9.weight f4 [4, 4]
00000000: a495 a23d 7d11 f73d b453 9cbe 0ca9 833e
00000010: 9269 fbbe 2c18 8bbd 7c3e afbd 11b2 273c
00000020: dc4d c33e 35d8 08bf 844d 9bbe 442f d9be
00000030: 5fcc eebe 8069 f93c b16e c13d 3900 02bf
0.07938698 0.120638825 -0.3053261 0.2571491 -0.4910398 -0.0679172 -0.0855684 0.010235325
0.3814534 -0.53454906 -0.30332577 -0.42418873 -0.46640298 0.030445814 0.09444941 -0.5078159

projection.layers.9.bias f4 [4]
00000000: c5e5 d93e 3f29 9e3a 3061 ce3e c47c 4f3e
0.42558113 0.0012066736 0.40308523 0.20262438

projection.layers.10.weight f4 [10, 4]
00000000: 9423 f2be ace5 6a3d 1e84 793e 5d66 94be
00000010: 9327 4f3e 932a d9be a575 c5be c859 c53e
00000020: e1fe 063e 4fc4 b63e 486a a4be 8981 39be
00000030: 1677 ca3e a916 923e 28ea afbe f67b a0be
00000040: b75e f2be 8c24 afbe 6391 2d3b 73ea eebe
00000050: f85b 843e b176 40be 26f7 d23e 4e81 7e3e
00000060: 5090 693e 4655 2dbe a30d eebe 41a6 903e
00000070: 3085 95be 7987 0b3a d0ed 95be 6b35 db3e
00000080: 0a5e 103e 2d0d 86be dc02 cf3d 41c3 07bf
00000090: 52c0 e1be be39 b73e 3f7a 1c3e ddd6 e13e
-0.4729277 0.05734794 0.24366805 -0.28984347 0.2022994 -0.42415294 -0.38566318 0.3854506
0.13183166 0.35696647 -0.32112336 -0.1811582 0.3954398 0.28532913 -0.34358335 -0.31344575
-0.47337887 -0.3420757 0.0026484362 -0.46663246 0.25851417 -0.18795277 0.41204184 0.24854013
0.22808957 -0.1692706 -0.4649478 0.28251842 -0.29203176 0.0005322616 -0.29283 0.42814192
0.14098373 -0.26181927 0.10107967 -0.5303231 -0.4409204 0.3578624 0.15281008 0.4410924

projection.layers.10.bias f4 [10]
00000000: 755f 673e 6a26 273e 6bcc de3d cb8c c43e
00000010: 2ed0 95be d0a8 a6be 7ad1 d03e 2719 0fbe
00000020: f4eb 08bd 94da cb3e
0.22595008 0.16323248 0.108788334 0.38388667 -0.2926039 -0.3255067 0.40784818 -0.13974439
-0.033428147 0.398152

projection.layers.11.weight f4 [25, 10]
00000000: 6436 09be d98c 8f3e 0add babd bf72 32be
00000010: 711a 863e d4d1 0f3e e98e 9e3e f024 debd
00000020: 0ae5 0cbe 6d3d 943e 161c ce3d d004 8e3e
00000030: a17a 36bd f401 833e 917f 903e cae0 a1bd
00000040: 2d21 103e ed9b 53be c104 6a3d cdfa aa3a
00000050: 4829 5abe bc83 37be 001a f63b 40f0 76bd
00000060: 1506 9e3e 28df 7f3d 723d 3f3e ef47 13be
00000070: 603a 4ebd e17a 35be 0650 b1bd ba7a 553e
00000080: a85c 8b3e 286d 983d c46b 9abe e358 7d3d
00000090: 0cd7 68be 34cf 833e ad8e 823e bc6e 443e
000000a0: 2bb0 bbbd 2143 33be f885 953e 53c3 863e
000000b0: cc8c 843e 38e1 a33e 4418 5dbe e886 ebbd
000000c0: 0ff5 e0bd 4acb 02bb 135e 7fbd f915 0f3e
000000d0: e62f 91be 4ab2 8b3e ac76 343e ed17 f33a
000000e0: b796 b3bd 8535 79be 762a 2fbb a790 5ebe
000000f0: 31fe bebc ee9b 593e ad15 423d fce2 0f3e
00000100: 2c08 99be 747b 1c3e c78d 4dbe a7ee ab3d
00000110: d560 e3bd e909 173d 683d 663e aa66 41be
00000120: 6d06 b43e d268 0a3d 51c7 d33c 3962 9d3e
00000130: 0bca 39be 2c97 5e3e 5166 26be be2c 6a3e
00000140: 00e9 26bd bee8 59be 1638 63be 75dc a63e
00000150: bacc 2bbe 8efc 82be efb9 96bd 491e 23be
00000160: 2cb6 e8bb 6480 883e c9f9 05be 9186 dd3c
00000170: e40b bdbc b202 2c3c e721 ff3d 23be 8b3e
00000180: a821 fd3d ee48 b0be 1b62 00be 653e 16bd
00000190: 4219 6dbe 0679 a2be 3618 973e 13c0 78bd
000001a0: 6185 8a3e a60d 24bd 9883 9b3e aced 86be
000001b0: 229e 1dbd 58d6 a339 3f62 753e 1d80 0f3e
000001c0: e96f abbe fec9 e9bc 8c54 73be 7933 8fbe
000001d0: 157e 033e e334 6dbe e54c 8b3e 5916 95be
000001e0: edd7 80be b851 50bd 96db d5bd 4c69 86be
000001f0: c6bd 5b3e 66d1 17be 043f 2c3e 8b11 9e3e
00000200: c8c4 96bd b9df 3ebe 182f 503e e4a3 83be
00000210: a0b2 e23c 602a c53d 1a68 97be d06f 343d
00000220: 23be 27be 8875 1039 07e2 4d3e 80c4 ccbc
00000230: f7ca 75bd 427b 15be 091d 4abe 6eb2 523e
00000240: 4803 613e 32f6 8bbe b7b2 963e 4029 62bd
00000250: 4f87 7bbd c021 803e 0c95 073e 060d 9c3e
00000260: e203 a1be 5f9f 343e e7c3 993d c7cf 6ebe
00000270: b6b6 ae3a 221b 003e 30c1 3dbd 50c5 cdbd
00000280: 2562 943d 3a8c 9d3e 042f 3abe 2393 b73d
00000290: 5a01 2ebe 3a44 8f3e d156 3f3d eb60 333e
000002a0: 103f 033e f24f 9f3d c08c 783e 9ed3 4f3e
000002b0: c0fe 1dbe d08a 963d 92c8 7dbe 7398 933e
000002c0: 2863 0bbe 9eb5 033e a9eb ab3e 6078 2dbe
000002d0: d089 93bd ae75 48be cba5 0cbe 160b 42be
000002e0: b2be de3d 924d 8fbd ee27 09be e3d2 023d
000002f0: bba0 51be 85fc 6c3e 4e4b 543e 2039 2f3e
00000300: 60dd bb3d 1a02 1f3e f6a1 613e ec3d 7ebe
00000310: e2ed 48be d09c 30be 8c12 90be 42d9 86be
00000320: 7173 82be e4c2 843e 6611 88be 513a 90be
00000330: 2ffa 77be e9b6 083e d53a b73d 0cd6 65be
00000340: 5656 8a3d 7161 9d3e f7b9 45be 9124 75be
00000350: 4ab4 793e 80ea 8d3b f0bd 3c3d 92ef acbd
00000360: c2d4 2dbe 88dc ffbd eb14 9ebe 1c13 8abd
00000370: 2054 d3bd f62c 203e f62c 693e 5d5b 30be
00000380: 8ce1 d83d 74c5 e03d 686a 1b3e 3306 88be
00000390: d056 ef3c 388f 07be 9e6e 663e fa34 793e
000003a0: 7868 5fbd 9506 2bbe bda4 82be 702d b1bc
000003b0: 2c73 8ebe 48ed f7bd 1a18 a2bd 4cd9 0d3e
000003c0: 8813 ce3c fa62 75be 2d3a 1f3e 9c6b 203e
000003d0: 2ab9 9c3e bb3e a93e 8f67 723e 0a97 7abe
000003e0: a74c 1e3e a1b2 403e
-0.13399655 0.28037146 -0.09124191 -0.17426585 0.26192048 0.14044887 0.30968407 -0.10846889
-0.13759246 0.28953114 0.10063951 0.27738047 -0.04455054 0.25587428 0.28222325 -0.07904203
0.14075156 -0.2066495 0.05713344 0.0013044715 -0.2130481 -0.17921346 0.0075104237 -0.060287714
0.30864015 0.062468678 0.18675783 -0.14382909 -0.05034864 -0.17722656 -0.086578414 0.20847598
0.2721913 0.07442695 -0.30160344 0.061852347 -0.22738284 0.2574402 0.25499478 0.19182867
-0.09164461 -0.17506076 0.29203773 0.26320896 0.2588867 0.32007766 -0.21591288 -0.11500341
-0.10984241 -0.0019957596 -0.062345576 0.13973226 -0.28356856 0.2728446 0.17623395 0.0018546559
-0.08768981 -0.24336822 -0.002672819 -0.21734868 -0.023314567 0.21250889 0.047383953 0.14051431
-0.29889047 0.15281469 -0.20073615 0.08395129 -0.111024536 0.036874685 0.22484362 -0.1888682
0.35161152 0.03379137 0.025851877 0.30739 -0.1814348 0.21737355 -0.16249968 0.2286863
-0.04074955 -0.2128019 -0.22189364 0.3259007 -0.16777316 -0.2558331 -0.07359683 -0.15929522
-0.0071017947 0.26660454 -0.13083567 0.027041705 -0.023076959 0.0104986895 0.12457638 0.272935
0.12359935 -0.3443064 -0.12537424 -0.036680598 -0.23154166 -0.3173296 0.2951066 -0.06073005
0.27054885 -0.04005208 0.30373836 -0.26353204 -0.038480885 0.0003124948 0.23963259 0.14013715
-0.33483818 -0.0285387 -0.23762721 -0.27968958 0.12841065 -0.23164706 0.27207103 -0.29118612
-0.25164738 -0.050859183 -0.10442273 -0.2625221 0.21459112 -0.14825973 0.16820914 0.3087276
-0.07361752 -0.18640031 0.20330465 -0.25710976 0.027673066 0.09627223 -0.2957161 0.044051945
-0.16381125 0.00013776694 0.20105754 -0.024996042 -0.060008015 -0.145978 -0.19737639 0.20575878
0.21973908 -0.2733627 0.29433224 -0.05521512 -0.061408337 0.2502575 0.1324045 0.30478686
-0.31448275 0.1763892 0.075080685 -0.23321448 0.0013329599 0.1251035 -0.046326816 -0.100474
0.07245282 0.30771047 -0.18181998 0.08963611 -0.16992703 0.2798174 0.046713654 0.1751744
0.12817025 0.0777892 0.24272442 0.2029557 -0.1542921 0.07350695 -0.24783543 0.28827247
-0.13612044 0.1286225 0.33578232 -0.1694045 -0.0720402 -0.19576141 -0.1373512 -0.18949541
0.10876216 -0.06997217 -0.13394138 0.0319394 -0.2047147 0.23143204 0.20731851 0.17111635
0.09173083 0.15528145 0.2203444 -0.24828309 -0.19621995 -0.17247319 -0.2813915 -0.2633763
-0.254787 0.2592994 -0.26575774 -0.28169492 -0.24216531 0.13351025 0.08946768 -0.22444934
0.067547485 0.30738404 -0.19309221 -0.2393973 0.24385181 0.004330933 0.046079576 -0.08444132
-0.16975692 -0.12493235 -0.30875334 -0.06741926 -0.1031878 0.15642151 0.22771057 -0.17222352
0.10589895 0.10975161 0.1517731 -0.2656723 0.0292162 -0.13238227 0.22503135 0.24336615
-0.05454299 -0.1670173 -0.2551631 -0.021628112 -0.27822244 -0.12105805 -0.07914753 0.13852423
0.025155798 -0.23963538 0.15549536 0.1566605 0.3061002 0.33055672 0.23672317 -0.2447168
0.15458928 0.18818142

projection.layers.11.bias f4 [25]
00000000: b748 91be b9e6 943e 1e54 7abe 29b0 59be
00000010: 79f0 9d3d 9873 743d 3dca 2a3e 1ad1 df3d
00000020: 79c2 22bd ff2a 963e 8dc3 9d3e 210b 2dbe
00000030: 0eaa 88bd 76a7 9c3e d6de 743e f339 5f3d
00000040: 7390 623d a5d4 843e 3f1c 833e 4aee eabd
00000050: 57a4 993e 7dca 40be 4caa d0bd 57af 85be
00000060: 041e 133e
-0.2837579 0.29082277 -0.2444615 -0.21258606 0.07711882 0.05968055 0.1667871 0.10928555
-0.039736245 0.29329678 0.30813256 -0.16898777 -0.0667306 0.30596513 0.2391313 0.054498624
0.05531354 0.25943485 0.25607488 -0.11471231 0.30008194 -0.18827243 -0.101887316 -0.26110336
0.14366919

projection.layers.12.weight f4 [4, 4]
00000000: df26 c339 1d25 d13e da23 643e 0592 9fbc
00000010: a188 0fbd 2dd4 b1be 6b11 d63e 62b3 88be
00000020: c12d 003f e1fb 45bd cf81 98bc add3 28bb
00000030: 36ee 44bc e3b0 e13e 7a70 d13e 0c42 8ebb
0.0003722226 0.40848628 0.22279301 -0.019478807 -0.03504241 -0.3473219 0.41810164 -0.26699358
0.50069815 -0.048335914 -0.018616585 -0.0025760934 -0.012019685 0.44080266 0.40906125 -0.0043413695

projection.layers.12.bias f4 [4]
00000000: 543c 223e 9be2 a33e c938 dcbe 2318 a6be
0.15843326 0.32008824 -0.43012074 -0.3244029

projection.layers.13.weight f4 [10, 4]
00000000: f9a6 bc3b dde0 23be 1fe6 2a3e 0383 e5bc
00000010: 46ba cbbe 65a6 933e 864b c03e 6c53 1c3c
00000020: e3cf fd3e 89ad a93d ab75 7cbe a701 25be
00000030: b9ee 91be d2e5 ec3e bd73 c33e 5ad4 b83d
00000040: 416f 0fbe 5a31 b6be aad3 bd3e e989 a2be
00000050: 3f65 c3be f876 373d d472 1c3e 10df a33e
00000060: a6fd 18bd 16dd c03e d937 e53c 239a a9be
00000070: 8f05 f93d 40b3 da3e 920b dabe 3dc2 b03e
00000080: da48 8a3e 555d 56bc cfa9 c23e 5294 be3e
00000090: 99ab b33e 49ce fdbe 923e efbe 04dc 593e
0.0057572094 -0.16003747 0.16689347 -0.028016573 -0.39790553 0.28837886 0.3755762 0.009541374
0.49572667 0.08285052 -0.24654262 -0.16113912 -0.28502443 0.4626909 0.3817424 0.09024878
-0.14007284 -0.35584527 0.3707555 -0.31745842 -0.38163182 0.04479119 0.15278178 0.3200612
-0.037351273 0.37668675 0.027980732 -0.3312541 0.12159263 0.42714882 -0.42586952 0.34523192
0.27008706 -0.0130837755 0.3802018 0.37222534 0.35091856 -0.49571446 -0.46727425 0.21275336

projection.layers.13.bias f4 [10]
00000000: 62e3 c63d f231 81bd 5d0b c2be 27d0 82be
00000010: ba68 febc bf57 bb3e 808d 0dbe 6df8 3dbe
00000020: 5a84 f2be 6520 9ebe
0.097113386 -0.063083544 -0.37899294 -0.25549433 -0.031055797 0.36590382 -0.13823509 -0.18551798
-0.473666 -0.3088409

projection.layers.14.weight f4 [25, 10]
00000000: 43a9 3ebe 0833 213e 78fd e0bd a2a6 6c3e
00000010: 852f 1abe f8ab 76be 2c62 80bd 58cf 22be
00000020: e8b8 433d 8a90 68be 5c38 a0be 063a 0d3e
00000030: dfe0 d6bd 89da 913d 4754 9a3c 8f3a 85bd
00000040: cb6a f6bd b723 69be 1627 503e 38ab e03d
00000050: 9f30 78be 8031 763d 7f04 95be 00bc 233e
00000060: 34ac 3a3e 746b 833d 20ea 0abe c09c d03d
00000070: eb44 8f3e 50b4 d2bc c101 9a3e bc22 dcbd
00000080: 0a86 3a3e 00ba bfba c013 703d 48ec 243e
00000090: 560d c7bd 535d 873e c29d 2ebe 9b0a 1ebe
000000a0: 4c96 89be c034 143e 402f b23c 4082 3f3c
000000b0: 4eb8 233e c0c1 6c3c 3ff1 843e b869 6a3d
000000c0: 2973 9d3e 881d 92bd a2d2 1d3e d3d8 4bbe
000000d0: 40f6 fb3c 38d2 cd3d 208c 99be 3a2f 3ebe
000000e0: 3d44 833e d84d d6bd 762b abbd b6c0 583e
000000f0: 5ef9 6abe f7c5 89be 5d3d f8bd 2edf 5fbe
00000100: a353 9e3e 9693 543e eb45 28bd abcd 063c
00000110: d7b7 4bbe ea5f 75bc b640 7c3e 8073 0c3d
00000120: bb9c 9b3e d006 89bc 7593 863e 462a 6c3e
00000130: 5e27 cdbd 82c3 4f3e 407b 023d 0cbf 10be
00000140: c23c 0e3e f3b2 8fbe 8010 813d 02c3 00be
00000150: 0629 253e 461a acbd 40a7 61bc 7a79 593e
00000160: b9ec 8b3e 423f 63be 4257 d7bd 70ea 1e3e
00000170: 91bf 863e f869 5cbd aa34 a0bd 2f56 0cbe
00000180: 2107 803e 80b8 543c efd3 9dbe 4e72 7b3e
00000190: 3d28 04be fa8b e9bd 96fc 3f3e beb5 593e
000001a0: 1e30 703e 7d41 88be 2c18 133e 5681 99be
000001b0: 5257 673e 1cf2 aa3d 0642 36be bfea 3cbe
000001c0: 328e 3f3e 849c c43d 0870 b53d 29aa 07be
000001d0: 0c18 093e 3691 4a3e 87d6 1dbe ba52 0b3e
000001e0: 6ce5 843e 0655 41bd e3d9 943d 9166 4cbe
000001f0: 0f60 893e 210c d8bd c22b 0ebe 62b7 a6be
00000200: 060a b13c 7e32 dd3c 58b1 eb3d 59fc 853e
00000210: f947 26be 5e94 d4bd 00bf a4ba 5567 9f3e
00000220: bea9 5e3e 74c3 223e bc1f bc3d 1019 543d
00000230: 1cb9 863e 781f c8bd 04b2 62bd 7597 613e
00000240: 23f6 8abe 5981 4c3d 1a3d 0cbe b163 90be
00000250: 8e0a 16be f42e 0c3d 6188 4cbe 39e3 e6bd
00000260: f251 a93e 5fbf 223e 895b e2bb aeda 02be
00000270: 1e2b 1a3d d673 5abd 4699 8abe 89ba 00be
00000280: 4397 85bd d722 393e 63ac 3ebd b8db 93be
00000290: 1120 21be 1e73 76be 32d4 073e de5e 4f3e
000002a0: 4c1b f63d f6ff 97be 5226 17be a053 fa3c
000002b0: 2a8f 1d3e cf07 993e 05fa 40be 5683 95bd
000002c0: 8ef2 85be 4096 6b3d c063 133e ca7f 7dbe
000002d0: a071 6b3e 2791 7c3d ddaa 8dbe 5bdf 8e3d
000002e0: 0758 62be 37fd 0f3e 78b0 833d cf13 8abe
000002f0: a237 753e bd09 293c 89fa 803d ce24 a3bd
00000300: 80e3 3abe 254f 413e ca27 93bd b1da 913e
00000310: 30a5 963e bdd2 fb3d 48b0 7b3e fa52 4a3e
00000320: 2f1e fcbc aad9 1cbe 8d30 d73c f208 2d3c
00000330: cc87 dfbd 8b97 853e 1198 91be f916 313e
00000340: 7038 1c3d c468 a73e 8d6b 753d 261f 96be
00000350: 0d12 863e 2fd9 573d 2d72 7c3e 18b7 103e
00000360: 8753 16be e2cd 31be d3f1 933d e3f3 37be
00000370: 4e4d 4fbe 4e7e 473e 00c8 fab9 348b 8ebd
00000380: 022c 33be ea15 563e ca62 553e 0868 90bd
00000390: 6063 ab3d 8a1a 543e 50cc 2abd b496 683e
000003a0: 566a 293e 5997 a1bc e46b 293e 0575 3ebd
000003b0: 25f2 9ebe ed08 83be d5f0 993d 6ae1 9b3e
000003c0: 06de 5f3e dae2 3d3e f401 d03d e218 503e
000003d0: abb7 a0be f62f 33be 4df3 6dbe d1ec 2ebe
000003e0: d2da 423e 696f 66be
-0.18619256 0.15742123 -0.10985845 0.2311044 -0.1505719 -0.24089038 -0.06268725 -0.15899408
0.047783762 -0.22711387 -0.31293 0.13791665 -0.104921095 0.071217604 0.018839015 -0.0650531
-0.12032088 -0.2276753 0.2032741 0.109701574 -0.24237297 0.0601058 -0.29104993 0.15989685
0.18229753 0.064169794 -0.13565874 0.10186148 0.27982268 -0.025720745 0.30079463 -0.107488126
0.18215194 -0.0014627576 0.058612585 0.16105759 -0.097193405 0.26438388 -0.17052367 -0.15433733
-0.2687248 0.14473248 0.021751046 0.011688769 0.15988275 0.0144504905 0.25965306 0.057229728
0.30751923 -0.07134539 0.15412381 -0.1990693 0.03075707 0.10049862 -0.2998972 -0.18572703
0.25638 -0.10464066 -0.08357899 0.21167263 -0.22946689 -0.26908848 -0.12121079 -0.2186248
0.30923185 0.20759425 -0.041082304 0.008227746 -0.19894348 -0.014976481 0.2463406 0.034289837
0.30393013 -0.016726881 0.26284376 0.23063001 -0.10017274 0.20289424 0.03185582 -0.14135379
0.13890365 -0.28066215 0.06301975 -0.1257439 0.1612893 -0.08403449 -0.013772786 0.21237746
0.27329043 -0.221921 -0.1051469 0.15519118 0.2631803 -0.053811997 -0.07822545 -0.13704751
0.2500544 0.012983441 -0.30825755 0.24555323 -0.12905975 -0.114036515 0.18748698 0.21260735
0.23455855 -0.26612464 0.1436469 -0.29981488 0.22591904 0.0834696 -0.17798623 -0.18448924
0.18706587 0.096001655 0.08859259 -0.13248505 0.1338808 0.19781956 -0.15413867 0.13605776
0.25956285 -0.047200225 0.07268121 -0.19961001 0.268311 -0.105491884 -0.1388388 -0.32561785
0.021611225 0.027001616 0.11508435 0.26169088 -0.16238393 -0.10379861 -0.001256913 0.31133524
0.21744439 0.15894872 0.0918574 0.051781714 0.26313102 -0.09771627 -0.05534555 0.22030433
-0.27140912 0.049928043 -0.13695183 -0.28201059 -0.14652464 0.034224465 -0.199739 -0.11273808
0.33070332 0.15893315 -0.0069078845 -0.12778732 0.037638776 -0.053333126 -0.27070063 -0.12571158
-0.065229915 0.18079697 -0.04655112 -0.2887857 -0.15734889 -0.24067351 0.1326454 0.20251033
0.12016925 -0.2968747 -0.14760712 0.030557454 0.15386644 0.2988877 -0.18845375 -0.07300441
-0.26161617 0.057516336 0.1439352 -0.24755779 0.22992563 0.061661866 -0.2766942 0.069761954
-0.22103892 0.14061438 0.06430143 -0.26968238 0.23947003 0.010317263 0.06297786 -0.07966004
-0.18250847 0.18877847 -0.071853235 0.2848716 0.29422903 0.122960545 0.24578965 0.19758216
-0.030776111 -0.15317407 0.026268268 0.010561215 -0.10914573 0.2609218 -0.2843633 0.1729392
0.03813976 0.32697117 0.05991702 -0.2932064 0.26185647 0.052697357 0.2465293 0.14132345
-0.146803 -0.17363694 0.07223859 -0.17964129 -0.20244333 0.19481775 -0.00047832727 -0.06960145
-0.17497256 0.20906797 0.20838466 -0.070510924 0.08368564 0.20713249 -0.041698754 0.22713739
0.1654447 -0.019725488 0.16545063 -0.046498317 -0.31044117 -0.25592747 0.07516638 0.30445415
0.21862039 0.18543568 0.101566225 0.20321992 -0.31390128 -0.17498764 -0.23237343 -0.17082526
0.19028786 -0.22503437

projection.layers.14.bias f4 [25]
00000000: 55f4 80be aa88 193e e423 b03d 162b a0be
00000010: aada 38be d11d 93be ee21 dc3d 40f2 0cbe
00000020: 4884 36be abcd 9ebe a6d8 67be fa95 71be
00000030: d76d 8f3e 197a 4dbe 9627 7a3c f604 17be
00000040: 061a 7f3e 9c89 88be 796f f5bc a207 963e
00000050: f93d b2bc c0ad 833e 4190 0dbe de6f 8d3d
00000060: 603c bdbc
-0.2518641 0.1499354 0.086005956 -0.31282872 -0.18052164 -0.28733686 0.10748659 -0.13764286
-0.17823899 -0.31016287 -0.22641239 -0.23592368 0.2801349 -0.20066108 0.015268227 -0.14747986
0.24912271 -0.26667488 -0.02996038 0.29302698 -0.021758066 0.25718498 -0.1382456 0.069061026
-0.023100078

projection.layers.15.weight f4 [4, 4]
00000000: 7038 c0be d3ce 37bd c623 c83e 5f64 573e
00000010: 7357 ea3e a639 21bd cc08 013d 7fdc d7bc
00000020: f69b 943d c986 b83d 832e 0b3e 8adf 2bbe
00000030: 100b 52be d8ac 443e 8793 cfbe 5c58 a3be
-0.37543058 -0.044874977 0.39089793 0.21034382 0.45769843 -0.03936162 0.03150253 -0.026350258
0.0725631 0.09010083 0.13591962 -0.16784492 -0.20512033 0.1920656 -0.40542242 -0.3190335

projection.layers.15.bias f4 [4]
00000000: 0cde 8b3e 100c aa3d 894d d9be e6ba 923e
0.27317846 0.08303082 -0.42441967 0.28658217

projection.layers.16.weight f4 [10, 4]
00000000: da92 5b3e 3769 2c3d 4357 bf3e fc65 bbbe
00000010: 1e3e 933e f7e9 e13e 1c65 f73e da71 d13d
00000020: 53c6 a33e 491d 40be 10a8 89bd ccfd 613e
00000030: a3f3 05be 4284 ecbd d418 463e 1ed8 d4bd
00000040: e12d de3c e90d 6b3e 7210 333e 836a e6be
00000050: 0195 b53e df31 ebbe b040 3ebc 6821 b73e
00000060: 482c 373d 1bd0 d5be 9d5a 9cbe a5cd 6c3e
00000070: 0d50 ed3b 7199 83be 2d02 7dbe 5ff6 d0bd
00000080: aa0c fa3e 3f01 973e 1651 dcbe 1693 bdbe
00000090: b498 ee3e 68ab 353e b3fb 6c3e 43ad c7be
0.21442738 0.04209253 0.37371263 -0.36601245 0.2875833 0.44123814 0.48319328 0.102267936
0.31987247 -0.18761171 -0.067215085 0.22069472 -0.13081221 -0.11548664 0.19345409 -0.103927836
0.027121486 0.22954525 0.17486742 -0.45003137 0.35465243 -0.45936486 -0.011612102 0.35767674
0.044719964 -0.41760334 -0.30537882 0.23125322 0.007242209 -0.25703004 -0.24707861 -0.102032416
0.48837787 0.29493138 -0.43030614 -0.3702628 0.46600878 0.17741168 0.2314289 -0.38999376

projection.layers.16.bias f4 [10]
00000000: b522 3d3e ab45 7cbe ce85 b93e d945 9dbe
00000010: 014c 9ebc d70b 2bbd aa73 ce3e 5d7a 913e
00000020: ef55 923e a266 9dbe
0.18470271 -0.24635951 0.36234897 -0.30717352 -0.01932335 -0.04175934 0.4032262 0.28413668
0.28581187 -0.30742365

projection.layers.17.weight f4 [25, 10]
00000000: 7292 813e c8da 4e3e 6f54 d0bd 5114 2a3e
00000010: a03b 2bbe ae7f 3a3e 367a 43be 7542 bcbd
00000020: 7ecc 75bd ab9d 893b fe51 963e 5bf1 20be
00000030: 8345 8bbe ee99 8bbd 4481 113e 2ce5 193e
00000040: 82ef 28bb db5e f73d b51a 943e b545 9e3e
00000050: 1096 cdbd f1dc 60be 63d2 4d3e 869e 28be
00000060: 1c00 03be df5d 8a3e 5978 913e ef3a a23e
00000070: f39e 093d c6e7 5ebd a8b3 b4bd 1667 423e
00000080: cd01 9c3e a2f6 603e 38a3 a5bd fe83 91be
00000090: 2654 3f3e b8e0 29bd a22f 11be 88a3 72be
000000a0: 28a9 48be db8d 8a3e 9db4 1fbe 9d4b 863e
000000b0: 2306 2cbe 201b 7fbd 5e7d 0e3e 9044 923d
000000c0: 2e32 d8bd 2715 9e3e adfd 413e 90b7 cd3d
000000d0: 8799 16bb 08fe 083e 6447 4a3e 5844 5cbe
000000e0: f379 94be 160d bebd 396c 07be e648 9cbe
000000f0: 05b0 6cbc 2423 77be 916a 52be e503 52be
00000100: 93dd 9e3e 4d23 163d 769f 243e 1b35 8b3e
00000110: 99fe 98bc b24e 8a3d aa2c 0abe 5c48 f3bd
00000120: 1c29 533e a325 763d 9ce9 86be 37bb d5bb
00000130: 700a 4e3b 62a5 3bbe fc66 78be bfed 2ebd
00000140: 5e45 8abd 8fab 9b3e be44 73be 98fb 22bd
00000150: 0982 7cbe 5a7a 043e a02a 6ebc d034 293d
00000160: 3883 8abe 3fdc a03e 9ea6 413e 1f7d 8d3e
00000170: 8e6d efbd 3c4f d43d f17b 813e 03e7 5cbe
00000180: 70b0 55be d522 87be 8f19 823e 36e2 463e
00000190: 5171 92be dd46 923e 50f3 08be 68fd 14be
000001a0: b8a5 443d 6aa7 743e c0ca 7fbc c629 75be
000001b0: f38a 64be 850f 8fbe 9e18 473e f8ae a13d
000001c0: be79 403e 6e94 2f3e 10f3 713d 1c8c 9ebe
000001d0: 4881 6dbd 98e7 02bd 73a9 80be 189c 063d
000001e0: bca9 fd3d 7f65 923d 7f00 23be 9b19 8f3d
000001f0: 2ec2 e83d eb10 183e 820c 58be 6346 e5bd
00000200: f6a7 a8bc c485 97be f07b 4fbe 6957 8b3e
00000210: 1107 41be 5752 9abe 7cae 8cbe 985f 4a3e
00000220: 4104 78bd c304 ebbb 45c4 50bd 426b 8cbe
00000230: 4a57 e3bd be21 b5bd 33cd 823e 9e4c 4f3e
00000240: 83a6 8a3e e5c1 9cbe b8de 2abe 46a1 ebbd
00000250: 6228 3abe f019 95bd dfcc 43bc 5ae5 573c
00000260: 6f2d 0c3e a2b4 223c 1343 96be 6f7a f6bc
00000270: 8dd0 82be 804f 66be b069 833e 76b2 a83c
00000280: baf6 4b3e d993 953e 9944 2fbe 880c a4bd
00000290: 64c4 a6bd 7c17 aebd 6ee8 5dbe 903c e8bc
000002a0: 1088 67bd ee11 b8bd 274d 20be 42a7 733e
000002b0: 0c91 17be 5601 4a3e 3279 193e 7065 44bd
000002c0: e56e 8c3e cf8a 42be 4edb 033e eb3e 903e
000002d0: 305f 833e 0ccc 7f3d 0de6 8b3e 8f8e 093c
000002e0: e661 e2bd 003a 913e 4e66 833e 359f 0a3e
000002f0: c514 943e 737e 66be e64d 573d 3836 9abe
00000300: 4035 f5bc 4c3c 903e 588a 513e 211c 133e
00000310: 0c7d 3c3e 8c5e 1dbe c25c 763e bf96 dcbd
00000320: 5e29 5bbe b458 003e a0d7 ecbc c9bf 883e
00000330: 80cd 2fbd d93f 19be a012 80bc 8099 4b3d
00000340: 66f7 21be e819 613d afa3 6fbe 47a7 393e
00000350: 5022 f0bd 3f07 b4bd 2ff4 813e 8058 a8bc
00000360: b010 8d3e 1e21 8ebe ed21 aa3d 005f 28bd
00000370: 2a32 82bd 1df2 57be 4a2e 32be aebb 9dbe
00000380: 8cd8 4d3e e76e 91bd 7d68 85be 4ed5 f3bc
00000390: 6396 9d3e 18d3 9dbe 5503 6a3d 257b a3be
000003a0: 449f 55be f19e 91be 2a26 5a3e 0189 223c
000003b0: 817f 50bd 55b8 1f3d 36ad 27bd 8f89 9a3e
000003c0: 9081 53be a894 99bd 128a 56bd ef18 efbd
000003d0: 0910 85bb c1c8 0dbe 7ff4 933e 69ee 1c3e
000003e0: 59aa c4bd 4880 71be
0.2530704 0.20200646 -0.101723544 0.16609313 -0.16721964 0.18212768 -0.19089589 -0.09192363
-0.060009472 0.0041997037 0.2935943 -0.1571707 -0.2720147 -0.06816469 0.14209467 0.15028828
-0.0025777523 0.12078639 0.28926626 0.30912557 -0.10038388 -0.21959282 0.20099787 -0.16466722
-0.1279301 0.27024743 0.2841213 0.31685588 0.03359885 -0.054420255 -0.08823329 0.18984637
0.30470124 0.21969083 -0.08087772 -0.28421015 0.18684444 -0.041474074 -0.14178327 -0.23695195
-0.19595778 0.27061352 -0.15596242 0.26229563 -0.16799216 -0.062281728 0.13915011 0.071419835
-0.10556446 0.30875513 0.18944426 0.100447774 -0.0022979693 0.13378155 0.19753796 -0.21510446
-0.2899929 -0.0927984 -0.13224877 -0.30524367 -0.014446263 -0.24134499 -0.20548464 -0.20509298
0.31028423 0.03665476 0.16076455 0.27188954 -0.01867609 0.06753291 -0.134936 -0.11879036
0.2062115 0.060094487 -0.26350105 -0.006522562 0.0031439327 -0.18324807 -0.24258035 -0.0427072
-0.06751512 0.30404326 -0.23756692 -0.03979072 -0.2465898 0.12937298 -0.01453653 0.04131013
-0.27053237 0.31418034 0.18911216 0.27634522 -0.11690818 0.10366675 0.25289872 -0.21572499
-0.20868087 -0.26393762 0.25410125 0.1942223 -0.2860208 0.2856969 -0.13374066 -0.14549792
0.048009604 0.23891988 -0.015612304 -0.23941717 -0.2231863 -0.27941528 0.19442984 0.07894701
0.18796441 0.17146465 0.059069693 -0.3096627 -0.05798462 -0.031959146 -0.2512928 0.032863706
0.1238589 0.07148265 -0.15918158 0.06987306 0.11365162 0.14850204 -0.21098521 -0.11195066
-0.020587903 -0.29594243 -0.20262122 0.27215126 -0.18850352 -0.30140945 -0.2747687 0.19763029
-0.06055093 -0.0071721985 -0.050968427 -0.2742558 -0.111006334 -0.088443264 0.2554718 0.20244071
0.27080163 -0.3061668 -0.16686523 -0.1150537 -0.18179467 -0.07280338 -0.011950701 0.01317724
0.13689207 0.0099307615 -0.2934805 -0.030087678 -0.25549737 -0.22491264 0.2566657 0.02059291
0.19918337 0.2921436 -0.17116012 -0.08010203 -0.08142927 -0.08500573 -0.21670696 -0.028349191
-0.056526244 -0.08987795 -0.15654431 0.23794273 -0.14801425 0.19727072 0.14987639 -0.0479483
0.27428356 -0.18998264 0.12876627 0.28173003 0.2565856 0.062450454 0.27323952 0.008395805
-0.11053829 0.28364563 0.2566399 0.13537295 0.28922096 -0.22509174 0.052564524 -0.3011949
-0.029932618 0.28171003 0.2046293 0.14366199 0.18407077 -0.15368098 0.24058822 -0.1077094
-0.21402499 0.12533838 -0.028911412 0.2670882 -0.04292059 -0.14965762 -0.015633881 0.049706936
-0.15817031 0.054956347 -0.23402284 0.18130217 -0.117252946 -0.087904446 0.2538161 -0.020550013
0.27551794 -0.2775964 0.08307252 -0.041106224 -0.06357224 -0.21088453 -0.1740047 -0.3080725
0.20102137 -0.07101231 -0.2605628 -0.029764798 0.30778798 -0.30825114 0.057132084 -0.3192989
-0.20861536 -0.28441575 0.21303621 0.00992036 -0.050902847 0.038994152 -0.04093667 0.30183074
-0.20654893 -0.07499057 -0.052377768 -0.116746776 -0.0040607494 -0.13846113 0.28897473 0.15325321
-0.09602804 -0.23584092

projection.layers.17.bias f4 [25]
00000000: 4459 973e 04c1 903e 73f2 903e 0ce7 30be
00000010: 2041 b73c fbca 823e 09ff 653e 037e 603e
00000020: 48b7 5abd 3ec5 6cbe 2b24 2ebe d0a5 e73c
00000030: c388 273e d5b8 bc3d 8a90 b5bd f7b2 823d
00000040: 9af5 90bd e8f2 14bd 278b cb3d 4f6d 64be
00000050: a4fd 99be cc77 a03e 9ca7 303e e539 953e
00000060: b70e 983e
0.29560292 0.2827226 0.28309974 -0.17275637 0.022369921 0.25545487 0.2246057 0.2192307
-0.053397447 -0.23122117 -0.17005984 0.028277308 0.16360764 0.092149414 -0.08865459 0.06381791
-0.07078095 -0.036364466 0.099386506 -0.22307323 -0.30076325 0.31341398 0.17251438 0.29145733
0.29698727
