actor.pth (torch, 661231 bytes, 82 tensors)

projection.layers.0.weight f4 [4, 4]
00000000: 62d3 513d 8f31 d73e 9c9f 813e e4c3 9b3e
00000010: 2dd2 b6be 40b3 783d 91db cf3e 1a32 963d
00000020: 89c1 5d3e d209 af3e 6df7 e6bc 080e 21be
00000030: 33a9 f93d 90b6 3bbe e129 d43b fa64 543e
0.05122698 0.42029998 0.25317085 0.3042289 -0.35707226 0.06071782 0.40597203 0.07333775
0.21655859 0.3418718 -0.028194154 -0.15728009 0.12190475 -0.18331361 0.006474719 0.20741645

projection.layers.0.bias f4 [4]
00000000: 2efa 923d d937 023e 4bb4 6b3e 3ecc 4abe
0.07176624 0.12716617 0.23017995 -0.19804475

projection.layers.1.weight f4 [10, 4]
00000000: 10ac 583c 0afe 61be 9ec1 d3be 3495 72be
00000010: c7da b0bd d0d7 933e 52b3 d23d 229b c8be
00000020: c503 14be e10a 293e 0b0f da3e 123e 98be
00000030: 0de2 efbd 91cd f83e cf88 f0be b075 91bd
00000040: aee6 5ebe 14f8 c9be 8cb4 4f3e 227d 04be
00000050: 5dcc d23e 03fc 1fbd 89c4 aa3d 4d6a 6b3e
00000060: f0ca e73e dfc3 be3e e8c4 b83d 7fd6 453e
00000070: 16bc b63e 296c 92be 07f9 4c3e 5547 a2be
00000080: f993 17be 66e9 a93e 8c11 f9be 01bd 793e
00000090: 581b 133e 1c4c d23d 6502 bc3e 34f6 31bc
0.013224617 -0.22069564 -0.41358656 -0.23689729 -0.086354785 0.2887559 0.10288109 -0.39180857
-0.14454563 0.16508056 0.42589602 -0.29734856 -0.11713038 0.48594335 -0.46979377 -0.07102525
-0.21767685 -0.3944708 0.20283717 -0.1293836 0.41171542 -0.039058696 0.08338267 0.2298977
0.45272017 0.37258813 0.09021932 0.19320105 0.35690373 -0.28598145 0.20016871 -0.31695047
-0.14802541 0.3318588 -0.486462 0.24388506 0.143659 0.10268423 0.36720577 -0.010861922

projection.layers.1.bias f4 [10]
00000000: f515 80be 6292 a6be 9350 383e a206 cebd
00000010: 8670 87bd 4387 ce3d 9250 87bd 8ece e0bc
00000020: a141 c23b 2cc0 53be
-0.25016752 -0.32533556 0.17999487 -0.10059859 -0.06613259 0.10084393 -0.066071644 -0.027442243
0.0059282337 -0.20678777

projection.layers.2.weight f4 [25, 10]
00000000: 493d 653e f8ac adbe 9d58 62be 561c 3f3e
00000010: d13a acbe d78c a13e be97 abbd e4d3 d23d
00000020: cc12 18be 2e7f 08bd 8195 8f3e 3c2b 99be
00000030: ea99 7f3e 0096 9abc bea8 62be a017 15bc
00000040: 0ade 5f3e c242 323e d88a d03d bc92 98bd
00000050: 67d1 67be ce1f a93c e5ca 5c3e 214e 933e
00000060: 5194 923e 136b 2dbe 1a4a 19be 858f eebd
00000070: 8a1a b53c ac8a c63d b518 933e b618 2dbe
00000080: 2849 1fbe 72a1 6f3e 06d4 a9bd dfff 9a3e
00000090: a812 cebd 22e2 4e3e f4c7 2e3e fbf4 23be
000000a0: a15a 493d 68c4 75be a817 bf3c 0933 eebd
000000b0: 4e18 9b3b 65c4 9a3d 81ed 83be dddd a6be
000000c0: a8fa 423e 3fef 0c3e 86d1 c1bd 097d 473e
000000d0: ca53 223c 4528 fe3c aad6 903e 8ac8 963d
000000e0: b1d9 353d 9dc8 9c3d 78a7 4c3e fc98 74be
000000f0: aafb 603e 6622 163e 1d01 17be 804f 0bbd
00000100: a2b5 e1bd bbdc 20be 2061 67bd a4ee af3d
00000110: af7a 983e b03b 4fbd b65b 343e 8c0d c03d
00000120: a7de 86bd 1b3f 2bbe 7e2d b5bd 503c 103e
00000130: e29c 7b3e 226a abbd 6c9f 00be 52f1 c23c
00000140: f778 56be 6095 ecbc 8fb9 3c3c f227 373e
00000150: cc44 803e 5db5 043e 091b 5abe c943 0f3c
00000160: db3d 92bd 8de3 6e3e 83e8 be3d 7f7c d4bd
00000170: 9d32 bbbd 0bb6 673e db72 82be 6351 1a3e
00000180: 5a1a 86be 3fd0 71be 372d 033e ca61 8cbd
00000190: 703f 173d 6181 703e 2c50 6b3e d41d 22bd
000001a0: 1231 18bd 0ef0 443e e8c5 24bd 945e 09be
000001b0: 6294 6ebd 40c2 fdbc e832 36be b94d 2abe
000001c0: 6f30 47bd 4e4b dbbc 3a30 83bd b906 583e
000001d0: 96d5 cb3d 88fb 9d3e 7f59 063e 2758 183d
000001e0: f7fb 9f3e 0e10 44be a847 b93d c083 9fbe
000001f0: b0bf 4ebd 0079 703d f4b8 243e d2bd 7a3e
00000200: 28f3 61be 434b 89be ae18 d73d 0fbb 86be
00000210: ee07 863e fd90 c23c 11a3 99bc 4aed 02bd
00000220: 275d 3dbe 54f7 053e 1ffe 013e 0c13 49be
00000230: aa47 31be f6aa 673e 770b 4ebe ddad 1cbe
00000240: 612b eebd 11fd 9dbe b35e 48bd d9b4 2f3e
00000250: 6788 98bd 0293 8abe b134 a0bd 696f 45be
00000260: 6794 5a3e 0bb8 48be d93c 89be 5fda 913d
00000270: 0696 e7bd c50d 5bbe ad42 573d c15e 863e
00000280: 1aeb 05be b2e1 85be 5f7b 993d fca3 a8bd
00000290: bfa1 353d 4cc4 66be 6df1 2a3e 382e b3bd
000002a0: f768 953e ec56 6cbe 9367 8a3e 812a 883e
000002b0: f648 55be e8ef 2d3e 134d 883e 52da 25be
000002c0: 3a7e d0bd 8030 29bd 8e69 653e 7c8c ed3d
000002d0: 5bbf 15be 940e 093c 275f 943d a1b5 93be
000002e0: fecc 5d3e 7e33 12be 1ada 3fbe 8db1 113e
000002f0: 7dca 79be 77b8 193e 163d 873e cdc6 86bd
00000300: 89e4 c63d 04e4 803e 75d4 11be 73a9 e53d
00000310: 24a9 ec3d cfb3 48be 0dc8 813e e62c 973e
00000320: 3b50 ae3e 5d36 e7ba 90f5 7ebe e256 fcbc
00000330: cec8 22be 8ef6 763e a536 2f3e 2858 a2bd
00000340: 05d3 873e 3a5b 34be 2a39 a2bd 0aaf 593e
00000350: 9863 90be d0c1 453d 180c f1bd a011 6d3c
00000360: 903d 2c3d 5088 04be a0c7 5cbe 60f1 0d3c
00000370: 2da1 5fbe f00d 72bd 8339 413e 3e76 843e
00000380: 455c c13d 6942 963d 3c58 8dbb 06a4 8dbe
00000390: a168 933b 7ef0 623b 258d 803e d8e7 afbd
000003a0: 0046 5cbd 2237 fdbd ea52 053e f3b1 973e
000003b0: 9652 203e 92c2 bdbd eda0 18be cc60 293e
000003c0: 1b79 3abe d7df 843e 3cde a8be 4fae 2abe
000003d0: 9e2c 9d3c d658 8ebe cebf d3bc a935 3abb
000003e0: 546f 983e 8d9a 4ebe
0.2238666 -0.33921027 -0.22104116 0.18663153 -0.33638623 0.31552765 -0.08378552 0.10294321
-0.1485092 -0.033324413 0.2804375 -0.29915798 0.24961057 -0.018870354 -0.22134683 -0.009099871
0.21862045 0.17408279 0.10182732 -0.07449862 -0.22638474 0.020645048 0.21561773 0.28770545
0.2862878 -0.16935377 -0.14969674 -0.11648468 0.022107381 0.09694418 0.28729787 -0.16903958
-0.1555525 0.2340143 -0.082923934 0.3027334 -0.10062152 0.2020345 0.17068464 -0.16011421
0.049158696 -0.24000704 0.02332671 -0.11630828 0.004733122 0.075569905 -0.2576714 -0.32591143
0.1904093 0.1376314 -0.094637915 0.19481291 0.009907672 0.031025061 0.28288776 0.073624685
0.04439706 0.076554514 0.1998576 -0.23886484 0.21971002 0.1466156 -0.14746518 -0.034011364
-0.11020972 -0.15709202 -0.05648911 0.08590439 0.297811 -0.05059403 0.1761311 0.09377584
-0.06585436 -0.16723292 -0.088465676 0.14085507 0.24571565 -0.083698526 -0.12560815 0.023796711
-0.20944582 -0.028879821 0.01151885 0.17886332 0.25052488 0.1295981 -0.21299376 0.008744189
-0.07140704 0.23328991 0.09321692 -0.10375308 -0.09140513 0.22628038 -0.25478253 0.15070109
-0.2619198 -0.23614596 0.12810217 -0.06854589 0.036925733 0.23486854 0.22979802 -0.039579228
-0.037156172 0.19232199 -0.0402278 -0.13414985 -0.058246978 -0.030976415 -0.17792857 -0.16631211
-0.048630174 -0.026769307 -0.06405683 0.21096314 0.09952848 0.30855966 0.13120078 0.037193444
0.3124692 -0.1914675 0.090468705 -0.31155205 -0.050475776 0.058709145 0.16086179 0.24486473
-0.22065413 -0.26815233 0.10502754 -0.2631459 0.26177925 0.023750776 -0.018754514 -0.031964578
-0.18492566 0.1308263 0.12694596 -0.19636172 -0.17312494 0.2262381 -0.20121561 -0.15300699
-0.116293676 -0.30857137 -0.048918437 0.17158832 -0.07447892 -0.27065283 -0.0782255 -0.19280781
0.21345674 -0.19601457 -0.26804236 0.07121729 -0.113079116 -0.21391971 0.05255382 0.26244166
-0.13077965 -0.26148754 0.07494234 -0.082344025 0.044343706 -0.22535819 0.16693659 -0.0874905
0.29181644 -0.23080033 0.27032146 0.26594928 -0.20828614 0.16986048 0.26621303 -0.16196564
-0.10180326 -0.04130602 0.22403547 0.11599061 -0.14623778 0.008365292 0.07244711 -0.2884951
0.2166023 -0.14277455 -0.18735543 0.14227886 -0.2439365 0.15011774 0.26413792 -0.06580887
0.09711558 0.25173962 -0.14241202 0.112139605 0.115556985 -0.19599842 0.2534794 0.29526442
0.34045586 -0.0017640103 -0.24898362 -0.030803148 -0.15896913 0.2411749 0.17110689 -0.07926971
0.26528183 -0.17612925 -0.079210594 0.21258178 -0.28200984 0.048280537 -0.11769885 0.014469534
0.042050898 -0.12942624 -0.21560526 0.008663505 -0.21838827 -0.059095323 0.18869595 0.25871462
0.09441427 0.073368855 -0.004313497 -0.27664202 0.0044985567 0.0034628208 0.25107685 -0.085891426
-0.053777695 -0.123640314 0.1301991 0.29627952 0.15656504 -0.09265627 -0.14905138 0.16540831
-0.1821026 0.25952026 -0.3298205 -0.16668056 0.019186314 -0.2780215 -0.025848296 -0.0028413332
0.29772437 -0.20176144

projection.layers.2.bias f4 [25]
00000000: 5173 71bc b62f 63be 657b 0c3c 5649 b6bd
00000010: aa70 ba3d cfe6 c3bc cec4 85be bd7f 353e
00000020: abb5 433e 8549 3f3e 72f0 c4bd d564 76be
00000030: 74b1 85be 02cc b53c 57f2 0b3e 2b27 05bd
00000040: a287 44bd 7744 99be 10cb 743e adc2 af3d
00000050: b137 4f3e 8f5d 7fbe b60f a7bd 33b1 40be
00000060: 0230 f93d
-0.014736966 -0.22186169 0.008574341 -0.089007065 0.0910352 -0.023913769 -0.26126713 0.1772451
0.1911227 0.18680389 -0.09616174 -0.24061902 -0.26111948 0.022192005 0.13666664 -0.032508057
-0.047980912 -0.29935047 0.23905587 0.08582053 0.20236088 -0.24938034 -0.081572935 -0.18817596
0.1216736

projection.layers.3.weight f4 [4, 4]
00000000: 3df0 24be e400 873e 66fd 9abd d53b 513d
00000010: e78c 873e f446 5fbe b59e ad3e 47b2 62be
00000020: 9d96 d13e a553 ad3e 0aa3 c83e cc6d 3e3e
00000030: baf8 f9be 3c17 1fbe 51ab b53e 328f afbe
-0.16107269 0.26367867 -0.07567863 0.05108245 0.26474687 -0.2180441 0.33910146 -0.2213832
0.4093522 0.33852878 0.3918689 0.18596572 -0.48822576 -0.15536207 0.35482267 -0.34288937

projection.layers.3.bias f4 [4]
00000000: b14f bfbd dbe4 02bf 36a0 0ebd 1341 3ebe
-0.09341372 -0.51130456 -0.034820758 -0.18579511

projection.layers.4.weight f4 [10, 4]
00000000: 0bbb a3be 08a0 afbd bb2c 773e 37e1 3dbe
00000010: 42db 52be d885 fb3e 454b fbbe c057 61be
00000020: 5251 87bd 1a5b 9d3e 9895 093d 9cfd c93e
00000030: a857 ed3e b6a5 d1be fcdb a73c 6f20 a83e
00000040: 77a8 d5bd 2d06 d73e c803 7bbe 03c7 d9be
00000050: f1ac d13e 4843 cc3e 92c1 873e f270 793e
00000060: 9ff6 c7bd 28c4 a53c d0be cf3e 7ecb a73e
00000070: f07d 99be 2867 ff3e b3f4 06bf 497c c3be
00000080: c326 89bd 4ea6 3abe 24d3 f5bc 9456 8fbe
00000090: 01c5 353d 132a 80bd 4d03 01be 1c7c d73e
-0.3197864 -0.085754454 0.24138157 -0.18542944 -0.20591453 0.49125552 -0.49080864 -0.2200613
-0.066073075 0.30733567 0.03358993 0.394513 0.4635594 -0.4094674 0.020490639 0.32837245
-0.10432523 0.419969 -0.24513161 -0.42534646 0.40952256 0.39895082 0.2651487 0.24359491
-0.09763836 0.020235136 0.40575266 0.3277244 -0.29978895 0.4988339 -0.5271713 -0.3818076
-0.06696846 -0.18227503 -0.030007906 -0.2799574 0.04437733 -0.06258025 -0.12598915 0.42086875

projection.layers.4.bias f4 [10]
00000000: 7773 e8be 27d2 3fbe a191 b83d 797f c7be
00000010: 292d 813e f8eb febc 449e 833e 8be0 ce3e
00000020: 06d2 80be 92e1 733e
-0.45400593 -0.1873251 0.090121515 -0.3896444 0.25229767 -0.031118378 0.25706685 0.40405688
-0.25160235 0.23816517

projection.layers.5.weight f4 [25, 10]
00000000: b394 2dbe 2fb9 133c 8361 3e3e a294 cfbd
00000010: 6974 12be 5036 89be 0d24 de3d d093 a93d
00000020: 4ffa 62be 0289 69bc 5768 15be afbd a1bd
00000030: 9d7f 15bc 5cfe 46be 081b d0bc 4ebc 0b3e
00000040: 01a3 823e c353 da3a 1449 b93d 9a91 72bd
00000050: f3af 893e 0967 a83e df2e 3cbe 028e 6dbe
00000060: 1990 043e 93c5 983e 72a4 1fbe 1e4f 9fbe
00000070: 9bb6 5abe 49fc 883e 0e5f 8a3d b1e3 79be
00000080: c309 9e3e f474 68bd f887 2a3c 696a 3abe
00000090: fb4c 8fbe 371f f33d a5c7 36be a1fc 0ebe
000000a0: 58d3 8abe 6c26 403e 7678 913e 5060 c63d
000000b0: d231 573e 1cdf 53be 8372 7fbe 33e3 473d
000000c0: 802a 313c 4a10 58be 6ee8 4abd fb31 74be
000000d0: 76f3 5fbc 4589 0cbe 92db 22be 77c4 86be
000000e0: ee87 e2bd a779 723e a660 c1bd 70b1 ccbd
000000f0: 94d4 f7bd 4f60 d93d 2c56 7c3e 3abe d0bd
00000100: 081d 913e 9e92 3abe 0013 833e 6ace e4bb
00000110: efbe 8e3d 36bf e2bd 5d08 a03e 11f4 7d3e
00000120: 5291 ffbc b7a8 e33d 7472 17be 76e1 a43e
00000130: 98e5 03be d7f1 2c3e 42d4 6b3e 8ae7 893e
00000140: 70c3 b93d 1aff 5d3e 2dd4 963e 8809 52be
00000150: e353 61be a56c 9c3e 40b7 f9bc 3012 abbd
00000160: 633c 0fbe babd 9ebe 01e9 443e aeab 4b3d
00000170: d3f9 68be 8ffe e93d bb79 733e 7328 6d3e
00000180: c6e9 9dbe b85c b23d 5346 33be b09c 9a3e
00000190: 02f7 91be 255a 9bbc 13cc 50be 26ac 11be
000001a0: aabb 8e3e 54b8 a13e 8ef0 5f3e 65eb 58be
000001b0: 8909 3abe 5875 63bd d8d7 2c3d 906b 63bd
000001c0: 5cfc f43d 6d11 993e 7b8d a13e 1078 2e3d
000001d0: 0431 a03d 9f9a 22be 5827 663d 6350 8cbe
000001e0: cd8c 87be f2a4 9bbe d125 90be e201 a83e
000001f0: 02cb 113e 4fc4 0fbe fa7f b8bd b1da 003d
00000200: 03bf 81bd 6aad 9a3e 433b f63d df9f 883e
00000210: bd7e a93e 5c20 8ebe f302 58be 3c6d 85be
00000220: 732e c6bd c435 4a3d 2c29 35be e186 fb3d
00000230: d552 a63e 4922 25be 6ba2 8abe 51b2 90be
00000240: 4088 4bbd d952 37be 4fc3 87be 89b6 9f3d
00000250: a2c1 0c3e 9dfd 9fbe c3fe 4e3b 1a3a 8cbe
00000260: 48ae 8dbe ca85 933e 2ea5 883d 9cd8 da3d
00000270: 6af1 0f3e ca92 b83d 4fff 41be 0379 103e
00000280: ccad d6bc 4463 94be 8bf4 01be 5881 94bd
00000290: c66b 63be 6c28 923e 8e95 a63e d116 383e
000002a0: f10d 613e 391d 523e f637 bfbc 2715 a53e
000002b0: f04d 293e acd5 e5bd c4b7 8bbe e4a7 75be
000002c0: ed81 01bd 9661 1c3d 15e0 25bc c559 ccbc
000002d0: 1cf7 00be 954c 1e3e 0c53 7ebe 833d e83c
000002e0: 6f72 943e f769 8ebe a70f 113c 6ee3 acbd
000002f0: 9e33 1ebe 3715 9c3d f7c5 823e 5c37 ee3d
00000300: 32c6 043e 30ae 383e c263 98bd b09e 013d
00000310: d36b 943e 70af 11be 98a9 da3d 02a9 a0be
00000320: 9bed c83d 3369 993d 39f1 de3d 147e f33d
00000330: 5680 36be 47f9 9b3e 8500 7ebe 1d76 3b3e
00000340: d083 b4bd cce3 63be c1ab 9c3e 217b 82bd
00000350: 5c00 ae3e 9dd9 8cbe eb47 d63b 3e11 b9bd
00000360: 66b8 88be d09c 903e 1f8d 3fbc 8911 803e
00000370: d09a 61bd 32aa 593e 47c5 8ebe 0a3c 6b3e
00000380: f8bd ad3d 7b4e 903e dd5d 843e 2007 773c
00000390: 5ecd 8ebe 4513 963e 74b0 f8bd 3c31 fcbd
000003a0: 0112 993e 9f8b 853e 7196 843e 04c8 9d3d
000003b0: b0ca 8ebe 927c 52be 9087 af3d 9b96 903e
000003c0: 3a2e a33e a937 15be 13ec b43d 0935 933d
000003d0: 19ea 7b3e 8d9a d7bd 0a19 83be 2f49 f63d
000003e0: 93f3 413e 0c3d 3a3e
-0.16951256 0.009016319 0.18591885 -0.10135771 -0.1430222 -0.2679925 0.1084672 0.08280146
-0.22165798 -0.014253857 -0.14590584 -0.078975074 -0.009124664 -0.19432968 -0.025403515 0.13646051
0.25514987 0.0016657043 0.09047142 -0.059220888 0.2689205 0.3289111 -0.18377255 -0.23198703
0.12945594 0.29838237 -0.15590075 -0.3111505 -0.21358721 0.26754978 0.067564115 -0.24403264
0.30866823 -0.05675216 0.010408394 -0.18204655 -0.2798842 0.11871188 -0.17849596 -0.13963558
-0.27114367 0.18764657 0.28412217 0.09686339 0.21015099 -0.20690578 -0.24946027 0.04880066
0.010813355 -0.21099964 -0.04953807 -0.23847191 -0.013668885 -0.13724239 -0.15904072 -0.26321766
-0.11061083 0.23679219 -0.09442262 -0.09994781 -0.12101093 0.106140725 0.24642247 -0.10192533
0.28342462 -0.18219993 0.25600433 -0.0069826143 0.069700114 -0.11071627 0.3125638 0.24800135
-0.031197224 0.11116164 -0.14789754 0.32203263 -0.12880552 0.1688913 0.23030189 0.26934463
0.0907048 0.21679345 0.29458752 -0.20511448 -0.22004656 0.3055164 -0.030482888 -0.08353078
-0.1398788 -0.31004125 0.19229509 0.049724273 -0.2275155 0.11425506 0.23776905 0.23159961
-0.30842417 0.08709091 -0.17507295 0.30197668 -0.28508765 -0.018963883 -0.20390348 -0.14225826
0.2787755 0.31585944 0.21869108 -0.21183546 -0.181677 -0.05553183 0.042198032 -0.0555225
0.11962196 0.29896107 0.31553254 0.04259497 0.07821849 -0.15879296 0.056189865 -0.2740508
-0.2647461 -0.3039928 -0.28153852 0.32813936 0.14237598 -0.1403973 -0.090087846 0.03145856
-0.06335261 0.3021043 0.12023022 0.26684472 0.33104506 -0.27759063 -0.21094875 -0.26059902
-0.09676828 0.04936768 -0.17691487 0.122815855 0.3248507 -0.1612636 -0.2707704 -0.28261045
-0.049690485 -0.17902698 -0.26516196 0.07798488 0.1374574 -0.3124818 0.0031584955 -0.27388078
-0.2767203 0.2881301 0.066721305 0.10685846 0.14056936 0.09012373 -0.18945049 0.14108662
-0.02620592 -0.28981984 -0.12690942 -0.07251233 -0.22209081 0.28546464 0.32535976 0.17977454
0.21977974 0.2051896 -0.023342114 0.322427 0.16533637 -0.11222395 -0.2728864 -0.23989826
-0.031618048 0.038179003 -0.010124226 -0.02494515 -0.12594265 0.15458901 -0.24836367 0.028349644
0.28993556 -0.2781522 0.0088538295 -0.08441816 -0.15449378 0.07621234 0.2554166 0.11631653
0.1296623 0.18035197 -0.07440902 0.031645477 0.28988513 -0.1422708 0.10676879 -0.31378943
0.09810945 0.07490768 0.10885853 0.11889282 -0.17822394 0.3046362 -0.24804886 0.18306775
-0.08814204 -0.22254866 0.30599788 -0.06371141 0.3398465 -0.27509776 0.006539335 -0.09036492
-0.26703185 0.28244638 -0.011691361 0.25013378 -0.05507928 0.2125633 -0.27884886 0.22972122
0.08483499 0.28184876 0.25852862 0.015077382 -0.27891058 0.29311576 -0.12143031 -0.12314078
0.29896548 0.26083085 0.25896028 0.077041656 -0.27889013 -0.20555332 0.08570778 0.28239903
0.31871206 -0.14572014 0.0883409 0.0718785 0.2460102 -0.10527525 -0.2560504 0.120256774
0.18940572 0.1818735

projection.layers.5.bias f4 [25]
00000000: 0ae5 d0bc 9dc5 40be aac1 7f3e 7ac2 97bc
00000010: 1bf2 823e 0c67 6ebe e756 90be 0031 783e
00000020: c21d 8cbe f5a0 783d f1a6 45be 9571 81be
00000030: 88db 343d 9be3 213e e410 56be de04 313d
00000040: efdf 70be d206 d53d e95b ccbd 58cc 013d
00000050: 3bda 623e 0042 a53d 68c1 f0bd 3a11 c0bd
00000060: e70c efbd
-0.02549984 -0.18825383 0.2497622 -0.01852535 0.25575337 -0.23281497 -0.281913 0.24237442
-0.27366453 0.060700376 -0.19301964 -0.2528197 0.044154674 0.15809481 -0.20904881 0.043217532
-0.23522924 0.104016915 -0.09978468 0.031689018 0.22153561 0.08069229 -0.11755639 -0.09378286
-0.11672383

projection.layers.6.weight f4 [4, 4]
00000000: 6513 f2be 09f6 bb3e 382b 17be 2cfb 68bd
00000010: d1e0 21be e5cb 8e3e 3de9 90be 7c45 e23e
00000020: 1553 bbbe 7177 973e a823 c1be 44f6 24be
00000030: b887 cdbe 91cf f43e a389 a63e 2ee4 9b3e
-0.47280422 0.36711147 -0.1476258 -0.05688016 -0.15808417 0.27889934 -0.28302947 0.44193637
-0.36586824 0.29583314 -0.37722516 -0.16109568 -0.40142608 0.4781461 0.32526883 0.30447525

projection.layers.6.bias f4 [4]
00000000: 92ea 783e e000 63be 945e b73e 6134 9ebe
0.24308231 -0.22168303 0.35814345 -0.30899337

projection.layers.7.weight f4 [10, 4]
00000000: 1a82 9c3e 7ba2 d8bc 0933 c7be a17e ee3d
00000010: b575 983e 994c a7be ce76 68be d6ff 29be
00000020: a1cb 95bc 3a51 dd3e ccbc e23d 84ca be3e
00000030: 10c2 d3be 91df e6be 25c9 a03d 4012 663e
00000040: 6f9d 1ebc d4aa ce3d bbe2 ecbe 075c 953e
00000050: 9329 bebd 5a4e 8abe ca7d 493e a845 ae3e
00000060: 90f3 2bbe 5040 94be 4bab 803d 6fb0 b7be
00000070: 4941 1c3e bca3 69be afc2 b23e 0a06 89be
00000080: 3bdc c93e 9f83 87bd 0149 353d 862a 4c3e
00000090: 9bb6 bcbe da9c ecba a9d0 e7be 310c 5d3e
0.3056801 -0.026444664 -0.38906124 0.11645246 0.29777303 -0.32675627 -0.2270157 -0.166015
-0.018285574 0.43226033 0.110711664 0.37263882 -0.41358995 -0.45092443 0.07850865 0.224679
-0.00968109 0.10091177 -0.46266732 0.29171774 -0.092852734 -0.27012902 0.19676891 0.34037519
-0.1679213 -0.28955317 0.062826715 -0.35876796 0.1525928 -0.22816366 0.34914157 -0.2676242
0.39425835 -0.066169016 0.044259075 0.19938096 -0.36858067 -0.0018052117 -0.45276383 0.21586682

projection.layers.7.bias f4 [10]
00000000: b596 50bd 6c8f eabe c44a f1be 0c0c 7a3e
00000010: a2fc 063d 1d64 d9be 9cf2 14be bf85 45be
00000020: fe4e 8fbe cafb 4fbc
-0.050924975 -0.45812547 -0.47127354 0.24418658 0.032955773 -0.42459193 -0.14545673 -0.19289301
-0.27989954 -0.0126943085

projection.layers.8.weight f4 [25, 10]
00000000: 1cfa 673d ae7b 6cbe a8bb 0a3d cb69 5c3e
00000010: 320f 5ebd 28da 15be 7b6f 513e ec68 d73d
00000020: 6989 90bb eb58 663d 206f 3a3c 2445 0a3e
00000030: 619c 513e 59fb 103e 08cf 7a3d 0559 87be
00000040: 1eb5 403e d4df 0ebe 0b15 053d 1412 b13d
00000050: 68ea 72be 82cc 55be 0587 013e 30bb 653e
00000060: f093 b43e 6eea 65be a21f 513d 26a0 2d3e
00000070: 82cd 00be 3ede 573d 631b edbd 6a02 e1bd
00000080: bf36 31bd 248e 30bd a657 1abe bd9b 1e3e
00000090: 843e 7e3d 346b fabd 7b71 1fbe 0da7 93be
000000a0: 6143 1d3e a8e6 153d 54fa 883d bafb 863e
000000b0: 8afe 50bd 21f2 e1bc 8015 943e 3178 fe3c
000000c0: c283 ca3d 1eae 053e 9812 0abd 7d6b 36be
000000d0: 1c8f c73d 4079 e5bc a081 f83c 8c35 943d
000000e0: 5443 38be dc35 243e 9479 82be b388 a1be
000000f0: 92a7 363d ed0a 95bd f4d6 83be 45d5 a03d
00000100: fff9 473e 4d5f 5cbd 109a 973e c6d8 9ebe
00000110: f824 0f3e 3882 61bd 4949 4b3e 1add 753d
00000120: a1e4 ec3d d7f4 0e3c 82bf 84be 4141 5abd
00000130: 586b 4abe 3f38 82be 04d0 393e ddfc c03c
00000140: e335 1fbe 0404 c23d 6029 cd3d 801a 41bb
00000150: b600 2a3e 8274 64be e097 7a3d 5b19 02be
00000160: 5430 89be 562c 333e 1783 333e 57bb 9d3e
00000170: fe5f 453c 720f 983e fd66 96be f032 95be
00000180: 746f 3e3e ca9c a03e 5595 033e 7582 dc3d
00000190: 6a2f 05be 740f 3a3d bc05 95be dc77 fe3d
000001a0: 4676 023b 00b8 a33e 32d1 99be 90dd 4cbe
000001b0: aa5c 1f3e 2941 943e 0e19 243d e1e1 a43e
000001c0: eb44 34be 1cfb 83be 3750 2d3e 1f45 783e
000001d0: dddd fabd b465 b8bb 1200 95be 8ba2 3f3c
000001e0: c526 5a3e b6d7 c5bd 33e7 44be 696a 3b3e
000001f0: 5bff 943e a5d8 073e 74aa 77bd 1986 153d
00000200: 5ef5 84bd c655 c6ba 0d75 d6bc 32fd 463e
00000210: 2986 c0bd 88b8 263e ca2a aa3d 69f7 fe3d
00000220: 8650 86bd fd35 013e 2f61 0fbe 2c0d b33d
00000230: 7c07 12bc 6a5a 73bd ea34 e23c 2fe0 403e
00000240: 8625 a1bd a6bc 9abb 5c14 0dbe b566 2abe
00000250: 8202 a73d 739d b93e 93c1 d8bc f7fb 5d3e
00000260: 34b4 69bd 3eec be3d f444 70be 8f6a 673d
00000270: b346 2ebe 6efa b43e 1d69 803e 9a7c 843e
00000280: 3b11 22be e789 033e 0a5c f93d 05ec 0ebd
00000290: 8fb2 af3d d9fe 873e 9e32 c43d 477b 843d
000002a0: 1dc0 6e3e 2bd1 493e 4c77 513e 59c0 56be
000002b0: 40f5 a13d 617d 893e b0e9 9a3e 146f 5d3e
000002c0: 8058 183e 3156 323e 06f0 64bc 31f6 12be
000002d0: 2949 eabc 7779 56bd e784 30be ffab c93d
000002e0: ee88 3dbe 8a83 09bd 115d dc3d 8fa8 b93d
000002f0: 910a 803e 93e1 49bd 84a3 3d3e 72fa b83d
00000300: dfb8 d13b f8ca 9b3e ea70 c1bd bf5b bebd
00000310: e2f0 8b3d 6c97 adbc da56 27be c05c 913e
00000320: b554 eb3d fb6e d0bd cc29 883e 7a1d 41be
00000330: d2db 17bc 5100 5ebd a92b cb3d 144f efbd
00000340: d077 54be d067 50be 1463 24bb d0e2 24be
00000350: 5835 4fbe 2e76 3d3e abf3 a23e 80a3 313e
00000360: 5f5f 193e cdb1 dd3d dc94 a33e 12b1 943d
00000370: e976 853e 4450 a13d e639 d6bd 8392 19be
00000380: 20e0 15bc 72a4 183e f390 863e 45ec 3cbe
00000390: 8429 94be 0724 933e 8e70 39be 1906 593e
000003a0: 636c 1d3e 6e73 553e c011 243e cef1 773d
000003b0: f709 403d 22f5 283c 0527 eabd 7617 e83d
000003c0: c2e3 723e ae4e 31be 29e7 763e 681c 963e
000003d0: 2055 653e 2d9a 8f3e 5f75 253e 60d0 61be
000003e0: daa9 19be 29b7 afbb
0.056635007 -0.23094055 0.03387037 0.21524732 -0.05421371 -0.14634001 0.20452683 0.10518059
-0.004410912 0.056237143 0.011379033 0.13502938 0.2046981 0.14158382 0.061232597 -0.26435104
0.1881909 -0.13952571 0.03249077 0.08646026 -0.23722231 -0.20878795 0.12649162 0.22434688
0.35269117 -0.22452709 0.051055558 0.16955623 -0.12578395 0.05270218 -0.11577489 -0.109867886
-0.0432651 -0.043104306 -0.15072498 0.15489097 0.06207134 -0.122274786 -0.15570633 -0.28838387
0.15357734 0.036596924 0.06688371 0.26363927 -0.051023997 -0.027581276 0.28922653 0.031063171
0.09888412 0.13054702 -0.03370914 -0.17814441 0.09744093 -0.028011918 0.030335248 0.07236776
-0.17994434 0.1603617 -0.25483382 -0.31549606 0.0445934 -0.072774746 -0.25749934 0.07853178
0.1952896 -0.053801823 0.29609728 -0.3102476 0.13978946 -0.055055827 0.19852175 0.060025312
0.11567045 0.008725367 -0.2592736 -0.053284887 -0.19767511 -0.25433537 0.18145758 0.023558075
-0.155479 0.09473422 0.10017657 -0.0029465258 0.16601834 -0.22310069 0.061179996 -0.12704985
-0.26794684 0.17497382 0.17530476 0.3080699 0.012046812 0.29699284 -0.2937545 -0.29140425
0.18597203 0.3136962 0.12849934 0.1076707 -0.13006368 0.045424893 -0.29105937 0.12425205
0.0019906922 0.31976318 -0.30042416 -0.20006394 0.15562692 0.28955963 0.040062957 0.32203582
-0.17604415 -0.2577752 0.16925131 0.24245118 -0.12249348 -0.0056273583 -0.29101616 0.011696468
0.21303852 -0.09660284 -0.1922882 0.18302311 0.2910107 0.13266237 -0.06046529 0.03650484
-0.064921126 -0.0015131764 -0.026178861 0.19432524 -0.09400589 0.1628133 0.083089426 0.124495335
-0.065583274 0.12618251 -0.14001916 0.08742747 -0.008912917 -0.059412397 0.027613122 0.18835519
-0.07868485 -0.0047221957 -0.13777298 -0.16640742 0.08154775 0.36252937 -0.02645949 0.21678148
-0.05705662 0.09322403 -0.23463804 0.056498107 -0.17019157 0.35347313 0.25080195 0.25876313
-0.15826885 0.12845574 0.12175758 -0.034893055 0.08578979 0.2656162 0.09579967 0.06468826
0.23315473 0.19708697 0.20455664 -0.20971812 0.07908106 0.2685347 0.30256414 0.21624404
0.1487751 0.17415692 -0.013973242 -0.14351727 -0.028599339 -0.05236193 -0.17238198 0.09847259
-0.18509266 -0.03357271 0.107599385 0.09065353 0.25008062 -0.04928739 0.18519408 0.09032144
0.006400212 0.3042829 -0.09445365 -0.09294843 0.06833054 -0.021190368 -0.16341725 0.28391075
0.11490766 -0.10177418 0.26594388 -0.188589 -0.009268718 -0.05419952 0.09920437 -0.11685005
-0.2074883 -0.20352101 -0.002508347 -0.16102147 -0.20235193 0.18502113 0.3182653 0.17347527
0.14977787 0.108249284 0.31949508 0.07260336 0.26067284 0.078766376 -0.10460262 -0.14997296
-0.009147674 0.14906481 0.26282462 -0.18449505 -0.28937924 0.28738424 -0.18109342 0.21193732
0.15373378 0.20844814 0.16022396 0.060533337 0.046884503 0.0103123505 -0.11433224 0.113326
0.23719695 -0.1731517 0.24111618 0.29318547 0.22395754 0.28047314 0.16158055 -0.22052145
-0.150062 -0.0053624106

projection.layers.8.bias f4 [25]
00000000: cfdd 4ebd 330e b43d b1ae 313e 1de3 d73b
00000010: 5ce4 c53d 59d2 92be 96b3 96be 3984 f33d
00000020: b3d2 87be febc f5bd 3611 70be e84a 873c
00000030: e839 8cbe 9a11 a43d 8f37 013e 8205 173e
00000040: 8d20 573e 5943 3e3c 98a0 e2bd cea2 75be
00000050: aca0 1bbd efd3 13be 23e9 34be 9665 993c
00000060: e5bd b13d
-0.050504502 0.08791771 0.17351796 0.0065883533 0.09662697 -0.28676108 -0.29433888 0.11890454
-0.26527938 -0.11998938 -0.23444065 0.01651521 -0.2738793 0.0801117 0.1261885 0.14748195
0.21008511 0.011612737 -0.11065787 -0.23987886 -0.037995026 -0.14436315 -0.1766706 0.018725198
0.08678798

projection.layers.9.weight f4 [4, 4]
00000000: a7f8 283d 41f9 ca3d 69e8 63be e773 373e
00000010: 891e d4be f5a7 a6bd 35cd 00be b50e 203d
00000020: 89ac 9e3e 5a98 ffbe 637c 9abe af98 f6be
00000030: 6579 dcbe f4b4 4ebd d95e 573d 6e46 eebe
0.04125276 0.09910823 -0.22256626 0.17915307 -0.41429546 -0.08137504 -0.1257828 0.039076526
0.3099101 -0.49920923 -0.30173025 -0.48163363 -0.43061367 -0.05046554 0.05258069 -0.4653811

projection.layers.9.bias f4 [4]
00000000: c4a4 cc3e e2ab 093d 5619 c13e 03ba 2a3e
0.39969456 0.033611186 0.37714642 0.1667252

projection.layers.10.weight f4 [10, 4]
00000000: a93d f6be adb7 1a3d 7e5d 783e 9a39 5bbe
00000010: a47e 203e 3837 e4be 60de b9be 9539 c13e
00000020: 77eb 643e 6898 b23e 3a73 9bbe d964 5fbe
00000030: 9554 ad3e 4e54 8e3e 547b b8be 5a9a 7cbe
00000040: 44d7 ebbe 09a5 aabe 9986 64bc b6dd d9be
00000050: 63f4 553e 8dda 4bbe f5fb d23e 30f6 8f3e
00000060: 3ee5 503e c9ac 34be bfcb f0be 4bc1 a63e
00000070: b202 60be a890 c53b 9e23 8fbe 4ac2 ac3e
00000080: 898e d23d c9ad 80be 2946 9f3d bd6e debe
00000090: ac1b f9be 28ff b73e f55b 173e 9632 d93e
-0.48093918 0.037772823 0.24254414 -0.21408692 0.1567331 -0.4457338 -0.3630247 0.37739244
0.22355448 0.34881902 -0.30361348 -0.21815814 0.33853593 0.27798694 -0.36031592 -0.24668255
-0.46062672 -0.33329037 -0.013948106 -0.42551965 0.20894007 -0.1990759 0.41207853 0.28117514
0.20399949 -0.17644037 -0.47030446 0.32569346 -0.21876028 0.0060292073 -0.2795686 0.3374198
0.10281093 -0.25132588 0.07777054 -0.43443862 -0.48653924 0.35936856 0.14781173 0.42421407

projection.layers.10.bias f4 [10]
00000000: 26d6 6e3e b6be 063e 6c16 493e a1c5 b23e
00000010: a92c 8bbe b910 b3be 63cf c83e 4fb8 bfbd
00000020: 180f 4abd 022e b43e
0.23323879 0.13158688 0.1963746 0.34916404 -0.2718251 -0.34973696 0.39220724 -0.09361326
-0.0493308 0.3519135

projection.layers.11.weight f4 [25, 10]
00000000: 6436 09be d98c 8f3e 0add babd bf72 32be
00000010: 711a 863e d4d1 0f3e e98e 9e3e f024 debd
00000020: 0ae5 0cbe 6d3d 943e 6f5c be3d bfef 833e
00000030: 7f76 cabd 36cf 553e e35e 9e3e 538d 0fbd
00000040: e701 e83d 4da8 1fbe b99d 803c abaf 203c
00000050: 4829 5abe bc83 37be 001a f63b 40f0 76bd
00000060: 1506 9e3e 28df 7f3d 723d 3f3e ef47 13be
00000070: 603a 4ebd e17a 35be 46d7 b6bd e21c 553e
00000080: f8d0 893e 9354 943d ce74 99be 341d 843d
00000090: 993c 6abe 1eaf 843e 9d02 853e b3f0 423e
000000a0: 4123 a5bd 4416 26be 6e1f 963e 72cb 8a3e
000000b0: 7a1b 803e c93c 9f3e 77ae 54be 9ad5 09be
000000c0: d471 a0bd 9ada a2bc 8b40 0dbe 9ce1 1a3e
000000d0: e69a 91be 7edf 793e 4767 4a3e c932 efbb
000000e0: e39c c4bd bad1 25be 954c cdbd 3d13 26be
000000f0: 784f 17bb 64d4 383e 3a36 b8bb 83b1 c43d
00000100: 12b5 88be 15e4 463e 9b8e 6ebe 8f53 eb3d
00000110: c0c7 03be cb81 183d e444 563e daca 59be
00000120: 7db8 933e ef3d 863c 9799 3a3d efc7 ac3e
00000130: 4c0c 50be bf40 6e3e acdd febd 2852 513e
00000140: e0c1 79bd 34e3 76be a71e 8ebe ff2a 883e
00000150: e227 ffbd 8e0e 59be b2a0 e5bd b21f c0bd
00000160: d892 6fbd e300 843e f8dc 01be 3c82 053c
00000170: 6f2d 9fbd 4980 23bd 3f9e 1f3e 2de7 a43e
00000180: c4ef bc3d 4bb7 9abe 5000 1fbe 7582 f3bc
00000190: e079 79be 2328 a8be a4a8 793e 8649 e0bd
000001a0: 393e 983e 3a3f 083a fea2 8f3e 3c9a 4ebe
000001b0: db1f cdbd 8e8f b63c 51c1 5d3e 75fe 083e
000001c0: 5a2b adbe bd21 5bbd 1f2e 5ebe 9a78 96be
000001d0: c936 ee3d 954f 43be 1c48 663e a5b3 87be
000001e0: edd7 80be b851 50bd 96db d5bd 4c69 86be
000001f0: c6bd 5b3e 66d1 17be 043f 2c3e 8b11 9e3e
00000200: c8c4 96bd b9df 3ebe 600f 2d3e ebe8 8cbe
00000210: 0549 84bc eafc 2a3d ccf0 83be c300 9f3d
00000220: 4ba2 48be 33ce 953d 94d9 083e 58db b0bc
00000230: 7b3e 6cbd 0c0a 51be 1fa6 87be 69d8 083e
00000240: 5782 903e c05b 50be d81b 6d3e 809b 163a
00000250: eb91 a7bd 2536 613e 1f58 9e3d aa52 a03e
00000260: d2ad 88be aee4 4e3e f250 713d 6e5b 87be
00000270: 83a4 763c a19a f63d 4f42 0dbd b144 f1bd
00000280: 0f95 bc3d 0111 833e 5483 8abe a00a c73c
00000290: 4baa f7bd 0d84 b63e 68d3 c4bb 44e2 443e
000002a0: e6ca 0e3e 69ef 633d 41f3 4f3e d9f1 343e
000002b0: 7819 5bbe a7ef 14bb 2543 43be 1ea1 a83e
000002c0: d8c9 39be ce25 6f3e 7e3f 6d3e d807 20be
000002d0: 40bd e2bd 1c66 38be c599 04be f502 38be
000002e0: 3513 cf3d bbc0 80bd 792b ffbd 53e1 533d
000002f0: f798 6cbe 6fab 643e 4e4b 543e 2039 2f3e
00000300: 60dd bb3d 1a02 1f3e f6a1 613e ec3d 7ebe
00000310: e2ed 48be d09c 30be 8c12 90be 42d9 86be
00000320: 6de8 83be 4371 453e 6219 afbe 2098 bbbe
00000330: 2cb5 2abe 0790 563e ead1 753c 2da5 24be
00000340: b170 453d 9064 8c3e f7b9 45be 9124 75be
00000350: 4ab4 793e 80ea 8d3b f0bd 3c3d 92ef acbd
00000360: c2d4 2dbe 88dc ffbd eb14 9ebe 1c13 8abd
00000370: 2054 d3bd f62c 203e f62c 693e 5d5b 30be
00000380: 8ce1 d83d 74c5 e03d 686a 1b3e 3306 88be
00000390: d056 ef3c 388f 07be 9e6e 663e fa34 793e
000003a0: 7868 5fbd 9506 2bbe bda4 82be 702d b1bc
000003b0: 2c73 8ebe 48ed f7bd 1a18 a2bd 4cd9 0d3e
000003c0: 89cb bebc 9595 41be 62e7 1e3e ea53 173e
000003d0: e789 933e bf41 9c3e 263e 883e f47e 32be
000003e0: 2848 473d 6fca 813e
-0.13399655 0.28037146 -0.09124191 -0.17426585 0.26192048 0.14044887 0.30968407 -0.10846889
-0.13759246 0.28953114 0.09294974 0.2576885 -0.098858826 0.20879826 0.30931768 -0.035046887
0.11328488 -0.15591545 0.015700208 0.0098075075 -0.2130481 -0.17921346 0.0075104237 -0.060287714
0.30864015 0.062468678 0.18675783 -0.14382909 -0.05034864 -0.17722656 -0.08927779 0.20811799
0.26917243 0.07242694 -0.29971927 0.064508826 -0.22874679 0.25914854 0.25978556 0.19037132
-0.08063365 -0.16219431 0.29320854 0.2710834 0.25020963 0.31101063 -0.20769678 -0.13460389
-0.07834211 -0.019879628 -0.13794152 0.15125126 -0.2843849 0.24401662 0.1976596 -0.0072997552
-0.09600236 -0.16193286 -0.100243725 -0.16218276 -0.0023088139 0.1804977 -0.0056216987 0.0960417
-0.26700646 0.19422944 -0.23296587 0.11490547 -0.12869167 0.037233155 0.20924717 -0.21268788
0.2885169 0.016386954 0.04555663 0.33746287 -0.20317191 0.23266886 -0.12444624 0.20441496
-0.06097591 -0.24110109 -0.2775776 0.26595303 -0.12458779 -0.21196958 -0.11212291 -0.093810454
-0.05848965 0.25781927 -0.12681949 0.008148726 -0.07772338 -0.039917264 0.1558771 0.32207623
0.09225419 -0.30217966 -0.15527463 -0.029725293 -0.24362898 -0.32843122 0.24380738 -0.109515235
0.29734972 0.000519741 0.2805404 -0.20176023 -0.100158416 0.02228525 0.21655776 0.13378318
-0.33822137 -0.053498972 -0.21697281 -0.29388887 0.11631543 -0.19073327 0.22488445 -0.26504245
-0.25164738 -0.050859183 -0.10442273 -0.2625221 0.21459112 -0.14825973 0.16820914 0.3087276
-0.07361752 -0.18640031 0.16900396 -0.27521452 -0.0161481 0.041745104 -0.2576965 0.07763817
-0.1959316 0.0731472 0.1336425 -0.021588966 -0.057676774 -0.20413989 -0.26493928 0.13363804
0.2822444 -0.203475 0.23155153 0.0005745217 -0.081821285 0.21993311 0.077316515 0.31313068
-0.26695114 0.20204422 0.058915086 -0.26436943 0.015053871 0.12041212 -0.034487065 -0.1178068
0.09208118 0.2559891 -0.2705332 0.024297059 -0.12093028 0.35647622 -0.006006647 0.19226938
0.13944587 0.05564824 0.20307638 0.17670383 -0.21396434 -0.0022725852 -0.19068582 0.32935423
-0.18143404 0.23354265 0.23168752 -0.15627992 -0.11071253 -0.18007702 -0.12949283 -0.17969878
0.10111085 -0.062867604 -0.124594636 0.051728558 -0.23105226 0.22331022 0.20731851 0.17111635
0.09173083 0.15528145 0.2203444 -0.24828309 -0.19621995 -0.17247319 -0.2813915 -0.2633763
-0.25763264 0.19281487 -0.34199053 -0.366395 -0.16670674 0.2095338 0.015003661 -0.16078635
0.048203174 0.27420473 -0.19309221 -0.2393973 0.24385181 0.004330933 0.046079576 -0.08444132
-0.16975692 -0.12493235 -0.30875334 -0.06741926 -0.1031878 0.15642151 0.22771057 -0.17222352
0.10589895 0.10975161 0.1517731 -0.2656723 0.0292162 -0.13238227 0.22503135 0.24336615
-0.05454299 -0.1670173 -0.2551631 -0.021628112 -0.27822244 -0.12105805 -0.07914753 0.13852423
-0.023290413 -0.18904717 0.15517953 0.14778104 0.2881615 0.3051891 0.26609915 -0.17431241
0.048652798 0.25349757

projection.layers.11.bias f4 [25]
00000000: b748 91be 32ae 843e 1e54 7abe 82fa 5bbe
00000010: 5afc b73d be7e 163c dbbe 123e 852b bc3d
00000020: 11d3 b4bd 4724 853e 4d38 8c3e f1e4 4abe
00000030: 0eaa 88bd bfaf 823e c1ce 373e ded4 643d
00000040: 3090 c13c 8228 433e ab27 7f3e 4aee eabd
00000050: f34d 673e 7dca 40be 4caa d0bd 57af 85be
00000060: c7b5 0a3e
-0.2837579 0.2591415 -0.2444615 -0.2148228 0.08983679 0.009185491 0.14330618 0.09187988
-0.0882932 0.2600424 0.27386704 -0.19813897 -0.0667306 0.2552471 0.17949964 0.05586707
0.023628324 0.19058421 0.24917476 -0.11471231 0.22588329 -0.18827243 -0.101887316 -0.26110336
0.13545905

projection.layers.12.weight f4 [4, 4]
00000000: 8e20 b1bb 18c7 ba3e 615e 813e b102 8abd
00000010: 1600 c3bc 8dc0 b2be 4881 ba3e 06cd 5fbe
00000020: e6fb ee3e 3236 8c3c 1bd2 d0bc 0faf 1fbd
00000030: c606 20bc f4ca d33e 49bf c23e bbf6 743d
-0.005405492 0.3648002 0.25267318 -0.067387946 -0.023803752 -0.3491253 0.3642676 -0.21855554
0.46676558 0.017115686 -0.025490811 -0.03898531 -0.00976724 0.41365778 0.38036564 0.059805613

projection.layers.12.bias f4 [4]
00000000: 94a5 093e 21b6 ae3e 3a44 e3be d6b0 b2be
0.1344207 0.34123328 -0.4438799 -0.3490054

projection.layers.13.weight f4 [10, 4]
00000000: 7d58 483b 82cd 4abe e77e 263e cf4d 033d
00000010: 6393 b9be b326 8d3e 6f53 a13e c806 5cbd
00000020: a07a f33e dfa3 bc3d 86d0 68be 40af d6bd
00000030: 6e7f 94be 07a3 d63e d93e bd3e 92ec e93c
00000040: bed7 18be 816c afbe de41 c73e e66f 7ebe
00000050: fb48 d8be 9e5c d23c e4bb 523e ea75 c53e
00000060: 316e 31bd 8383 af3e 40af c63c 5245 bebe
00000070: a89e af3d 8303 d93e 1892 c3be a820 943e
00000080: ca03 873e 9db4 2cbd 3138 bb3e 7db5 d13e
00000090: 63f0 9d3e e1b7 03bf dcde eebe f6da e93d
0.0030570321 -0.19804958 0.16259347 0.032056626 -0.3624526 0.27568588 0.31508967 -0.053717405
0.47554493 0.092109434 -0.22735795 -0.10482645 -0.2900347 0.41921255 0.3696201 0.028555188
-0.14926049 -0.3426247 0.3891744 -0.24847373 -0.4224318 0.025678929 0.20579487 0.38566524
-0.043317977 0.34280023 0.024253488 -0.37162262 0.08575183 0.42385492 -0.38197398 0.28931165
0.26370078 -0.042164434 0.36566308 0.40958777 0.30847463 -0.5145245 -0.46654403 0.114187166

projection.layers.13.bias f4 [10]
00000000: fb14 8a3d 59bd 6dbc af0c d1be fd99 6fbe
00000010: 92e5 83bd 4009 9d3e edc2 04be 7a1c 3bbe
00000020: f258 fbbe c71c 9bbe
0.06742283 -0.014510476 -0.4082999 -0.23398586 -0.064402714 0.3067112 -0.12964983 -0.18272582
-0.49091297 -0.30295393

projection.layers.14.weight f4 [25, 10]
00000000: 43a9 3ebe 0833 213e 78fd e0bd a2a6 6c3e
00000010: 852f 1abe f8ab 76be 2c62 80bd 58cf 22be
00000020: e8b8 433d 8a90 68be 9d88 8cbe c702 2a3e
00000030: 9e09 00be 12b9 9b3d f833 253c b161 38bd
00000040: 9c96 a4bd 7895 89be 181d 403e fb9f b83d
00000050: 9f30 78be 8031 763d 7f04 95be 00bc 233e
00000060: 34ac 3a3e 746b 833d 20ea 0abe c09c d03d
00000070: eb44 8f3e 50b4 d2bc c101 9a3e bc22 dcbd
00000080: 0a86 3a3e 00ba bfba c013 703d 48ec 243e
00000090: 560d c7bd 535d 873e c29d 2ebe 9b0a 1ebe
000000a0: 4c96 89be c034 143e 402f b23c 4082 3f3c
000000b0: 4eb8 233e c0c1 6c3c 3ff1 843e b869 6a3d
000000c0: 2973 9d3e 881d 92bd a2d2 1d3e d3d8 4bbe
000000d0: 40f6 fb3c 38d2 cd3d 208c 99be 3a2f 3ebe
000000e0: 3d44 833e d84d d6bd 762b abbd b6c0 583e
000000f0: e2fb 6fbe 4cf2 5cbe b450 5abd cfb9 24be
00000100: aae6 a33e eed4 3a3e 7965 2fbc b207 023d
00000110: 83b9 14be 12c0 db3a b640 7c3e 8073 0c3d
00000120: bb9c 9b3e d006 89bc 7593 863e 462a 6c3e
00000130: 5e27 cdbd 82c3 4f3e 407b 023d 0cbf 10be
00000140: c23c 0e3e f3b2 8fbe 8010 813d 02c3 00be
00000150: 0629 253e 461a acbd 40a7 61bc 7a79 593e
00000160: b9ec 8b3e 423f 63be 4257 d7bd 70ea 1e3e
00000170: 91bf 863e f869 5cbd aa34 a0bd 2f56 0cbe
00000180: 2107 803e 80b8 543c efd3 9dbe 4e72 7b3e
00000190: 3d28 04be fa8b e9bd 96fc 3f3e beb5 593e
000001a0: 1e30 703e 7d41 88be 2c18 133e 5681 99be
000001b0: 5257 673e 1cf2 aa3d 0642 36be bfea 3cbe
000001c0: 328e 3f3e 849c c43d 0870 b53d 29aa 07be
000001d0: 0c18 093e 3691 4a3e 87d6 1dbe ba52 0b3e
000001e0: 47d6 673e da98 2cbd 38cf fa3d 6ade 38be
000001f0: 3d08 873e eaa2 09be 89f0 14be 0966 7bbe
00000200: fc1e 693d 7a49 8a3d 58b1 eb3d 59fc 853e
00000210: f947 26be 5e94 d4bd 00bf a4ba 5567 9f3e
00000220: bea9 5e3e 74c3 223e bc1f bc3d 1019 543d
00000230: cc8f 933e f86c 87bd 9596 493c de24 873e
00000240: 824e 76be 1a9d 213c c51d 21be f3ec 90be
00000250: 28b8 b4bd 0055 a33d dbcc 6bbe 37ac 1abe
00000260: c83c 953e 0f99 fa3d 1592 64bd 8414 93bd
00000270: 8bcc 963d 3591 8abc a77c a1be 21a4 36be
00000280: 1e3f 75bd 12ff 583e bb5a 273d c36d 75be
00000290: 9ddd 13be 8e32 8fbe 23f9 f63d e6ae 6b3e
000002a0: b4fc 3b3e 7fbb 7ebe 5226 17be a053 fa3c
000002b0: 2a8f 1d3e cf07 993e 05fa 40be 5683 95bd
000002c0: 8ef2 85be 4096 6b3d c063 133e ca7f 7dbe
000002d0: 2b17 8a3e aa7b 323d 0d8c 95be ae9f f23c
000002e0: cf86 81be c7a2 203e d151 833d bf74 93be
000002f0: 9d59 5b3e f2fc 9c3a ef51 d03d 5c0f 93bd
00000300: 65e4 b7bd 4313 5c3e 20b3 f6bc 1541 603e
00000310: e547 733e b891 e03d 10d0 a03e d5a8 913e
00000320: 2bfe b1bc efb1 d5bd 79d5 4c3d ec9f 783d
00000330: 3c0e 95bd 8265 6f3e f2e4 76be 146d 1c3e
00000340: d9ec 9f3d 7251 9b3e a5c3 ab3c 64bf 8dbe
00000350: 47b5 a23e a15a 993d 35d5 6d3e 051b 043e
00000360: c789 11be b341 07be 7387 c93d c2f2 22be
00000370: 4e4d 4fbe 4e7e 473e 00c8 fab9 348b 8ebd
00000380: 022c 33be ea15 563e ca62 553e 0868 90bd
00000390: 6063 ab3d 8a1a 543e c86e 19bd 729c 633e
000003a0: 18e4 283e 6085 c9bc 107b 243e 984a 2bbd
000003b0: 9c67 a1be b6b3 80be 4400 903d c950 9e3e
000003c0: 06de 5f3e dae2 3d3e f401 d03d e218 503e
000003d0: abb7 a0be f62f 33be 4df3 6dbe d1ec 2ebe
000003e0: d2da 423e 696f 66be
-0.18619256 0.15742123 -0.10985845 0.2311044 -0.1505719 -0.24089038 -0.06268725 -0.15899408
0.047783762 -0.22711387 -0.27447978 0.16602622 -0.12503669 0.07603659 0.010083191 -0.04501504
-0.08036539 -0.26871848 0.18761098 0.09014889 -0.24237297 0.0601058 -0.29104993 0.15989685
0.18229753 0.064169794 -0.13565874 0.10186148 0.27982268 -0.025720745 0.30079463 -0.107488126
0.18215194 -0.0014627576 0.058612585 0.16105759 -0.097193405 0.26438388 -0.17052367 -0.15433733
-0.2687248 0.14473248 0.021751046 0.011688769 0.15988275 0.0144504905 0.25965306 0.057229728
0.30751923 -0.07134539 0.15412381 -0.1990693 0.03075707 0.10049862 -0.2998972 -0.18572703
0.25638 -0.10464066 -0.08357899 0.21167263 -0.2343593 -0.21576804 -0.05329962 -0.16086505
0.3201192 0.18245289 -0.010705345 0.03174562 -0.14523892 0.0016765615 0.2463406 0.034289837
0.30393013 -0.016726881 0.26284376 0.23063001 -0.10017274 0.20289424 0.03185582 -0.14135379
0.13890365 -0.28066215 0.06301975 -0.1257439 0.1612893 -0.08403449 -0.013772786 0.21237746
0.27329043 -0.221921 -0.1051469 0.15519118 0.2631803 -0.053811997 -0.07822545 -0.13704751
0.2500544 0.012983441 -0.30825755 0.24555323 -0.12905975 -0.114036515 0.18748698 0.21260735
0.23455855 -0.26612464 0.1436469 -0.29981488 0.22591904 0.0834696 -0.17798623 -0.18448924
0.18706587 0.096001655 0.08859259 -0.13248505 0.1338808 0.19781956 -0.15413867 0.13605776
0.22640334 -0.042137958 0.12246555 -0.18053594 0.26373473 -0.13441053 -0.14544882 -0.24550642
0.056914315 0.06752296 0.11508435 0.26169088 -0.16238393 -0.10379861 -0.001256913 0.31133524
0.21744439 0.15894872 0.0918574 0.051781714 0.28820646 -0.06612581 0.012303968 0.26395315
-0.24053386 0.009864116 -0.15734012 -0.28305778 -0.088241875 0.07975197 -0.23027365 -0.15104757
0.29147935 0.12236225 -0.055803377 -0.071816474 0.07363232 -0.016914943 -0.31540415 -0.17836048
-0.059874646 0.21191052 0.04085801 -0.23967652 -0.14440008 -0.27968258 0.12059238 0.23015937
0.18358117 -0.24876212 -0.14760712 0.030557454 0.15386644 0.2988877 -0.18845375 -0.07300441
-0.26161617 0.057516336 0.1439352 -0.24755779 0.269708 0.043574966 -0.29208413 0.029617157
-0.25298163 0.15687095 0.064120896 -0.28800008 0.21420904 0.0011977239 0.101718776 -0.07180664
-0.0897911 0.21491723 -0.03011471 0.21899827 0.23757894 0.10965294 0.3140874 0.2844912
-0.021727642 -0.10434329 0.05000827 0.06069939 -0.072781056 0.23378566 -0.24110773 0.15275985
0.07808847 0.30335575 0.020967314 -0.27685082 0.3177893 0.07487989 0.23225863 0.12900932
-0.14212714 -0.13208656 0.09840288 -0.15912917 -0.20244333 0.19481775 -0.00047832727 -0.06960145
-0.17497256 0.20906797 0.20838466 -0.070510924 0.08368564 0.20713249 -0.037459165 0.22227648
0.16493261 -0.024599731 0.1606257 -0.041819185 -0.3152436 -0.2513711 0.07031301 0.3092101
0.21862039 0.18543568 0.101566225 0.20321992 -0.31390128 -0.17498764 -0.23237343 -0.17082526
0.19028786 -0.22503437

projection.layers.14.bias f4 [25]
00000000: 55f4 80be 97b9 253e e423 b03d 162b a0be
00000010: aada 38be d11d 93be e664 883d 40f2 0cbe
00000020: 4884 36be abcd 9ebe a6d8 67be fa95 71be
00000030: 7215 7f3e 197a 4dbe bdfb 02bd 873d c8bd
00000040: 3075 4c3e 9c89 88be e8e0 f7bb 61bb 6f3e
00000050: 9a40 82bd 4d9a 733e 4190 0dbe 8c73 973d
00000060: 603c bdbc
-0.2518641 0.16184078 0.086005956 -0.31282872 -0.18052164 -0.28733686 0.0665987 -0.13764286
-0.17823899 -0.31016287 -0.22641239 -0.23592368 0.24910524 -0.20066108 -0.031978358 -0.097773604
0.19966578 -0.26667488 -0.0075646527 0.23411323 -0.06359978 0.2378933 -0.1382456 0.07395086
-0.023100078

projection.layers.15.weight f4 [4, 4]
00000000: 454f b0be fc5b 30bd 3267 b93e 0ae0 f43d
00000010: 0a35 db3e 4627 58bd 1f76 4b3d 30cf 0d3d
00000020: f0fc 873d 6e44 ea3d b7c6 053e a266 bdbd
00000030: 2e5b 60be 6619 513e 1b34 c9be 2b04 7dbe
-0.34435478 -0.043056473 0.36211544 0.119567946 0.42813903 -0.05277183 0.049673196 0.034621418
0.06640041 0.11438833 0.13064085 -0.09248091 -0.21909782 0.20419845 -0.39297566 -0.24708621

projection.layers.15.bias f4 [4]
00000000: 1757 713e 2a5a cf3d ab69 c8be 3478 9f3e
0.23568378 0.10124619 -0.39143118 0.31146395

projection.layers.16.weight f4 [10, 4]
00000000: 820a 4f3e 4b0c 773a e00e cc3e d363 ccbe
00000010: 3a20 b33e 24dd f03e 17ee c63e 1710 073e
00000020: e7ea b23e 5b5b 00be a3c2 13be ff48 723e
00000030: 0b09 bcbd 4d2c bbbd f191 fa3d 4c1d 5ebd
00000040: 44d1 84bb 3ff4 293e 3175 813e e72e fabe
00000050: 4639 9b3e cec3 ebbe 82f5 1b3d 66ed a63e
00000060: 38b3 6c3b c405 dbbe 3096 87be c040 803e
00000070: 7311 ffbc f413 8abe dfbf 4bbe 58b9 c4bd
00000080: f6d1 e53e ffde 873e 46cd bbbe 1fd8 d1be
00000090: 5085 db3e 0ae8 523e 3cf1 673e f864 a8be
0.20218852 0.0009424134 0.398551 -0.3991991 0.34985524 0.47043717 0.38853523 0.13189732
0.3494484 -0.1253485 -0.14429717 0.23660658 -0.09181412 -0.09139309 0.12234867 -0.05422716
-0.0040532667 0.16597079 0.25284722 -0.4886391 0.30317134 -0.46047825 0.03807593 0.32602996
0.0036117565 -0.42777836 -0.2648177 0.250494 -0.03113625 -0.26968348 -0.19897412 -0.09605664
0.4488675 0.2653732 -0.3668005 -0.409852 0.42875147 0.20596328 0.22650617 -0.32889533

projection.layers.16.bias f4 [10]
00000000: 3046 1e3e 9d63 39be 461e d83e c746 83be
00000010: 6b09 a6bd 2e2f a6bd 7fdd c13e 0311 843e
00000020: 75fb 743e f1a5 97be
0.15456462 -0.18104406 0.42210597 -0.25639936 -0.08107265 -0.081144676 0.378643 0.2579423
0.23924048 -0.2961879

projection.layers.17.weight f4 [25, 10]
00000000: 3953 773e 0a29 683e 554e efbd d8b2 3f3e
00000010: 40da 1abe 8968 503e 4f7c 54be cdfe dfbd
00000020: f021 a0bd c825 d83c 25f3 693e 4a0b eebd
00000030: 169e a4be 7aaf 23bc 8b1f 0b3e e8ea 663e
00000040: 1d49 27bd 0f04 8b3d 20f8 5f3e db76 ad3e
00000050: fa98 15be 1677 27be 5e41 1b3e 5379 f4bd
00000060: 5aa8 c2bd bad7 803e 627f 6f3e f9f5 853e
00000070: ed96 b2bc 8ed7 f5bc bcaa 98bd fc04 5a3e
00000080: fb3c 8f3e 1d02 7a3e 3598 67bd 5fbb 9cbe
00000090: 6ae3 253e 321e 86bd 9f0a 2abe 3363 59be
000000a0: 28a9 48be db8d 8a3e 9db4 1fbe 9d4b 863e
000000b0: 2306 2cbe 201b 7fbd 5e7d 0e3e 9044 923d
000000c0: 2e32 d8bd 2715 9e3e d4ea 3f3e 2ea3 f13d
000000d0: 42d7 87bc 54f3 203e fac3 593e 4aa1 37be
000000e0: 4253 9cbe a49f d8bd 4616 14be 6dbc 85be
000000f0: 4b07 9dbc a354 2cbe 2334 82be 351a 1ebe
00000100: 1f1e bb3e 898c 113d f72c d33d 04c8 5d3e
00000110: 924b 85bd 1224 053e 3b59 0cbe 8e80 06be
00000120: 08e7 5f3e 2f46 683d 0257 94be 4985 7b3d
00000130: 8918 a83c 0cc3 30be 1f86 79be bc22 3fbd
00000140: 5e45 8abd 8fab 9b3e be44 73be 98fb 22bd
00000150: 0982 7cbe 5a7a 043e a02a 6ebc d034 293d
00000160: 3883 8abe 3fdc a03e 9ea6 413e 1f7d 8d3e
00000170: 8e6d efbd 3c4f d43d f17b 813e 03e7 5cbe
00000180: 70b0 55be d522 87be 8f19 823e 36e2 463e
00000190: 5171 92be dd46 923e 50f3 08be 68fd 14be
000001a0: b8a5 443d 6aa7 743e c0ca 7fbc c629 75be
000001b0: f38a 64be 850f 8fbe 01e1 403e af80 b13d
000001c0: 7966 363e 85ef 393e 063d 7f3d 9f5b 99be
000001d0: 9774 89bd e3ea 24bd 27fa 85be fd4f 2f3d
000001e0: 3048 bc3d 2787 783d ea9f 25be 108a 9f3d
000001f0: 8a2b e63d d00a 483e 583e 55be 6267 ddbd
00000200: edc2 ccbc 6d1c 90be f49e 60be e5bd 813e
00000210: 141d 2abe dbf1 a1be 8c29 98be c269 603e
00000220: ecfe 1ebd e282 4d3c f9ab 18bd 8172 91be
00000230: 4a57 e3bd be21 b5bd 33cd 823e 9e4c 4f3e
00000240: 83a6 8a3e e5c1 9cbe b8de 2abe 46a1 ebbd
00000250: 6228 3abe f019 95bd 9205 dcbc 4a4e 7f3d
00000260: 3bdb c23d 24d1 343d 479e 7fbe f792 a2bd
00000270: c304 9bbe 8556 8abe d623 633e 92e3 3d3d
00000280: baf6 4b3e d993 953e 9944 2fbe 880c a4bd
00000290: 64c4 a6bd 7c17 aebd 6ee8 5dbe 903c e8bc
000002a0: 1088 67bd ee11 b8bd 274d 20be 42a7 733e
000002b0: 0c91 17be 5601 4a3e 3279 193e 7065 44bd
000002c0: e56e 8c3e cf8a 42be 4edb 033e eb3e 903e
000002d0: 954b 853e 86a1 d23d ccf6 7b3e b3cc 1d3d
000002e0: 2073 a3bd 0fd9 943e a0cc 653e 4cdb d63d
000002f0: 7c89 863e 433f 3cbe 36c2 923d 260e a5be
00000300: 5fe1 17bc 6d7e 853e ecf7 393e 9b37 1c3e
00000310: 0b95 523e 0485 08be 43c6 843e 7c1a 04be
00000320: 5e29 5bbe b458 003e a0d7 ecbc c9bf 883e
00000330: 80cd 2fbd d93f 19be a012 80bc 8099 4b3d
00000340: 66f7 21be e819 613d 2ef2 82be 44a5 853e
00000350: 9bc7 3abe a560 d5bc 5fe3 a13e a33a 86bc
00000360: fe9b 513e 5b4d b1be 4be5 aa3c 5fd4 c93c
00000370: f101 8fbd 50f6 0fbe e801 62be 8aaa 83be
00000380: 926c 833e 4021 69bd 3359 a1be 7075 a8bd
00000390: d657 863e bd4c 74be 3513 1d3d 80d1 85be
000003a0: 9bdc 7cbe 57ea 7bbe f256 803e 50db e73c
000003b0: 6528 bcbd 86f0 ccbb e38b adbd aaec ae3e
000003c0: 2dd2 4bbe 7afa 6ebd 217a 59bd 670d d9bd
000003d0: 184c 8bbb cafd babd 0e7c 923e 4d00 163e
000003e0: a30f d9bd 0dc1 5bbe
0.2415284 0.22671905 -0.116848625 0.18720567 -0.15122318 0.20352377 -0.20750545 -0.10937271
-0.07818973 0.026385203 0.22846659 -0.11623247 -0.3215186 -0.009990567 0.13586251 0.22550547
-0.04084121 0.067878835 0.21871996 0.33879742 -0.14609137 -0.16354021 0.15161654 -0.11937203
-0.09504767 0.25164586 0.23388436 0.26164225 -0.021800483 -0.030010011 -0.0745444 0.21290964
0.27976212 0.24414869 -0.05654164 -0.30611703 0.16200033 -0.06548728 -0.16605614 -0.21229248
-0.19595778 0.27061352 -0.15596242 0.26229563 -0.16799216 -0.062281728 0.13915011 0.071419835
-0.10556446 0.30875513 0.18741924 0.11798702 -0.016582135 0.15717822 0.21266165 -0.1793262
-0.3053227 -0.10577324 -0.14461622 -0.2612032 -0.019168517 -0.16829161 -0.25430402 -0.15439685
0.36546418 0.035534415 0.10311311 0.21658331 -0.065085545 0.13002041 -0.13705914 -0.13134977
0.21865475 0.056707557 -0.28972632 0.061406408 0.020519512 -0.17261904 -0.2436757 -0.046663985
-0.06751512 0.30404326 -0.23756692 -0.03979072 -0.2465898 0.12937298 -0.01453653 0.04131013
-0.27053237 0.31418034 0.18911216 0.27634522 -0.11690818 0.10366675 0.25289872 -0.21572499
-0.20868087 -0.26393762 0.25410125 0.1942223 -0.2860208 0.2856969 -0.13374066 -0.14549792
0.048009604 0.23891988 -0.015612304 -0.23941717 -0.2231863 -0.27941528 0.18835832 0.086671226
0.17812528 0.18157776 0.062314056 -0.29952714 -0.06711691 -0.040263068 -0.26167414 0.042800892
0.09193456 0.060675766 -0.16174284 0.07790005 0.11238773 0.19535375 -0.20824564 -0.10810734
-0.024995292 -0.28146687 -0.21935636 0.2534019 -0.16612655 -0.31629834 -0.29719198 0.21915343
-0.03881733 0.012543412 -0.03727338 -0.28407672 -0.111006334 -0.088443264 0.2554718 0.20244071
0.27080163 -0.3061668 -0.16686523 -0.1150537 -0.18179467 -0.07280338 -0.026858125 0.06233052
0.09514471 0.044144765 -0.24962722 -0.079381876 -0.3027707 -0.27019134 0.22181639 0.046359606
0.19918337 0.2921436 -0.17116012 -0.08010203 -0.08142927 -0.08500573 -0.21670696 -0.028349191
-0.056526244 -0.08987795 -0.15654431 0.23794273 -0.14801425 0.19727072 0.14987639 -0.0479483
0.27428356 -0.18998264 0.12876627 0.28173003 0.26034227 0.102847144 0.24605864 0.038525295
-0.07980943 0.29071853 0.2244134 0.10491046 0.26276767 -0.18383507 0.07165949 -0.32237357
-0.009270041 0.26073018 0.18160981 0.15255587 0.20564668 -0.13331991 0.25932512 -0.12900728
-0.21402499 0.12533838 -0.028911412 0.2670882 -0.04292059 -0.14965762 -0.015633881 0.049706936
-0.15817031 0.054956347 -0.25575393 0.2610265 -0.18240206 -0.02604706 0.31618783 -0.016385382
0.20469663 -0.3462933 0.020861289 0.0246374 -0.06982792 -0.14058805 -0.2207104 -0.25716048
0.2566877 -0.056916475 -0.31513366 -0.082255244 0.26238889 -0.23857398 0.038348395 -0.26136398
-0.2469353 -0.24601112 0.25066334 0.028302819 -0.09187392 -0.0062542586 -0.08473947 0.34164935
-0.19904394 -0.05834434 -0.053094987 -0.105982594 -0.0042510144 -0.09130438 0.2861027 0.14648552
-0.105986856 -0.21460362

projection.layers.17.bias f4 [25]
00000000: 4e55 8c3e da4e 633e 6e9c 743e f29e 4abe
00000010: 2041 b73c 657f 6b3e 9a2b 333e 8146 603e
00000020: 48b7 5abd 3ec5 6cbe 2b24 2ebe 63a1 8c3c
00000030: 28e8 1a3e 5373 d93d 8a90 b5bd 26a3 0b3d
00000040: 9af5 90bd e8f2 14bd b8e6 8b3d 1e30 4fbe
00000050: a4fd 99be f8b6 803e 81bf fa3d 9c8c 823e
00000060: 19c7 913e
0.27408832 0.22198048 0.23887798 -0.19787195 0.022369921 0.22997816 0.17497101 0.21901895
-0.053397447 -0.23122117 -0.17005984 0.017166799 0.15127623 0.106176995 -0.08865459 0.034091137
-0.07078095 -0.036364466 0.068311155 -0.20233199 -0.30076325 0.25139594 0.12243558 0.254979
0.28472212
