actor.pth (torch, 755462 bytes, 119 tensors)

projection.layers.0.weight f4 [16, 4]
000000 a3 45 c9 3c f9 e0 d4 3e a9 6c 70 3e 3f 8d ba 3e
       0.024569338 0.4157789 0.2347895 0.36435887
000010 4f 8f bb be 74 47 81 3d 73 d8 d2 3e c9 16 d3 3d
       -0.36632773 0.06312457 0.41180763 0.1030708
000020 16 68 55 3e cb 8b b9 3e 7d 9c 7a bc b9 cf 36 be
       0.20840487 0.36239466 -0.015296099 -0.17852677
000030 f4 15 11 3e 2f 28 1f be 2f 68 bc bc 7c 57 6a 3e
       0.1416853 -0.15542673 -0.022998897 0.22884935
000040 6b 13 b3 3d e9 08 17 3e 40 44 7a 3e 95 92 51 be
       0.08743938 0.14749493 0.24440098 -0.20466073
000050 c3 e1 e5 bc 17 c6 83 be 7a 07 f1 be 6c 5a 16 be
       -0.028061753 -0.25737068 -0.47076017 -0.1468293
000060 f4 18 a5 bd aa 55 a7 3e a3 8f 65 3d f2 ae b9 be
       -0.080614 0.32682544 0.056045186 -0.36266285
000070 b1 b5 c7 bd e7 8c 4a 3e 23 8b f2 3e 43 39 b4 be
       -0.09751452 0.19780312 0.47371778 -0.35199937
000080 01 7a f8 bd 3a 4c 01 3f 1c 2b fb be b8 ab 3c bd
       -0.121326454 0.5050694 -0.49056327 -0.0460622
000090 0b 43 6b be 1a 5d c5 be a2 87 46 3e 90 b5 23 be
       -0.22974794 -0.38547593 0.19387677 -0.1598723
0000a0 3d d1 dd 3e 49 cd 01 bd 23 f6 ad 3d 13 9a 76 3e
       0.433237 -0.031689916 0.084942125 0.24082212
0000b0 64 e2 fb 3e a8 35 c9 3e 9d 0a 71 3d 9e f5 69 3e
       0.4919616 0.3929875 0.058848012 0.22847602
0000c0 c0 77 b8 3e 6e 67 92 be ad a3 4d 3e 9f b5 a9 be
       0.36028862 -0.28594536 0.20081969 -0.33146378
0000d0 fa 3e 25 be 23 1d a5 3e 5c 8c fc be 79 7f 8a 3e
       -0.16137305 0.32248792 -0.49325836 0.2705038
0000e0 bd 1b f7 3d 52 91 aa 3d 94 4e ac 3e 01 4b 1b 3c
       0.120658375 0.08328499 0.336537 0.009478332
0000f0 c1 64 91 be f0 74 a7 be 41 d3 64 3e 24 99 ce bd
       -0.28397182 -0.32706404 0.22346212 -0.10087803

projection.layers.0.bias f4 [16]
000000 e0 86 a1 bd ab 41 f6 3d a7 cb 41 bd cf 2b d3 bc
       -0.078870535 0.12024244 -0.04731336 -0.025777726
000010 27 1a 63 3b a4 d5 75 be fc 2b cf 3e 83 47 f7 be
       0.003465304 -0.24007279 0.40463245 -0.48296747
000020 b4 83 cb be 8c c6 ae 3e 97 a8 f7 be 69 08 e2 3e
       -0.3974892 0.34135854 -0.4837081 0.4414704
000030 e4 9b 3d be bf a2 1d 3e 7c 8e 92 be 8b 95 18 bc
       -0.18516499 0.15394114 -0.28624332 -0.009312998

projection.layers.1.weight f4 [20, 16]
000000 fe ab 67 3e d6 95 72 be 26 37 47 3e 9a 4e 32 bc
       0.22624204 -0.2368997 0.19454631 -0.010882998
000010 c9 55 3b be 4b 9d d2 bb 7b 39 2f 3e dd 1c 08 3e
       -0.18294443 -0.006427442 0.17111771 0.1329226
000020 7e d9 ab 3d 91 a5 80 bd 76 b0 4a be 8d cd 05 3c
       0.08391093 -0.06281579 -0.19793877 0.008166683
000030 4b 0e 3a 3e b8 82 6e 3e ed f5 49 3e ac 99 f1 bd
       0.18169515 0.23292053 0.1972272 -0.11796889
000040 30 4f c7 bd dd 04 98 bd 49 1f 26 3c 6a 18 98 3d
       -0.09731901 -0.074228026 0.010139295 0.074265316
000050 de 51 71 3e 97 9a 0a be 70 b9 f2 bd 13 61 41 3e
       0.23566386 -0.13535534 -0.11851776 0.18884687
000060 22 a9 89 bd d3 2e 77 3e 8e 1d a6 bd eb e2 24 3e
       -0.06721713 0.24138956 -0.08111106 0.16102187
000070 0a b1 10 3e ef 1d 09 be 09 2f 61 3d db 20 3c be
       0.14130035 -0.13390325 0.054976497 -0.18371908
000080 6f 2f 30 3c 9b c1 fb bd 41 aa bc 3c 8d 8f 5c 3d
       0.010753497 -0.12292787 0.023030402 0.05384784
000090 1d f4 76 be b3 e1 6b be 9a 05 e5 3d 25 55 07 3e
       -0.2411656 -0.23035316 0.11182709 0.13216074
0000a0 10 b7 a4 bd e8 0f 0f 3e 28 8f c0 3c df e5 f0 3c
       -0.08042729 0.13970912 0.023505762 0.029406486
0000b0 24 d4 57 3e dc 38 96 3d c4 5d 31 3d cc ce 90 3d
       0.21077019 0.07335064 0.043302312 0.070706934
0000c0 f9 e8 17 3e ac 7c 51 be ce 28 2c 3e 70 22 02 3e
       0.14834966 -0.20457715 0.16812441 0.1270845
0000d0 b6 66 04 be 99 b7 b3 bc e7 e2 c0 bd d4 48 05 be
       -0.12929806 -0.021938132 -0.09418278 -0.13016063
0000e0 26 ef 25 bd 18 bc 7c 3d db fb 75 3e b3 fb 26 bd
       -0.040511273 0.061702818 0.24021856 -0.040767383
0000f0 35 8e cc 3d 41 9a 57 3d 2e 9b be bc 2c b2 23 be
       0.09988061 0.052637342 -0.023267355 -0.15985936
000100 5a 91 df bd b5 f0 21 3e 28 0d 6e 3e 01 48 ca bc
       -0.109163955 0.15814479 0.23247206 -0.024692537
000110 e9 98 01 be c3 24 1b 3c 00 51 4f be ca cf 26 bd
       -0.12655987 0.009469214 -0.20245743 -0.040725507
000120 d3 34 32 3d 20 a6 f5 3d 67 51 33 3e 53 f9 07 3e
       0.04350741 0.119945765 0.17511521 0.13278703
000130 b0 bc 04 be 06 f1 18 3d 37 c5 a0 bd ae 2a 40 3e
       -0.12962604 0.037339233 -0.07850116 0.18766281
000140 00 fc 41 3d 86 13 e7 bd 35 8a 75 bd 7f b0 2d 3e
       0.047359467 -0.11283021 -0.059946258 0.16961859
000150 09 1d 55 be 89 3d 12 3e e4 f8 59 be 47 32 2e be
       -0.20811857 0.14281286 -0.2128635 -0.17011367
000160 f3 44 9c 3d 9a c3 8b bd 61 9f 0d 3c 8e d7 24 3e
       0.076303385 -0.068244174 0.008643956 0.16097853
000170 de 55 52 3e 23 d9 1f bc fc 13 88 bd 85 17 36 3e
       0.20540568 -0.009756359 -0.06644437 0.1778241
000180 0b 1c 22 bc 1e e6 fe bd f9 ec f9 bc 67 49 84 bd
       -0.009894381 -0.12446235 -0.030508505 -0.06459313
000190 0d 92 1c be 25 8e 10 be 67 ed 12 bd 8c e2 de bc
       -0.15290089 -0.14116724 -0.035870936 -0.027207635
0001a0 9b 7d 83 bd 8e b9 35 3e 44 79 ca 3d 27 06 7d 3e
       -0.06420442 0.17746565 0.09886411 0.24709378
0001b0 9d 39 da 3d d4 34 b3 3c a0 74 7d 3e 66 bf 1b be
       0.1065552 0.021875776 0.2475152 -0.15209731
0001c0 20 6b 91 3d 97 59 7a be 19 2a 3a bd 14 55 48 3d
       0.071005106 -0.24448238 -0.045450304 0.04890926
0001d0 01 dc fb 3d 20 58 48 3e 6e 13 37 be 19 85 55 be
       0.12297822 0.19564867 -0.17878506 -0.20851554
0001e0 e1 b9 85 3d 88 46 70 be a1 17 6b 3e 3f 94 2e bc
       0.06529594 -0.23464406 0.22958232 -0.010655462
0001f0 a2 7c bc bc 06 77 a5 bb 88 1c 05 be c0 99 0a 3e
       -0.023008648 -0.005049589 -0.12999165 0.13535213
000200 22 b9 9e 3d 16 93 21 be 35 f5 34 be c8 2b 07 3e
       0.07750155 -0.15778765 -0.17671664 0.13200295
000210 1c 05 de bd 9e f9 1e be 25 79 00 be ea b4 40 be
       -0.10840818 -0.15524909 -0.12546213 -0.18819013
000220 47 3f fc 3b 30 54 41 3e 26 1a c5 bd 60 b9 6a be
       0.007697973 0.18879771 -0.09624128 -0.22922277
000230 cb a9 a2 bd 78 41 2b be 1c e8 45 3e 41 b4 3d be
       -0.07942542 -0.16724193 0.19326824 -0.18525793
000240 df 21 5a be 38 56 ad 3d 16 3c a0 bd 57 28 08 be
       -0.21301983 0.084637105 -0.078239605 -0.13296638
000250 4f 59 c5 3b 71 bb 61 3e 4d d6 01 be 17 3f 68 be
       0.0060226093 0.2204416 -0.12679406 -0.22680317
000260 41 18 b0 3d 1a cc b6 bd a6 b8 fa 3c b3 b8 25 be
       0.08598376 -0.08925648 0.030605625 -0.16183738
000270 86 b0 09 3e 23 cf 3e bd 2c 8d 4b 3e ca 43 46 be
       0.13446245 -0.04658426 0.19878072 -0.19361797
000280 26 08 5d 3e fd 08 59 3e 88 3f 1f be 19 f3 00 3e
       0.2158514 0.21194835 -0.15551579 0.12592734
000290 c4 b1 60 3e 92 87 08 be 83 72 94 bd 7f d3 07 bd
       0.21942812 -0.13332966 -0.07248404 -0.033160683
0002a0 28 b6 32 3e 96 6f c1 3d cd 68 0d be 67 ec 71 3c
       0.174523 0.094451115 -0.1380951 0.014765835
0002b0 c6 33 a4 3d c2 55 7e be b5 d0 2b 3e 77 49 da bd
       0.080176875 -0.24837402 0.16778834 -0.106585436
0002c0 12 4c 0e be fa bc 0d 3e 33 1c 5a be 52 b9 00 3e
       -0.13896206 0.1384162 -0.2129982 0.12570694
0002d0 ce a4 56 3e ee 96 b4 bd 1d c4 a3 3d f0 0c 38 3e
       0.20961305 -0.0881785 0.0799639 0.17973685
0002e0 34 ec 01 be e5 d5 e7 3d 0e 42 d0 3d da 47 24 be
       -0.1268776 0.11320094 0.10168849 -0.16043034
0002f0 49 f8 6e 3e 34 f6 49 3e 48 7f 80 3e e3 92 a2 bc
       0.23336901 0.19722825 0.25097108 -0.019845432
000300 30 13 32 be d9 5c 34 bd f7 5f 27 be 54 ab 72 3e
       -0.17390132 -0.04403386 -0.16345201 0.23698169
000310 df f0 22 3e 73 af 03 bd 9f f8 4c 3e c3 8f 17 be
       0.15912198 -0.032149743 0.20016716 -0.14800934
000320 c8 72 76 bd e3 cf 28 3e 75 f6 5f be 14 a8 14 3d
       -0.060168058 0.16485552 -0.2187136 0.036293104
000330 d1 80 c7 bd 9c 8f 90 3c 48 59 e4 3c a5 69 d5 bd
       -0.09741367 0.017646603 0.027874604 -0.10420541
000340 7c 41 2e be a8 47 1b 3c 09 1c 46 be 52 de b0 bd
       -0.17017168 0.009477533 -0.19346632 -0.08636154
000350 96 61 43 3e 19 3c 33 3e 43 08 5e 3d 22 cb c9 3d
       0.19080195 0.17503394 0.054207098 0.09853198
000360 74 34 ea 3c 83 a0 34 be e9 4b f7 bc 02 b5 fb 3a
       0.028589465 -0.17639355 -0.030187564 0.0019203725
000370 d9 05 50 3e 51 05 95 bd 76 d0 21 bd 25 d2 c8 bd
       0.2031473 -0.07276405 -0.039505444 -0.09805707
000380 4e 8a db 3d bf b8 6e 3e c1 a2 f6 3d c3 8f 84 bd
       0.10719739 0.23312663 0.120427616 -0.06472733
000390 fc f0 00 be 53 e5 05 3e d7 63 20 be fc 14 40 3e
       -0.12591928 0.13075761 -0.15663086 0.18758005
0003a0 97 90 7e be 32 80 01 be 87 d4 61 3b cb 25 55 be
       -0.24859844 -0.12646559 0.0034458952 -0.20815198
0003b0 bd 1d 96 bc cc 3b 25 3c b0 6a 6f 3e da 65 33 be
       -0.018324727 0.0100850575 0.23380542 -0.17519322
0003c0 da b8 29 bd e6 ed 31 be 8c 51 fb 3c 66 d3 a0 bd
       -0.041436054 -0.17375907 0.030678533 -0.07852821
0003d0 7b 2a 89 3d 38 33 2e bc 99 b0 4f be b3 14 3a 3e
       0.06697556 -0.010632329 -0.2028221 0.18171959
0003e0 c6 2c 37 3e 0a 6e 33 3e d1 b6 45 bd 39 71 36 be
       0.17888173 0.17522445 -0.04827005 -0.17816629
0003f0 a5 2c 4c be 15 ed eb 3c 5c 78 23 3e 1c 1e b6 bb
       -0.19938906 0.028799573 0.15963882 -0.0055577885

projection.layers.1.bias f4 [20]
000000 d8 3e 0b be 86 2c 80 3c f0 0e 62 bd 3a c7 3e bd
       -0.13598192 0.01564623 -0.055190027 -0.046576716
000010 bb 1d 3c 3e af 5b 55 be c6 4a c1 bd 25 77 5c 3d
       0.18370716 -0.20835756 -0.0943809 0.053824563
000020 72 0f 63 be 3c 1a ee 3d fd c2 a8 bc fb 33 fe 3d
       -0.2217386 0.116260976 -0.02060079 0.12412258
000030 5c a9 64 3e b3 85 01 be 49 af 11 3e ea 5f 23 be
       0.2233023 -0.12648658 0.14227022 -0.15954557
000040 d1 4d ba bc c2 28 e9 3d 25 49 d3 bd 31 f4 cd bd
       -0.022742184 0.11384727 -0.103166856 -0.100563414

projection.layers.2.weight f4 [20, 20]
000000 68 42 61 be 5c 76 b7 3d 18 29 a7 3d c1 cf 2a be
       -0.21997988 0.08958122 0.08162135 -0.16680814
000010 75 8b fa 3b cb 18 1c be ea b0 d2 bd a4 7b db bc
       0.007646019 -0.15243833 -0.1028765 -0.026792355
000020 f0 0e 3a be bf 81 59 3b fc 48 86 3d 92 79 67 3e
       -0.1816976 0.0033188907 0.065568894 0.22604969
000030 fa 7e 15 3d 0e 99 ed 3c 0c 1e a5 ba c2 ec 38 3e
       0.036498047 0.029003646 -0.0012597456 0.18059066
000040 d8 6a 5f 3e ce c5 15 be 08 92 31 be 82 33 de 3d
       0.21818101 -0.14626238 -0.17340863 0.10849668
000050 74 75 3d 3e 7a 6b d9 bd a8 dd 52 be c7 cb 21 be
       0.18501836 -0.10616203 -0.20592368 -0.15800391
000060 d5 96 4d 3e 35 06 2b 3d d1 9e 39 be 26 a6 4d 3e
       0.20077069 0.041753966 -0.1812699 0.20082912
000070 e0 c7 4f bd d6 48 97 3c c8 45 14 be b1 2e 4b be
       -0.050727725 0.018467348 -0.14479744 -0.1984203
000080 2b 13 cf 3d aa ec 08 be 98 30 c8 bd fd 43 34 be
       0.10111078 -0.1337153 -0.097748935 -0.1760406
000090 11 a5 15 3e 7c 6a 42 3e 97 05 a3 3d 3f ee 10 3e
       0.14613749 0.18985933 0.079600506 0.14153384
0000a0 81 0f 0e be 1f 39 54 be 43 44 9b 3c ee 18 1d 3d
       -0.13873102 -0.20724915 0.018953448 0.038353853
0000b0 24 7a 31 be f3 fc 90 bd 66 bd 54 be 95 1f 1f bd
       -0.17331749 -0.07079496 -0.20775375 -0.03884848
0000c0 a0 b5 cf bd d7 16 05 be c0 c6 5c be c5 33 92 bd
       -0.10142064 -0.12996994 -0.21560192 -0.071387805
0000d0 10 f5 28 3e 7f a7 a1 bd 09 16 d6 bc c9 23 d4 bd
       0.16499734 -0.078932755 -0.026133554 -0.10358388
0000e0 0e 58 70 3d fa 5c 1c 3e ff ac b6 bd cd 83 65 3e
       0.058677725 0.15269843 -0.08919715 0.2241356
0000f0 2f 1f 1e be 8d 97 4f 3e 98 ac 8a 3c d4 33 11 3d
       -0.15441583 0.20272656 0.016928002 0.035449818
000100 34 64 88 bd f6 86 44 3e 3d 01 1a 3e 95 6e 1b bd
       -0.06659737 0.19192109 0.15039535 -0.037947256
000110 9b dd 3c 3d 0c cf 9b bd 96 6b 48 3e c2 a2 84 bd
       0.046109777 -0.076078504 0.19572291 -0.06476356
000120 dc e9 1e 3e 23 b1 08 3e 7b fe 59 3e f0 24 79 3d
       0.15518898 0.13348822 0.21288483 0.060826242
000130 65 50 1e 3e 8b 3b 55 3e aa 09 1c be 75 b1 23 be
       0.15460356 0.20823495 -0.15238062 -0.15985663
000140 86 1d 5f 3e bb 4b e1 bc 9a a7 86 bd 90 bd ca bd
       0.21788606 -0.027501931 -0.06574936 -0.098994374
000150 a6 59 5c be 5b 10 f4 3d de 16 83 3c 59 50 3c be
       -0.21518573 0.11917182 0.016002115 -0.18390025
000160 3c 37 62 3d d9 42 44 3e 45 5d 0b 3e b5 fd 59 be
       0.055228457 0.19166125 0.13609798 -0.21288188
000170 d9 4e b6 3d 71 b2 0c be 11 0d 5c 3e 99 19 56 be
       0.08901758 -0.13739945 0.2148936 -0.20908202
000180 45 dd 6f bc 4e 9b 0d be a8 94 ed bd 1b fc 4d 3e
       -0.014640157 -0.13828775 -0.116006196 0.20115702
000190 23 45 60 3e 66 41 25 3e ea 4b 12 be 40 8b 0b be
       0.21901374 0.16138229 -0.14286771 -0.13627338
0001a0 f2 33 01 bd c7 58 f8 3c cf 26 22 bd 24 80 ad 3d
       -0.03154368 0.03031577 -0.039587792 0.084717065
0001b0 63 0e 5a 3e b3 92 64 3e ed 07 01 3d 8e 14 69 3d
       0.2129455 0.22321586 0.0315017 0.056904368
0001c0 7a df e5 bd 9d 6b 20 3d 00 e2 43 be 0b 72 42 be
       -0.112242654 0.039165128 -0.19129181 -0.18988816
0001d0 35 7f 5e be a0 fb 39 be a3 7b 5b 3e 36 e6 f4 3d
       -0.21728213 -0.18162394 0.21433882 0.11957972
0001e0 64 1c cb bd 24 e1 57 bd 91 7f 13 3d 9d 0b 6f bd
       -0.099175245 -0.052704945 0.03601033 -0.058360685
0001f0 b0 6c 65 3e bc 3a 99 3d 27 3f 29 3e e0 5f 48 3e
       0.22404742 0.07481906 0.16527997 0.19567823
000200 f2 f6 54 be c7 74 05 be a5 d2 63 be 33 68 8e bd
       -0.20797327 -0.13032828 -0.22248323 -0.06953468
000210 41 66 56 3d c8 9b f3 bd 6a 03 c3 3d b5 e3 5a 3e
       0.05234361 -0.11894947 0.095221356 0.21375926
000220 19 74 0a be c3 75 5a be d3 a7 63 be 9e 60 da bc
       -0.1352085 -0.21333985 -0.22231989 -0.026657399
000230 4c 1c 1e be d7 0a 3b be 37 96 8c 3d c3 34 cd 3d
       -0.15440482 -0.18265854 0.06864589 0.10019829
000240 50 18 40 be aa 25 8b 3b b2 0c 4a be b5 29 47 be
       -0.18759274 0.0042464333 -0.19731405 -0.19449504
000250 0a a4 58 3e 97 04 27 3d a1 6d 8e 3d ff 3c be 3d
       0.21156326 0.04077586 0.06954504 0.09288978
000260 de 1d 74 3d de 96 0b be 28 55 d4 3d 8d 63 62 bc
       0.059598796 -0.1363177 0.10367805 -0.01381768
000270 df 3c 4c be 86 5c d5 bd 76 b8 63 bd 30 1d 30 be
       -0.19945095 -0.10418038 -0.055595838 -0.17198634
000280 2d 9f 54 3e be a5 5b 3e 9f 14 ee 3d 7c d9 30 3e
       0.20763846 0.21449944 0.11625027 0.17270464
000290 1b dc 0f 3e eb 7d 96 bc 0d 8f 59 3e b5 38 d2 3d
       0.14048807 -0.01837059 0.21245976 0.10264722
0002a0 c0 db b6 bd 21 70 29 be cd 0f 49 be da 35 9d bc
       -0.08928633 -0.1654668 -0.19634934 -0.019190717
0002b0 95 65 2e 3d a8 0f 9c bb 4b ee cf bc 44 03 b7 bd
       0.042577345 -0.0047626086 -0.025382182 -0.0893617
0002c0 71 b8 e0 3d a7 4b 3e be 93 d8 91 3b 53 be 5c 3e
       0.109726794 -0.18583547 0.0044508665 0.21556978
0002d0 6a 10 52 be 30 08 91 3c 68 3a 33 bd 23 7b f2 bd
       -0.20514074 0.0177041 -0.043756872 -0.11839893
0002e0 b7 57 54 3d e7 df 37 3e 2b a5 ab 3d 17 0c b5 3d
       0.051841464 0.17956506 0.08381113 0.088401966
0002f0 61 e6 03 3e ec a5 57 bd 70 2f e2 3c 17 fd 5a 3e
       0.12880851 -0.05264847 0.02761051 0.21385609
000300 18 b7 cf bd b6 82 a0 3d 01 73 5c be c9 a9 7a 3d
       -0.10142344 0.07837431 -0.21528246 0.061197076
000310 71 86 14 3d 06 95 a8 3d eb 76 9b 3d 8d 4b ee bd
       0.036261026 0.08231549 0.07591041 -0.11635504
000320 42 27 51 3e 7b b2 2e be 7c b1 0a 3e bc 99 8d bd
       0.20425132 -0.17060272 0.13544267 -0.06914088
000330 19 68 16 be ff 6a 44 3e 66 12 96 bd 20 06 60 3e
       -0.14688148 0.19181441 -0.07327728 0.21877337
000340 9a dd 5e be ba bd db 3c bf 63 c6 bd 33 4c 33 be
       -0.21764222 0.026823867 -0.09686994 -0.17509536
000350 23 90 65 3e 9a 2c e9 bc 06 26 45 3e fe d6 20 bd
       0.22418265 -0.02846365 0.19252786 -0.039267533
000360 1c 1d 1c 3e 55 29 4b be dc a2 1f 3e 00 be 70 3d
       0.1524548 -0.19839986 0.1558947 0.058774948
000370 46 1a 4c 3e 0a 15 3f 3e 0c 76 63 3c 94 af 4f be
       0.19931898 0.1866037 0.013883125 -0.20281821
000380 3b 4d 58 3e b8 ef bd bd e7 90 ab bd 83 59 52 3e
       0.21123211 -0.09274238 -0.08377247 0.20541959
000390 a7 e7 35 3e 26 de 34 3e 12 51 6b 3d 90 95 48 be
       0.1776415 0.17662868 0.05745036 -0.19588304
0003a0 e3 51 0f be ef ba 64 3d 94 a9 49 3e 05 9a 57 3e
       -0.13996081 0.055842336 0.19693595 0.21054848
0003b0 f0 ba e8 bd 08 98 65 3d 13 89 fc 3c 36 da 45 3e
       -0.113637805 0.05605319 0.03082708 0.19321522
0003c0 c0 15 b4 bd 8a 18 23 be 21 36 d7 3d 3f ab e8 3d
       -0.08793211 -0.1592733 0.10508371 0.113607876
0003d0 f9 7b f6 3d 97 57 80 3c 07 e4 bb bd 82 d2 45 3e
       0.12035365 0.015666766 -0.09174352 0.19318584
0003e0 46 d0 c8 3b 1f 89 2c 3e 5d 82 0f be 01 fb 30 be
       0.0061283438 0.16849183 -0.14014573 -0.1728325
0003f0 75 f2 48 3e 4d e3 3e be 6c a3 92 3d 29 6c fb bd
       0.1962374 -0.18641396 0.071600765 -0.12276489

projection.layers.2.bias f4 [20]
000000 36 41 c4 3c 25 61 68 bd 50 3f 44 be 63 f0 86 3d
       0.023956876 -0.05673327 -0.19164777 0.06588819
000010 00 45 0a 3e 3e d6 43 bd 88 c4 5d 3e 95 ab 56 be
       0.13502884 -0.04781174 0.21657002 -0.20963891
000020 19 c9 b1 3d b5 ee e7 bc 28 1b 01 3e a3 89 10 3d
       0.086809345 -0.028312067 0.12608016 0.03528751
000030 c9 3c 7c 3d 0b 37 b5 3c b3 55 42 be 4a fb 4a bd
       0.061581407 0.022120973 -0.18978004 -0.049556054
000040 09 02 18 be da 7c 2f be 4f 55 f6 3d ac 4c 9c 3b
       -0.14844526 -0.17137471 0.1202799 0.004769882

projection.layers.3.weight f4 [16, 4]
000000 23 d8 76 be 54 a5 19 3e eb 83 23 3e c1 cc 54 bb
       -0.24105887 0.15004474 0.15968291 -0.0032470676
000010 31 26 87 3e 9d 7e b4 be 5a 05 ce 3d 6d 99 55 be
       0.26396325 -0.35252848 0.100596145 -0.20859309
000020 62 7a d7 be 6b ed 89 3e c1 c7 8f 3e 60 b5 f9 3e
       -0.42085558 0.26938948 0.28082088 0.4877119
000030 b6 26 86 3c 05 75 f5 3e 12 97 e3 be 70 a6 ec be
       0.01637588 0.4794084 -0.44451195 -0.46220732
000040 07 9c 93 3e c7 f4 ff 3e f0 b6 51 3e 84 2b 33 3e
       0.28829977 0.49991438 0.20479941 0.17497069
000050 74 f2 5a be 0e 3c 80 3d b7 e1 f0 be 36 15 5e 3e
       -0.21381551 0.062614545 -0.47047207 0.21687779
000060 76 eb 12 3c bd 6f 00 3f 1b 7a f0 be 97 99 9f be
       0.008967271 0.501705 -0.4696816 -0.31171867
000070 f2 a1 73 3e 49 e2 e8 3e 0b a9 0a 3d 8a 91 f4 3e
       0.23792246 0.45485142 0.03385262 0.47767287
000080 e0 21 a0 be 85 5d c0 be 30 4a 75 3e 44 65 b7 3e
       -0.31275845 -0.3757135 0.23954082 0.35819447
000090 79 49 25 be 5a b0 c7 3b fc 83 fb be e7 22 3d 3d
       -0.16141309 0.006094021 -0.49124134 0.046175864
0000a0 88 d8 af 3e 28 21 25 be b5 8d 9f be 31 50 96 3e
       0.34344888 -0.1612593 -0.311628 0.29358056
0000b0 11 90 f4 3e 54 1e 46 3e 64 df b6 bd 23 6b 86 3d
       0.47766164 0.19347507 -0.08929327 0.065634035
0000c0 57 30 f0 bd af f3 6a 3b 65 dc 0d be 64 af 5d 3e
       -0.1172797 0.0035850813 -0.13853605 0.21648937
0000d0 16 80 76 be ac a5 ae 3e 0b de 54 3d 44 49 d9 3d
       -0.24072298 0.34110773 0.05196957 0.106096774
0000e0 69 62 cf bd 35 76 66 3e a1 6b 98 be 2b fb a6 3d
       -0.10126192 0.2250603 -0.29769614 0.08153375
0000f0 83 25 a8 bd c1 53 2e be 91 3e dd 3c e3 9b ac 3e
       -0.0821028 -0.17024137 0.027007373 0.33712682

projection.layers.3.bias f4 [16]
000000 55 8c 45 be 54 33 7c bd 59 65 91 be 83 18 6c be
       -0.19291814 -0.061572388 -0.28397635 -0.23056225
000010 40 5d 0b 3e c2 d3 fb 3e 2d f3 a5 3c 78 91 ac 3e
       0.13609791 0.49184996 0.020257557 0.33704734
000020 e6 ac f1 bd 19 4c 3f 3e 6a 07 8c be 7b 2a ae 3d
       -0.11800556 0.18681373 -0.27349406 0.08504196
000030 94 cf 9f be 47 cc e7 3e a8 f4 c3 3e 65 a6 f4 3e
       -0.31213057 0.4527304 0.38272595 0.477832

projection.layers.4.weight f4 [20, 16]
000000 c5 52 1e be 6c 3a 7a 3d a2 f4 7a 3d 3a 67 0c 3c
       -0.15461262 0.06109087 0.061268456 0.008569533
000010 0f 6d 67 3d 99 68 2d 3e 00 14 87 3d ad 34 85 3d
       0.05650049 0.16934432 0.065956116 0.06504188
000020 39 a0 25 3e 0f 7a 12 3e 5d ba f9 3d a3 a6 54 be
       0.16174401 0.14304374 0.12193749 -0.20766692
000030 94 81 46 3d 4d 23 6d 3e be 04 46 3e 1f cd 0d 3e
       0.04846342 0.23157997 0.19337747 0.13847779
000040 b3 d2 aa 3d a0 95 31 3e 2e b5 86 bc c9 b9 2d be
       0.08340969 0.17342234 -0.016443815 -0.16965403
000050 35 d1 71 bd 61 8e a7 bd 32 1b 05 be ad f9 98 3d
       -0.059037406 -0.081814535 -0.12998655 0.07469497
000060 c1 04 54 be 22 2f 0c bd f1 ec 13 3d 44 69 07 3e
       -0.20704938 -0.034224637 0.036114637 0.1322375
000070 b1 5c 75 3e 3c 56 ed bd e4 ae 12 3e be c0 8b 3d
       0.2396114 -0.115887135 0.14324528 0.06823872
000080 f0 a2 18 3b 0b ff 80 3e 17 db 95 bd c3 ea 9d bd
       0.0023290478 0.25194582 -0.07317179 -0.07710793
000090 4b 11 62 3d e4 0a be bc bd 95 09 be 1c d1 67 3e
       0.055192273 -0.023198552 -0.13436027 0.22638363
0000a0 a7 16 80 3d 67 25 f5 bd 3b 83 35 3e 6a b6 fc bd
       0.062543206 -0.119700246 0.17725842 -0.1233948
0000b0 97 15 ad bc 2d 06 8e bd 0b 7c 42 3d c2 8f c7 bd
       -0.021128459 -0.06934772 0.047481578 -0.097442165
0000c0 bc 5e 2e be 05 58 44 be 85 87 02 bd de 07 35 be
       -0.17028326 -0.19174202 -0.031867523 -0.17678782
0000d0 b3 30 4b be 0b 69 4d 3e 1b ce 65 3e b2 5a dd 3d
       -0.19842796 0.20059602 0.22441904 0.108083144
0000e0 03 c7 e2 3d e5 05 fa 3d fb be 7a 3e d2 de 91 3c
       0.11073115 0.122081555 0.24486916 0.017806444
0000f0 04 f8 53 3e 55 83 83 3d 19 33 a3 bd 39 db ef bd
       0.20700079 0.06421534 -0.079687305 -0.11711735
000100 f0 11 79 bc 3d 78 fc 3d ae 6e 4c 3e 5e 9e 18 be
       -0.015202031 0.12327621 0.19964096 -0.14904162
000110 bf 7b 69 be 40 e9 69 3e ad 00 22 be a0 9b 1e 3e
       -0.22801112 0.22842884 -0.1582057 0.15489054
000120 05 9a d7 3d 10 7a 37 3e 5d e9 06 3e 27 96 17 3d
       0.10527424 0.17917657 0.13174959 0.03700843
000130 cb af 48 3d 36 0e 9d 3c bc bd d9 bd 24 7a d5 3d
       0.048995774 0.019171815 -0.10631892 0.10423687
000140 ff 41 1e 3e 35 c6 2a be 92 ef 2c 3e 99 2e 75 3e
       0.15454863 -0.16677172 0.16888264 0.23943557
000150 87 fa 1d 3e f3 51 44 3e 04 44 ea 3d c7 a0 36 be
       0.154276 0.19171886 0.11438754 -0.17834769
000160 2a 46 22 be 49 87 e4 bc 1b 18 71 bc 67 45 9a 3d
       -0.15847078 -0.02789654 -0.01471522 0.07532769
000170 2b 02 27 3e 12 74 db 3c 9b a3 02 3e d5 a3 62 be
       0.16309421 0.026788745 0.12757723 -0.2213281
000180 90 96 59 be c2 27 d8 3d dd d7 4f be 82 20 bc bd
       -0.21248841 0.10554458 -0.20297189 -0.09185888
000190 1b b8 39 be ae d4 ba 3c 18 43 57 be 7d 68 e2 3d
       -0.18136637 0.022806492 -0.21021688 0.11055086
0001a0 a9 cc 03 3e b8 54 fc 3d ea fb 4b 3e 7c 06 0b 3d
       0.1287104 0.12320846 0.19920316 0.03394173
0001b0 81 6c 8f bd 7f d6 3b be 95 ce 79 bb 3a 5c 8c bd
       -0.07003117 -0.18343543 -0.0038117517 -0.06853528
0001c0 db 93 10 be 21 53 fb 3c 9a 17 b7 3d d9 04 85 3c
       -0.14118902 0.030679287 0.089400485 0.016237663
0001d0 b2 ac b4 3d 70 f5 00 be 47 29 ec 3d e8 92 64 be
       0.088220015 -0.12593627 0.115313105 -0.22321665
0001e0 df 57 48 bd ce aa 6d bd c7 1c 82 3c 75 9c 36 3e
       -0.048911925 -0.05802422 0.015882863 0.17833121
0001f0 12 99 7a be 67 f7 0e be b2 e3 73 be 36 e4 75 be
       -0.24472454 -0.13961564 -0.23817328 -0.24012837
000200 f8 a9 6b bb d7 21 15 3d 6e 90 6f be 74 9f 57 3e
       -0.0035959464 0.036409225 -0.2339494 0.2105692
000210 a7 d8 b4 3c d9 55 57 3e f6 ef c6 3d 29 01 6f be
       0.022075964 0.21028842 0.09713738 -0.23340286
000220 bc 84 88 3c 4f a7 fd 3d bd 3f e8 bd 2d 5c c7 3d
       0.016664855 0.12385427 -0.11340282 0.09734378
000230 be cb 5e be fa 73 44 be 2c e4 56 3e 98 bb a8 3d
       -0.21757409 -0.19184867 0.20985478 0.08238906
000240 a2 a7 32 3e c2 18 21 be 20 04 eb bd 40 0e 42 3e
       0.1744676 -0.157321 -0.11475396 0.18950748
000250 a3 91 16 3e 8f ec 36 be b0 1b fa bd cd 2f 6d be
       0.14703993 -0.17863677 -0.12212312 -0.23162766
000260 a7 a7 3d be 72 59 91 3c 13 ea 70 be 67 ce 0b 3e
       -0.18520986 0.017742846 -0.23526792 0.13652955
000270 9f 20 cc bd b3 6b 50 3e 35 6f 18 3e 95 40 dc 3d
       -0.099671595 0.20353584 0.14886172 0.107545055
000280 fb 26 af bd 0f e2 72 be 16 7a 30 3e b1 0f 15 be
       -0.08552357 -0.23719047 0.17234072 -0.14556767
000290 54 88 40 bc 36 8f 08 be 8f 6d 34 3e 94 0b 7b 3d
       -0.011751253 -0.1333588 0.17619918 0.06129034
0002a0 3c 9b f2 bd 56 1e 24 3d 6a 84 5d be ec 30 6d be
       -0.11846015 0.040067993 -0.21632543 -0.23163193
0002b0 48 73 41 3e d6 f5 78 3d 13 df 62 3e 9b 1c f0 3d
       0.18891633 0.060781322 0.22155409 0.11724206
0002c0 f8 1e 94 3d ae 09 7a 3d 1a ce 44 3e ab b4 13 be
       0.07232469 0.061044388 0.19219247 -0.14424388
0002d0 04 7b 1e be e8 1c 4d 3e 46 f6 96 bd 1c dd 84 bc
       -0.15476614 0.20030558 -0.07371192 -0.016218714
0002e0 ec 57 4b 3e b6 15 cd bd 6e 77 65 3e c4 f6 94 bd
       0.19857758 -0.10013907 0.2240884 -0.07273629
0002f0 98 bc 0a be b3 4c 55 3e 62 64 e7 3d 2f 74 7d 3e
       -0.13548505 0.2083004 0.112984434 0.24751352
000300 63 dd b9 bd a0 c1 d4 bd 5e 05 69 3e d2 6c 61 3d
       -0.09075429 -0.103884935 0.22755954 0.05503542
000310 7d 56 62 3e f6 a9 44 bd 2c 7c 39 3e d8 6c 6a 3e
       0.22103305 -0.04801365 0.18113774 0.22893083
000320 49 60 2f bd bf ab de 3d 92 ba 0b be d2 05 9b 3c
       -0.042816434 0.10872602 -0.1364539 0.018923674
000330 a5 33 be 3b 7e 0b 2e be f1 ba 11 be 67 30 32 3c
       0.0058044964 -0.16996571 -0.14231469 0.010875798
000340 27 d1 47 bd db 08 77 3e aa 2f 58 3d d4 42 11 3e
       -0.048783448 0.24124472 0.05277983 0.14185649
000350 4c 08 e7 bd 0a 17 0f bd 7b 5f 15 be 20 68 91 bd
       -0.112808794 -0.03493408 -0.14587204 -0.070999384
000360 1a 88 34 3e 8b 8b 63 3e 66 a1 83 3d 92 7e 7a be
       0.17630044 0.222212 0.06427269 -0.24462345
000370 91 79 33 3d 2c b3 2f be fd cc 4e 3e af 65 54 3e
       0.043817107 -0.17158192 0.20195384 0.20741914
000380 b9 4b 22 3e 20 f2 9f bd e6 f7 e1 bd 84 bb 7d 3e
       0.15849198 -0.078098536 -0.11033611 0.24778563
000390 53 38 6b 3e 95 13 3b 3e c8 ae 70 3e b7 48 17 be
       0.22970705 0.18269189 0.23504174 -0.14773832
0003a0 75 bd dd bd fb 93 9f bd 8b c5 17 bc df c4 be bd
       -0.10827152 -0.07791897 -0.0092634065 -0.09314894
0003b0 ba 92 0c 3e cc dd 59 be 3f 4d 5b 3e 86 c7 02 3e
       0.13727847 -0.21276015 0.21416186 0.12771425
0003c0 87 4d 7a bc 59 50 68 bd 87 6e 1f be 1b e0 7a bd
       -0.015277273 -0.05671725 -0.15569507 -0.06124888
0003d0 2d bc f1 bd 6e c8 d6 bc 04 fa 39 3e 1e 30 05 3d
       -0.1180347 -0.02621862 0.1816178 0.03251659
0003e0 be a7 ce 3d 94 d0 6f be f6 8e ff 3d 25 9b 1b be
       0.10090588 -0.2341941 0.124784395 -0.15195902
0003f0 9f d1 a4 3d d9 50 dc bd b4 b2 39 3d fa b7 3d 3e
       0.080477946 -0.10757608 0.04533644 0.18527213

projection.layers.4.bias f4 [20]
000000 af a4 06 3d dc 87 f5 bd 31 f3 e1 3c 0d ca ee 3d
       0.0328719 -0.11988804 0.027581783 0.11659632
000010 25 8b a5 3b 62 40 7f bd 8e 27 f2 bd 42 1c 30 be
       0.0050519877 -0.06231726 -0.11823951 -0.1719828
000020 f1 a5 19 3e 36 de 3e 3e 42 fd 4d be 99 b5 66 3e
       0.15004708 0.18639454 -0.20116141 0.22530212
000030 19 e1 91 bc e4 8e 94 bd 5b 3f 4c 3e 1a ed c7 3d
       -0.01780753 -0.07253817 0.19946043 0.097620204
000040 15 f6 69 3e 1a 6e 71 be 0d 5c 10 3e 7c 73 89 3d
       0.22847779 -0.23577157 0.14097615 0.0671148

projection.layers.5.weight f4 [20, 20]
000000 58 b7 39 be c7 66 eb bb 16 65 b8 3d 68 ac 3c bd
       -0.18136346 -0.007183883 0.090036556 -0.046062857
000010 cc 97 ab bd 93 ff 3c 3d ec 8d 5c 3e f8 ee 0d be
       -0.08378562 0.046142172 0.21538514 -0.1386069
000020 51 5c 48 3d cf 37 f4 bd 0a 9b 60 3e 3a e7 ef 3c
       0.048916165 -0.11924707 0.21934143 0.029285062
000030 69 ae 09 3e 8e 59 9d 3d 20 95 61 3d 51 6a 1f 3e
       0.13445438 0.07683097 0.055073857 0.155679
000040 b4 9b 27 3e 5a 8f d2 bd 30 b3 50 3d 6f 45 3c be
       0.1636799 -0.102812484 0.050952137 -0.18385862
000050 fa f0 4d 3e c9 19 b2 bd 14 7e da 3d 44 55 5e 3e
       0.20111457 -0.086963244 0.10668579 0.21712214
000060 ff 37 cc bd bb af 23 bd 9c 78 f8 bd c8 0f b8 bd
       -0.09971618 -0.03996251 -0.121323794 -0.08987385
000070 40 0a e9 bd 73 19 56 3d d9 ff 52 bd b1 86 99 bd
       -0.11378908 0.052270364 -0.051513527 -0.074963935
000080 0d e8 2f 3c ee 3a 0d be 29 09 31 3e c1 13 16 3e
       0.010736478 -0.13792011 0.1728865 0.14655973
000090 32 d6 ea 3d dd 49 89 3d e3 86 d5 3d 85 11 1f 3e
       0.11466636 0.067035414 0.10426118 0.15534027
0000a0 4c fb 31 be 51 4d 0b be c5 ad f9 bd 7a c0 45 be
       -0.17381018 -0.13603713 -0.12191347 -0.19311705
0000b0 cd 70 36 be 97 24 4a be e2 b3 3d 3e a0 a3 4e be
       -0.17816468 -0.1974052 0.18525651 -0.20179605
0000c0 74 a7 5e be 29 8d 2b be 3d 55 e5 3d dc e8 6e 3d
       -0.21743566 -0.16753067 0.111978985 0.05832754
0000d0 d4 d6 0c be 7c 08 db 3c 00 90 5c 3e 7c 89 09 be
       -0.13753825 0.026737444 0.21539307 -0.13431352
0000e0 5d 8c 30 be d4 eb 33 3e 94 19 eb b9 ad 3b 06 3d
       -0.17241044 0.1757043 -0.0004484175 0.032771755
0000f0 49 b9 7f bd 0e af 02 be 3f 67 c5 bd 56 36 67 be
       -0.06243256 -0.1276209 -0.09638833 -0.22579321
000100 c2 3b 75 bd 91 37 88 bd e8 f4 d0 3d a7 2a 27 3e
       -0.059871443 -0.066512235 0.10202962 0.16324864
000110 77 91 f0 bd 56 da a4 3d ca 90 a5 3d c1 21 d2 3d
       -0.11746495 0.08049457 0.08084257 0.10260344
000120 dc 95 38 be 48 8b 80 3c 67 5e b2 bd 26 d2 17 3e
       -0.18025917 0.015691414 -0.08709412 0.14826259
000130 d0 88 32 3e b5 4f 2f bd 65 0e f2 bd b5 ea 3b be
       0.17435002 -0.042800624 -0.11819152 -0.18351252
000140 08 6c 17 bc 9e c7 4a be 7b 3b b5 bd 78 e6 42 bd
       -0.009242065 -0.1980271 -0.088492356 -0.047583073
000150 08 8d d6 3d c0 4d 6f bc e9 3a 00 be fc 1b 03 3e
       0.10476118 -0.014605939 -0.12522472 0.12803644
000160 66 0f 01 3e 50 52 3c 3e 0d 83 53 3e f7 70 52 3e
       0.1260353 0.18390775 0.2065546 0.20550905
000170 68 f5 15 be 6e db 6e 3d 32 63 33 3e d4 5d 4e be
       -0.14644396 0.058314733 0.17518309 -0.2015298
000180 b2 83 41 3e ae f7 2f be da 87 19 be c9 38 95 3d
       0.18897894 -0.17184326 -0.1499323 0.072862215
000190 ef 50 32 3d fe 6e f2 3d 9e 3a b4 3d 01 ed e6 bc
       0.043534216 0.11837576 0.08800243 -0.028189184
0001a0 84 3a 5d 3e d7 b8 56 3e aa f8 fe bd 80 99 59 bd
       0.21604353 0.20968948 -0.12449773 -0.053124905
0001b0 d2 99 57 3e 1a ac 1d 3e 23 00 e9 3c 93 19 2f 3d
       0.21054772 0.15397683 0.028442448 0.042749
0001c0 d4 8b 39 3e ed e6 50 3e 07 db a9 bd ca 71 55 3e
       0.18119746 0.20400591 -0.08293729 0.20844188
0001d0 b7 a5 0f be df cf 90 bd ea e2 3d be b5 74 f4 3d
       -0.14028059 -0.07070898 -0.18543592 0.119363226
0001e0 9f 68 e8 bb fb c7 3b 3e 82 98 db 3d f4 e5 bc bc
       -0.00709255 0.18338005 0.10722448 -0.023058869
0001f0 32 95 08 bc 5e b5 2c be fa 39 31 3e 6a c2 cd bd
       -0.008336352 -0.16866061 0.17307273 -0.10046847
000200 46 27 53 3e 76 b0 2b bb 85 6a ba bb 7f 2f 0a bd
       0.2062045 -0.0026197708 -0.0056889676 -0.033736702
000210 ea 7e 91 ba 20 fa 3e 3e 2e ae 36 3e d5 38 99 3c
       -0.0011100445 0.18650103 0.17839882 0.018703857
000220 6e 43 91 3d 6f 73 18 3e d4 41 50 be cd 14 17 be
       0.07092939 0.14887784 -0.20337611 -0.14754029
000230 56 1c 93 3b e5 6f a6 bd 78 07 9a 3d ed f0 01 3b
       0.004489462 -0.08126811 0.07520956 0.001982744
000240 43 c8 3d be 5f 2e 08 3e cf 0b 22 3e 90 0c 87 bc
       -0.18533425 0.13298939 0.15824817 -0.016485482
000250 19 94 5e 3e d2 9c 10 3d b1 82 e2 bd 4a 2f 5f bd
       0.21736182 0.035305806 -0.11060084 -0.054488458
000260 15 72 0e be 10 4a 4c 3e 47 7c 39 3e d5 77 12 3c
       -0.13910706 0.19950128 0.18113814 0.008939703
000270 5c 35 72 bd 14 74 33 be 94 2a 2e 3e 78 b1 ea bd
       -0.05913292 -0.17524749 0.1700843 -0.11459631
000280 e0 0d 29 be da d9 89 3c 12 0e 91 3d cb 94 26 3e
       -0.16509199 0.016827513 0.07082762 0.16267698
000290 d1 37 ca bc 47 d3 2a 3e 1e e0 61 3c 48 2e 35 be
       -0.024684818 0.16682158 0.013786344 -0.17693436
0002a0 31 52 31 3d 4c e6 45 3e 38 51 33 be ca 45 09 3e
       0.043291274 0.19326133 -0.17511451 0.13405529
0002b0 34 5d 06 3e 4b b7 01 bc e8 18 2c 3e be dd 3e 3e
       0.13121492 -0.007917236 0.16806376 0.18639275
0002c0 57 26 10 3e e5 1a 65 be b1 d7 53 be 9f b8 90 3d
       0.14077125 -0.2237354 -0.20687748 0.07066464
0002d0 45 15 15 3d 01 d8 c2 bc 67 0a 37 be 5e 3b e3 bd
       0.036397237 -0.02378464 -0.17875062 -0.11095308
0002e0 71 06 9e bc c1 6e 25 3e b3 cb 71 bd ec e3 a8 bd
       -0.01929018 0.1615553 -0.059032153 -0.08246598
0002f0 74 5e 5f be f2 35 10 be 1f 4c 02 be e2 53 e4 3d
       -0.21813375 -0.14083079 -0.1272435 0.11148812
000300 b7 48 9f bd 11 c6 2b 3e 7f e9 e1 bd 4f a6 2e be
       -0.07777541 0.16774775 -0.11030864 -0.17055629
000310 77 70 3a bd 35 2a dd bd 4f 1a fd 3c 64 41 25 be
       -0.04551741 -0.10799066 0.030896334 -0.16138226
000320 91 ac 61 be 13 13 8c 3d a5 cc b9 bd 02 4b d2 3b
       -0.22038485 0.068395756 -0.09072236 0.006417633
000330 88 c6 0f bd c5 e1 af bc 55 1b c5 bd 02 13 1e be
       -0.035101444 -0.02146996 -0.09624354 -0.15436938
000340 0d 9d f1 3d 7e 48 a0 3d 41 0b 30 be 05 e5 27 3d
       0.11797533 0.07826327 -0.17191793 0.040989894
000350 dd f6 4f be 39 32 dc 3d 32 bd 07 3e 11 e9 24 3d
       -0.20309015 0.10751767 0.13255766 0.040261332
000360 e9 24 bc bd 86 75 8b 3d 8f 8d 4f 3e ee f9 94 bc
       -0.091867276 0.06809525 0.20268844 -0.018185582
000370 33 30 5b 3e c3 f0 aa bd 37 ae 00 3e 63 58 38 bb
       0.21405105 -0.08346703 0.12566458 -0.0028128854
000380 03 57 11 3d 2a 07 ec 3d 1c e8 9b bd 05 ac 3d 3e
       0.03548337 0.11524804 -0.07612631 0.18522651
000390 c3 46 ec bd 14 88 d0 bd 7c 8b 41 be 80 cd d0 3d
       -0.11536934 -0.10182205 -0.18900865 0.10195446
0003a0 9d 32 c0 3c de f5 a3 3a f1 4b f7 3d 79 4e bc 3b
       0.023461634 0.0012509187 0.120750315 0.0057466594
0003b0 41 66 3a 3e 94 23 10 3d 69 28 62 3e cd 5d 49 bd
       0.1820307 0.03519018 0.22085728 -0.04916172
0003c0 2a 06 dc 3d ee 57 15 be 26 f1 33 3c 16 7f 8e 3d
       0.10743363 -0.14584324 0.010982787 0.069578335
0003d0 7b 88 61 be 06 f5 f9 bd b5 16 33 3e f1 05 93 bd
       -0.2202472 -0.12204938 0.17489131 -0.071788676
0003e0 79 9b 5b bd e4 5a 1c 3e bd f7 1f be 55 50 4e be
       -0.053615067 0.15269047 -0.15621848 -0.20147832
0003f0 03 16 4f bd 7c 13 21 be f7 da 63 3e 28 04 06 3e
       -0.0505581 -0.15730089 0.22251497 0.13087523

projection.layers.5.bias f4 [20]
000000 1c 1c 7f 3c 41 8b 64 be 96 00 5b 3e cc 4c fb 3c
       0.015570667 -0.22318746 0.21386942 0.030676268
000010 8c 31 1e 3e bf 6d d2 3d fa 37 f7 bd 4e 1f b8 bd
       0.15448588 0.10274839 -0.120712236 -0.08990346
000020 35 89 6f 3d 94 f8 e3 bd e9 64 10 be 3e d5 10 3e
       0.05848046 -0.11131397 -0.14100994 0.14143845
000030 a0 ca 0d bb 9d f3 49 bd e2 26 fc bd ac 55 19 3e
       -0.0021635666 -0.049304593 -0.12312104 0.14974087
000040 79 a8 16 3e b1 6f 59 bd b0 c8 72 3d 24 c5 17 3e
       0.14712705 -0.053085033 0.05927342 0.14821297

projection.layers.6.weight f4 [16, 4]
000000 96 2a 72 bd 51 24 b6 3e 2e 59 85 3e 72 2a 34 bd
       -0.059122644 0.35574582 0.260446 -0.04398579
000010 e4 9e 81 3e 06 fd 7a bd c7 66 fd be 93 6c cd be
       0.25316536 -0.06127646 -0.49492475 -0.40121898
000020 bc 0a df 3d 2a d0 f8 3e c5 ee ae 3e d1 69 9c 3e
       0.10890719 0.48596317 0.34166542 0.30549482
000030 00 51 24 3e 2b ea a7 3e e4 36 ff be 01 c9 90 be
       0.16046524 0.32795843 -0.49846566 -0.28278354
000040 ea a2 ba be a4 60 88 be 55 81 99 3e 17 73 b9 be
       -0.3645242 -0.2663623 0.29981485 -0.3622062
000050 bc ce cb be a3 9f 9f 3e c4 19 0a 3e 31 63 ff be
       -0.39806163 0.3117648 0.13486391 -0.49880365
000060 9e e3 92 be 59 e0 e3 be 66 6b 21 3e 79 2e 65 be
       -0.28689283 -0.445071 0.15763626 -0.22381009
000070 49 ea 8e be d3 53 fd be 1a 41 b5 be 66 6b c3 be
       -0.2791312 -0.49478015 -0.3540123 -0.38167876
000080 09 c8 e0 3e c4 36 9c be 5c 91 2d 3c a8 0a 35 be
       0.43902615 -0.30510533 0.010593738 -0.17679846
000090 91 ee c5 3e 9c 6d d7 be 42 5f 99 bb 1a 2e e2 3e
       0.38658574 -0.42075813 -0.004680545 0.44175798
0000a0 db 5c 36 bd 51 88 d2 3e a5 5b 65 be 0a 0f f6 3d
       -0.044522148 0.41119626 -0.22398241 0.12014587
0000b0 e8 1e 14 bd 8e 59 ba be 26 fb 93 bc 67 9e c6 3e
       -0.036162287 -0.3639645 -0.018064093 0.38792726
0000c0 50 19 2c 3e d6 e4 f3 3e b8 8f 87 bd dc 88 97 3c
       0.16806531 0.47635525 -0.06619209 0.018497877
0000d0 2c 7c 87 3c 88 9a bc 3d 60 82 84 3d 33 b4 fa 3d
       0.016538702 0.09209162 0.064701796 0.122414015
0000e0 f7 9d e7 bd 0b f7 6d be d9 6e 47 3e 59 64 c1 be
       -0.11309426 -0.2323877 0.19475879 -0.37771872
0000f0 7e ae 96 be 1c 16 87 3e 72 66 c3 3d ed a7 d8 be
       -0.29430002 0.26384056 0.09541024 -0.42315617

projection.layers.6.bias f4 [16]
000000 d2 4d 94 3e 50 dd 72 3e fa 98 5d 3d 74 10 ad 3e
       0.28965622 0.23717237 0.054100968 0.33801615
000010 4e 76 bd be 9c 9f 97 3e 0b df ea 3e 86 4e ec 3e
       -0.37004322 0.2961396 0.45873293 0.4615366
000020 0a 12 a5 3d 92 74 a8 3e a0 09 28 be 72 7e b5 bd
       0.08060081 0.32901436 -0.16409922 -0.08862008
000030 8d a3 4d 3e bd 07 eb bd 42 a9 be bd f8 7b 2a 3e
       0.20081921 -0.11476085 -0.09309627 0.16648853

projection.layers.7.weight f4 [20, 16]
000000 44 99 80 bd 35 b3 ad 3b b9 1a d5 3d 3e cd bc 3d
       -0.06279233 0.005300904 0.104054876 0.09218834
000010 ae 3e 5f be 41 75 2d 3e 04 2f 6e be 9e cb a3 3b
       -0.21801254 0.1693926 -0.23260123 0.0049986383
000020 d2 bc 40 3e c9 74 c7 3c 54 bd 60 be fa 79 0a be
       0.18822029 0.02434768 -0.21947223 -0.13523093
000030 6b bb 00 3e 74 dd 1e 3a 33 d1 0e be b0 88 ed bd
       0.12571494 0.0006060221 -0.1394699 -0.11598337
000040 5e 93 31 bd cf 97 6e 3e 1d 13 0b 3e 43 0d 55 be
       -0.04335343 0.23300098 0.1358151 -0.2080584
000050 e1 f9 31 be 2d 63 57 3e 81 99 e3 3d a2 7b 00 3e
       -0.17380477 0.21033926 0.11113263 0.12547162
000060 0e 9c 4f be ca c6 e1 3d 5e 2c fb bd 28 a8 4b 3e
       -0.20274374 0.11024244 -0.12264322 0.19888365
000070 93 ca 16 be 17 e9 46 bc cb 8a f1 bc de 2a 42 3e
       -0.14725713 -0.012140534 -0.029485127 0.18961665
000080 1a 22 10 3e 92 34 06 3e 70 80 1a be 5d 52 46 3e
       0.14075509 0.13105991 -0.15088058 0.19367357
000090 63 42 1a 3e 84 3c a4 bd d6 49 09 3e 70 0c 0c be
       0.15064387 -0.08019355 0.13407072 -0.1367662
0000a0 5b 94 20 3e 64 b8 10 be 5a ce 93 bd ad f1 3e bd
       0.15681593 -0.1413284 -0.07217093 -0.0466172
0000b0 71 63 18 3b cd e6 61 3e ce f8 f6 bd 89 fa 64 be
       0.002325263 0.220607 -0.120591745 -0.22361197
0000c0 b2 9d 28 bd c8 21 d5 3d 9c cf 11 3e a3 9d 92 bb
       -0.041166015 0.10406834 0.14239353 -0.004474358
0000d0 12 9d b3 3d 87 3f 65 3e 36 1b 7d 3e 8a 5c be bd
       0.08770193 0.22387515 0.24717411 -0.09294994
0000e0 a7 f5 29 be e4 35 19 3e 2a 78 01 be 6a eb f4 bd
       -0.16597615 0.14961964 -0.12643495 -0.11958964
0000f0 6d 41 6c 3e 5b 0c 5e 3e b0 ed 7c 3e 84 4d c8 3c
       0.23071833 0.216844 0.24700046 0.024451025
000100 46 8a 4a bd 33 b0 90 bd f4 82 17 3e c6 c3 74 3e
       -0.049448274 -0.07064857 0.14796048 0.23902807
000110 05 a6 30 3e 58 21 8d bd cc f6 66 be de ca 18 3e
       0.17250831 -0.068911254 -0.22555083 0.14921138
000120 b5 a7 01 bd 0f e3 de bd a6 b0 40 be 32 f5 17 be
       -0.03165408 -0.10883152 -0.18817386 -0.14839628
000130 c3 b4 58 3e 28 f7 f8 bd cc e3 50 3e c5 33 0e be
       0.21162705 -0.12156516 0.20399398 -0.13886936
000140 e1 cb 3f bd 29 85 e8 3d aa cf 68 3d 67 84 a2 bd
       -0.046825293 0.11353523 0.05683867 -0.0793541
000150 3d 31 7d 3e 87 78 2f 3e 52 ca 9c 3d 61 b2 63 3b
       0.24725814 0.17135821 0.07655777 0.0034743773
000160 19 8c d7 3d 2f 00 17 3e cf a2 16 be 15 38 71 be
       0.105247684 0.14746164 -0.14710544 -0.2355655
000170 b9 cc 80 bd c5 36 d0 bd da ec 61 be ec 64 96 bc
       -0.06289048 -0.101666965 -0.22063008 -0.01835867
000180 1b be 34 be 62 fc 35 be 2a b2 16 be 1e 9b 72 3e
       -0.17650644 -0.17772058 -0.14716402 0.23691985
000190 bc 9b 4a 3d 97 c6 eb 3d 80 67 4c 3e 4c df 12 bd
       0.049464926 0.115124874 0.19961357 -0.035857484
0001a0 a2 40 64 3d 7b 90 ae bd ce ed d1 bd c2 ff 3e 3e
       0.0557257 -0.08523651 -0.10250436 0.18652251
0001b0 53 9d 08 3d 56 a2 5f be 55 77 cf 3c 83 2d 90 3c
       0.03335316 -0.2183927 0.025325457 0.017599827
0001c0 23 78 00 be fe 8a 30 be ce c9 06 bd 7c 88 32 bd
       -0.12545829 -0.17240521 -0.0329073 -0.043587193
0001d0 4e ab 73 3e 6d 9e 38 be a1 87 15 bd 18 43 4f be
       0.23795816 -0.18029185 -0.0365063 -0.20240438
0001e0 6a 1d c2 3d 18 70 9b bc 7e 8c 2a 3d a5 2a 66 be
       0.094782665 -0.018974349 0.04163789 -0.22477205
0001f0 24 1e 83 3e 6d 46 1a 3e f9 c3 5c 3e 6d 8e aa bd
       0.25608933 0.15065928 0.21559133 -0.08327947
000200 a5 be ab 3d 8a 21 4a 3e 11 0c 2c be 4d a2 28 be
       0.08385972 0.19739357 -0.16801478 -0.16468163
000210 c0 90 57 be bb 75 4f 3e 9d d0 1d 3e e9 5d 68 be
       -0.21051311 0.20259754 0.15411611 -0.22692074
000220 50 1a 64 3e 29 22 d9 bd fe 08 e9 bd 9b 10 20 3d
       0.22275662 -0.10602219 -0.11378668 0.039078336
000230 f5 04 43 3e 6c 2d 32 bc f4 47 45 be ae 24 33 be
       0.1904486 -0.010875087 -0.19265729 -0.17494461
000240 b7 e2 60 be ae 4e 1f 3e ad 48 80 3d 94 1d 18 3e
       -0.21961485 0.15557358 0.06263862 0.14855033
000250 e9 76 0a 3e 87 c4 42 3d 75 79 77 be 84 f4 28 bd
       0.13521923 0.047550704 -0.24167426 -0.041248813
000260 90 30 98 bc 1b d4 48 be ff a8 a5 3c d2 e1 a6 3d
       -0.018577844 -0.19612162 0.020222185 0.081485406
000270 9e d7 f6 3c c8 ef ea bd 93 ff 38 3d aa 4a 97 3d
       0.030132111 -0.11471516 0.04516561 0.07387288
000280 90 68 0d 3e 34 c9 10 be 62 e8 8c bd b2 35 88 3b
       0.13809419 -0.14139253 -0.06880261 0.0041567916
000290 c5 f6 7c be 7f ff 3f be d3 05 68 3e 33 cb 22 be
       -0.2470351 -0.18749808 0.22658472 -0.15897827
0002a0 4c eb 64 be af 49 63 be c4 83 43 3e 94 62 6e bd
       -0.22355384 -0.22196077 0.19093233 -0.05819948
0002b0 ed f3 87 bc 11 99 77 bd 31 e0 53 be 37 e8 b5 bd
       -0.016595805 -0.06044871 -0.20690991 -0.08882182
0002c0 28 c6 91 bd 93 10 4f 3e b5 27 24 3e de 88 5d 3e
       -0.071178734 0.20221166 0.16030772 0.21634242
0002d0 34 84 7a be a6 9f 09 be 1f ed c1 bd 32 8d 16 be
       -0.24464494 -0.13439807 -0.094690554 -0.14702299
0002e0 93 3e 81 bd 13 fa 30 bd 90 08 06 3d 67 19 c3 3d
       -0.06310763 -0.04320724 0.03272301 0.095263295
0002f0 39 97 b3 3c 26 97 78 be 79 49 35 bd 81 da 5f be
       0.021922695 -0.24276409 -0.044259522 -0.21860696
000300 4b 2a 49 be 73 bd 36 3e 84 62 4f 3a e0 48 22 3e
       -0.1964504 0.17845707 0.00079111033 0.15848112
000310 68 1b 6e 3e 38 5d 04 be d0 01 7b bd 56 bd 82 bd
       0.23252642 -0.12926185 -0.061281025 -0.06383769
000320 37 d7 85 bd 36 6f 31 be 20 08 ce bc 5e 99 53 bd
       -0.065351896 -0.1732758 -0.025150359 -0.051659934
000330 52 0b 8e bd 2a ee 01 be 86 40 45 3e bf d3 e0 bd
       -0.06935753 -0.12688509 0.19262895 -0.10977887
000340 66 ab 22 3e 8f 1f fe 3d b7 8b 12 bd e9 40 67 3e
       0.15885696 0.12408363 -0.035777774 0.22583355
000350 92 07 1a be af 73 e1 3d 03 50 5f 3e 8c 43 3c 3e
       -0.1504195 0.11008393 0.21807866 0.18385142
000360 51 c6 62 3d 33 7a 4d 3e a4 a2 c9 3c 10 77 d6 bd
       0.05536491 0.20066147 0.024613686 -0.10471928
000370 29 c5 80 3e 86 a2 49 3e 38 c2 c6 3d 64 c5 64 3e
       0.2515042 0.19690904 0.09705013 0.22340924
000380 6c b0 36 be 68 5a 4e 3d f2 9d 7f be 3d 05 35 bc
       -0.17840737 0.050379187 -0.24962595 -0.011048612
000390 54 30 57 3e bc 05 11 3e 97 e9 fa 3d 9f 80 1d 3e
       0.2101453 0.14162344 0.12251585 0.15381096
0003a0 0f 4d ec bd 65 da 4b 3e 02 04 ba bd e4 64 28 be
       -0.11538135 0.1990753 -0.09082796 -0.16444737
0003b0 24 a0 cb 3d b4 71 92 bc 83 9a 52 3e c8 f6 23 bd
       0.09942654 -0.017876484 0.20566754 -0.04003027
0003c0 4e 70 f6 bd fc e2 80 bc 83 81 1e 3d 69 a7 04 be
       -0.12033139 -0.015733235 0.03869773 -0.12954487
0003d0 07 9a 2b 3d 40 1d 53 be 18 7c 1d 3e e2 46 c6 bd
       0.04189494 -0.20616627 0.1537937 -0.096814886
0003e0 92 e3 76 bd e4 2f 4a 3e 9c 0e 8a 3a 7b ca 64 3e
       -0.06027562 0.19744831 0.0010532918 0.22342865
0003f0 28 2e 6d be 0a c3 5a 3d 1d 83 12 bd 55 c7 94 bd
       -0.23162138 0.05340866 -0.03576957 -0.07264582

projection.layers.7.bias f4 [20]
000000 45 34 f5 bd f8 e0 3e bd 38 5e 45 be f0 d8 2a 3e
       -0.1197286 -0.046601266 -0.19274223 0.16684318
000010 a6 13 ff 3d c4 04 48 be 9e a6 ed bd 11 8e 47 3e
       0.124549195 -0.19533068 -0.11604045 0.19487788
000020 c0 30 34 3e 81 3a 61 3e 9b 7d 7c 3e ba 0e 0e 3e
       0.17596722 0.21994974 0.2465729 0.13872805
000030 af 14 f0 3d 38 96 20 3e 44 c5 ea bd 39 7d 00 3c
       0.11722695 0.15682304 -0.11463407 0.007842355
000040 ca 4e 6a 3e 4c 4a 56 3e cc a9 1c 3e 7e b8 af 3d
       0.22881618 0.2092678 0.15299147 0.08580111
