actor.pth (torch, 533928 bytes, 8 tensors)

layers.0.weight f4 [250, 20]
000000 a0 0b 0f 3e 8d 61 ab be 3e fa 8f be 18 10 91 3e
       0.13969278 -0.33472863 -0.28120607 0.2833259
000010 74 86 4d 3d dc 71 b1 bd 80 14 70 3d 93 4d 3a be
       0.050177053 -0.08664295 0.0586133 -0.18193655
000020 36 1c 0c be 5a e8 36 be f9 8d 2c 3e 59 29 13 3e
       -0.13682637 -0.17862073 0.16851033 0.14371242
000030 9e 65 91 bd 6d 9b 02 be 10 f4 45 3e 29 67 23 bf
       -0.0709946 -0.12754603 0.19331384 -0.63829285
000040 b2 92 13 bf dd db cf 3e 92 59 c9 bd 99 69 a2 be
       -0.57645714 0.4059743 -0.09831537 -0.3172119
000050 b8 96 a5 3d f2 40 4d be 8f bb b4 bc f6 49 9e 3e
       0.08085388 -0.20044306 -0.022062091 0.30915803
000060 33 92 b1 3e e1 08 25 be 95 af e8 bd ab a5 da bd
       0.34681854 -0.16116668 -0.113616146 -0.1067613
000070 f1 96 88 be 5b 51 4c be ff 94 47 3e ac 93 19 3e
       -0.2667766 -0.1995291 0.19490431 0.14997739
000080 ce 0a e1 3d 81 8a 00 3d 12 bc 37 3d fb 8f e0 bb
       0.10988389 0.031382088 0.044857092 -0.0068531013
000090 84 4e 41 be b4 d6 92 be d5 58 9b bd 25 4f e2 be
       -0.18877608 -0.2867943 -0.07585303 -0.44201007
0000a0 5f ce 23 be 01 9a 47 3e 74 85 53 be 56 24 7d 3d
       -0.15996693 0.19492342 -0.20656377 0.06180223
0000b0 c9 04 bb bd 16 09 99 bd 5b d7 1b be 57 e5 d2 bd
       -0.09131772 -0.07472436 -0.1521887 -0.10297649
0000c0 b5 c3 ca bd 72 8d 3c be e7 9b c4 3e 16 60 99 3e
       -0.099006094 -0.18413332 0.38400194 0.2995612
0000d0 17 ad 53 3c b0 58 68 3d ce c2 28 be 83 2c 06 3e
       0.012919686 0.056725204 -0.16480562 0.13102917
0000e0 34 6b 30 3c b7 fc 43 be c2 3f 2a be 66 63 aa bd
       0.010767747 -0.19139372 -0.16625884 -0.0831974
0000f0 cb fd fd 3a 16 77 8d 3e 81 d3 d4 3d 05 59 97 3e
       0.0019378004 0.27629918 0.10391904 0.29560104
000100 ee 0d 5c 3e 8d 6b 89 be e0 fc a4 bc 0f 4a af bd
       0.21489689 -0.26839867 -0.020140111 -0.085590474
000110 de d6 81 be 92 ed 88 3d 6c 7e 98 bd 5a 1d 81 3e
       -0.25359243 0.06685938 -0.07445988 0.25217706
000120 c4 d5 0f be b0 7c 52 be ed 48 dd bc 3b b2 14 be
       -0.14046389 -0.20555377 -0.027012313 -0.14521115
000130 e1 a4 f0 3d b2 8f 8f 3e 35 c7 00 be 91 40 56 be
       0.11750198 0.28039318 -0.12575991 -0.20923068
000140 b4 7c 0f be 99 c1 81 be 22 a1 59 3d 5e d2 4f 3e
       -0.14012414 -0.25343016 0.053132184 0.20295092
000150 ec 7a fe 3d af 90 09 be b0 bd 2d bc ee 1a 8e 3c
       0.12425789 -0.13434099 -0.010604307 0.017346825
000160 86 4f 31 3d 35 11 c0 bd 5e e8 cd bc df d0 40 be
       0.04328873 -0.09378282 -0.025135215 -0.18829678
000170 9e e8 83 3e 30 ec 5a 3b 9a b9 e7 3c 05 0d b1 3b
       0.2576341 0.003340494 0.028286744 0.0054031634
000180 d4 c3 80 be c4 1d 1b be fe cd 3e bd d9 e8 34 3f
       -0.25149405 -0.15148073 -0.04658317 0.706678
000190 c3 48 8c be 7b c3 4a 3e d1 f1 36 3e 1e 49 22 3e
       -0.27399263 0.19801132 0.17865683 0.15848204
0001a0 32 aa a0 be a9 b1 b8 3c 7e 00 e4 3e 73 9f 79 3d
       -0.3137985 0.022545652 0.44531626 0.06094308
0001b0 62 5f 45 be c4 47 ff bd f4 94 c5 bd c5 fc 47 3b
       -0.19274667 -0.1246486 -0.09647551 0.0030515653
0001c0 30 aa a1 3c 4d b0 c0 bd 08 b7 96 be 30 2a 06 3d
       0.019734472 -0.09408627 -0.29436517 0.032755077
0001d0 f9 6a 33 3d 13 0a 89 bd 08 d1 e7 bd 1e 4a fa 3c
       0.04380319 -0.06691375 -0.113191664 0.03055292
0001e0 73 73 6f be ce 63 bd bd e7 1e 9a bd 10 66 18 bd
       -0.23383884 -0.09247552 -0.075254254 -0.03720671
0001f0 23 d5 1c 3e d8 2f 35 bd e9 f8 30 3d 28 b3 70 3e
       0.1531568 -0.04423508 0.04320613 0.23505843
000200 a3 8b 2f be ae 78 80 bd 8f 0a bc 3e dc bf f3 3d
       -0.17143111 -0.06273018 0.36726806 0.11901829
000210 12 0b 59 be 15 10 be bd 41 f3 ce 3c 8c 52 30 be
       -0.21195629 -0.09280411 0.025262477 -0.17218989
000220 ea 51 48 be 02 53 d1 be 46 e3 6c 3e e7 ad 38 bd
       -0.19562498 -0.40883642 0.23133573 -0.04508772
000230 b9 d2 e5 3d 33 71 93 3e 70 c1 1a 3e 07 f4 85 3d
       0.11221833 0.28797302 0.15112853 0.06540685
000240 cf 46 eb bd 49 2d 84 3c 07 46 5c 3e 99 21 c7 3d
       -0.11488115 0.016134875 0.21511088 0.09723205
000250 37 43 ca bd 9e 4c 5a 3e dd c4 1d be df ea 18 be
       -0.098761015 0.2131829 -0.15407129 -0.14933346
000260 e8 bb 90 be ca 8b 04 3e 0a 3d 18 bf f9 2a 46 3e
       -0.2826836 0.1294395 -0.5946814 0.1935233
000270 65 bc bc 3e ff bb 05 3e f7 6d ff bd c2 b9 02 bf
       0.36862484 0.13059996 -0.12472146 -0.51064694
000280 4b 3b f9 3d f7 38 82 bd 02 f2 d2 3d 7f 5d 2b 3e
       0.12169512 -0.063585214 0.103000656 0.16734885
000290 fe 00 87 3e ee bb 61 3d c2 d4 68 be 32 38 54 bb
       0.26367944 0.055110864 -0.2273741 -0.0032382128
0002a0 d2 84 79 3e 0d 6e f0 be 94 ef 4d bd 53 3b b8 3d
       0.24367073 -0.46958962 -0.050277308 0.0899569
0002b0 02 05 1a 3e f9 11 7f 3d cd 8f e8 be f8 d3 29 be
       0.15040973 0.062273 -0.4542221 -0.16584766
0002c0 34 50 e8 bd c8 6f 48 3e 04 e8 ce bd 51 ab e0 be
       -0.113434225 0.19573891 -0.10102847 -0.43880704
0002d0 43 67 f6 3d 37 95 09 3e 95 b7 10 3d 84 18 46 3d
       0.12031414 0.13435827 0.035331327 0.048363224
0002e0 eb bb 0a 3e ae c8 9d be f1 72 01 bd 37 ba 19 be
       0.13548248 -0.3081717 -0.031603757 -0.15012442
0002f0 8f 82 82 be 52 54 95 be 94 e6 dd bd 13 69 46 3e
       -0.25490233 -0.29165894 -0.10834995 0.1937602
000300 c6 0e c9 3d c6 03 4e 3e ab 4b 22 be 89 58 83 be
       0.09817271 0.20118627 -0.15849178 -0.25653484
000310 2d 23 55 3e 7c 02 5b be 2f 6d 4a 3d 4c 4a 8e 3d
       0.208142 -0.21387666 0.04942053 0.06947765
000320 d3 9c 81 bd 7b 6a 0f bf 88 2f 01 3e 90 40 fd 3d
       -0.0632874 -0.5602185 0.12615788 0.1236583
000330 ce 7e 97 3d 19 b4 30 3c 4b 1a 8a be f7 25 b2 bd
       0.07397233 0.010785126 -0.26973185 -0.086986475
000340 73 35 74 3e 41 cb 25 be 14 ae 59 3d 7a 0b b6 be
       0.23848514 -0.16190816 0.05314453 -0.3555563
000350 a7 1f a4 3d 7b 12 95 3d 7b 92 85 3e e5 29 8a 3e
       0.0801385 0.072789155 0.26088318 0.26985088
000360 26 3b 9c 3e 25 e1 79 be eb d6 bc bd 82 00 8a 3c
       0.30513877 -0.24402292 -0.0922068 0.016845945
000370 24 40 6e bd 9d 8a 05 3e 53 a3 eb 3d 5d 4a 29 3e
       -0.058166638 0.13041158 0.11505761 0.16532274
000380 df d4 f9 3d 2c a9 f3 3d 00 70 3e 3e 17 0a 87 3c
       0.12198805 0.11897501 0.18597412 0.016484303
000390 a3 c3 3a be 8c 25 81 be 8f 6c b5 3d 40 a4 18 3e
       -0.18238692 -0.25223958 0.088585965 0.14906406
0003a0 7d f0 e3 bc 09 be 0f bd 57 af 2b 3d 2e 6b 3b be
       -0.027824635 -0.03509334 0.041915264 -0.18302605
0003b0 f0 d4 00 3d 87 68 c1 3d 9e 37 2b be 10 e0 51 bf
       0.031453073 0.09443765 -0.16720435 -0.8198252
0003c0 ce 7d b6 3d 3b 26 a0 3d 33 56 8b 3b 34 4a 8c bd
       0.08910714 0.07819792 0.004252219 -0.068500906
0003d0 b0 14 04 3e ce 51 90 3d 4b a0 49 3d d5 e3 05 be
       0.12898517 0.07046853 0.049225133 -0.13075192
0003e0 ed 7c 86 be 96 c1 36 3e 90 92 3d be 50 e7 89 3e
       -0.26267186 0.17847285 -0.1851294 0.2693429
0003f0 fb c1 71 3e 02 9f bc be 96 d9 26 bd cc af 6c be
       0.23609154 -0.36840063 -0.04073485 -0.23113936

layers.0.bias f4 [250]
000000 d7 49 a9 3d d4 45 90 bd 5c 4b 01 3e 86 b4 89 bd
       0.08266037 -0.07044569 0.12626404 -0.06723885
000010 0b b1 07 3e d5 ff 01 be 2c 09 4a be 1f 83 c1 3d
       0.1325113 -0.12695248 -0.19730061 0.094488375
000020 20 d4 fc 3d b8 5f 3f be 62 37 28 3e 9d 66 0b be
       0.12345147 -0.18688858 0.16427377 -0.13613363
000030 0a bd ee 3c 5e 07 c6 bd 49 48 bc 3d 1f 36 3e 3c
       0.029142875 -0.09669374 0.09193475 0.011609583
000040 80 8b 2c 3e 5b 17 ba 3d 9b 08 c0 bd 06 63 42 be
       0.1685009 0.09086486 -0.09376641 -0.18983087
000050 01 01 15 3c 6a fb 46 3d 81 3f 98 3d f4 48 7d 3d
       0.009094478 0.04857961 0.074339874 0.06183715
000060 3a f2 51 3e 7e 80 84 3d 6f 94 33 be 4d c0 d3 3d
       0.20502558 0.064698204 -0.17537092 0.10339413
000070 ed 6a 9e bd d3 38 4a be d1 f4 ec 3d 8f 63 6f bd
       -0.07735238 -0.19748239 0.115701325 -0.058444556
000080 f3 9d f7 bd e7 18 3b 3e 87 d6 c8 3c 58 24 ec 3d
       -0.12090673 0.18271218 0.024516357 0.115303695
000090 a0 ab 39 3e 80 a8 17 3e 80 fb e9 3d 74 49 21 3e
       0.18131876 0.14810371 0.11424923 0.15750676
0000a0 84 43 97 bd 60 c9 fb bd 41 01 fc bd e7 b0 8c 3d
       -0.073859245 -0.122942686 -0.12304927 0.06869679
0000b0 94 7e 87 3d eb 89 c7 bd 75 e8 56 be a8 fe 89 3d
       0.0661594 -0.09743103 -0.20987113 0.06738025
0000c0 68 87 0e 3e 25 3a 0b be 4a 29 03 3d 36 7c fa bd
       0.13918841 -0.13596399 0.0320218 -0.122307226
0000d0 94 48 61 bd 15 83 05 3c b6 e1 b3 bd aa df a6 bd
       -0.055000857 0.008148928 -0.08783285 -0.08148129
0000e0 0c d8 cc bd 08 30 09 3e 9d 49 1e 3e c9 5f 39 3e
       -0.10002145 0.13397229 0.15457769 0.18102945
0000f0 ce d6 13 3c 52 45 78 be f0 e2 03 3e d3 94 63 3d
       0.009023381 -0.24245194 0.12879539 0.05556185
000100 0a a0 a6 bd 5b 1f 1f bd 08 eb 6e bd 91 51 b5 bd
       -0.08135994 -0.038848262 -0.058329612 -0.08853448
000110 bf 08 75 bc 63 72 a9 3c be d9 ab 3d 59 2d 4a be
       -0.0149556985 0.020684427 0.083911404 -0.19743861
000120 3b be cb bd 72 43 0f be fd f7 34 3e 8c 61 e9 bd
       -0.09948393 -0.13990572 0.17672725 -0.11395559
000130 f7 7a a4 bd ff dd 80 bb bb 55 05 3e 08 91 51 3d
       -0.08031266 -0.003932714 0.13020985 0.051163703
000140 17 4b 3e bd 5a da d6 3d 8f 57 88 3a 76 20 3b 3e
       -0.04645833 0.10490866 0.0010402071 0.18274102
000150 6b cf 66 bd e4 82 31 be f1 f8 c7 3c 68 9a bd bd
       -0.056350153 -0.17335087 0.024410697 -0.09257966
000160 c9 a6 68 be 4d 46 05 3d 65 42 53 be 57 ec 75 bd
       -0.22719873 0.032537747 -0.20630796 -0.060039844
000170 a4 31 8a bd 90 eb c0 3c 7b 18 19 bd 9e 36 ac bd
       -0.067477494 0.023549825 -0.037376862 -0.08408855
000180 d8 04 2c bc 82 fc f7 bc 01 b2 15 3d d0 5f 3c 3e
       -0.010499202 -0.030271772 0.03654671 0.18395925
000190 7c 35 7d bd 45 0b 5f bd 4d b3 5b bd d0 65 b6 3d
       -0.061818585 -0.054454107 -0.05363779 0.08906138
0001a0 34 13 4a 3e 6f 58 9b 3d 34 57 8b bd 0a e6 52 bc
       0.19733888 0.07585227 -0.06803742 -0.012872228
0001b0 9e 98 51 3d 8a b6 e4 bd b9 71 3f 3e 8c 2c 12 3e
       0.051170938 -0.11167629 0.18695726 0.14274806
0001c0 1a f0 11 3d 27 41 ee 3c 2d 24 86 be b9 63 19 3e
       0.03562937 0.029083801 -0.26199475 0.14979447
0001d0 ef 0a 51 3c e8 5f be bd f5 70 44 bc 49 23 da 3d
       0.012758954 -0.092956364 -0.011989822 0.10651261
0001e0 03 a8 ab bd 2a b6 3e 3e 60 a0 4e 3e 34 79 14 be
       -0.08381655 0.18624178 0.20178366 -0.1449936
0001f0 83 41 e9 3c 0d b7 52 bd 5e ff 23 3e d1 f8 d5 bd
       0.028473621 -0.051444102 0.16015384 -0.104478486
000200 6d 38 5a 3d 50 8e 31 3e 6a b8 12 3d 58 ac 09 be
       0.053276468 0.17339444 0.035820402 -0.1344465
000210 b2 89 af 3d 3c fc 6b 3d 3f 2c 9b 3d 08 fd 92 be
       0.08571185 0.057613596 0.07576799 -0.28708673
000220 58 f7 70 3e 33 95 aa bd c7 ab 26 be 82 0c 0c be
       0.23531854 -0.08329239 -0.16276465 -0.13676646
000230 d4 af 17 bd a9 0e 29 3e 19 ab 20 3e 5b cc 11 be
       -0.037032917 0.16509499 0.15690269 -0.14238112
000240 0d 43 92 bc e7 6a 56 bd 9d 79 50 3d e1 43 f9 3d
       -0.017854238 -0.052348044 0.05089723 0.1217115
000250 11 d1 6a 3c 3c d9 6e bd ed 8e 19 bd 7d 3d 08 3e
       0.014332072 -0.05831264 -0.03748982 0.13304706
000260 17 a0 87 bd 1b ac 02 be 05 b9 72 3e 0f 57 e0 bb
       -0.066223316 -0.12760966 0.23703392 -0.0068463157
000270 4d 78 51 be a5 ea 60 bb 80 51 cf 3c 71 a1 ab bd
       -0.20456047 -0.0034319547 0.025307417 -0.08380402
000280 fd 04 fa 3d c7 5e 71 3c e2 a9 73 3e df 0d e1 bc
       0.12207983 0.014732069 0.23795274 -0.027472435
000290 8b 69 71 bd 5d bb 32 be ad 3c d0 3b 91 b9 02 3e
       -0.058938544 -0.17454286 0.0063548894 0.127661
0002a0 63 8c 5a be a1 49 36 3e e9 03 6f 3d 84 1b 79 be
       -0.21342616 0.17801525 0.05835334 -0.24326903
0002b0 f9 d2 70 bd 7c 85 32 3c 47 d0 25 3e 9c cc 40 3d
       -0.05879495 0.010896083 0.16192733 0.04707013
0002c0 f6 0b 14 bd 55 12 2a be ad 50 3f be cd 65 ba 3c
       -0.03614422 -0.16608556 -0.18683119 0.02275362
0002d0 51 37 c9 3c f7 c1 35 be f5 37 14 bd de cc ee bb
       0.02456251 -0.17749773 -0.036186177 -0.0072876057
0002e0 4c 5b a9 3b 5b f1 4c be 83 b6 65 3c a9 8a d5 bb
       0.005168354 -0.20013945 0.014020565 -0.0065167737
0002f0 d3 c0 19 be d6 70 85 be 78 3f 28 3e 0f f6 e5 bd
       -0.15014963 -0.2606265 0.16430461 -0.112285726
000300 60 e0 34 bd b2 21 f8 bd 6c 96 80 3c 94 68 2f 3d
       -0.044159293 -0.12115802 0.015696727 0.042824343
000310 96 ca 49 3e fa 2c 15 be c7 e5 88 be 91 6b 05 3e
       0.19706187 -0.14567938 -0.26737806 0.13029315
000320 42 d5 08 3e 43 2c 9e 3d 32 da aa bd 0c 6f 1e 3e
       0.13362601 0.07723286 -0.08342399 0.15472049
000330 e2 f2 30 be 6c 48 c1 3d 48 3f 28 be 80 d3 3b 3e
       -0.17280152 0.094376415 -0.1643039 0.183424
000340 11 b6 bd bd 29 c8 15 be 9f 0d b7 3d d7 b7 16 3e
       -0.09263242 -0.14627136 0.08938145 0.14718567
000350 72 2f 71 bd 74 c5 0f 3e 29 97 b7 3d b4 63 ac 3d
       -0.058883138 0.14040166 0.089643784 0.08417454
000360 8d f1 a6 bd ce 86 00 be c4 42 72 be a0 32 ad 3d
       -0.08151541 -0.12551424 -0.23658282 0.084569216
000370 53 ee d8 3d 88 d1 83 be 96 23 5c bb ba ce 44 be
       0.10592332 -0.25745797 -0.0033590547 -0.19219485
000380 37 cd 80 3e 2a 5b eb 3d 51 19 09 be 66 a3 e6 bd
       0.25156567 0.114919975 -0.13388564 -0.112616345
000390 f6 94 5e be 6a 9f 44 bd a4 1f e9 3d 2b 7e 79 3c
       -0.21736512 -0.04800359 0.11382988 0.015227835
0003a0 a0 19 28 be e3 6c 8b 3d ae 89 3e bd 2e 6c ed bb
       -0.16416025 0.06807878 -0.04651802 -0.007245562
0003b0 4e a9 a7 3d 7c 1b 89 bd c4 21 e2 bd a3 62 50 3e
       0.08186589 -0.06694695 -0.110415965 0.20350127
0003c0 cb 07 05 3e 90 e0 85 3e a3 0b 2b bd 5b 2d 12 bd
       0.12991254 0.2614789 -0.041759145 -0.035687786
0003d0 0d c7 93 bd ec 7c bf bd 9c 83 39 3e f4 5a a4 3d
       -0.072157 -0.09349999 0.18116611 0.080251604
0003e0 bd 62 35 ba 78 5e 31 be
       -0.0006919315 -0.17321193

layers.1.weight f4 [250, 250]
000000 ae 95 1c bd f1 ea ec bc 20 96 b3 bc f8 ae ea 3d
       -0.038228683 -0.028920623 -0.021922171 0.11459154
000010 13 3f 65 bd 64 c6 b8 bb 1c 76 6f 3d a8 04 49 3c
       -0.055968355 -0.0056388844 0.058462247 0.012269177
000020 9f 74 80 bd 54 15 0f be 52 36 83 3d b5 d5 77 3c
       -0.06272244 -0.1397298 0.06406845 0.015126635
000030 c8 8a 20 bd 71 6a 12 3e 8a d9 80 3d f4 56 be bd
       -0.039194852 0.14298417 0.06291492 -0.09293929
000040 cf e5 06 3e 70 15 aa 3d 92 e5 ff bc 2b 6a 11 3d
       0.13173603 0.0830487 -0.031237397 0.03550164
000050 ec a8 3f ba 0f 58 02 bd 73 66 26 3d c3 31 59 be
       -0.0007311243 -0.03182226 0.040625047 -0.21210389
000060 ae e8 df b9 f0 9c f4 bd e2 74 c2 3c c1 a8 2d 3e
       -0.00042707234 -0.11943996 0.023737375 0.16958906
000070 86 71 38 ba 4c 7e 2c be 2e d2 8e bd 4d a9 f8 bd
       -0.0007035959 -0.16845053 -0.06973682 -0.121416666
000080 e7 7a af 3d 36 bb 21 be b6 79 a1 3d 50 84 54 3d
       0.08568364 -0.15794072 0.07884543 0.051883996
000090 7c 6d 0e 3d 30 68 ff bc b7 5e c7 3c 99 29 d8 3c
       0.03477238 -0.03117761 0.024337156 0.026387023
0000a0 7b 81 22 3e d0 7f 01 be ea d2 95 bc db 1f 41 3b
       0.15869705 -0.12646413 -0.018289048 0.002946845
0000b0 ae 0c 42 3d 1b e5 3d bd 4f 23 f3 bd 2a e2 ae bd
       0.047375374 -0.04636107 -0.11871969 -0.08539231
0000c0 73 96 99 3d a6 31 06 3e 4b 50 bd bc ef 95 63 3e
       0.07499399 0.13104877 -0.023109576 0.22225164
0000d0 c1 6f 4b bd 30 a7 0b 3e da 51 89 3d 8f 99 51 bd
       -0.049667124 0.13637996 0.06705065 -0.051171836
0000e0 df 46 00 3e e1 b1 96 bd d7 cf 17 3d 43 89 24 be
       0.12527035 -0.073581465 0.037063446 -0.16067986
0000f0 67 4d 90 bd e9 9b e7 3c 43 44 c1 bd 02 71 f9 bc
       -0.07046013 0.028272586 -0.09436848 -0.030449394
000100 13 f0 8d 3d de bd 16 bc c6 ff e3 3c 31 11 0e 3e
       0.06930556 -0.009200541 0.027831923 0.13873746
000110 8d 74 1b 3d e3 d6 36 3e f6 e4 8c 3d f5 a5 ef 3d
       0.03795295 0.1785541 0.06879608 0.11701576
000120 1b 0f 1e 3d 71 6f 85 3d e8 7e f3 3c c9 45 7b 3d
       0.038588624 0.065153964 0.0297236 0.06134585
000130 ea 76 be bd 00 2e 50 bd 84 eb ac bd 0f 0a e8 bd
       -0.09300025 -0.05082512 -0.084433585 -0.113300435
000140 24 78 0a 3d 31 37 ca 3d be f3 77 bd 88 ca f0 3c
       0.03380598 0.09873808 -0.060535185 0.02939345
000150 a1 2f 6b bd 77 ca 9d bd 23 b2 e3 bd 1d 4c 22 3e
       -0.05741847 -0.07704633 -0.11117961 0.15849347
000160 fa d8 d5 bc 12 a8 d8 bc 91 e4 2a be dc de 69 3e
       -0.026104439 -0.02644733 -0.16688754 0.2283892
000170 a2 d9 4f 3d 79 84 3a be b7 4e d7 3b 6a ba 80 3d
       0.05074466 -0.18214597 0.006570663 0.06285556
000180 80 a1 8b bd 06 9c 3c 3d cb 50 9c 3d a0 d5 9c be
       -0.06817913 0.046047233 0.076325975 -0.30631733
000190 55 b2 bd bd a0 1c 5b bc 0a 1d 55 3d bb 6f 5e bb
       -0.0926253 -0.013373524 0.052029647 -0.0033941108
0001a0 3a 6d 10 3e f2 83 60 3d 74 ab 39 3e 3a c4 d5 3d
       0.14104167 0.054813333 0.1813181 0.10437818
0001b0 ce 7a 92 bd 75 4c 18 bd d0 38 a3 3d 8a 90 b1 3d
       -0.071523294 -0.03718229 0.079698205 0.08670147
0001c0 f9 d5 24 3e 5c 43 be 3d ae bf 47 3c d5 88 f9 3d
       0.16097249 0.092901915 0.012191696 0.12184302
0001d0 46 df ef 3d db 80 05 3d bf dc 48 bd cd 52 00 be
       0.11712508 0.03259359 -0.049038645 -0.12531586
0001e0 30 48 3b bd c0 70 4e be 8c 51 82 be d3 66 1a 3e
       -0.04572314 -0.20160198 -0.2545284 0.15078287
0001f0 95 fe be 3c a0 42 01 be ba 75 6f 3c a7 f5 77 3d
       0.023314754 -0.12623072 0.014615471 0.060537007
000200 ec 92 ba 3d 65 48 31 3c 25 8a 48 3d 45 08 49 3d
       0.091100544 0.010820483 0.04895987 0.049080152
000210 3c 81 cd bd 48 df 89 3b 38 cf 7b 3d ce 7a ff 3c
       -0.10034415 0.0042075254 0.061476916 0.031186488
000220 43 56 02 3d 78 0a db bd 03 62 09 be 07 19 32 3e
       0.031820547 -0.10695356 -0.13416295 0.1739236
000230 cd c5 2d bc bc 01 5a bd 02 00 21 bc cc d3 92 3b
       -0.010606241 -0.05322431 -0.009826662 0.0044808146
000240 f1 15 d6 3c 56 9f 84 3d 33 8c b2 3c 50 a3 44 3d
       0.02613351 0.064757034 0.021795368 0.04800731
000250 83 15 4b bc ee be 91 bc 81 58 7a 3d d7 22 84 bc
       -0.0123952655 -0.017791238 0.06111956 -0.016129894
000260 16 8d d1 bd 61 1f b5 bd 63 a6 28 3d ae 29 02 3d
       -0.10231988 -0.08843876 0.041174304 0.03177803
000270 18 f2 c6 3d 0b bc 54 be 65 93 ee bd 7c 68 82 3d
       0.097141445 -0.20774858 -0.11649207 0.06367585
000280 9c 64 b6 bc 82 01 0c bd 80 dc 45 bd 22 5b aa 3c
       -0.022264771 -0.034181125 -0.04830599 0.020795409
000290 48 45 92 3c da 2c ca bd 83 fe a6 3d ed 64 22 3c
       0.017855301 -0.09871836 0.08154013 0.009911758
0002a0 b4 f9 8d ba 91 29 b8 3d ab c5 67 3d 82 61 c9 bd
       -0.0010831864 0.08992303 0.056584995 -0.09833051
0002b0 48 74 67 bd 76 40 de 3d 3c ea 06 bd c1 fb a6 3d
       -0.05650738 0.10852139 -0.032938227 0.08153487
0002c0 2a 94 d8 3d a9 22 39 be d6 76 0b 3c 94 6a 17 bd
       0.10575135 -0.18079628 0.008512219 -0.036966875
0002d0 ba 67 b9 bd 21 49 b7 bc 0b 00 2d 3d 8b 66 1c 3e
       -0.090529874 -0.022373738 0.04223637 0.15273492
0002e0 ad 96 42 be 06 e4 fe 3d 58 55 09 3e 6c 7f 41 bc
       -0.19002791 0.12445836 0.13411462 -0.011810165
0002f0 72 d4 56 bd b8 74 c2 bc 02 61 66 bd ac 0b bb 3d
       -0.052448697 -0.023737296 -0.056244858 0.091330856
000300 52 59 f7 3d fb 52 9f bd 14 77 15 bd fa a3 17 bd
       0.120775834 -0.07779499 -0.036490515 -0.037021615
000310 ee 4e b7 bd 47 e6 4f 3e 33 5f b3 3b 9f 9d 84 3c
       -0.089506015 0.20302688 0.005473995 0.01618844
000320 1c 81 22 be 66 e9 bd 3d f0 f7 04 3d b2 af 88 3c
       -0.15869564 0.09273033 0.032463014 0.01668534
000330 78 0e 61 3d eb 2d b8 bc ee 0c fe 3d 75 c9 21 be
       0.05494544 -0.022482833 0.1240481 -0.15799506
000340 de c9 af bd 20 64 49 3e d0 ca ec bd 6f 9b 38 3e
       -0.08583425 0.19667101 -0.11562121 0.18028043
000350 22 4b 1c bd 80 a5 a3 bd 9c b0 ee 3c 91 28 40 3d
       -0.03815759 -0.07990551 0.029136948 0.046913687
000360 16 d6 23 3d b2 bd 21 be 84 c2 82 bd 02 53 24 bd
       0.03999909 -0.1579502 -0.06384757 -0.040118225
000370 35 09 40 3e c7 6e 19 3d 0a f8 8f 3d 4d 05 af 3d
       0.18753512 0.03745916 0.070297316 0.08545933
000380 15 d4 47 be a8 d5 8d 3d 21 e6 0d be db e8 b4 bd
       -0.19514497 0.06925517 -0.13857318 -0.08833476
000390 5e bf 61 bb aa 85 73 bd 52 fe d6 3d c8 36 28 3e
       -0.003444634 -0.059453644 0.104977265 0.16427147
0003a0 b3 54 19 be 39 42 ff bd 08 92 83 3e c5 7b cd 3d
       -0.14973716 -0.12463803 0.2569735 0.10033373
0003b0 d1 b8 c5 bd 0f 7a 08 bd 1b cb e6 3d 3f 9c 06 3c
       -0.096543916 -0.03331953 0.11269208 0.008215963
0003c0 fc 7b 6f bd 35 50 90 bc 1b dc 13 3e 40 b6 30 be
       -0.05846785 -0.01761637 0.14439432 -0.17257023
0003d0 a0 a8 8c 3d 22 67 85 bd 03 83 4f bc 31 3e 92 3d
       0.068681 -0.06513812 -0.012665513 0.07140768
0003e0 23 2f 50 bd 20 b2 16 bd a5 a4 94 bd fd d9 ce bc
       -0.050826203 -0.036790967 -0.07257966 -0.02525043
0003f0 03 b6 5c bd 79 b5 a8 3d 57 59 20 be 38 0b a4 3d
       -0.053884517 0.08237738 -0.1565908 0.08009952

layers.1.bias f4 [250]
000000 d0 69 33 bd ed 15 56 bd 8d d6 8c bd 6e fc 4b 3d
       -0.043802083 -0.052267004 -0.0687686 0.049801283
000010 7f cf f0 bd 46 e8 5d 3d 57 9c 5a 3d bc c1 03 bc
       -0.11758327 0.05417659 0.053371754 -0.008041795
000020 a0 a1 8a 3a d1 41 1b bd 99 ac 7a 3d d2 51 a6 bd
       0.0010576732 -0.037904564 0.06119976 -0.08121075
000030 aa 9c 51 bd 2a 02 35 bd ec dc 1d be ce 0e 89 bd
       -0.051174797 -0.044191517 -0.15416306 -0.06692277
000040 91 b9 bb bd 8a cd 54 bd 1b fc 03 3b 34 f4 9e bd
       -0.09166253 -0.05195383 0.002013928 -0.07761422
000050 c5 36 00 bb d5 c0 5a bd 3b 9c ad bc da e9 30 bb
       -0.0019563895 -0.053406555 -0.02119266 -0.0026994855
000060 4a 22 4a bb 2e bc d5 bd 49 43 4c bb 54 c0 c7 bc
       -0.0030843192 -0.10436283 -0.0031168035 -0.024383701
000070 9f 26 20 bc 45 7d 8c bd 45 ef 99 3d 3f e5 75 bd
       -0.009774833 -0.06859831 0.0751634 -0.06003308
000080 7d 68 79 bc eb 88 6d bd 4f 86 7d bd dd f9 62 bb
       -0.015222666 -0.057991903 -0.061895665 -0.0034633793
000090 64 4f a9 bc 2e ba 1b bd 76 de 4f bc ca 4d c4 bd
       -0.02066774 -0.03801935 -0.012687316 -0.095851496
0000a0 04 de a5 3a 1c a4 21 bd 75 5b 95 bd 85 3c 0b 3d
       0.0012654667 -0.039463148 -0.07292835 0.033993263
0000b0 72 4d 4f 3d 72 2c 5a 3d 19 ef eb 3c 1e 5f c5 bc
       0.050610967 0.053265043 0.028800534 -0.024093207
0000c0 40 f8 94 3c 00 17 38 3d dc d5 07 bd 3f 85 7e 3c
       0.018184781 0.04494381 -0.033162937 0.015534698
0000d0 18 20 87 bd 9b da a9 bd b2 74 b7 bc ce 2e 13 bd
       -0.06597918 -0.08293649 -0.022394512 -0.03593331
0000e0 44 9e a4 bd b9 e9 b1 bd 3e 96 29 bd ee 9e 57 3d
       -0.08037999 -0.08687157 -0.041403048 0.0526418
0000f0 5f 21 89 3c 9a 16 80 bd 0d 26 bd bb b9 4b de bc
       0.016739545 -0.06254311 -0.0057723583 -0.027135717
000100 d3 01 70 bd fa 16 47 3d 76 93 1e bd 5a 95 75 bc
       -0.05859549 0.048605897 -0.03871485 -0.0149892215
000110 82 88 07 bd bd a1 81 3d 1a 88 b0 bc c2 eb f2 bc
       -0.03308917 0.06329677 -0.021549273 -0.029653434
000120 82 c6 6d 3d 07 16 f2 bd 5c c8 03 3d 0f 6b ee 3b
       0.05805064 -0.11820608 0.0321735 0.007275946
000130 f0 73 76 3c e6 97 f6 ba 2c a9 22 3d 19 cf 0d 3d
       0.01504229 -0.001881358 0.039712116 0.03462133
000140 e5 bb 16 bd 60 2f c4 bc 4c bd 8e 3d bd 07 eb bc
       -0.036800284 -0.023948371 0.06969699 -0.028690213
000150 f0 fb 95 bc 3f 1c 42 bc cb 5c 0c bd 77 46 93 bd
       -0.01830861 -0.011847555 -0.03426818 -0.071911745
000160 0b 0d 59 bd 51 3a b3 3c ee 87 9b bd 8a 3d 85 3c
       -0.052990954 0.021878393 -0.07594286 0.016264696
000170 e8 8e 4e bd a4 d8 f9 bb 55 0e a2 3d 7d 81 78 3d
       -0.050429255 -0.0076247025 0.0791289 0.060670365
000180 e2 ed a0 3c 9c 0f cd bd 78 5e 16 bd bf 74 be 3c
       0.019644681 -0.10012743 -0.036711186 0.023249028
000190 51 ad 59 3d b1 f0 ea 3c 03 37 c1 bd 85 96 a6 bb
       0.053143803 0.028679224 -0.09434321 -0.0050838613
0001a0 c3 f9 82 bb d5 40 32 3d 2b a4 1a bc c3 c5 8d bd
       -0.003997059 0.04351886 -0.009438555 -0.06922486
0001b0 c8 82 e5 3b 97 9c 65 bd e5 c7 d3 ba 1b 20 b7 bc
       0.0070041157 -0.05605754 -0.0016157596 -0.022354176
0001c0 a6 02 63 3c ef dd 81 bd 2f 1a d4 bc 67 68 eb bc
       0.013855612 -0.063411586 -0.025891392 -0.028736306
0001d0 60 f1 d1 3c 9f 8c 4e bc 9f 68 80 bd 0b 17 78 bd
       0.025627792 -0.012606769 -0.06269955 -0.06056885
0001e0 95 96 2c 3b cc 70 4b 3d e3 da 3c bd d7 ba 89 bc
       0.002633487 0.04966812 -0.046107184 -0.016812725
0001f0 fd e6 47 3d ac 58 15 bd 81 40 e7 bc f6 82 0d 3d
       0.048804272 -0.036461517 -0.028229 0.034548722
000200 49 f9 b0 3c f4 ce 86 bd 06 c6 c2 bd 06 a0 bf 3c
       0.021603243 -0.06582442 -0.09510426 0.023391735
000210 a2 92 04 bc ba 6d de bc 20 5f f8 bd d0 df 90 bd
       -0.008091601 -0.027151931 -0.12127519 -0.07073939
000220 4d da 94 3c 28 5d 0c bd 60 b8 53 bd ea 7e 3d 3c
       0.0181705 -0.03426853 -0.051689506 0.011565903
000230 b6 93 9a bd 7e f2 32 3d e5 f4 46 3c ab ab 84 bd
       -0.07547705 0.04368829 0.012143348 -0.064780556
000240 39 d7 97 39 c7 cb ad bd d8 20 8b bb 7a d9 a0 3d
       0.00028961318 -0.08486133 -0.0042458586 0.0785398
000250 42 76 47 bc 11 f0 3c bd e4 e7 32 bd 2a fb 87 bc
       -0.012174191 -0.046127383 -0.04367818 -0.016599257
000260 d0 28 e4 bc 01 63 1d bd 62 6e 60 bd 2f 53 78 bd
       -0.027851492 -0.038424496 -0.05479277 -0.060626205
000270 4e 60 b1 3c 93 6e af bd 13 0f a2 bd 21 70 03 3a
       0.021652367 -0.08566012 -0.079130314 0.0005013962
000280 91 62 98 bd 2b db 49 bc f4 ca 64 bc 71 2b 9d bc
       -0.07440675 -0.01232032 -0.013964403 -0.019185754
000290 51 09 c2 bc 85 e1 ce bc 16 b3 29 39 ee 62 48 3c
       -0.023686083 -0.02525402 0.0001618381 0.012230618
0002a0 75 69 b2 3d c5 3f 27 bb ff 54 ae bd 2d 60 81 bd
       0.087115206 -0.0025520187 -0.085123055 -0.06317172
0002b0 3b 6c 9a bc a5 06 5a bc a8 59 04 3d c9 fa 90 3b
       -0.018850436 -0.013307248 0.032312065 0.004424427
0002c0 9d ad cb 3c 07 4a 01 3d 27 bf 9c bc e6 97 ae bd
       0.024863059 0.03156474 -0.019134117 -0.08525066
0002d0 8b e8 d0 bd b8 f7 63 bd d6 6f 2c bc bc f9 46 bd
       -0.10200604 -0.055656165 -0.010524711 -0.04857801
0002e0 fd 94 32 bd 47 47 24 3d d2 ef fb 3c 39 ad 0a bd
       -0.043599118 0.040107038 0.030754004 -0.033856604
0002f0 b0 8e 82 bb fc 62 1d 3c 9f b7 16 3d 98 2c c1 bc
       -0.003984295 0.009606119 0.03679621 -0.023580834
000300 d5 8d 65 3d a5 d6 03 3d 72 32 8c bd c8 86 c8 bc
       0.056043465 0.032187123 -0.06845559 -0.024478331
000310 05 69 6e 3c df d7 60 bd 07 7a a0 bd dd 3e 90 bd
       0.014551406 -0.05489337 -0.07835775 -0.0704324
000320 a1 50 03 be 5a 85 04 bc d8 78 16 3d 56 65 62 3d
       -0.12823726 -0.008088434 0.03673634 0.055272423
000330 1f ee 08 3a 7a 44 18 3c 2e 5c 9a 3d 91 4c fa 3b
       0.0005223471 0.00929367 0.07537113 0.007638522
000340 10 1b ed bb 29 71 7e 3c 7a 96 83 3d 72 fd 78 bc
       -0.007235892 0.015529909 0.064251855 -0.015197145
000350 81 f8 72 3c e5 9e 9f 3c 3e 62 94 3c de 56 f1 bc
       0.014829756 0.019484947 0.018113252 -0.029460367
000360 58 45 bb bd b7 4c 16 3d 1c 80 8b bd b9 e2 80 bc
       -0.09144086 0.036694255 -0.06811544 -0.01573311
000370 fa ee 30 3d 92 fd aa bc c1 ef 0f 3d 27 6e 0c be
       0.043196656 -0.020872865 0.035140757 -0.13713895
000380 b7 88 d2 bd 48 5f 84 3c 41 11 3b bd fe e4 89 bd
       -0.102799825 0.016158715 -0.04567075 -0.0673313
000390 e0 c1 c8 bd 37 3f 84 3c 64 28 78 3d 33 ad 7f bd
       -0.09802604 0.016143424 0.060585395 -0.062421035
0003a0 07 00 f7 3b 7b 5b 00 bd 33 2f 25 3d 94 7c 12 3d
       0.007537845 -0.031337243 0.040328216 0.03576334
0003b0 23 05 8b bd 2a 59 ca 3c 02 cf ae 3c 03 c5 c3 3b
       -0.06788089 0.02470072 0.021338943 0.0059744134
0003c0 a0 56 ea 3b 94 de 76 3d 4b af 0a bd 7f 47 94 3c
       0.00715144 0.06027086 -0.03385858 0.018100498
0003d0 a6 45 ef bd a7 71 63 3d 49 04 d1 bd 1a 62 7f bd
       -0.11683206 0.05552831 -0.102058955 -0.062349416
0003e0 8e 1b 81 3c 66 dd bf bd
       0.01576021 -0.093684

layers.2.weight f4 [250, 250]
000000 2e 04 10 be d1 56 9b 3c 0d 1b aa bd 65 09 15 be
       -0.14064094 0.018962296 -0.08305941 -0.14554365
000010 d5 88 f9 3d d2 50 b1 bd 29 7e 3f be 59 73 94 3d
       0.12184302 -0.086579934 -0.1870047 0.07248563
000020 ed 9b 0f be 1b 30 1d 3e 90 b7 ed bd c7 99 61 bd
       -0.14024325 0.15350382 -0.116072774 -0.055078294
000030 5b 84 38 3d 2a 77 00 bb 1c eb 24 be 87 7d 04 3d
       0.0450481 -0.0019602277 -0.16105312 0.032346275
000040 5f 57 a2 be b8 8c 23 be 7d df 90 bc 46 33 6d 3d
       -0.31707284 -0.15971649 -0.017684693 0.057910226
000050 db 5c 53 3d 9e ce fa bb c9 6d 76 be 86 26 61 3d
       0.051602226 -0.007654025 -0.24065317 0.05496838
000060 1b bc 06 be 6e fd 74 3e eb 87 19 3e 32 c6 8c bc
       -0.13157694 0.23924801 0.14993255 -0.01718435
000070 2f a7 43 bd 07 af 89 3c 63 7a 13 3d b9 b8 27 be
       -0.04776686 0.016807092 0.03600539 -0.1637906
000080 1e f8 3c 3e ba 72 71 3e c1 df 07 3b 21 46 43 be
       0.18454024 0.23578921 0.0020732733 -0.19069721
000090 72 c5 ee bd cd 40 5b 3b c0 10 e7 bd d6 3b a0 ba
       -0.116587535 0.0033455372 -0.11282492 -0.0012224864
0000a0 48 b9 18 bd 2b 77 1d bd cc f7 8c 3b 1d c2 69 3e
       -0.037286073 -0.038443726 0.0043020006 0.22827955
0000b0 17 54 8a 3d b5 d0 72 3d 20 26 89 bd b4 02 86 bc
       0.0675432 0.05928107 -0.06696725 -0.01635871
0000c0 d2 eb dd bc 56 93 5e 3c 4d 50 e0 3d aa b3 04 be
       -0.027089987 0.013584932 0.10952816 -0.12959161
0000d0 bd 1c 3f be e6 dc e8 3c 52 b7 b6 3c d9 6d 5d bb
       -0.18663307 0.028425645 0.02230421 -0.0033787398
0000e0 6d 37 61 bd 71 93 b4 bd aa 57 a5 bd 87 4a 4b be
       -0.0549845 -0.08817185 -0.08073361 -0.19852649
0000f0 98 37 05 3e d8 42 09 3d 38 0f 9d bd c6 5f ab bd
       0.13009489 0.033511013 -0.07668918 -0.08367877
000100 ba 81 c9 bb 35 7b a1 bd 05 e0 79 bd be 34 b3 3d
       -0.006149498 -0.07884828 -0.061004657 0.08750294
000110 d0 b7 d4 bc 8b 15 fa bd 9b e9 57 3d 78 be a8 3d
       -0.025966555 -0.1221114 0.052713018 0.08239454
000120 88 47 4b 3d 2c e9 5c 3c c6 ae a2 3d d9 28 c9 bd
       0.049628764 0.013483327 0.07943492 -0.09822244
000130 a3 a2 b4 bd 12 bf f0 3d d0 2b 75 bd 65 ad 6e be
       -0.08820083 0.11755194 -0.059856236 -0.23308332
000140 3d b7 12 bd 25 b2 7d 3e e0 9a c1 3c 4e b9 38 be
       -0.03581928 0.24774988 0.02363342 -0.18039438
000150 a6 6d 4f be 61 9f 76 bd c5 7f d4 3d b9 2a cf bc
       -0.20256671 -0.06021059 0.103759326 -0.025288926
000160 b9 cb bf 3d 86 24 33 be da 2f b2 3d e8 f7 38 be
       0.09365029 -0.17494401 0.08700533 -0.18063319
000170 7c bd 7a 3e d0 58 46 3d 93 3d 90 bd 40 ea a4 3e
       0.24486345 0.048424542 -0.07042994 0.3220997
000180 40 68 c8 3b 2b 7e 93 bd 8b ad 0a bb d4 a5 94 bd
       0.006115943 -0.07201799 -0.0021160569 -0.07258192
000190 d7 27 ac 3d 5b 9b 6e be c5 64 f8 bd 6a 3d bf 3d
       0.08406036 -0.23301451 -0.12128595 0.09337886
0001a0 be 75 04 be f8 b3 b5 bc b8 0d 63 bd 0b 4c 2c 3d
       -0.1293554 -0.022180542 -0.055433005 0.042064708
0001b0 19 77 79 be a8 c4 fc bb fc 9c 06 3b 87 77 b5 be
       -0.24361838 -0.007713873 0.0020540347 -0.35442755
0001c0 d2 c1 22 be 2e ce 12 3e 03 da 09 bc 98 ef 48 3c
       -0.15894249 0.14336464 -0.008413794 0.012264155
0001d0 ca e9 49 bd 62 05 e4 3c 5c 17 02 be cf f9 b4 3c
       -0.049295224 0.027834598 -0.12704223 0.022091774
0001e0 07 61 40 3e f9 a8 84 3e ba 71 cd bd 57 ff ba 3d
       0.18787013 0.25910166 -0.10031457 0.091307335
0001f0 49 aa 6a 3b 28 f5 a5 3d 55 fb fd bd 61 3e 94 bd
       0.0035807064 0.081034005 -0.124014534 -0.0723846
000200 7f b5 1f bd aa 05 99 3d b6 f6 c2 3d 75 d0 c0 bd
       -0.038991448 0.074717835 0.095197126 -0.0941476
000210 d9 44 d4 3c dd 82 90 be 5b d6 3d be 7e bb 0c bd
       0.025911735 -0.2822484 -0.18538801 -0.034358494
000220 95 76 d3 3d 63 39 0a 3d 1b ae b8 3d 79 bf d9 bd
       0.10325352 0.033746134 0.09017583 -0.10632224
000230 3d 2b 16 3d cb 86 01 3e 94 b9 da 3d 66 a6 eb 3e
       0.03666233 0.12649076 0.106799275 0.4602539
000240 56 8d 63 be 6b f3 a6 3d da 70 b2 be d7 21 e6 3d
       -0.22221884 0.08151897 -0.34851724 0.11236923
000250 4b 6c ba 3d 91 7e 80 3d af 22 81 bd ee c2 81 bd
       0.091026865 0.062741406 -0.063054435 -0.06336008
000260 5c 4b 12 bc 32 bd 8d 3c 61 52 86 bd ca 48 06 be
       -0.0089291 0.01730213 -0.06558681 -0.13113704
000270 f5 46 a7 3e 74 b1 07 3e 8d 0b 9c bd 56 9e 2e 3e
       0.32671323 0.13251287 -0.07619391 0.17052588
000280 89 b1 37 3e 0b 32 5c be 37 67 02 3d 92 92 87 bd
       0.17938818 -0.21503465 0.031836715 -0.06619753
000290 1e c5 df bd 6a d8 05 bd 9e 49 fc bd f1 4c 39 be
       -0.10926269 -0.03267709 -0.12318729 -0.18095757
0002a0 32 02 87 3d 91 78 07 be 1a 42 e3 bd cd ba d0 3d
       0.065922156 -0.13229586 -0.11096592 0.101918794
0002b0 bb 3a 3e 3d 5b f4 e0 bc a4 47 b8 3d 5b a6 0b bd
       0.04644273 -0.027460268 0.08998039 -0.034094196
0002c0 32 8b 14 3e ef 2a 00 bd 15 22 bf 3d 88 7e b5 be
       0.14506224 -0.031290945 0.093326725 -0.35448098
0002d0 15 88 81 3e 30 33 ae 3d d4 7c f3 3a 4a 8b 4d bd
       0.25299135 0.08505857 0.001857663 -0.050181665
0002e0 fa 6e 8f bb 60 8c 10 be 2a 37 1d bd 1e 97 16 3e
       -0.004377243 -0.14116049 -0.038382687 0.14706084
0002f0 95 8e cb 3d 82 ce ff bd 67 52 4f 3b 35 72 3c bc
       0.09939305 -0.1249056 0.003163481 -0.011501838
000300 b5 9e 1a be c9 94 74 3d df 3e f6 3b 64 fc 97 3e
       -0.15099604 0.059712205 0.007514819 0.29684746
000310 dd a3 48 3e 4a 67 e1 3d 53 d5 87 3c af b5 8d be
       0.19593759 0.11006029 0.016581213 -0.27677676
000320 82 ca 90 bd 2b 36 77 3d 8c a0 e7 bd 9f b8 f8 3d
       -0.07069875 0.060354393 -0.11309919 0.12144589
000330 74 37 92 3d 9d 30 3f bd 5b 40 64 3d 9e 38 96 bd
       0.07139483 -0.04667722 0.055725437 -0.073350176
000340 0c ba 40 3e 7b 64 cf 3d 25 c6 31 be 80 fd ae bd
       0.18820971 0.10126587 -0.17360742 -0.08544445
000350 21 7d 7b be d5 d8 14 3e f6 36 4e bc 70 d5 6d 3c
       -0.24559452 0.1453584 -0.012586346 0.0145162195
000360 b4 be 5a be 5c a6 38 be 80 2b 11 3d 59 a0 c6 bb
       -0.2136181 -0.18032211 0.035441875 -0.0060615954
000370 9b 87 0c be 64 54 4f bd c2 f1 90 3d bf 6d 57 3c
       -0.13723604 -0.05061759 0.07077362 0.013148724
000380 6f 88 61 bd 53 95 b5 bb 34 7b 86 bd 54 b5 66 be
       -0.055061754 -0.0055414825 -0.06566468 -0.22530109
000390 68 82 09 3e 9a 36 4b be f9 3a 9e 3e 97 d7 f6 3c
       0.13428652 -0.19845048 0.30904368 0.030132098
0003a0 44 1b 8e bd ae b2 52 3b 6c df fa bd c4 2b 8c bc
       -0.06938794 0.0032149958 -0.122496456 -0.017110713
0003b0 69 02 77 3d bd a7 45 3e 7f 48 8f 3c e2 8d 0d bd
       0.060305033 0.19302268 0.017490624 -0.034559138
0003c0 ee 5d 4c be 21 f1 d5 3c 29 4e 9c bc f7 21 dc 3d
       -0.19957706 0.026115956 -0.019080238 0.10748666
0003d0 59 db d9 bd 14 1a 72 3e 25 6a bb bd 88 0d ad bd
       -0.1063754 0.2364276 -0.09151105 -0.084498465
0003e0 7b b8 b6 bb d1 11 8e 3c f0 d0 48 be 0d 6c 21 3d
       -0.005576191 0.01734248 -0.19610953 0.039409686
0003f0 21 30 fe bd 82 c5 a1 be f3 a2 30 bd b3 06 18 be
       -0.124115236 -0.31596 -0.04312415 -0.14846306

layers.2.bias f4 [250]
000000 a2 78 ab bd ef 81 b0 3b 8e 60 95 bd f4 bc 89 bd
       -0.08372618 0.005386583 -0.07293807 -0.06725493
000010 40 88 14 be 30 9d 73 bd b8 d6 50 3d f9 26 c2 bd
       -0.145051 -0.059476078 0.05098602 -0.0948009
000020 20 45 88 3d 73 d0 b4 3c d5 47 83 bd 4b 39 6c bc
       0.066538095 0.022072053 -0.06410185 -0.014417957
000030 5c 10 6d 3d 1a 89 a3 bd fd 6a 81 bd 59 f3 5a 3c
       0.05787693 -0.079851344 -0.063192345 0.013363683
000040 1d 96 dc 3d 18 d4 d5 3c 89 10 a2 bd 70 db 20 3c
       0.10770819 0.02610211 -0.0791331 0.009817943
000050 d9 e2 b6 bd 7e 8c 80 bd 0b 96 64 3d 0f 8c ab 3d
       -0.089299865 -0.06276797 0.055807155 0.083763234
000060 ae f9 05 bd 24 9a aa bd aa 4d cd bb 1a f6 a7 3a
       -0.032708816 -0.08330181 -0.006265362 0.0012814433
000070 aa de 57 bd d7 6f b3 bd 38 c3 18 be 8d 5a 33 3c
       -0.052702583 -0.08761566 -0.1491822 0.010946882
000080 c3 10 a5 bc 54 2a 67 3d 66 19 78 bd 2e 9c 54 bd
       -0.020149594 0.05643685 -0.060571097 -0.051906757
000090 c8 2c 86 bd b5 e7 a9 3a 57 36 45 3b d5 23 c4 39
       -0.0655151 0.0012962731 0.0030092204 0.0003741073
0000a0 69 da 82 bd f8 ab 88 bd ed ff 90 3d 87 a7 83 bd
       -0.06389315 -0.066734254 0.07080064 -0.06428438
0000b0 d6 dc 8d bd 37 cb 81 3d b6 1c a6 bc b1 65 8e 3d
       -0.06926887 0.06337588 -0.020277362 0.0695299
0000c0 a2 ff 18 bd 86 13 08 3d c3 b1 34 bd b4 bd 06 bb
       -0.037353165 0.033221744 -0.04411484 -0.002055985
0000d0 8a 02 ae 3d f5 71 bd 3d 5a ba b2 3c c2 f2 8e bd
       0.08496578 0.09250251 0.021817375 -0.06979896
0000e0 83 c7 8f 3c b9 86 4c bd 4c c4 e0 bc f1 f5 ab 3c
       0.01755119 -0.04993317 -0.027437352 0.020991297
0000f0 71 a1 45 3d 90 e2 d0 3d 06 76 96 bc 68 4c ad bd
       0.048249666 0.10199463 -0.018366825 -0.08461839
000100 92 16 10 bd 50 3c f0 bc b8 7e 5d bd 5b 51 96 bd
       -0.035177775 -0.029325634 -0.054075927 -0.07339736
000110 c0 89 f7 bd 84 a9 1b 3d 00 30 82 bd 32 aa 24 bd
       -0.120868206 0.03800346 -0.063568115 -0.040201373
000120 aa 1c 63 3d bc ce 55 bd a3 fc ba 3d 99 e9 90 bd
       0.055447258 -0.05219911 0.09130218 -0.07075805
000130 cc 87 2c 3d c5 04 ab 3c f5 85 b8 3c 2c 17 93 3c
       0.042121693 0.020876298 0.022524813 0.017955385
000140 86 48 57 bd 02 79 76 3c af 9b 7f bd b4 a8 46 bd
       -0.052559398 0.015043499 -0.06240433 -0.04850073
000150 3a 7c 19 be 40 a5 60 3d f6 91 0f 3d 34 ae 1c bc
       -0.14988795 0.054845095 0.03505131 -0.009563018
000160 9b 87 86 bc 37 0f 94 bd cf 24 8a 3c b1 02 b8 bc
       -0.016422084 -0.072294645 0.016863255 -0.02246222
000170 57 6d ff bc 8f ae dc bb 7e cd 97 bc 98 56 41 3d
       -0.031180067 -0.006734676 -0.018530603 0.047201723
000180 dc d2 74 bd 04 ff 4e 3d d4 4d e4 bd 45 7d 84 3d
       -0.059771404 0.05053617 -0.11147657 0.06469206
000190 52 b6 ad bd 45 07 80 3c 1a 22 31 bc b1 b4 11 3d
       -0.084820405 0.015628466 -0.010811353 0.03557271
0001a0 ac d3 66 bd 31 b3 0e bd 8f 37 90 3d 26 16 8a 3c
       -0.05635421 -0.03483886 0.07041847 0.016856264
0001b0 30 5b a7 bc a8 d7 26 3d 51 df a8 3c 58 51 9b 3b
       -0.020429224 0.04073301 0.020614298 0.0047399215
0001c0 07 54 b7 bd 9c 38 8e 3d 59 ad 07 3d e2 8b ba bd
       -0.08951574 0.06944391 0.0331243 -0.09108712
0001d0 12 97 c5 bd d3 90 0b ba 80 a8 b4 bb f6 92 8b 3d
       -0.09647955 -0.00053240097 -0.005513251 0.0681514
0001e0 d7 a9 e4 3d 64 87 79 bd 20 d6 10 be 75 93 80 bd
       0.11165207 -0.060920134 -0.14144182 -0.06278125
0001f0 83 cd 9a bd 46 8e 72 bc c6 59 f8 3c 10 35 b8 bd
       -0.075587295 -0.014804428 0.030316245 -0.08994496
000200 36 1f a2 bd e1 4a 47 bd 7a 55 80 3d 96 05 4d bd
       -0.07916109 -0.048655394 0.06266303 -0.050054155
000210 d0 9b 5e 3c 48 74 5c 3d 4d 20 3a bc c8 c9 5d 3b
       0.013586953 0.053821832 -0.01136024 0.0033842195
000220 01 d1 b1 3d 6c 16 b9 bc 4a 97 ab bd 77 fa 09 3d
       0.086824425 -0.0225937 -0.083784655 0.033686128
000230 e2 3a 05 bd f0 6e de 3c 0e 92 17 3d 02 e5 a0 bd
       -0.03252686 0.027152508 0.037004523 -0.0785618
000240 dc 41 5a bd 2b 0f 0a bd 96 17 cd 39 4e 42 05 bd
       -0.053285465 -0.03370587 0.0003911822 -0.032533936
000250 4b 54 30 bc bc b0 71 bd f8 39 6e bd f9 f9 9b 3d
       -0.0107622845 -0.059006438 -0.058160752 0.07616038
000260 96 54 5d bd 3e 82 b9 bc 2f 46 5b bc 71 7a e8 3c
       -0.054035746 -0.022645112 -0.013383432 0.028378697
000270 10 6b 01 be 52 b7 2a 3d f4 1d 0e bd fc 44 2a bd
       -0.12638497 0.041678734 -0.034696534 -0.041569695
000280 2b fc 83 bd 16 55 45 3d 98 8b 07 bd 86 9c 89 3a
       -0.064445816 0.048176847 -0.03309211 0.0010498918
000290 7f 5d f1 bc bd 9a 23 3c 73 98 68 bd b6 05 aa bd
       -0.029463528 0.009985623 -0.056786012 -0.083018705
0002a0 03 33 a4 bd 51 b5 05 bd 6d c2 83 3d 1e 7a b7 bd
       -0.08017542 -0.03264362 0.06433568 -0.08958839
0002b0 9f 17 21 3d d0 c8 73 bd f6 ed 5c bd f4 98 c7 bc
       0.039329167 -0.05951768 -0.053937875 -0.024364926
0002c0 20 d3 f5 3c 5b 5a 59 bd 01 77 3e 3d 23 1d ec 3a
       0.030007899 -0.053064685 0.04650021 0.0018014055
0002d0 33 d5 a1 3d 85 da 8e 3d e0 fe b2 bd 9f 46 c4 bd
       0.07901993 0.06975273 -0.0874002 -0.095837824
0002e0 c2 58 36 3d 51 f1 58 bd 35 51 05 bd 41 97 3a bb
       0.04451824 -0.052964512 -0.03254815 -0.0028471502
0002f0 29 cf 77 bd ad 26 3a bc 73 16 e0 bd a8 a5 8d bd
       -0.060500298 -0.01136176 -0.10941782 -0.06916362
000300 77 25 5d 3c 91 ef ae 3b 51 4d 8e bd ad fd 88 3c
       0.013497702 0.005338617 -0.06948341 0.016722525
000310 b2 fa 11 3c 6d ee 44 bc 30 60 26 bd 82 f9 32 3c
       0.008909868 -0.012019736 -0.040619075 0.010923745
000320 32 25 ab 3d 7a 97 0f bd a0 e4 0e 3c 8d d9 4e bd
       0.08356704 -0.03505657 0.008721501 -0.05050044
000330 f3 ac 78 bd 14 dc 85 3d 5b 84 a3 bd 17 8a ab bb
       -0.060711812 0.06536117 -0.07984229 -0.0052349675
000340 9a a5 13 bd 51 00 11 bd f8 76 a9 3c da 55 75 3d
       -0.0360466 -0.035400692 0.020686612 0.059896328
000350 ac 63 ce 3d 30 ff 1d bd a0 02 90 3a 6d 36 a5 bc
       0.10077605 -0.038573444 0.001098711 -0.020167554
000360 aa 72 31 bc 8a 9c 05 bc c6 c5 e0 3c 44 14 69 3c
       -0.010830561 -0.008154998 0.027438056 0.014226023
000370 d1 fe 4f 3b 1a 55 44 3d c1 82 cc 3d bc b3 98 bd
       0.0031737576 0.04793272 0.09985877 -0.074561566
000380 ca 6c 2b bd aa 66 3a 3d 45 68 56 bb 4b 5d e6 3c
       -0.041851796 0.045508064 -0.0032715958 0.028120657
000390 dd 1a f9 3a 8a 17 60 3d 25 c0 3b bc d2 ce 84 bc
       0.0019005198 0.05470995 -0.011459385 -0.0162119
0003a0 be 45 0e be 51 8b a6 bd b1 e9 0f bd ff 63 a7 bc
       -0.13893792 -0.08132041 -0.035134975 -0.020433424
0003b0 a4 1a c3 bd 26 10 8f bd 4d a3 90 3d fe 87 a4 bc
       -0.09526566 -0.06985502 0.07062397 -0.020084377
0003c0 ab 36 f6 bb d0 95 87 bb 93 c5 21 be fe cb f2 3d
       -0.007513841 -0.004137732 -0.15798025 0.11855315
0003d0 94 7d d8 bc 30 71 e5 bc 3f 18 b9 ba 30 1f 72 bd
       -0.026427068 -0.028008074 -0.0014121606 -0.059111774
0003e0 3b 78 a1 bd 12 70 a0 3c
       -0.0788426 0.01958469

layers.3.weight f4 [8, 250]
000000 a4 87 6b 3d ff 29 ed bc 95 6a 11 3e cd 33 b5 3c
       0.057502404 -0.02895069 0.14200814 0.022119427
000010 f2 32 31 3e d6 71 96 3d db f2 e2 3d 5e 7e d1 3d
       0.1730459 0.07345931 0.11081477 0.10229181
000020 9e 99 f6 be 64 7f af 3e 66 94 28 be cd 7c 37 3e
       -0.48164076 0.3427688 -0.1646286 0.17918701
000030 74 b2 34 3d d6 76 58 bc 5d 7f ed bd 9e de 94 be
       0.0441155 -0.013211926 -0.11596558 -0.29076093
000040 99 d4 98 3c 0f 13 b8 bd 56 9d 37 bd 1b 1c 7e 3d
       0.018656062 -0.0898801 -0.04482778 0.062038522
000050 cb 7e 9c be f8 f6 07 3e 8a 2f 0f 3d 21 87 d2 bc
       -0.30565485 0.13277805 0.034957446 -0.0256992
000060 12 05 0e 3d a0 27 2a 3e 18 a6 99 3e 98 1d 04 3e
       0.034672804 0.16616678 0.30009532 0.12901914
000070 2e f4 b9 3d 69 29 5f 3e b9 e3 28 3e 21 6b 1e 3d
       0.09079777 0.2179314 0.1649312 0.038676385
000080 99 91 7f 3e 0c 76 0e 3e 93 ee 46 3d 9c 70 ad 3d
       0.24957885 0.13912219 0.048567366 0.08468744
000090 5a 71 02 3e 92 6c 27 3e 5a 4b 91 3d 5a b8 ca bd
       0.12738553 0.1635001 0.0709445 -0.098984435
0000a0 f4 5e 64 3e a4 e1 9e 3e c1 38 17 be 0d 4e 95 3c
       0.22301847 0.31031525 -0.14767744 0.018225694
0000b0 3f 14 11 be f8 25 28 bf 43 3a 96 bd 2f 85 26 3e
       -0.1416788 -0.65682936 -0.07335331 0.16261743
0000c0 67 f5 09 be 10 b2 52 3d b1 08 5e be ac e4 01 bf
       -0.1347252 0.051439345 -0.21683003 -0.5073955
0000d0 3f 03 f8 bd 4b fd 59 bd c7 f3 72 3e 57 38 12 be
       -0.12109994 -0.053220075 0.23725806 -0.14279304
0000e0 0c 71 81 3d 6e f5 a3 bd 99 d0 b7 3d 1f 05 2c bf
       0.0632039 -0.080057964 0.08975334 -0.67195314
0000f0 c0 36 61 3d 47 8d ba 3d 85 48 1d bd f2 48 37 3d
       0.054983854 0.09108978 -0.03839924 0.0447473
000100 d9 d4 98 be 3a da 70 3e 3b 84 40 bc 06 b6 1b 3e
       -0.2984989 0.23520747 -0.011750276 0.15206155
000110 94 e3 22 3e cd 6f 52 b9 c3 69 5e bd 01 7b 8a 3d
       0.15907127 -0.0002006881 -0.05430008 0.067617424
000120 7f 1a 4d 3e ce 5d b6 3d 74 07 7a 3d 2f 6b 2e 3e
       0.20029639 0.089046106 0.061042264 0.17033075
000130 81 4e d0 bd 4c 60 5c 3e ba 33 74 3d 34 94 d5 3b
       -0.101712234 0.2152111 0.059619643 0.0065179113
000140 00 fc 6c be e1 23 20 be aa 33 e8 bd e1 e2 f1 bc
       -0.23143005 -0.15638687 -0.11337979 -0.02952713
000150 b9 78 61 3d 24 3b 2f 3e ff 0d 0a 3e 8f 2a 61 bd
       0.05504677 0.17112404 0.13481902 -0.054972228
000160 0e ec 93 3e e8 7c 53 3e a0 d2 09 3d e5 3c 1c 3d
       0.28891033 0.20653117 0.033648133 0.03814401
000170 92 01 c4 3d 03 95 a1 be 88 40 9e 3c 27 3e 11 bf
       0.09570612 -0.31559 0.01931788 -0.5673546
000180 03 15 00 3e 3d a4 8d be 77 d6 65 3e 79 27 95 be
       0.12508015 -0.27664366 0.22445093 -0.29131678
000190 82 f4 2f be 3e 44 15 bd c0 24 f2 ba 9b 95 42 3d
       -0.17183116 -0.036442034 -0.0018474087 0.047505956
0001a0 9b ae ad 3d 49 4e a2 3d e7 70 44 bd 7a a3 a8 bd
       0.08480569 0.07925088 -0.047959235 -0.08234306
0001b0 ac ae a9 3d 80 89 80 bd 9e ac 39 bd 13 ea 88 3e
       0.08285269 -0.06276226 -0.045330636 0.26741084
0001c0 6e fe cf 3d 75 ca 97 be 03 41 10 bf 5e ea af 3d
       0.101559505 -0.2964665 -0.563492 0.08589624
0001d0 56 78 cb 3c ba 10 77 bd 67 b7 02 be e8 d7 fb bd
       0.024837654 -0.060318686 -0.12765275 -0.1229704
0001e0 70 e4 90 3d c3 63 1d bd 51 15 73 3d 86 0b 3e 3e
       0.07074821 -0.03842522 0.0593465 0.18559083
0001f0 39 ba 09 3e 0c 75 5d 3d 70 95 9d bd 75 6c 69 bd
       0.13449945 0.054066703 -0.076945186 -0.0569882
000200 68 a6 58 3e 0f b8 6b 3d 85 80 3f be 6e 9a 7a be
       0.21157229 0.05754858 -0.1870137 -0.24472973
000210 80 62 41 3e e6 9b 13 bc 3d 27 1c 3e 82 18 06 bc
       0.18885231 -0.009009337 0.15249343 -0.008184554
000220 dc b0 ba 3e 89 d6 e6 bc 43 6d 62 3d 01 a1 2d be
       0.36463058 -0.02817847 0.05527998 -0.1695595
000230 9c 60 3c 3e 85 3a a8 3e ce 6d 96 3d 64 cd 90 be
       0.18396229 0.32857147 0.07345162 -0.282817
000240 e7 81 4c 3d f0 d6 12 bd 34 86 cd bc b4 ba 67 3d
       0.049928572 -0.03584951 -0.025088407 0.05657454
000250 46 1f c8 3c 86 30 39 3c 7e e0 7e 3e ca 92 53 be
       0.024428975 0.011303073 0.24890324 -0.20661464
000260 77 6a 85 3e a9 ff 07 be cf 22 a2 3e 55 5b 16 3d
       0.2605779 -0.1328112 0.31667182 0.036708195
000270 98 a7 e3 bd 43 ed 08 be e7 b0 26 be 54 39 e1 3d
       -0.1111595 -0.13371758 -0.1627842 0.109972626
000280 eb b9 b5 3e 95 77 d9 bb a0 04 60 3d d6 80 cd 3c
       0.35493407 -0.0066365697 0.05469191 0.025085848
000290 7e 52 87 be 6d 66 c0 3c b1 84 2f 3e 36 4e 2c bd
       -0.26430124 0.02348634 0.17140462 -0.042066775
0002a0 07 de 3b 3e 95 87 8f 3c f6 c3 14 bd ab b2 08 bd
       0.18346415 0.017520705 -0.036319695 -0.033373516
0002b0 5c 4f 1d be 38 a1 3c 3e bb d6 c1 3d 07 38 9b bd
       -0.15362304 0.18420875 0.09464785 -0.07579046
0002c0 f9 bc 1c 3e aa e4 9d 3d c0 98 5b be 5b 50 a4 be
       0.15306462 0.0770963 -0.21444988 -0.32092556
0002d0 36 d2 c5 bd 53 1e f5 3d b1 f1 d9 3d 95 31 cc 3d
       -0.09659235 0.119686745 0.10641802 0.099703945
0002e0 a0 90 c5 bd 63 a1 bb 3d 48 17 d5 bd ef 72 76 3e
       -0.09646726 0.091616414 -0.10404831 0.24067281
0002f0 58 8b 2a be dc 83 1f 3c f1 4e 80 bd 8a 04 c4 3c
       -0.16654718 0.009736028 -0.06265057 0.023927946
000300 7f 80 73 3e dc 3e 9a bd 91 15 10 3e 7a bf 54 be
       0.23779486 -0.07531521 0.14070727 -0.20776168
000310 be f8 4e 3e fb 81 1e be 92 0d 78 bd ad 1e 1f 3d
       0.20212075 -0.15479271 -0.060559817 0.038847614
000320 4f 1e 07 be 41 30 cd 3c b6 bc 09 3e 08 96 a6 bd
       -0.13195156 0.025047423 0.13450894 -0.08134085
000330 ab b9 7d bd d5 41 33 3e 4e 14 11 3e 72 fb 32 3c
       -0.061944645 0.17505582 0.14167902 0.010924207
000340 e7 e1 47 3c 2a 3b a5 3a 00 6e c9 bd cf 71 de bd
       0.012199855 0.0012606133 -0.09835434 -0.10861551
000350 77 fc 56 be c5 f0 0b 3e d9 74 47 3c 43 15 90 be
       -0.20994745 0.13666065 0.012173855 -0.2814122
000360 87 2d 04 bc 55 7d 3c 3e f6 87 c7 be c5 6b 2a 3e
       -0.008067495 0.18407185 -0.38970917 0.16642673
000370 1b f6 d1 3d 00 40 7f be e0 2c d2 bd 90 20 36 3d
       0.10252019 -0.24926758 -0.102624655 0.044464648
000380 e7 2c 92 bd a4 60 60 bc 02 df 43 3d 01 f7 70 3e
       -0.07137471 -0.013694916 0.0478201 0.23531725
000390 4d e7 0d 3e 8e ee 10 bc a4 dc 11 3d 15 de 75 be
       0.13857765 -0.008845938 0.03561081 -0.24010499
0003a0 0a 20 c1 3d 0a e8 e8 3c 0a d7 4d 3d 04 ff 32 3e
       0.09429939 0.028430957 0.050253905 0.17480093
0003b0 8d 5b 89 3e d3 70 2a be c5 37 b5 3d 86 79 1f bb
       0.2682766 -0.16644602 0.08848528 -0.0024333908
0003c0 c1 94 85 be 35 3b f2 3d 96 d5 ac 3d a2 fb 00 3c
       -0.26090053 0.11827699 0.08439176 0.007872494
0003d0 eb 33 a9 3d 8f 63 25 3d 9c 31 c9 be 7f 67 a6 3e
       0.08261856 0.04037815 -0.3929566 0.32500836
0003e0 98 89 9b bd 84 0b ee 3d f2 ba 09 bf 3c a0 97 bc
       -0.07594603 0.1162329 -0.5380088 -0.018509023
0003f0 cd 3b d0 3d 71 44 97 be 0e d2 a1 bd 65 53 c9 bc
       0.10167656 -0.29544404 -0.07901393 -0.024575898

layers.3.bias f4 [8]
000000 de 9a 19 bd 9e f2 1e bd 89 61 70 bd 1b c2 44 3d
       -0.03750121 -0.038805597 -0.058686767 0.048036676
000010 a4 66 b4 3d 74 ef ec 3c f8 11 9b 3d fc 74 bb 3c
       0.0880864 0.028922774 0.07571787 0.022882931
