actor.pth (torch, 581476 bytes, 34 tensors)

projection.layers.0.weight f4 [10, 2]
000000 7b 39 e3 3e 3f 98 fd be ca c7 0c bf e5 ce 17 3f
       0.44379792 -0.49530217 -0.54992354 0.5930007
000010 7e 07 0f 3d 94 ce b6 bd ad 8a f7 be 64 dc 25 3f
       0.034919254 -0.089261204 -0.4834799 0.64789414
000020 db 41 4d be 6d 19 c9 be 9f 71 14 3f d9 35 27 bf
       -0.20044653 -0.3927721 0.5798587 -0.6531654
000030 72 41 0e bf 70 ec 0b 3d a9 b6 cd 3d 08 9c c5 be
       -0.5556861 0.03416103 0.10044605 -0.38595605
000040 58 77 ed 3e cd 39 6d be 9c c1 9a 3e 6a ca 1b 3f
       0.46380115 -0.2316658 0.30225837 0.60855734

projection.layers.0.bias f4 [10]
000000 15 3f df be d6 9a e8 bd 4a 70 01 bf 12 63 86 be
       -0.43602815 -0.113576576 -0.50561965 -0.2624746
000010 c4 50 82 bd 4e 63 cf be cc a7 11 bf 13 85 49 be
       -0.06363061 -0.4050545 -0.5689666 -0.1967967
000020 c8 9e 1d 3d 68 a6 72 be
       0.038481504 -0.23696291

projection.layers.1.weight f4 [10, 4]
000000 ae eb d7 3e 11 43 ec 3e 23 3b 0a be 4a b9 80 3e
       0.42171997 0.46144918 -0.13499121 0.25141364
000010 40 36 78 3d b0 6e b1 be f2 fe f4 be b0 c7 67 bd
       0.06059861 -0.3465476 -0.47850758 -0.05658692
000020 dc 4a f5 3e 92 33 d7 be 43 88 f1 be bb 7a 48 3e
       0.47908676 -0.42031533 -0.47174272 0.19578068
000030 d4 e4 9b be 6c 00 ce be f0 20 7e be cc 59 af be
       -0.3044802 -0.40234697 -0.24817252 -0.34248197
000040 3c 28 df 3e 36 d9 b4 3e 8f d6 ef 3e e6 43 ea 3e
       0.43585384 0.3532197 0.46843383 0.45754927
000050 e0 89 9f be 44 45 60 be 0e bf a6 3e ac fb 28 be
       -0.31159878 -0.21901423 0.32567638 -0.16502255
000060 e8 7c 87 3d 90 08 7a be e2 69 a4 be b8 b8 4c be
       0.06615621 -0.24417329 -0.32112032 -0.1999234
000070 48 15 a7 3e 4d ad 66 be 8b bc b7 3e f7 a1 03 3f
       0.32633424 -0.22527047 0.35886034 0.51419014
000080 cc 7b ae 3e a6 8c 8d be d1 c4 f3 3e 90 ef f9 3c
       0.34078825 -0.2764637 0.47611097 0.03050974
000090 ed 37 1c bd ec 95 da be 17 db 8d bd 9b c3 90 be
       -0.038139272 -0.42692506 -0.06926554 -0.28274235

projection.layers.1.bias f4 [10]
000000 07 8d b5 be 28 18 03 be 80 61 de 3e 7c bc 08 be
       -0.35459158 -0.12802184 0.43433762 -0.13353151
000010 9c 15 3d be 48 79 a7 be 08 b2 44 be 13 70 5c be
       -0.18465275 -0.32709718 -0.19208539 -0.21527128
000020 31 54 f4 be d8 6b d2 3e
       -0.47720483 0.41097903

projection.layers.2.weight f4 [10, 4]
000000 18 07 f2 3d 2e 9c b3 bc 00 03 43 3e 97 11 ec 3d
       0.11817759 -0.021925058 0.19044113 0.115267925
000010 c8 0d da be ab 6f a4 3e 3b f9 e2 3e 1e 31 2a 3d
       -0.4258864 0.32116446 0.44330773 0.041550748
000020 ee 04 8f be 17 90 9a 3e 1f 2f 8a 3e 4d cb f8 3e
       -0.2793345 0.30188057 0.26989076 0.48592606
000030 77 bc 23 be 24 59 31 bd 93 ef 97 3e 84 76 fa be
       -0.15989862 -0.0432979 0.29674968 -0.48918545
000040 c1 e5 98 bd 7a e5 86 be 11 90 62 bd 66 40 3b be
       -0.07465697 -0.26346952 -0.055313174 -0.18286285
000050 ad d0 86 be 3f 85 d8 3e 5b 18 9c bd 16 01 ab 3e
       -0.26331082 0.4228916 -0.07621833 0.33399266
000060 41 ee c8 be 3e a3 e1 3e d3 5f d5 3e ac 2d d4 bd
       -0.39244273 0.44069856 0.4167467 -0.10360274
000070 69 dd 17 be 21 9a 33 3d 91 8b 0b 3e a3 53 e1 be
       -0.14830555 0.04384816 0.13627459 -0.44009122
000080 8b 6d c0 3c 24 86 41 3e 0c 1f bc be 43 65 a5 3e
       0.023489734 0.18898827 -0.36742437 0.3230382
000090 86 4f 48 3e cd cf cd bd d4 58 87 3e 07 c6 61 3e
       0.19561586 -0.100494005 0.26434958 0.22048198

projection.layers.2.bias f4 [10]
000000 18 77 cb bd 75 10 0f 3e 77 eb d6 be 8b f4 b4 bb
       -0.09934825 0.13971122 -0.4197652 -0.005522316
000010 74 50 65 3e 5c 95 98 be 71 ec f2 3e 86 41 b6 3e
       0.22393972 -0.29801452 0.47446015 0.35596865
000020 71 49 6e be d6 56 f8 3e
       -0.23270203 0.4850375

projection.layers.3.weight f4 [10, 4]
000000 22 00 d6 be c0 4b 34 3c 44 b3 94 be da 10 94 3e
       -0.41796976 0.011004388 -0.2904302 0.28919107
000010 d0 f3 1d bd 80 fe e6 3b 80 34 62 3d 54 88 91 be
       -0.038562596 0.0070493817 0.05522585 -0.28424323
000020 b0 ec 13 3d 90 11 98 bd 6e 28 c4 be c8 38 81 be
       0.036114395 -0.07425225 -0.38312095 -0.25238633
000030 3a c5 d3 3e fc 27 df be f8 75 10 be 72 2a 33 be
       0.4136141 -0.43585193 -0.14107502 -0.1749666
000040 aa f8 d6 3e 85 d3 86 be de 93 e8 be ea c6 b4 bd
       0.4198659 -0.26333252 -0.45425314 -0.08827002
000050 a8 ea 3f be 7c 08 0d 3f 6e 60 0b be 59 d9 ea be
       -0.18741858 0.5509107 -0.13611004 -0.45868948
000060 50 5b f7 3e af 4f 16 3e ff 1c 20 3d 9f 29 a1 be
       0.48311853 0.14678834 0.039090153 -0.31477067
000070 ca 9d b0 be e0 e1 0c be cc 46 73 3e 6b b6 a8 3e
       -0.34495384 -0.1375804 0.23757476 0.32951674
000080 31 ff fb bd 2e ca ac be 65 a6 c9 3d 24 cc e3 be
       -0.12304533 -0.33748 0.0984619 -0.44491684
000090 44 9e da 3e a2 56 ed 3e a7 0b a3 3c c6 df 8c bd
       0.42698872 0.46355158 0.019903017 -0.06878619

projection.layers.3.bias f4 [10]
000000 88 18 a8 be fc a7 73 be 72 f4 b0 be 21 b2 b0 bd
       -0.32831216 -0.2379455 -0.34561497 -0.086277254
000010 9e 32 ce 3e 29 e8 aa 3d de e5 a3 be 13 87 ab 3d
       0.40272993 0.08345062 -0.32011312 0.08375373
000020 69 2b 84 3e a6 d7 04 3f
       0.2581437 0.51891553

projection.layers.4.weight f4 [10, 4]
000000 c9 06 a9 3e ea a3 52 3d 7f 55 ad 3e d2 44 ea be
       0.3301299 0.051425852 0.3385429 -0.4575563
000010 3a 3f b9 be be c7 e0 be c0 c6 2f 3e 77 79 19 3e
       -0.3618105 -0.4390239 0.17165661 0.14987741
000020 65 d8 f0 3e 4c 8a de 3e f6 0e 41 bd a6 a5 04 3e
       0.47040096 0.43464887 -0.04713341 0.12953815
000030 8f 3c db 3e d3 3c bf be 75 b2 3f be 5c 9c c0 3e
       0.4281964 -0.37351093 -0.1872042 0.37619293
000040 f6 2d 9c be d9 63 b9 3e 39 1d 84 3e a1 45 79 bd
       -0.30503815 0.3620899 0.25803545 -0.06085742
000050 e5 ae e2 3e e2 14 f1 be 4c 79 3c 3e be ce 9a 3e
       0.4427406 -0.47086245 0.18405646 0.30235857
000060 92 c7 02 3e 60 ef c9 be fe b9 10 be 42 24 3c 3e
       0.12771443 -0.3944044 -0.1413345 0.18373206
000070 d3 23 59 3e 0d 92 9e 3e 85 85 47 3e 1f 9f 9a 3d
       0.21205072 0.30970803 0.19484527 0.07549881
000080 09 4f c7 3e 36 d2 46 be 9b 63 be 3e 4b 91 86 3c
       0.38927487 -0.19416127 0.37185368 0.016426703
000090 2e 5f d2 be e8 e8 93 3e 2a 0d 9c be 0c 6f b8 be
       -0.4108824 0.2888863 -0.30478793 -0.36022222

projection.layers.4.bias f4 [10]
000000 38 63 c3 be 74 8c c8 bd 02 d6 95 be 89 a0 19 3e
       -0.38161635 -0.09792414 -0.29264838 0.15002646
000010 af 82 cb 3e 47 c1 c1 bc b7 82 ee 3e e1 6f e8 bd
       0.3974814 -0.023651732 0.46584103 -0.11349464
000020 49 4a 8c be 50 22 c9 be
       -0.27400425 -0.3928399

projection.layers.5.weight f4 [10, 1]
000000 8c dc dd be 66 a3 8d 3f 40 43 e3 bd 20 c4 60 bf
       -0.43332326 1.106549 -0.11096811 -0.87799263
000010 2d 6a 9a 3f c0 c8 71 bf 3b f2 35 be 28 5d 34 3f
       1.2063652 -0.94446945 -0.17768185 0.70454645
000020 80 5a 67 3d d3 87 7b 3f
       0.056482792 0.98254126

projection.layers.5.bias f4 [10]
000000 d2 b8 40 bf 7f 89 9e 3f 54 15 91 be bc 21 dd be
       -0.75282013 1.238571 -0.28336585 -0.431898
000010 ed 6a 96 be 1c 65 4d bf 7a 89 fc 3e 53 21 54 3f
       -0.29378453 -0.80232406 0.49323636 0.8286335
000020 2c 93 5d bf 24 a9 4a 3f
       -0.8655269 0.7916434

projection.layers.6.weight f4 [10, 1]
000000 e6 2c 56 bf 28 02 55 3f f2 bf 79 bf 8c ba db be
       -0.8366226 0.83206415 -0.9755851 -0.4291576
000010 90 6c 69 be 7c 18 1a bf e0 38 25 bd af 04 7d bd
       -0.2279532 -0.6019361 -0.040337443 -0.061772045
000020 2b ab d4 3d 08 40 55 be
       0.1038421 -0.20825207

projection.layers.6.bias f4 [10]
000000 40 7c 9f be 12 6c cf be e0 79 b4 be 90 03 97 be
       -0.31149483 -0.4051214 -0.35249233 -0.29494905
000010 80 38 c1 bd 4c b5 97 3e 34 29 fa be de 9a 53 3f
       -0.09434605 0.29630506 -0.4885956 0.82658184
000020 6a a4 7d 3e d4 40 ed be
       0.2476975 -0.46338522

projection.layers.7.weight f4 [10, 1]
000000 57 af 04 3f 19 4b 47 3f fe 97 e3 3e 44 61 0f bf
       0.5183005 0.77848965 0.44451898 -0.5600779
000010 bf 52 07 be f1 11 0d 3e 78 95 28 3f 80 dc 43 bf
       -0.13215159 0.13776375 0.6585307 -0.7650833
000020 58 18 ef be da 06 7c 3f
       -0.4669826 0.98447955

projection.layers.7.bias f4 [10]
000000 73 1a f8 be df d1 22 3f be f8 83 be d0 47 04 bf
       -0.4845768 0.6360149 -0.25775713 -0.5167208
000010 ed 9c e9 3e 8a a7 6a 3e f6 cf 6c 3f c8 59 02 bf
       0.45627537 0.22915474 0.92504823 -0.50918245
000020 68 96 a9 be f6 3e 10 3f
       -0.33122563 0.5634607

projection.layers.8.weight f4 [10, 1]
000000 50 31 af 3d 20 60 56 be ce e9 45 bf a4 cf 4b 3f
       0.085543275 -0.20935106 -0.7730988 0.7961371
000010 80 06 c3 3c 76 c2 db 3e 18 2e 62 be f4 e2 82 3f
       0.02380681 0.429218 -0.22087896 1.0225511
000020 3f 03 38 3f c2 a3 1c bf
       0.71879953 -0.61187375

projection.layers.8.bias f4 [10]
000000 b9 14 42 3c 70 85 72 be 7a 6f 38 3f 81 86 a0 bb
       0.011845761 -0.23683715 0.720451 -0.0048988466
000010 54 af fb be 6c c8 0f be 19 32 de 3e 08 0f 6f 3f
       -0.49157202 -0.14041299 0.43397596 0.9338231
000020 0b 41 87 3f 18 b3 07 3f
       1.0566725 0.5300765

projection.layers.9.weight f4 [10, 1]
000000 f6 0d 53 3d 58 03 7d 3e 10 4e 34 bf 71 29 0e 3f
       0.051526986 0.24708307 -0.70431614 0.55531985
000010 f8 03 fa be 1c bd 78 bf 6c a7 9c 3e 82 4d 68 3f
       -0.48831153 -0.9716356 0.30596483 0.9074327
000020 68 00 2a 3e 21 bf 0a be
       0.16601717 -0.13549472

projection.layers.9.bias f4 [10]
000000 a0 af 58 3e 10 ca f9 be d1 2d e9 3d 41 bb 10 be
       0.21160746 -0.48786974 0.11385692 -0.14133932
000010 02 10 66 bf 7d ae 04 3f 0c 1b 43 bf 00 9f 1e bf
       -0.89868176 0.5182875 -0.76213145 -0.61961365
000020 50 2f bb be 4d 40 78 3f
       -0.36559534 0.96973115

attention.attention.0.weight f4 [64, 100]
000000 b2 c3 5a bd 56 e7 7a 3d cd d0 4d 3d e3 4a 09 3c
       -0.053409286 0.061255775 0.050247956 0.008379671
000010 d7 3d a4 3d 13 c8 5f 3d 9a 6c 09 3d 4d dd 62 3d
       0.080196075 0.054634165 0.033550836 0.05538683
000020 da 78 b4 bd 39 85 b2 3c 5d 2a d4 bc a7 d6 32 bc
       -0.08812113 0.021792041 -0.025899107 -0.010915435
000030 77 41 73 bd 90 6d 63 3d 13 0e bc bd 2b 6d 87 bd
       -0.059388604 0.05552441 -0.09182372 -0.06612619
000040 7d 05 ac 3d cb 40 9d 3d 7c f2 f4 3c 21 35 47 3c
       0.08399484 0.07678374 0.029900782 0.012158663
000050 d8 ef 61 3d 9b 5c a6 bd 5f cd 9f bc 51 fe 32 bd
       0.055160373 -0.08123132 -0.019507108 -0.043699566
000060 ea b4 fd bc 42 87 9d 3d af a2 8f 3d 0c fc 9c bd
       -0.030970056 0.07691814 0.07013451 -0.076652616
000070 38 6e 1f bd a0 1f e5 bd e7 68 58 bc 10 00 50 bd
       -0.038923472 -0.111876726 -0.013208604 -0.05078131
000080 e8 7e 9b bd f6 c3 92 3d e7 67 66 bc 16 26 9e 3c
       -0.07592565 0.07166283 -0.014062858 0.01930527
000090 b5 0e 42 3d 03 80 39 bd b2 9d 36 3d 12 b0 30 bd
       0.047377307 -0.045288097 0.044583984 -0.043136664
0000a0 e0 a8 9e bd b2 20 9e bd 1a 53 4f 3d b0 aa ad 3d
       -0.07747054 -0.0772108 0.05061636 0.08479822
0000b0 fd c9 35 bd a4 cc 9c bd 77 5e 92 bd 5c 55 35 bd
       -0.044382084 -0.076562196 -0.07146924 -0.04427086
0000c0 1f ac eb 3c 3b ca c2 3d 4b ad 9d 3d 86 3a b7 bd
       0.028768597 0.09511229 0.07699069 -0.08946709
0000d0 b0 0e 3e bd 6b 7c ca 3d 79 d9 b3 bc ad 55 c5 bc
       -0.046400726 0.09887012 -0.021954285 -0.024088705
0000e0 24 92 48 bd 38 11 8f 3d 00 1e 3f 3b 89 09 42 bd
       -0.048967496 0.06985706 0.0029162169 -0.047372375
0000f0 07 7f cd 3c d6 de 6b ba 6d e8 fc 3c 25 8c 9e bd
       0.025084985 -0.0008997744 0.030872548 -0.07741574
000100 f3 5e 60 bc 52 b5 05 bd b0 0c 41 3d 19 44 0f bd
       -0.013694513 -0.032643624 0.04713124 -0.034977052
000110 1b 97 27 bd 45 02 a9 bd 0b 1c a8 bd a6 15 c8 bd
       -0.04091559 -0.08252386 -0.08208474 -0.09769754
000120 fe e8 89 3d f7 6b 5d bd 7b 61 43 bd 46 ad b7 bc
       0.06733893 -0.05405804 -0.047700386 -0.02242149
000130 92 59 80 3d 0d e8 98 bc fd 4b 50 3d a9 a0 8e bd
       0.06267084 -0.018665338 0.050853718 -0.06964237
000140 b4 a0 7e bd 00 da 6a 3d e6 12 dc bc 1a c2 8c bd
       -0.062164977 0.057336807 -0.02686448 -0.068729594
000150 58 71 bf 3d 1a 7a 83 3d d5 a7 67 3d 7f f3 28 bd
       0.093477905 0.064197734 0.05655654 -0.04124784
000160 c6 90 eb bc 95 5c be bd 7c 66 0c 3b 55 c7 89 bd
       -0.028755557 -0.09295002 0.002142339 -0.06727473
000170 c2 0e b2 bd 24 5a 15 bd 1a 78 9d 3d 49 bf 85 bd
       -0.08694221 -0.036462918 0.07688923 -0.065306254
000180 47 1d 16 3d e0 f2 be bd a2 ac c6 bd 5f ff a3 bd
       0.036649015 -0.093236685 -0.09700896 -0.080076925
000190 9a 1b 19 3d ee 91 00 bd 33 f5 f9 3b a4 18 ed 3d
       0.03737984 -0.03138917 0.007628107 0.115769655
0001a0 43 89 31 bd 9b bf 83 bd 5a c6 e0 3c da 88 81 bd
       -0.043343794 -0.0643303 0.027438331 -0.063249305
0001b0 ef 3f e0 3d ff f4 15 3e 00 e0 0b bd 5d b5 8c 3d
       0.10949694 0.1464424 -0.03414917 0.0687053
0001c0 7b 5d 27 3e aa 51 23 3d 6b 4e d8 3c b7 f8 0c 3d
       0.16344254 0.039872803 0.02640458 0.03441688
0001d0 3a 94 b5 3c f6 b9 0c bd 26 d9 4b 3d 73 0d ca 3d
       0.022165406 -0.034357034 0.049767636 0.098658465
0001e0 24 ac 81 3d cb 60 6e 3c 4b c0 71 bd 05 6a bd 3d
       0.06331661 0.014549444 -0.059021275 0.09248737
0001f0 b4 5e e6 bc 54 3a be 3d 60 e1 b9 3c 9b 53 76 3d
       -0.02812133 0.09288469 0.022690475 0.060138326
000200 7f cc 6a bc d1 df 39 3e 1a 84 98 bc e0 79 2c 3d
       -0.014330982 0.18151785 -0.018617678 0.042108417
000210 e5 1a 92 3d 40 e5 5e bd 65 0d b3 3c ac e4 aa 3d
       0.07134036 -0.05441785 0.021856973 0.08344397
000220 82 ce 90 3d c2 4d 37 bd 73 36 a0 3c f8 17 64 3d
       0.07070638 -0.04475189 0.019557213 0.05568692
000230 ad 83 5a bd e4 e0 76 3c a4 62 c7 3d e0 94 fe 3d
       -0.053348232 0.015068267 0.09735611 0.124307394
000240 7d e0 c7 3d ef 08 d3 3d 88 44 03 3e 70 03 f9 3d
       0.097596146 0.10304438 0.12819111 0.12158859
000250 21 ba bb bc 90 32 49 3d 3a cb ae 3d aa d6 8b 3d
       -0.022915902 0.049120486 0.08534856 0.06828053
000260 ba b4 39 bd da 14 ae 3c 5f f0 d3 3c 73 28 20 3d
       -0.04533837 0.021250177 0.025871454 0.039101075
000270 01 41 09 3e ae 79 d5 3d 00 90 31 3d 95 d5 10 3e
       0.13403703 0.10423599 0.04335022 0.14143975
000280 73 09 02 3c e0 8d 8b 3d 27 6b cc bc ed 4f 4d 3d
       0.007936823 0.0681417 -0.024953438 0.05012505
000290 27 70 2a bd ab 1e 2f 3d 2f b2 97 3d 61 af 58 3d
       -0.041610863 0.042753857 0.07407033 0.05290163
0002a0 99 e2 47 3d 05 f1 89 3d 6a 15 b9 3d e6 bb 73 3d
       0.048800085 0.06735424 0.090372875 0.059505366
0002b0 5d 73 de bc 67 72 6b 3a db de 99 3d 04 a1 a1 3d
       -0.027154619 0.0008981586 0.075132094 0.078920394
0002c0 00 8b 28 3d e2 46 9b bd 5b fc 9b bd e7 2d ca 3c
       0.041148186 -0.07581879 -0.07616492 0.024680091
0002d0 c2 7c ee 3d 40 05 cc bd 26 f4 36 3d ab ea a8 3b
       0.116448894 -0.09961939 0.04466643 0.0051549277
0002e0 ad 17 b8 3d 97 76 27 bc 82 81 09 3d 94 3f f7 3d
       0.08988891 -0.010221145 0.033570774 0.120726734
0002f0 e8 9a 09 3e 3c dd 86 3d ce 26 26 3e a7 aa 49 3d
       0.13437998 0.06585166 0.1622574 0.049235012
000300 2e 90 27 bd b1 4a 42 bd c0 e2 66 3c b2 2b 08 3e
       -0.040908985 -0.047434513 0.014092147 0.13297918
000310 15 db 88 bd d7 c1 76 bc 63 85 58 3d 09 06 92 3d
       -0.066824116 -0.015060863 0.052861582 0.07130057
000320 a1 09 ee bc c2 d9 03 3e cd d7 5a bd 52 d3 0a 3e
       -0.029057326 0.12876037 -0.05342846 0.13557175
000330 6d 0c e9 bc b3 96 84 3d f3 38 99 3d 33 55 77 bc
       -0.028448308 0.06474056 0.07481565 -0.015095997
000340 bc da 05 3e 66 46 8f 3d d8 57 1c 3e f7 5e 0b bd
       0.13071722 0.06995849 0.15267885 -0.034026112
000350 60 e8 a5 3d 33 33 ab bc 8a 54 2f 3e c7 f5 9c 3c
       0.08100963 -0.020898437 0.17122093 0.019160165
000360 7b 2f a0 3d 18 52 75 3c fe 30 bc 3d c8 fe c4 3d
       0.07821556 0.014973186 0.09189032 0.09618908
000370 89 df bf bc 1e 77 36 3e 66 2a a0 bd 35 03 be 3c
       -0.02342202 0.17818877 -0.07820587 0.023194889
000380 e7 26 30 3e 5e f2 58 3d af 46 c1 3c 88 48 49 3e
       0.1720234 0.052965514 0.023593275 0.19656575
000390 ed 5b 6f 3a 5d 2b e3 3d 8d d3 86 3c 30 04 bd bd
       0.00091308245 0.11092255 0.016458297 -0.09229314
0003a0 0d 9b 01 3d ec 5e 6f bc 90 a6 ee 3c 4d ad 9e 3c
       0.03164201 -0.0146100335 0.029132158 0.019369746
0003b0 33 a9 d0 3d 11 2f 51 3d e4 7c 2f 3e 24 91 9b 3d
       0.10188522 0.051070277 0.17137486 0.07596043
0003c0 c8 50 de 3d 94 10 c5 3d 92 88 f8 3d 1e 27 24 3b
       0.108552516 0.09622303 0.12135424 0.002504773
0003d0 6e ef b7 3d 4d eb a5 3d 63 a4 12 3e a0 8d f3 3d
       0.089812145 0.08101521 0.14320521 0.11892247
0003e0 2e f5 88 3d a0 3c 8a 3c df e0 8d 3d f0 7e fb 3d
       0.06687389 0.016874611 0.069276564 0.12280071
0003f0 ba c3 84 bc 70 78 78 bd 28 16 fd 3d 70 1a 8a 3d
       -0.016206611 -0.060661733 0.123577416 0.06743324

attention.attention.0.bias f4 [64]
000000 f9 5a 20 3d 3b 25 3d 3e ab ac 2f 3e cb 7e 81 bd
       0.03914926 0.18471234 0.17155711 -0.06323012
000010 85 3a ef 3c fb 07 82 3a 3e 73 29 bc 0b 21 f6 3d
       0.029202709 0.0009920591 -0.010342417 0.12018021
000020 3c c3 dd 3c 4b 6e bb 3d f6 c1 ce 3d 00 10 c0 3d
       0.027070634 0.09151896 0.10095589 0.09378052
000030 0b 2c 60 3d 76 a6 8f 3d 83 31 8a 3d 2a 73 f9 3d
       0.054729503 0.07014172 0.06747725 0.12180169
000040 68 00 05 3e af 92 37 3d 51 af 28 3e 5d cf f8 3d
       0.12988436 0.044817623 0.16473128 0.121489264
000050 e7 25 9b bc ac 28 c5 3d c5 43 4e 3d 11 47 92 3d
       -0.018938972 0.09626898 0.0503576 0.07142461
000060 fb ec 8d bc c0 95 75 ba f3 70 de 3d 19 c3 22 3e
       -0.017324915 -0.0009368323 0.10861387 0.15894736
000070 58 dc cb 3c 35 57 d6 3d 2c 61 f1 3c e7 b7 19 3d
       0.024885342 0.10465852 0.02946528 0.0375289
000080 77 06 4a bd 94 28 13 3e 41 05 d6 bd 0f 0d 0c 3d
       -0.04932257 0.14370948 -0.10450221 0.03419214
000090 ae 27 52 3d 88 87 d7 bc 87 d9 22 3e ca 6f b6 3d
       0.051307373 -0.026309744 0.15903293 0.08908041
0000a0 38 54 d5 3c ff 63 20 3d 97 e0 1e 3e e8 fc c8 3d
       0.026041135 0.039157864 0.15515362 0.09813863
0000b0 92 11 01 3e 22 bb 12 3e 21 1c 21 3e c9 df 80 3d
       0.12604359 0.14329198 0.15733387 0.06292684
0000c0 e3 34 d8 3c 5a c0 47 3e 67 e6 09 3c da c0 1f 3c
       0.026392406 0.1950697 0.008416749 0.009750569
0000d0 d9 71 42 3e 98 68 14 3e 64 30 ea 3d 58 80 11 3e
       0.18988742 0.14493024 0.11435011 0.14209116
0000e0 f2 fe e0 bb 8e 54 3f 3e 7b 43 11 3d 17 bb f4 3c
       -0.0068663293 0.18684599 0.035464745 0.029874368
0000f0 57 5d 94 bd 3a 3e ae 3d 38 69 2e 3e 14 88 df 3d
       -0.07244366 0.085079625 0.17032325 0.10914627

attention.attention.2.weight f4 [10, 64]
000000 f5 eb 90 bd c8 3f 0f be 28 81 88 bc 65 ec 00 be
       -0.07076255 -0.13989174 -0.016663149 -0.12590177
000010 9b a7 ba 3c 28 3d 9c 3c 5c ee dc bd d0 cf ad bd
       0.022784999 0.01907213 -0.10787651 -0.08486903
000020 66 bf ab ba a1 4d e8 bd 90 e2 52 be 1c 30 38 be
       -0.0013103306 -0.113429315 -0.20594239 -0.17987102
000030 5c 3a 1b be 8a 62 a0 3c a3 dc 76 bd b0 96 b7 3c
       -0.15158981 0.019578237 -0.06026901 0.02241072
000040 a5 91 94 bd ee e9 c0 bc 68 b0 ca 3b 1c ed 15 be
       -0.07254342 -0.023549046 0.00618558 -0.14641231
000050 79 08 dd bd df 79 50 be e6 76 08 be ab 08 0c be
       -0.10792632 -0.2035899 -0.13326606 -0.13675182
000060 07 03 33 bd 7e 51 d9 bd 7a 96 3e bc f4 71 54 be
       -0.04370406 -0.106112465 -0.011632556 -0.20746595
000070 27 a7 47 be 4f b4 95 bc 95 79 83 bd 59 52 28 be
       -0.19497357 -0.018274454 -0.06419674 -0.16437663
000080 a5 6d 85 bd 63 54 c4 bd 49 66 1e 3c c4 1e 82 bd
       -0.06515054 -0.09586408 0.009667941 -0.06353524
000090 93 41 93 bd 9b 14 cd bd c7 c7 e8 bc 5e 48 d2 3c
       -0.07190242 -0.10013696 -0.028415574 0.025669273
0000a0 8b 4f 33 bd 7f 0e 45 be 4b 7d 87 bd 31 48 c1 bd
       -0.04377703 -0.19243811 -0.066156946 -0.094375975
0000b0 15 af 66 bd ca 7d 29 be 84 8f d2 bd ab 6b 3f be
       -0.056319315 -0.16551891 -0.1028128 -0.18693416
0000c0 c9 6c 3f be ee 6d 53 be 5b 36 16 be 4e f6 48 be
       -0.18693842 -0.20647404 -0.14669172 -0.19625208
0000d0 89 bd 89 bd 9e de 9a bd 58 0d aa bc aa b9 04 bd
       -0.06725604 -0.07561992 -0.020758316 -0.032403626
0000e0 1d 72 3d be 02 63 1d bd af ad 15 3c 23 0f 27 bd
       -0.18500562 -0.0384245 0.009135648 -0.04078592
0000f0 8f d7 08 ba 06 c6 44 bd c8 87 46 be 78 f6 da bc
       -0.0005220109 -0.048040412 -0.19387734 -0.026728854
000100 2e 7f 05 be 43 4c de bd 89 2f ca bd 9a b9 72 3d
       -0.13036796 -0.108543895 -0.09872348 0.059259035
000110 d2 31 35 bd 9a 40 e6 ba b2 61 88 bc 92 f5 27 be
       -0.044236965 -0.001756686 -0.016648147 -0.16402271
000120 54 33 0f be 40 de 47 bd 01 15 ec 3b 63 7c e7 bc
       -0.13984424 -0.04879594 0.0072046523 -0.028257554
000130 93 4e c0 bc e6 30 0c be ed eb 0c be 66 89 1d be
       -0.023474967 -0.13690528 -0.13761874 -0.15384445
000140 53 bd c5 bd 2a e6 d4 bc 25 31 3a bd e1 b0 cf 3c
       -0.09655251 -0.025988657 -0.045457024 0.025352897
000150 32 43 c8 bd c9 f8 42 be ee 7c 02 bd 49 cd 96 bc
       -0.097784415 -0.19040217 -0.031857423 -0.018408434
000160 53 85 8b 3c ac c8 52 bd ce 1d 2d 3d 2c 57 08 bd
       0.017031347 -0.051460907 0.042264752 -0.03328626
000170 42 cc 96 bd f8 7a 63 bd bf 4f 0b be 55 a7 28 3c
       -0.07363178 -0.055537194 -0.1360464 0.010293801
000180 83 9b 97 3d 38 7d f7 bc 92 3b e7 bd 24 cb b3 bd
       0.074027084 -0.030211076 -0.11290659 -0.087789804
000190 f9 e0 b8 ba 3f a0 66 3d e8 05 56 bd 38 a8 38 be
       -0.0014105133 0.056305166 -0.052251726 -0.1803292
0001a0 e3 d6 2d be ee 39 13 bd c0 ee aa bd 4e 13 e6 3c
       -0.16976504 -0.035943918 -0.08346319 0.028085377
0001b0 36 57 53 be af fb 1c bc ac 46 9d bd ef 5c 98 bd
       -0.20638737 -0.00958149 -0.07679495 -0.07439601
0001c0 a8 42 37 be dc c7 42 be 0c 95 34 be 71 85 05 3d
       -0.17896521 -0.19021553 -0.17634982 0.032597963
0001d0 9a d6 13 be 5d e6 7c 3c 89 e2 ff bd e6 19 35 be
       -0.14437333 0.015435782 -0.1249438 -0.1768566
0001e0 5b 7f 97 3c 46 45 1e be ed ef 32 bd 14 cc 3f 3d
       0.018493345 -0.15456113 -0.043685842 0.046825483
0001f0 eb e1 b5 3c 4c 60 8b bd a4 a8 bc bd 23 a9 87 bc
       0.022202453 -0.068054765 -0.09211853 -0.016560143
000200 31 e2 85 3d 36 cb cb bd a1 23 84 bd 39 bf 26 be
       0.06537283 -0.09950869 -0.06452108 -0.16283883
000210 c2 0a f9 bd 3e ba 20 bd fe a2 1c be 23 0e d5 bd
       -0.12160255 -0.039240114 -0.15296552 -0.10403087
000220 02 37 89 3b 77 e0 1c bd c0 ef 35 be 51 58 2b be
       0.0041874656 -0.038300004 -0.17767239 -0.16732909
000230 ac 56 04 bc b5 a7 be ba 6f 9f f7 ba b1 c1 28 be
       -0.008077305 -0.001454583 -0.0018892119 -0.16480137
000240 e6 fe 14 be 9c 6a e5 bd 18 b2 b8 bd 56 e9 ec bd
       -0.14550361 -0.11201975 -0.09018344 -0.11567943
000250 5e e8 7e bd 6a dc 02 bd 1a 80 8a 3c f3 73 49 3d
       -0.06223332 -0.031948484 0.016906787 0.049182843
000260 38 da 2c be 6b 28 bd bc 22 b2 1c 3d ca 27 19 3d
       -0.16880119 -0.023090562 0.03825582 0.03739146
000270 fa 57 37 bd 05 0b 0a be 53 3c ef bd 64 fb 72 bd
       -0.044761635 -0.13480766 -0.11681428 -0.059321776
000280 7b 28 4b 3c 97 29 5a bd ab e6 33 be a1 83 46 be
       0.012399788 -0.05326232 -0.17568462 -0.1938615
000290 08 fa 3d be c9 09 83 3d 56 02 2c be b9 92 03 3d
       -0.1855241 0.06398351 -0.16797766 0.032122348
0002a0 16 fb 3d be 7a fc 8c bc ed da de bd 48 7b 57 bd
       -0.18552813 -0.017210234 -0.108816005 -0.052607805
0002b0 fd b3 f4 bd 26 2d 49 bd 99 8e 63 bd 2c 6a bf bd
       -0.119483925 -0.049115323 -0.055555914 -0.093464226
0002c0 04 d0 b6 3b dd 95 34 bd 3a f4 f0 bd 79 d4 4c bd
       0.0055789966 -0.044088233 -0.117653325 -0.050007317
0002d0 d2 ce 6d bd 19 ad 4f be 81 49 0a be 1a e2 46 be
       -0.058058567 -0.20280875 -0.13504602 -0.19422188
0002e0 f3 9d cd bc 3f 95 53 bb b1 13 47 be 95 50 3d be
       -0.02509973 -0.0032285003 -0.19441105 -0.18487771
0002f0 6b 30 f7 3c cd a0 3a be d7 33 05 3d fb 29 03 be
       0.030174455 -0.18225403 0.03252014 -0.12808983
000300 ae b9 ed 3c ca be bf bd e2 e1 ac 3c 9e 99 92 3d
       0.029019203 -0.09362562 0.021103803 0.071582064
000310 26 4f f7 bd 2a ba 90 3d 08 84 dc bd 22 81 82 bc
       -0.12075643 0.07066758 -0.107673705 -0.015930716
000320 32 a0 7d 3d 66 f5 2d bd 1a e9 9d bd 64 25 1e 3d
       0.061920352 -0.04247036 -0.07710476 0.038609877
000330 fe 21 bc bd 3c d2 cd 3a 0f c3 48 bd 5e 93 1d bd
       -0.09186171 0.0015702914 -0.049014147 -0.03847062
000340 b0 4d 34 3d 65 4f b7 3c 2f c1 fc bd bd 20 31 be
       0.0440194 0.022376725 -0.12341534 -0.17297645
000350 9f f0 aa 3d 84 41 31 be 4b 83 5d 3d 53 7e b5 bd
       0.08346676 -0.17310148 0.05408029 -0.08861985
000360 30 b7 2a be ca c3 f1 bd 3e 27 5f bc f8 4c 29 bd
       -0.16671443 -0.11804922 -0.013620196 -0.04133317
000370 f1 53 0a 3d 4d 4b 1c be 04 d9 04 bc 54 99 bf bd
       0.03377146 -0.152631 -0.008108381 -0.09355417
000380 a5 3b 13 3d 22 92 12 3d 33 a9 10 3d db ef 2b 3a
       0.035945553 0.035783894 0.03531761 0.00065588736
000390 c1 3a fc 3b bd e0 a7 bc 7e fe e6 bb 29 dd 2e 3d
       0.0076974337 -0.020492906 -0.007049381 0.042691384
0003a0 b8 f1 9f bd 11 20 76 3c 25 ca c5 3b d2 56 f9 bc
       -0.07809776 0.015022294 0.0060360604 -0.030436907
0003b0 91 e1 1e be ef b6 24 be 98 7c 9a 3d d1 81 16 be
       -0.15515734 -0.16085409 0.075432956 -0.14697959
0003c0 ea 5b 57 bd 98 7c de bd 1c 16 0b be 31 97 f2 bd
       -0.05257789 -0.10863608 -0.13582653 -0.11845244
0003d0 64 28 00 3d 35 1c 04 be d4 d1 65 3d 4e 8a bd 3b
       0.03128852 -0.12901385 0.05610831 0.0057843095
0003e0 20 84 b0 bd 92 78 5b 3d ec 10 1d be 25 24 a1 bb
       -0.08618951 0.05358178 -0.15338486 -0.004917639
0003f0 be 9b 63 3c 62 1e e5 bd a2 7c 28 3c 09 26 1b be
       0.013892112 -0.11187436 0.010283621 -0.15151228

attention.attention.2.bias f4 [10]
000000 60 50 b9 bc 1f 1f 05 3d 8c 5c 23 bd fc 6d 57 bd
       -0.022621334 0.032500383 -0.03988318 -0.052595124
000010 4c a5 96 bd 2d ff 92 3d 29 34 35 be 8e 2f 08 be
       -0.073557466 0.07177577 -0.17695679 -0.1329939
000020 a7 1b fc 3c ac 3f 1c be
       0.030774904 -0.15258664

layers.0.weight f4 [22, 100]
000000 33 ed bd bc e0 f3 8e 3d 13 c7 48 bd 77 3a c5 3d
       -0.023184394 0.06980109 -0.049017977 0.09630292
000010 38 a6 94 3d 2f 8d c1 3d fa 50 ac 3c cd be fb bb
       0.07258266 0.09450757 0.021034706 -0.0076826573
000020 7a 3d 07 3d ea a5 20 bd 9a a9 44 3c a3 2e 5e 3d
       0.033017613 -0.039220728 0.012003327 0.054243695
000030 10 d9 6e 3d f7 59 54 bd 53 e2 95 bd e7 c3 c7 3c
       0.058312476 -0.05184361 -0.073185585 0.024385406
000040 e7 85 27 bd e0 16 7f 3d f3 a3 20 3d 1a 74 90 3d
       -0.040899184 0.062277675 0.039218854 0.070533946
000050 ed 30 d6 3c 68 1d 86 3d e7 1a 21 bd da 4f 57 3c
       0.026146377 0.065485775 -0.039332297 0.013141597
000060 c7 b9 5f 3d a3 09 69 3d ea 31 92 bd 47 ae 3b 3d
       0.05462053 0.056893956 -0.071384266 0.0458205
000070 03 6b 8f bd bf 82 a0 bd 3a f2 83 bd 48 96 98 bd
       -0.07002833 -0.07837438 -0.064426854 -0.07450539
000080 f5 c1 b0 bd 67 c3 e9 bb bd f8 a1 bd fb 36 a8 bd
       -0.08630744 -0.0071338895 -0.07908771 -0.08213612
000090 93 6e 79 bd aa b4 9e bd 88 61 c9 bd 2d 50 a7 bc
       -0.060896467 -0.07749303 -0.09833056 -0.020423973
0000a0 b0 94 14 3d 0d 19 73 3c 03 3d af 3d cd 51 d9 bc
       0.036274612 0.014837516 0.08556559 -0.026528263
0000b0 c0 96 af 3d 67 87 3c bb b3 35 b7 bb 27 48 6a bd
       0.08573675 -0.002876723 -0.0055911182 -0.057197716
0000c0 c0 f6 5d bd 00 58 24 3c fd 25 a3 bd 9a 13 b7 ba
       -0.054190397 0.010030746 -0.0796623 -0.0013967634
0000d0 00 89 00 bb 93 6d 54 3d 33 51 08 3b a2 1f 93 bd
       -0.0019612908 0.05186231 0.0020800352 -0.07183768
0000e0 12 a2 cb 3d 2a 00 74 3d 8a 3a 9e 3d 1d b4 92 bd
       0.09943022 0.05957047 0.07726009 -0.0716326
0000f0 40 ae af bc 47 c4 ad bd c8 fa 87 bd 47 80 da 3c
       -0.021445394 -0.084847026 -0.066396296 0.026672496
000100 93 8e d0 3c f3 ce 45 bd f3 72 65 bd 10 9e 04 3d
       0.02545861 -0.048293065 -0.056017827 0.032377303
000110 e7 0d 14 3c 62 52 ad bd 4a e4 bf bd 4d 8c 0a 3c
       0.009036518 -0.08462979 -0.093697146 0.008456302
000120 e7 70 ae bd 1a 5b 7d bc c0 9b af bc 2d a9 4c 3d
       -0.08517628 -0.015463615 -0.021436572 0.049966026
000130 27 a0 bb 3c 9a b5 3a ba 10 57 6c 3d 6a c8 77 bd
       0.022903515 -0.00071223977 0.057700217 -0.060493864
000140 47 ea 61 bd fa 1b 98 3c e7 32 e3 3b fa 7b 86 bc
       -0.055155065 0.018568028 0.0069335583 -0.016416539
000150 c3 f7 3f bd 53 34 86 3d b3 8d cc bd 67 d7 c1 3c
       -0.046867143 0.06552949 -0.099879645 0.023662282
000160 7a db 6d 3d da af 3e 3c 5a 0a ef 3c 1a ec 8a bd
       0.058070637 0.011638606 0.02917974 -0.06783314
000170 47 a8 da 3c 55 52 ab bd c5 bb c7 bd 47 26 ed 3c
       0.026691569 -0.08365313 -0.09752611 0.028948916
000180 1a bc 10 bc 47 07 03 3d 47 1b 86 3d 03 9d 17 bd
       -0.008833909 0.031989362 0.065481715 -0.037014972
000190 27 66 1a 3d f0 fa 82 3d 60 74 b0 bd 45 96 a4 3d
       0.037695076 0.06395519 -0.08615947 0.08036474
0001a0 2d 7c 29 bd cd 21 2b 3d fa 68 c3 bc 6f 21 a7 3d
       -0.04137819 0.04178028 -0.023853768 0.08160674
0001b0 3b b4 86 3d 73 c6 a8 3c 33 75 a9 bd 63 6c 7e 3d
       0.06577345 0.02060244 -0.08274307 0.062115084
0001c0 67 9f 9d 3b 03 d6 77 3d 62 36 b2 bd ca 1e 19 bd
       0.004810262 0.06050683 -0.08701779 -0.03738288
0001d0 ef 82 84 3d a5 1d a4 bd 2d 94 35 bd 43 d8 5c 3d
       0.06470286 -0.08013467 -0.044330765 0.05391718
0001e0 8b d3 be 3d 97 94 94 bd ad e1 7d 3d 55 0d a9 bd
       0.09317692 -0.07254904 0.0619828 -0.08254496
0001f0 cb a0 cb bd 73 b5 b8 bd a7 f9 68 bc 78 38 8e 3d
       -0.09942778 -0.09018984 -0.014219678 0.06944364
000200 87 35 cb bc 87 50 bb 3d 5d 35 a2 bd e8 a6 b0 bd
       -0.024805797 0.09146219 -0.079203345 -0.08625585
000210 a0 2a a4 bc 73 0c 6e bc 87 2c ea 3c 60 18 6c bd
       -0.020039856 -0.014529335 0.028585685 -0.057640433
000220 37 94 b2 3d 4b 32 9b 3d d3 f1 1a bd 9a 1e 35 3c
       0.08719676 0.07577952 -0.037828278 0.011054659
000230 5b 75 8a 3d 40 e7 d5 bc 0d fd 9d 3c 37 91 3f 3d
       0.06760665 -0.026111245 0.019285703 0.046769347
000240 93 21 62 3d 27 c7 19 bc 8d d6 79 bd 70 49 4b 3d
       0.0552078 -0.0093858605 -0.060995627 0.049630582
000250 cd 30 53 3a 8d 02 b3 3d fa f6 5a 3d 87 42 5e bd
       0.0008056283 0.08740721 0.05345819 -0.054262664
000260 7f 66 a0 3d 9a e1 76 3d fb ac 8c bd 80 c5 a6 bc
       0.078320496 0.060273744 -0.06868931 -0.020357847
000270 6d 52 c3 3d 0d b8 4a bc c8 ca ac bd 9a ef 6b bc
       0.09537206 -0.012372983 -0.08437115 -0.014400387
000280 20 b0 ab 3d 9a bd c3 bd bd 00 32 bd 9a d7 51 3b
       0.083832026 -0.09557648 -0.043457735 0.0032019378
000290 a0 bd d8 3c 5b b8 94 bd cd 38 f8 ba a3 78 0f bd
       0.026457608 -0.072617255 -0.0018937826 -0.035027158
0002a0 02 0f 9e 3d d3 75 b0 bd 38 2c 9f bd d7 e5 79 3d
       0.07717706 -0.08616223 -0.07772106 0.061010208
0002b0 1d f9 41 3d 47 cf b5 bd 4d 56 51 bc a0 60 b7 bc
       0.047356714 -0.08877426 -0.012776923 -0.022384942
0002c0 a0 e4 2f 3d b7 4b af bd c3 9c c9 bd bd 01 19 3d
       0.042942643 -0.08559363 -0.09844353 0.037355173
0002d0 80 c2 61 bc 8b 71 b0 bd 90 c9 83 3d 0a 08 06 3d
       -0.013779283 -0.086154066 0.06434929 0.03272251
0002e0 c0 78 72 bc 33 84 e6 3b 30 de 7c bd f0 08 5a 3d
       -0.014799297 0.0070348023 -0.061735332 0.05323118
0002f0 f5 31 c5 bd 17 e2 73 bd 9a ee 3f bb ea 5b 85 3d
       -0.09628669 -0.059541788 -0.0029286505 0.06511672
000300 2a 26 b9 3d 93 80 bf bc a3 63 3e bd 20 c2 a3 3c
       0.09040482 -0.023376739 -0.04648174 0.019990027
000310 c3 75 ae 3d d0 97 00 3d 55 7b ca 3d ad 6e d1 bc
       0.08518555 0.03139478 0.09886805 -0.02556547
000320 70 13 8a 3d 4b 79 cc bd 0d eb 28 3d b3 b5 c7 bd
       0.06741989 -0.09984072 0.041239787 -0.09751453
000330 5a f4 85 bd ba f8 c2 bc 4a 49 20 3d 10 34 80 3d
       -0.06540747 -0.023800243 0.039132394 0.0625993
000340 97 5a 1a bd 9a f1 9e ba b3 d0 13 3d a0 f8 e4 3c
       -0.03768405 -0.0012126446 0.036087703 0.027950585
000350 27 9e 59 bc 92 cf ae 3d 33 c9 4e 3b 27 78 16 3c
       -0.013282335 0.08535685 0.003155303 0.00918392
000360 af 63 9b bd ad c8 aa 3d 13 50 42 bd cf b7 c1 3d
       -0.075873725 0.08339057 -0.047439646 0.09458887
000370 2b c3 a0 3d 63 c4 74 bd 8d e3 ca bd ea 75 1e 3d
       0.07849725 -0.0597576 -0.09906683 0.03868667
000380 2d 8d 32 3d 67 6f 9d bc b0 98 21 bd 7d c4 59 bd
       0.043591667 -0.01921816 -0.039452255 -0.0531659
000390 e2 d6 c8 bd 5b 74 a3 bd 57 cf 5f 3d 33 d7 a3 bc
       -0.09806611 -0.079811774 0.054641094 -0.020000076
0003a0 00 28 53 ba ed a2 2d 3d ea 72 78 3d 5d 52 b3 3d
       -0.00080549717 0.042391706 0.060656466 0.08755944
0003b0 4d 83 19 3d 9a 91 25 bb 60 fe 29 bd 4a ae c2 3d
       0.037478734 -0.0025263787 -0.041502357 0.09505899
0003c0 4f 7b bc bd 77 1b 81 bd a7 c1 1d bc 80 da c3 bb
       -0.09203207 -0.06304067 -0.00962869 -0.005976975
0003d0 30 6f 98 3d 77 50 6b bd d8 95 9d 3d 0a df 4a 3d
       0.07443082 -0.057449784 0.07694596 0.049529113
0003e0 1a b3 77 3d 32 ff c6 bd ca af 16 bd a7 aa 92 bc
       0.06047354 -0.097166434 -0.03678874 -0.017903639
0003f0 43 0d 6e bd 5a ff 03 bd 73 7f 33 3d 07 b8 d3 bc
       -0.058118116 -0.032225944 0.043822717 -0.025844587

layers.0.bias f4 [22]
000000 88 0a cb bd 8d 0b 74 bd cb c5 aa 3d 8d fa 1b 3c
       -0.09914118 -0.05958133 0.08338507 0.009520185
000010 73 ee c6 3d 77 ce 72 3d f0 62 79 bd 3a f8 28 bd
       0.09713449 0.05927893 -0.06088537 -0.041252352
000020 07 9e 65 bd ea c7 19 bd 00 fe 1a bc 9a 4a 4d bc
       -0.05605891 -0.03754417 -0.009459972 -0.012529993
000030 47 24 dc bc 35 37 98 3d 1a ba c2 bd 8b 7b 82 3d
       -0.026872767 0.07432405 -0.09508152 0.0637122
000040 33 0b 64 3c fa fb 9d 3d ba 62 98 3c c3 f5 5c bd
       0.013918686 0.07714076 0.018601764 -0.053945314
000050 83 f8 08 3d f3 7b 12 3c
       0.033440124 0.008940685

layers.1.weight f4 [250, 22]
000000 a9 14 0c be 0e 4d 84 bd 5b 7d ba 3d 46 e3 44 3e
       -0.13679756 -0.064600095 0.09105941 0.19227323
000010 b4 35 79 3d e9 c2 d9 3d d6 bc c9 bd f1 c1 88 bd
       0.06084223 0.10632879 -0.09850471 -0.066776164
000020 88 da 0c be e6 6a a4 3d cd c8 e9 bc c2 cd 0d 3e
       -0.13755238 0.08028202 -0.028538132 0.13848022
000030 bf be 49 be 43 b2 73 3d 00 2e b3 bd 99 9e d4 3d
       -0.1970167 0.059496175 -0.08749008 0.103818126
000040 6b 52 09 3e e6 ff 0b 3e 3f 93 7b 3b a9 d8 bc bd
       0.13410346 0.13671836 0.0038387326 -0.09221012
000050 58 ed ab 3d 07 49 09 3e c2 46 f8 3d dd 96 ef 3c
       0.08394879 0.13406764 0.12122871 0.029246742
000060 68 d1 32 3e 8d b3 bb bc a4 7b ab bd d9 5a 56 3e
       0.17462695 -0.022912765 -0.08373192 0.20933093
000070 e4 0d eb bd 27 c0 91 bc 24 6c 07 3e 8a 71 97 bd
       -0.11477259 -0.01779182 0.13224846 -0.07394703
000080 8a 12 fb bd 56 8e 07 be 89 c8 a8 3d 0c 50 68 3d
       -0.122593954 -0.1323789 0.08241374 0.056716964
000090 bd 9e 8a bd 33 7b 31 be cb 27 32 3e 7a d4 ee 3c
       -0.06768558 -0.17332153 0.17397992 0.029154051
0000a0 1b d2 28 bd 42 76 be 3d 1d 85 98 bd 25 9f 01 3d
       -0.041215997 0.092999 -0.07447264 0.031645913
0000b0 ee c8 2f 3e 7e c9 fb bd 83 f9 0d 3e 4d ab 27 be
       0.17166492 -0.12294291 0.13864712 -0.1637394
0000c0 00 45 b2 bd 5f 08 31 3e 20 16 d7 bd 31 6d dc 3d
       -0.08704567 0.1728835 -0.10502267 0.10763014
0000d0 85 6a 9c bd 87 74 e2 3c 65 66 58 3d d0 19 64 bd
       -0.076375045 0.027643455 0.052832026 -0.05568868
0000e0 ec 28 63 bd e9 47 05 be 66 b8 5a 3d a0 a8 be 3d
       -0.055458948 -0.13015713 0.053398512 0.093095064
0000f0 43 84 2c 3d 03 8c 26 be 58 33 21 bd a0 5c d5 bd
       0.042118322 -0.16264348 -0.039355606 -0.104180574
000100 8b 1d 1e 3d 91 52 14 bd 50 8b af bd b4 7d 31 be
       0.038602393 -0.036211554 -0.085714936 -0.17333108
000110 7f 07 0d be 9b c9 ac bd f1 d9 ad bd af 19 35 be
       -0.13772391 -0.08436891 -0.08488835 -0.17685579
000120 0d 3b 40 be 77 1b 33 3e c3 ed 8e 3d fa bc 9f bd
       -0.18772526 0.17490946 0.06978943 -0.07799716
000130 ff 89 0f 3c 89 af 91 bd f9 0a 04 3b eb bd 0f 3e
       0.008760928 -0.07113559 0.0020148142 0.14037292
000140 37 c1 d2 3b 19 59 fe bc e1 5c f8 bc 3d 19 76 3c
       0.0064317244 -0.031048344 -0.030317726 0.015020666
000150 c3 db 38 3e c1 54 16 3d 70 0a a0 3d 0e c5 92 3c
       0.18052582 0.03670192 0.07814491 0.017916229
000160 c3 7b 0a 3d 25 07 29 3e 0d 72 8c bd 13 c3 cb 3d
       0.033809435 0.16506632 -0.06857691 0.09949317
000170 2c 4d 37 be 86 fd f5 ba 6a ec 0f bd ef 1b 2e be
       -0.17900532 -0.0018767572 -0.03513757 -0.17002843
000180 fe 48 df 3d dd 44 ae bd 9e 4a 35 be 8a 06 5d bd
       0.10902594 -0.085092284 -0.17704245 -0.053961314
000190 d2 cc 2e be c3 32 27 bd 69 81 ac 3d ac 7a 79 3d
       -0.1707032 -0.040819895 0.084231205 0.060908005
0001a0 c8 3a 82 bc c1 70 3c be 6e a1 23 3e 1f f7 ec 3c
       -0.01589717 -0.18402387 0.1597955 0.02892643
0001b0 2c 18 0d 3e 53 55 13 3e 9c 87 bf bd 5e 8b 0a be
       0.13778752 0.14388017 -0.09352037 -0.13529727
0001c0 3c d6 a6 3c 6e 03 36 3e 20 e7 10 3e b5 b5 3f 3e
       0.020365827 0.17774746 0.14150667 0.1872166
0001d0 62 fd 52 3e 63 4a ca bd 15 73 dc bb cd 73 a3 3d
       0.2060447 -0.098774694 -0.006727586 0.079810716
0001e0 63 1c b2 bd ea 79 9f bc 95 1b d3 3d 3f 78 41 3e
       -0.086968206 -0.019467313 0.10307995 0.18893526
0001f0 87 75 4b 3e 43 86 0a be d6 6f 1a bd 3c 8f f9 3d
       0.19869052 -0.1352778 -0.03770431 0.12185523
000200 00 5f a5 bc 2f aa 18 3e a9 28 b6 bd 94 4a 98 bc
       -0.020186901 0.1490867 -0.08894474 -0.01859025
000210 e1 6c ae bd 42 ac 58 3e bc 06 46 3e bb d6 de 3d
       -0.08516861 0.21159461 0.19338506 0.108808
000220 d6 3f db 3d 95 f6 32 be 28 74 20 3e 2f d3 16 3d
       0.10705535 -0.17476876 0.1566931 0.036822494
000230 33 6c 0b be 69 fd ef bd 8c 9c 59 3d b0 55 ec bd
       -0.13615493 -0.11718256 0.05312781 -0.11539781
000240 60 f0 3c be ba 45 1a 3e 9b 2b dc 3d 04 73 26 bd
       -0.18451071 0.15065661 0.107505046 -0.04063703
000250 65 73 53 bd 61 49 e0 3d 6b f8 52 3e 8e 3e dd 3d
       -0.05162372 0.10951496 0.20602576 0.10802947
000260 42 57 41 3e b8 ba 15 bd 41 26 cd bd be 05 bd 3d
       0.18880942 -0.036555022 -0.10017062 0.09229611
000270 a0 62 6d bd 85 89 94 3d 46 4f 2c 3e 3b 8a 0f be
       -0.057955384 0.07252792 0.16827115 -0.14017574
000280 13 5c 09 be 6e 7b 8b bd 99 73 fb 3d e7 84 f0 3c
       -0.1341403 -0.06810652 0.12277908 0.029360248
000290 77 4c 51 3e c0 e0 5d bd fd ef e9 3d 48 b3 ff bd
       0.20439325 -0.054169416 0.11422727 -0.12485367
0002a0 a9 de ac bc df 16 a6 bd 2b 6a 82 3c af 06 17 be
       -0.021102266 -0.08109831 0.015919765 -0.14748643
0002b0 c4 2c 04 3e 84 1f 44 3d c2 d3 ac bd 09 dc 88 bd
       0.12907702 0.04788162 -0.08438827 -0.066825934
0002c0 d1 af 02 3e 2d 8d 98 3d 63 3a 98 bd c8 3d da 3c
       0.12762381 0.07448802 -0.074330114 0.026640788
0002d0 a8 c8 4a be 18 29 9c 3d e1 12 36 be 5a 0a 0a be
       -0.19803107 0.076250255 -0.17780639 -0.13480511
0002e0 8a f8 30 bd 85 8a 25 bd b9 c3 3e 3e 93 fe 1c be
       -0.043205775 -0.040415306 0.1862935 -0.15331487
0002f0 5c 19 d6 bd c6 49 4f be f4 f4 4a be dc be 93 3d
       -0.10454056 -0.20242986 -0.19820005 0.07214138
000300 b7 87 9b bd dc f6 4b be 83 c3 fe bd cd 42 65 3d
       -0.07594245 -0.19918388 -0.12439635 0.05597191
000310 d9 c8 e3 bc 18 f6 7e bd c3 56 f6 bd bb 5b f8 3d
       -0.027805733 -0.062246412 -0.12028267 0.12126871
000320 f9 9f a6 3c ce 59 86 3d ad 64 48 be 3d aa 45 3e
       0.020339953 0.06560098 -0.19569655 0.19303222
000330 8d b3 4c 3e 0d ed 2a bd 52 32 52 3e fb 38 4b be
       0.19990368 -0.041729975 0.20527008 -0.19845955
000340 e7 e7 ea 3d 14 c8 0d 3e 39 3b 13 bc 90 dc fe bd
       0.11470013 0.13845855 -0.008986288 -0.12444413
000350 b9 29 c3 3c 12 cc 07 3e e8 7e d1 3d 8d e6 40 be
       0.023823606 0.1326144 0.102292836 -0.18837948
000360 3e 12 e6 3c 90 0b e1 3d 08 e7 30 bd 04 35 85 3d
       0.02808487 0.109885335 -0.04318908 0.065042526
000370 70 fd 03 bc bf 58 d4 3d af 5b 59 bd 9a ef 3c be
       -0.00805603 0.103684895 -0.053065952 -0.18450776
000380 99 7e 0e 3e 04 44 7a bd 0e e1 f0 bd 60 75 05 be
       0.1391548 -0.06110002 -0.11761676 -0.13033056
000390 93 8f 58 3e 6b ae 04 3e de c1 0d 3e 40 cf ea 3d
       0.21148519 0.1295716 0.13843486 0.11465311
0003a0 31 14 3d be e9 ab 80 bd 10 41 87 bd ae 4b 50 3e
       -0.18464734 -0.06282789 -0.066042066 0.2034137
0003b0 03 2a e0 bd 25 36 02 bd ba 5d 09 be ab b2 01 3e
       -0.10945513 -0.031789917 -0.1341466 0.12665813
0003c0 b3 2a 13 bb ee f0 38 be 14 ec 00 3e 8e 15 07 3d
       -0.002245587 -0.18060657 0.12590057 0.03297954
0003d0 36 30 e4 bd bc 21 16 be 6c 4f 4d be 74 a1 ee 3d
       -0.11142008 -0.14661306 -0.20049828 0.116518885
0003e0 76 27 2e be 45 dc fe bd 65 dd af 3d 68 a3 c2 bd
       -0.1700724 -0.12444357 0.085871495 -0.095038235
0003f0 ea 06 ab bd f8 35 8e bd cf 18 73 bd 20 71 08 3d
       -0.08350928 -0.069438875 -0.05934983 0.03331101

layers.1.bias f4 [250]
000000 d6 f1 4a 3e 9e f0 36 3e 28 42 33 3e 92 22 03 3e
       0.19818816 0.17865226 0.17505705 0.12806156
000010 dc 7c fc bc 11 43 e4 bc 88 55 07 3e 01 52 32 3e
       -0.030821256 -0.027864011 0.13216221 0.17414095
000020 63 56 c1 bc 40 8b 55 bd f6 b2 7c bc 32 64 82 3b
       -0.023600763 -0.052134752 -0.015423527 0.0039792294
000030 2d 26 e5 3d 9c 73 54 3c cd d3 1a 3d 0c 78 1d 3d
       0.11188922 0.012967017 0.037799645 0.038444564
000040 2b 57 19 3e ab f6 cd bd a4 e5 32 be 37 28 52 3d
       0.14974658 -0.10056814 -0.17470413 0.051307883
000050 ef 19 11 3d a4 17 f6 3c 86 f8 51 be 2a 82 d8 3c
       0.035425123 0.03004057 -0.2050496 0.026429255
000060 3b 59 5c 3d ff 38 ec bd 84 64 35 3e 2e 34 e4 bd
       0.053796034 -0.11534309 0.17714125 -0.11142765
000070 55 70 4e be 11 c9 01 3d a5 73 1a be cf bd 2e be
       -0.20160039 0.031685892 -0.15083177 -0.17064594
000080 31 7a d2 3d 29 4c 41 3e 96 7f 15 3e 76 7d 04 3d
       0.102772124 0.18876709 0.14599451 0.03234621
000090 0b f7 05 3c c9 fb 0e be 5e 9d 08 be 3b 62 00 3e
       0.008176575 -0.13963236 -0.13341281 0.12537472
0000a0 01 e0 05 3e 11 b6 25 3e b0 82 84 3d 64 f3 05 be
       0.13073732 0.16182734 0.06470239 -0.13081127
0000b0 f1 d5 ed 3d a1 db 36 3e 27 78 3f 3e f3 59 a5 bd
       0.11613072 0.1785722 0.18698178 -0.08073797
0000c0 cf 30 52 be 9d df e9 3d a4 d2 ce bc d7 c9 a6 bd
       -0.20526432 0.11419604 -0.025246926 -0.08143967
0000d0 be af f2 bd 25 ef 47 be ee 6e bc bd f9 31 19 3e
       -0.118499264 -0.1952482 -0.09200846 0.1496047
0000e0 e2 48 dd bd d8 43 39 be 76 af cd bb 7a c4 62 bd
       -0.10804917 -0.18092287 -0.00627702 -0.055363156
0000f0 69 88 29 3e 2c 33 a3 bd 3d 94 ab 3d 7e 11 dd 3d
       0.16555943 -0.07968745 0.083778836 0.10794352
000100 42 c1 83 bc 65 a4 b4 bd 5a ec 82 3d a8 76 3c bd
       -0.016083363 -0.08820418 0.06392737 -0.046011597
000110 b7 ca 2f 3e ad bc 2e 3e be 2a 1f be 40 54 b9 bd
       0.17167173 0.17064162 -0.15543649 -0.090492725
000120 18 ad 78 3d 47 2f 8a 3d cc 9e e8 bd a2 24 d5 bd
       0.06071195 0.06747299 -0.11358413 -0.10407378
000130 0e 28 d1 bd aa 26 14 3e 62 47 4b be 71 7b f0 3d
       -0.10212718 0.14467874 -0.19851449 0.117422946
000140 cc 29 16 bb 7a ee 03 be 59 7e 14 be e0 77 d3 3d
       -0.0022913096 -0.1288394 -0.14501323 0.10325599
000150 ba 0f 34 bd 94 f7 ae 3d 2c 7c 54 3e 17 76 23 be
       -0.04396031 0.085433155 0.20750493 -0.15963016
000160 04 7f 0f bd 28 2e 59 be ad a0 2a be 0c a9 7b 3d
       -0.03503324 -0.21209013 -0.16662855 0.061440513
000170 c2 a2 11 3e 5b 55 a7 3d 21 a6 82 bc 18 87 7c bd
       0.14222243 0.08170577 -0.015948357 -0.061652273
000180 74 10 9b bd 8e 72 48 3e 31 e4 2d be 15 46 c6 bd
       -0.075714976 0.19574949 -0.1698158 -0.09681336
000190 a5 6c 80 3d ec a9 d5 3d 88 9a b1 bd 44 d1 07 be
       0.06270722 0.10432801 -0.086720526 -0.13263422
0001a0 81 6f 0b bd 6c 13 49 bd 46 0c d4 bd ba fd fd 3d
       -0.034041885 -0.049090788 -0.103539035 0.1240191
0001b0 9b 8c 1b be 66 9d 08 be 0a 9b 42 3c 2a f7 37 be
       -0.15190355 -0.13341293 0.0118777845 -0.1796538
0001c0 14 db 4b 3e 94 f7 f1 bd 84 b6 53 3e 20 e9 c7 3b
       0.1990779 -0.118148 0.20675093 0.0061007887
0001d0 df 72 54 3e 1e 68 05 3d 58 09 3c 3e 28 47 53 3e
       0.20746945 0.032569997 0.1836294 0.20632613
0001e0 0c 25 77 3d 23 3c 1e 3d 6e f0 15 3e 50 3d 67 bb
       0.060338065 0.03863157 0.14642498 -0.0035284348
0001f0 b9 f1 1b 3e 75 af b8 bd 6a 21 07 bc 8e 38 80 3d
       0.15228929 -0.09017841 -0.008247713 0.06260787
000200 cf 6b 32 3e ec a9 53 3e a3 65 17 3e 1d fc 33 bd
       0.17423938 0.20670289 0.14784865 -0.043941606
000210 f1 34 f5 bd 87 16 4d be db 14 f8 bd 71 66 d1 3d
       -0.119729884 -0.20028125 -0.12113353 0.10224617
000220 be cd 32 3e 41 49 1b 3e 98 74 ae bd 08 c5 54 be
       0.17461297 0.15164663 -0.08518332 -0.20778286
000230 3c d7 98 3b a1 c8 7f bd 43 79 1c be d2 a9 36 be
       0.00466433 -0.062447194 -0.15280633 -0.17838219
000240 8a e5 1e 3e 4c ff 28 be d0 32 19 be ab 6e 1b be
       0.1551725 -0.16503638 -0.1496079 -0.15178935
000250 69 45 8d bd dd c6 51 3e 47 3b 15 3d 87 a1 51 bd
       -0.068980046 0.20486017 0.036433484 -0.051179435
000260 5e 51 79 bc 85 93 19 be 06 88 16 be 98 d8 56 3e
       -0.015217153 -0.1499768 -0.14700326 0.20981061
000270 aa 3e ff bc 3d 8a 22 be dd 7e cb 3d fc 3a 5e 3d
       -0.03115781 -0.15873046 0.099363066 0.05425547
000280 7f b6 0f 3e ea 1c f3 bd 95 60 a0 bd e4 90 04 3e
       0.1403446 -0.11870749 -0.078309216 0.12945896
000290 fa e6 1f 3e 15 7b 50 3e 6b 19 03 be 31 d5 fc bd
       0.15615454 0.20359452 -0.12802665 -0.123453505
0002a0 9d 5e 13 bd 44 30 04 be bc 3a ef bd 91 95 59 3d
       -0.035978902 -0.12909037 -0.116811246 0.053121153
0002b0 74 14 e1 bd 7c e4 13 3e 78 4a 3a 3e c7 66 18 3e
       -0.10990229 0.14442629 0.1819247 0.14882956
0002c0 35 56 4a bd 9f 36 c1 3c b4 40 cb bd 39 c3 0f 3e
       -0.04939862 0.023585616 -0.099244505 0.14039315
0002d0 c7 f2 05 bc 46 d9 dd bd 6a 6c b3 3d aa 71 3a be
       -0.008175558 -0.10832457 0.08760913 -0.18207422
0002e0 e8 21 39 bd 6a 6d a2 bd b9 be 33 3e b0 94 26 3e
       -0.04519835 -0.07931025 0.17553224 0.16267657
0002f0 06 68 37 3c fa 32 53 be 0d de d4 bc 8d d6 23 bb
       0.011194235 -0.20624915 -0.025984788 -0.0024999708
000300 3e 81 66 3d ee 69 1f be 73 7c 01 bb 4c 73 97 bc
       0.0562756 -0.15567753 -0.0019758015 -0.018487595
000310 ee 37 e9 3c 1e d1 6e bd b2 16 e5 bd a7 d5 ac 3c
       0.028469052 -0.0583049 -0.111859694 0.021097971
000320 94 05 3a bd ae 7e 25 be 9e 39 9c 3d a3 3f 33 be
       -0.045415476 -0.16161606 0.07628177 -0.17504744
000330 88 6f 54 be 47 03 12 be 9e 6d a3 3d c1 ec 3a be
       -0.20745671 -0.14259063 0.07979892 -0.18254377
000340 99 48 18 be 7d 59 cc 3c 3b a5 51 bd 4f 63 61 3d
       -0.14871444 0.024945015 -0.051182967 0.05502635
000350 98 92 24 3b 8b 04 34 3e 2b 29 03 3e f6 07 db bd
       0.002511179 0.17579858 0.12808673 -0.10694878
000360 62 c7 c2 3c 3a 0e 2b 3d 21 ac 06 3d 3e 67 f2 bd
       0.023776714 0.041761614 0.032879 -0.11836098
000370 0e d8 27 3e c0 1c 49 3d 23 94 43 3e 0c d4 92 bd
       0.16391012 0.049099684 0.19099478 -0.07169351
000380 93 0c 45 3e c0 8a dd 3d cb 82 27 3d ee 23 c5 bd
       0.19243078 0.1081748 0.04089622 -0.09625994
000390 a4 a2 0c 3e 56 98 2b 3e 99 f3 4d 3e 79 97 b8 bd
       0.13733917 0.1675733 0.20112456 -0.09013266
0003a0 bd 4a 88 3d 43 ab dc bd 5a 84 2f be 45 d9 21 3e
       0.0665488 -0.10774853 -0.17140332 0.15805538
0003b0 d3 3b 33 be ce 18 dc bd ac 01 03 3e 07 aa 2d be
       -0.1750329 -0.107469186 0.12793607 -0.16959392
0003c0 6f 4c 0b 3d eb c7 16 3e 3e 6c d3 bd f8 30 39 3e
       0.03400844 0.147247 -0.1032338 0.18085086
0003d0 e2 14 b4 3d cb bd d8 3d bb 36 47 be 25 2e 28 3e
       0.087930456 0.10583075 -0.19454472 0.16423853
0003e0 d1 c3 fc bd 97 4e 12 be
       -0.123420365 -0.14287792
