actor.pth (torch, 582884 bytes, 34 tensors)

projection.layers.0.weight f4 [10, 2]
000000 5f cc 00 bc 6e 83 15 3f 99 59 bb 3e e2 2c fe 3e
       -0.007861226 0.5840367 0.36591795 0.49643618
000010 57 ce 05 bf 30 dc a6 3d 7d a7 15 3f a3 5f fb 3d
       -0.52267975 0.08147466 0.5845869 0.12274101
000020 3d 90 9f 3e f2 9a 04 3f 2a e7 97 bc 63 2b 82 be
       0.31164733 0.5179893 -0.018542845 -0.25423726
000030 73 b1 45 3e e0 87 8a be 00 48 02 bd 5a 17 a8 3e
       0.19305973 -0.2705679 -0.031806946 0.32830316
000040 de 40 1e 3e b6 e5 4d 3e 69 0c b2 3e e7 c6 a0 be
       0.15454432 0.20107159 0.34775093 -0.3140175

projection.layers.0.bias f4 [10]
000000 a6 4f 2a bd 95 9e bb be 47 94 29 bf 23 31 5d be
       -0.041579865 -0.36644426 -0.6624188 -0.21600775
000010 00 a1 a1 bd 23 28 f0 3e 5c 17 a7 3d 2e 73 05 bf
       -0.078920364 0.46905622 0.08158752 -0.52128875
000020 22 ab 1d be 12 fc 88 3e
       -0.15397313 0.26754814

projection.layers.1.weight f4 [10, 4]
000000 71 9e f1 3e e4 2a b8 be 19 5a cb bd 74 7f 00 3f
       0.47191194 -0.35970223 -0.09929294 0.5019448
000010 90 fc fd be 60 fe 2b bd 58 c2 6d be 10 bc c4 be
       -0.49606752 -0.041990638 -0.23218668 -0.3842473
000020 da 2b 59 3e 95 61 12 be b1 76 e9 3e 0f 56 ab bb
       0.21208134 -0.14295037 0.45598367 -0.005228765
000030 5e 7f dc 3d 20 a9 74 3e 1a de f5 3e 2a 0f d0 3e
       0.10766481 0.23892641 0.48021013 0.4063657
000040 ab 31 63 3d 93 72 5b 3e 37 40 b5 3e 8c 86 90 be
       0.05546729 0.21430425 0.35400555 -0.2822765
000050 20 b3 7a 3e ae 44 a2 be dc ed 0f be 15 6b b3 3e
       0.24482393 -0.31693023 -0.1405558 0.35042635
000060 d6 ef f9 be 96 82 75 3e 61 c9 e6 3d 5d 6c 8e 3d
       -0.48815793 0.23975596 0.11268879 0.069542624
000070 c4 7b ad 3e 2e 51 40 3d ca 4b 96 be b3 55 9b be
       0.33883488 0.04695242 -0.29354697 -0.3033882
000080 92 47 6a 3e e8 e1 c9 bd e0 54 a3 bd f5 06 00 3e
       0.22878864 -0.09857541 -0.07975173 0.12502654
000090 50 e0 3d bd a0 62 e2 bc 00 68 bc 3a 3c 10 75 be
       -0.0463565 -0.027634919 0.0014374256 -0.23931974

projection.layers.1.bias f4 [10]
000000 32 43 d1 3e 08 e7 f7 be 31 81 c2 be 6d 8a ab 3e
       0.40871578 -0.4841845 -0.3798919 0.33504048
000010 59 05 f9 be 39 9a ed 3e 2f bb 4d be 50 90 29 3e
       -0.48636892 0.46406725 -0.20090936 0.16558957
000020 ef 66 8f be 80 ad bb bb
       -0.2800822 -0.00572747

projection.layers.2.weight f4 [10, 4]
000000 ff e4 fc 3e 2b f4 ef be e7 11 d9 3e c7 dc 9c 3b
       0.4939346 -0.46865973 0.4239647 0.004787061
000010 ba 33 bc be 9b 53 b0 bc 63 26 c4 3e cd 95 84 3e
       -0.36758214 -0.021524241 0.38310537 0.2589554
000020 e8 3e 41 3e c7 4c 96 bd a0 be c9 be b8 23 2a 3d
       0.18871653 -0.07338863 -0.39403248 0.04153797
000030 5f 16 c5 3e 5d 63 e3 3e 3e 93 e6 3e b6 2c 5a be
       0.3849363 0.44411746 0.45034212 -0.21306118
000040 cd 35 5e be ca 88 27 be d3 33 0f bd 22 a7 1e 3e
       -0.21700211 -0.16360775 -0.034961533 0.15493444
000050 3c d0 e8 3e 23 a2 79 be de 52 8c be 46 d0 be 3e
       0.4547137 -0.24378256 -0.27406973 0.37268275
000060 6a 48 02 be d7 39 f9 3e 55 57 4f be 3b 55 a0 3e
       -0.12722936 0.4867694 -0.20248158 0.31315026
000070 1a f4 a0 3e 80 b0 67 be 2e 26 1f 3e 0e 0a aa be
       0.31436235 -0.22625923 0.15541908 -0.33210796
000080 e2 df 08 3d fa 0d 6f be e3 56 cf 3d 96 3f b9 3d
       0.033416636 -0.23345175 0.10123994 0.09045331
000090 04 5a ea be 62 d9 f1 be 24 66 83 3e 70 b0 91 3e
       -0.457718 -0.47236162 0.25663865 0.28454924

projection.layers.2.bias f4 [10]
000000 bb a1 00 be 4f f0 90 3e 35 33 6b 3d 81 6b b5 3d
       -0.12561695 0.2830834 0.05742188 0.08858395
000010 75 68 d3 3e 8d be 03 3e 48 bd a4 3d 55 e8 3b 3e
       0.41290632 0.12865658 0.08043915 0.18350346
000020 f9 00 9d 3e fc 10 c3 be
       0.30664805 -0.38098896

projection.layers.3.weight f4 [10, 4]
000000 0e 25 ad 3e b7 55 70 3e cd 4b 85 be 13 6c 96 bd
       0.33817333 0.23470198 -0.26034394 -0.07344832
000010 a6 87 34 be 0c 0a 7a be 88 c1 d5 bd 09 fb 0b 3e
       -0.17629871 -0.24417895 -0.10437304 0.13669981
000020 6c 87 fa 3e 63 88 b2 bd af 21 6b 3e 64 f5 bf 3d
       0.48931444 -0.0871742 0.22962068 0.093729764
000030 d1 64 82 bd 46 45 9e be 84 80 67 be 99 5d 99 3e
       -0.063668855 -0.30912226 -0.22607619 0.29954222
000040 e6 23 f4 3e bf 29 e5 ba 43 a7 8f be c8 2b f6 3c
       0.47683638 -0.0017483755 -0.28057298 0.030050173
000050 7f ce d4 be f3 26 dc bd 80 22 f9 3d af 1d 6e 3e
       -0.41563794 -0.107496165 0.121647835 0.23253511
000060 b6 96 b6 3e 73 0b 8b 3e 96 8a 7a be a5 7f b2 3d
       0.35661858 0.27157173 -0.24466929 0.087157525
000070 b6 79 30 be 4e 98 c0 3e b9 ab 03 3e 30 47 63 be
       -0.17233929 0.376162 0.12858476 -0.22195125
000080 d8 7d 8f bd 2a ab ad 3e 74 bf cd be bb 96 93 3e
       -0.07006425 0.3391965 -0.4018513 0.28825936
000090 cc ea d2 be 18 47 aa be f9 16 25 3e ec 52 15 be
       -0.4119476 -0.33257365 0.16122045 -0.14582413

projection.layers.3.bias f4 [10]
000000 a2 06 67 bc 13 aa a6 3e a1 37 d3 3e 22 af b9 bc
       -0.0141007025 0.3255163 0.4125338 -0.022666518
000010 17 ec 07 be d5 22 b0 3e 8e 9f bc 3a 37 1e 5c be
       -0.13273655 0.34401575 0.0014390813 -0.21495901
000020 db ea 5d bd 0f 5a 14 be
       -0.054179054 -0.1448748

projection.layers.4.weight f4 [10, 4]
000000 9c 6c 99 be a0 b5 94 be 08 db 81 bd 90 b4 56 bd
       -0.29965675 -0.2904482 -0.06340605 -0.05241829
000010 36 c8 03 be 06 18 b9 3e 5b 78 18 3e 14 82 fb 3e
       -0.12869343 0.3615114 0.14889662 0.4912268
000020 5f ea 5b 3e 57 d2 4c 3d 81 fa 07 3f d5 5c 97 be
       0.21476124 0.050005283 0.53116614 -0.29563013
000030 04 7a 12 3e fe 36 fc be 00 73 a3 bd 40 1c be 3d
       0.14304358 -0.49260706 -0.07980919 0.09282732
000040 c1 97 85 3e c7 98 c9 3e 08 a1 b2 be b4 14 d9 be
       0.26092342 0.39374372 -0.34888482 -0.42398608
000050 c2 e3 31 3e a9 c5 e1 be 50 da fe 3e 23 d8 c4 3b
       0.17372039 -0.44096115 0.49775934 0.006007211
000060 1b 24 86 bd bf ec a6 bc f4 fc 88 be 48 54 86 3e
       -0.06549855 -0.020376561 -0.26755488 0.26236176
000070 3e ac 26 3e c0 74 a1 be 30 4b ba be 20 3c 8d 3e
       0.16276643 -0.31534386 -0.3638549 0.27584934
000080 a0 b5 6a be 9a 3a 9c be 6a 98 84 be c4 af c0 be
       -0.22920847 -0.3051346 -0.25897533 -0.376341
000090 84 47 85 3c 6f f8 c2 3e 16 37 29 be 3f 3d eb be
       0.016269453 0.38080165 -0.1652492 -0.45945165

projection.layers.4.bias f4 [10]
000000 d8 ff 26 be c4 90 af be 78 fa cd 3e 48 04 bc be
       -0.16308534 -0.34290135 0.40230155 -0.36722016
000010 2b e7 da be 82 54 4b 3e f7 c8 15 be 70 3e 87 be
       -0.42754492 0.19856456 -0.14627443 -0.26414824
000020 ef f7 89 b9 d2 64 eb 3e
       -0.000263154 0.45975357

projection.layers.5.weight f4 [10, 1]
000000 5f d1 ff be 96 d7 66 bf e0 d2 b0 3e 1d 8d c2 be
       -0.49964425 -0.9017271 0.34535885 -0.37998286
000010 84 c3 f7 3d 0a 0e 26 bf 2a b0 12 3f 18 77 46 be
       0.120978385 -0.6486517 0.57300055 -0.19381368
000020 42 82 51 3f 26 bf 47 bf
       0.8183938 -0.78026044

projection.layers.5.bias f4 [10]
000000 de e6 5e 3f 66 12 5a 3f da 9d 28 bf cd c4 08 3f
       0.87071025 0.85184324 -0.6586586 0.53425294
000010 56 95 57 3f 40 1e 03 bf 1c 2d 9d be 88 c1 05 be
       0.84212244 -0.5121803 -0.30698478 -0.13062108
000020 bb 67 37 3f cf 46 b5 3e
       0.71642655 0.35405585

projection.layers.6.weight f4 [10, 1]
000000 25 fd 0d bf 80 86 16 3d 9f 3b a0 3e 30 d8 7c bf
       -0.5546439 0.036749363 0.31295487 -0.98767376
000010 28 67 34 3f d0 b5 d3 be 4a e4 09 bf d2 c2 0d 3f
       0.70469904 -0.4134965 -0.53863966 0.553754
000020 58 60 60 bf 25 16 0a 3f
       -0.8764701 0.5394004

projection.layers.6.bias f4 [10]
000000 fc 7e 4a 3f 44 4f b2 be 6e 5f 97 3e b0 0c 38 3f
       0.7910001 -0.348261 0.29564995 0.7189436
000010 c2 82 ef be bb e9 e5 3e 6e dd c4 3e 62 46 24 bf
       -0.46779448 0.44904885 0.38450187 -0.64169896
000020 13 b7 67 3f 64 50 57 3f
       0.90513724 0.8410704

projection.layers.7.weight f4 [10, 1]
000000 ef 92 7e 3f 81 34 c5 bd ec c1 31 bf 39 9b 2c be
       0.9944295 -0.09629155 -0.69436526 -0.16856088
000010 9e 49 1d bf 90 63 6a 3f 6e f5 35 3f 18 c3 12 be
       -0.61440456 0.9155817 0.7107762 -0.14332235
000020 fd d4 53 3f e8 9d 11 bf
       0.8274687 -0.5688157

projection.layers.7.bias f4 [10]
000000 97 a0 6f be 22 cb 29 3f 92 4c 64 bf 64 df 2b 3e
       -0.23401104 0.6632558 -0.8917934 0.16784436
000010 88 90 be be ef 66 72 3d 59 38 0c 3e 60 8d d1 be
       -0.37219644 0.059180196 0.1369337 -0.40928173
000020 b9 a1 2f bf 46 97 31 3d
       -0.68606144 0.043357156

projection.layers.8.weight f4 [10, 1]
000000 08 59 50 bf 80 06 98 be 19 e8 3e 3f 85 df 36 3f
       -0.8138585 -0.2969246 0.745729 0.71434814
000010 1f df 41 3e c6 e6 bf 3e b2 c2 16 3e b4 02 38 bf
       0.1893277 0.37480754 0.14722708 -0.71879125
000020 90 a6 d4 bd 60 b1 08 3c
       -0.10383332 0.008343071

projection.layers.8.bias f4 [10]
000000 f4 de 4c 3f cc 10 8b be 4e 79 13 be 07 b0 c9 be
       0.800277 -0.27161252 -0.14401743 -0.3939211
000010 e7 3c d6 3e f7 50 73 3f 62 19 fe 3e bc 04 96 be
       0.4184334 0.9504542 0.4962874 -0.29300487
000020 b8 53 f1 be 92 28 09 3f
       -0.47134185 0.5357753

projection.layers.9.weight f4 [10, 1]
000000 4a 79 1e bf f2 40 51 3f 80 9d 7f bf dc b9 fe be
       -0.6190382 0.81739724 -0.998497 -0.49751174
000010 eb 44 fe 3c 20 a8 57 bf c0 5f 20 bd 75 3f 05 3b
       0.031038722 -0.84240913 -0.039153814 0.0020332013
000020 48 4c 79 3f 7e 11 30 bf
       0.9738202 -0.6877669

projection.layers.9.bias f4 [10]
000000 b0 26 1d be 38 99 2a bf f1 80 da 3d 30 1c 90 be
       -0.1534679 -0.66640043 0.10669125 -0.28146505
000010 17 14 79 3e 20 5e 10 bd ca 81 53 bf f2 4e 35 3f
       0.2432407 -0.035246015 -0.8261992 0.70823586
000020 d1 18 37 3f b4 f7 2f 3f
       0.7152224 0.6873734

attention.attention.0.weight f4 [64, 100]
000000 89 b6 da bb cd 60 34 bd 28 1c a9 bd b8 c1 72 3d
       -0.006674592 -0.04403763 -0.082573235 0.059266776
000010 1a 91 b8 3d 60 c2 b7 3c 22 cc cf 3c a3 de c1 bd
       0.09012051 0.022431552 0.025365893 -0.09466293
000020 5c 42 dc 3d b5 0e 91 3d 02 44 dd 3d de 81 a1 bd
       0.107548445 0.07082883 0.10803987 -0.07886098
000030 2b a8 a9 3c bf 49 e6 bc 6a 9e 8d 3d e9 01 c0 bb
       0.020710072 -0.028111337 0.06914981 -0.0058596027
000040 11 9f 17 3d 1f aa 23 3c ac 00 6c bc 41 a7 80 3d
       0.037016932 0.0099892905 -0.014404457 0.06281901
000050 1a 55 d5 bb 02 b7 b2 3d 11 d2 1c bc ea 3e f0 3d
       -0.006510389 0.08726312 -0.009571568 0.1173075
000060 b2 57 96 3d f0 9d fe 3d 93 15 08 3d 77 10 97 bd
       0.07340945 0.12432468 0.0332237 -0.07376187
000070 b3 27 b4 bb 1a 69 7e 3d 0c 4c 5d bd 3b 85 f1 bc
       -0.0054978966 0.06211195 -0.054027602 -0.029482475
000080 2e b9 62 bd 56 c6 24 bc 22 cd ce 3b c4 e8 82 bd
       -0.055352382 -0.010057053 0.006311075 -0.06392053
000090 dd af 6a bb 1c eb b2 3d 09 8a 62 bd 3b ca 21 bd
       -0.003581039 0.0873625 -0.05530742 -0.039499503
0000a0 e1 06 cb 3d e0 63 be bd 21 a1 2b bc e8 6c 4c bc
       0.099134214 -0.092963934 -0.010475428 -0.012477137
0000b0 ff 28 3d 3d ee 33 33 3d 16 14 5b 3d 03 44 a1 3d
       0.046181675 0.043750696 0.053485952 0.078743
0000c0 c8 9c 91 bd 63 98 87 3c c9 14 b8 3d c2 f8 0d bd
       -0.07109982 0.016552156 0.089883395 -0.034661062
0000d0 e3 15 c1 3d c0 64 37 bd 4c 9a 5f bd 31 3c a4 3d
       0.09428003 -0.044773817 -0.05459051 0.08019293
0000e0 5b cc 05 3e c6 5c 54 3d 2f 8a c2 3d b7 31 ea bc
       0.13066237 0.05184629 0.09499013 -0.028588159
0000f0 97 2b 32 3c af 44 a4 3d 75 5d dc 3d 9f b8 8f bd
       0.01087465 0.08020913 0.10760013 -0.070176356
000100 84 e7 06 3e 58 7c d4 bd b3 47 c3 bd 00 99 6b bc
       0.13174254 -0.10375279 -0.0953516 -0.01437974
000110 ca 81 26 bd a5 0a db 3c ba 41 2a bc 86 1a e6 3c
       -0.04065112 0.026738474 -0.010391647 0.02808882
000120 78 7e a7 bc 28 ff cf bc 67 57 99 3d ee 49 21 bd
       -0.020446047 -0.025390223 0.07487374 -0.039377145
000130 03 a1 bd 3b a0 0e ba 3c 8c 07 40 bd 1a f1 18 3d
       0.0057870164 0.022712052 -0.046882197 0.037339307
000140 af 26 8f bc 1a 6b 4b 3d 85 90 09 3e 70 2b 05 bc
       -0.0174745 0.049662687 0.13434036 -0.008128032
000150 4c f6 b3 3d 2c 02 05 bd ee 72 a2 3c 52 5e 3a 3d
       0.08787212 -0.032472774 0.019830193 0.045500107
000160 27 af 29 bd da 8b 7b bc f7 08 cb bd 2e b1 aa 3d
       -0.041426804 -0.015353167 -0.09913819 0.083345756
000170 88 ae dc 3c 0b e5 94 bd 3a e7 00 3d d8 40 88 bd
       0.026938692 -0.07270249 0.031470515 -0.06652993
000180 27 2a 3c bd 57 67 79 3c db 10 2c bd 4d 0b 97 bb
       -0.045938637 0.015222392 -0.042008262 -0.0046095015
000190 71 ee 8d 3c 2b ec cf 3d e0 f4 83 3c 56 f5 5e 3d
       0.017325612 0.10152467 0.016107976 0.05443319
0001a0 37 10 41 3c 74 35 ee 3d bd 73 17 3e 28 71 88 bd
       0.011783651 0.11631289 0.14790244 -0.06662208
0001b0 4d 9f 9e bd f1 04 c7 3d 3a 8c 00 3e 47 39 40 bd
       -0.07745228 0.097177394 0.12553492 -0.046929624
0001c0 8e ee 51 bd 31 fe 26 bd 3d 14 e0 3d 7b 95 64 3d
       -0.051252894 -0.04076976 0.1094136 0.05580662
0001d0 84 55 c3 bd 6e dd e7 3d 3a b7 4d bc d8 83 1a 3c
       -0.09537795 0.11321531 -0.012555892 0.009430848
0001e0 41 d9 92 bc 78 00 91 bd 7a 5e 96 3d e5 fa ca bc
       -0.01792586 -0.070801675 0.07342239 -0.024777839
0001f0 51 95 dd bc b0 3e 05 bd 24 f1 3c 3d bd 90 f7 3d
       -0.027048739 -0.032530487 0.046128407 0.120881535
000200 ba f6 a3 3d 53 2f 4c 3d 39 1e 61 bd e8 c1 9e bd
       0.08006044 0.04984982 -0.054960463 -0.077518284
000210 d9 4b 52 3d 98 d7 0f 3d 9d b5 19 bd 32 70 f1 bc
       0.051341865 0.035117716 -0.037526716 -0.029472444
000220 c8 0b a0 bd 2f d6 2b 3c 96 50 a1 bd e7 08 66 bd
       -0.07814747 0.010488077 -0.07876699 -0.056160834
000230 0d b5 c3 bd ed 49 2f bd 55 1f e6 3d 76 48 12 bd
       -0.09556017 -0.04279511 0.11236445 -0.035713635
000240 d2 c3 52 bc 95 46 34 bb 84 51 5a 3b 7b b9 a6 3d
       -0.01286407 -0.002750789 0.0033312747 0.08140846
000250 d9 e1 37 bd c2 9d db 3d 6d 0d 77 bd f8 b3 95 3d
       -0.04489312 0.10723449 -0.06031554 0.07309717
000260 30 10 f6 3b b2 a9 72 3c 6c 05 13 bb 0b 9a ae 3d
       0.007509254 0.014810966 -0.0022433652 0.08525475
000270 22 c1 e4 3d 60 66 92 bc 68 02 73 3d b8 5c 52 bd
       0.1116965 -0.017871082 0.059328467 -0.051357955
000280 f8 62 b7 3d b4 08 ea bc 55 91 d9 3d 28 9c 32 3d
       0.08954424 -0.028568603 0.10623423 0.043605953
000290 86 e1 12 3e a8 c0 83 3c d6 b9 53 3d f9 c8 be 3d
       0.14343843 0.016083077 0.0516909 0.09315676
0002a0 be 61 a4 bd ae df 0b bd 51 45 13 3e 72 c8 5b 3c
       -0.08026455 -0.034148864 0.14381911 0.013414489
0002b0 c0 63 d8 bc 44 04 79 bd 1d cb c8 bd 92 62 cd 3d
       -0.026414752 -0.060795084 -0.09804366 0.100285664
0002c0 c6 0a 59 3d 0e 69 a9 bd d4 58 90 3d 2b ee 92 3d
       0.05298879 -0.08271991 0.070481926 0.07174333
0002d0 af f2 38 3d f8 20 bc bd 98 7b b0 3d e8 28 54 bc
       0.045153316 -0.09185976 0.08617324 -0.012949206
0002e0 01 ee 06 3e d3 08 76 bd 5d 84 b8 3c da f6 79 bd
       0.13176729 -0.06006701 0.022524053 -0.06102643
0002f0 e3 83 45 bd fb d1 ef 3d 05 5f cb 3d 5c 10 f4 3d
       -0.04822148 0.117099725 0.09930233 0.11917183
000300 87 b1 a3 bd e3 d8 78 bd 05 bf 65 3c 98 a1 5a 3c
       -0.07992845 -0.060753714 0.014022593 0.013344191
000310 48 d5 8f bc 80 a1 83 3d 4d 6b 09 3e 0b 7a a9 3d
       -0.017557755 0.06427288 0.13419838 0.08275231
000320 86 16 36 3c 31 c0 bb 3c fa ad 4d bd cf 1d 61 3a
       0.011113768 0.022918792 -0.050214745 0.00085875107
000330 df 9a c5 bd 18 c2 cd bd be 6c f4 bd a6 d4 a6 bd
       -0.0964868 -0.10046786 -0.119348034 -0.08146028
000340 07 1a c3 3d 0d bd 07 3d 70 64 5d bd 00 ae b8 bc
       0.09526449 0.033139277 -0.054050863 -0.022543907
000350 49 68 12 bc 56 7d 31 bd ec b5 a1 3d 95 94 af 3c
       -0.008935996 -0.04333242 0.07896027 0.021433154
000360 6e 02 94 3d 3a 3c 9a 3d 6f 55 c6 bd d0 61 75 bd
       0.07227026 0.075310186 -0.09684264 -0.059907734
000370 a5 1e 02 be 72 dd 29 bd fa 11 ac 3c 64 df 9b bd
       -0.12707002 -0.041470952 0.021004666 -0.07610968
000380 48 d7 13 3d 21 0f ab 3d 92 3c 4e bd 6e e2 f6 bd
       0.03609398 0.08352495 -0.050350733 -0.12054907
000390 fd e7 e7 bd 7d 57 74 3b d3 08 8a bd 2f 7c a8 bd
       -0.11323545 0.0037283592 -0.06739964 -0.08226811
0003a0 49 c9 3d 3c ce 40 24 3d 7e 54 bc bd 95 bb 94 3a
       0.011583635 0.040100865 -0.09195803 0.0011347408
0003b0 58 c6 ba bd 04 4b e4 bd ad a1 ea 3d 56 62 72 3c
       -0.09119862 -0.111471206 0.114566185 0.014793953
0003c0 7e 62 02 3d f1 db 54 3d 78 5a 8c 3a 7d 63 74 bd
       0.03183221 0.051967565 0.0010708114 -0.059665192
0003d0 64 e6 4a 3d 73 18 fc bc 55 89 a0 bd 60 56 3e bd
       0.049536124 -0.030773377 -0.07838694 -0.046469092
0003e0 b7 3a 8c bc 5a 19 b5 bd d0 0c b5 3d bf c8 d6 3d
       -0.017117841 -0.08842726 0.088403344 0.10487508
0003f0 c2 fa 63 3d e8 5c 92 3d bb 09 43 3d 18 51 40 bc
       0.055659063 0.07146627 0.0476167 -0.011738084

attention.attention.0.bias f4 [64]
000000 80 f9 fd 3d cb d4 a7 3d de 20 06 3d c7 38 d4 bd
       0.12401104 0.08194884 0.03274619 -0.10362392
000010 23 75 aa 3d d6 96 b4 bd f1 ac 54 3c 65 e5 ab bd
       0.08323123 -0.08817832 0.012980686 -0.08393363
000020 8c 1d d3 bd 10 37 89 3c 46 b6 8a bc d8 ec 6b 3d
       -0.1030837 0.016749889 -0.016932618 0.05759892
000030 19 c8 eb 3d 45 7c 8c 3d 17 5a 52 bd cc 22 18 bd
       0.11512775 0.0685964 -0.051355448 -0.03714256
000040 24 1e 40 bd 9b 79 bd 3d bb b8 e4 3d 8c 3c c6 3c
       -0.046903744 0.0925171 0.11168047 0.024198793
000050 2b 43 ab 3d b5 22 ad 3d b9 44 fb 3c d1 2f d4 3c
       0.08362421 0.084538855 0.030672418 0.025901707
000060 26 e5 03 3e 43 c2 80 3d 29 e3 21 bd 17 4d 88 3d
       0.12880382 0.062870525 -0.039523277 0.06655329
000070 f6 9d fb bc e8 ee 70 3d 41 75 a7 3c 08 db 3f 3d
       -0.03071497 0.05882159 0.020441653 0.046839744
000080 be b6 d1 bd e2 2e d6 bd 78 92 21 bc 54 16 ea bc
       -0.102399334 -0.10458161 -0.009861581 -0.0285751
000090 d5 75 b1 bc b0 5e 9d 3b 30 ee c6 3d f8 2c 23 bd
       -0.021662632 0.0048025474 0.097133994 -0.039837807
0000a0 75 f0 8d bc 5a e3 a4 3d d2 e4 b4 3d b1 39 3d bd
       -0.017326573 0.08051176 0.088327065 -0.046197597
0000b0 60 c7 08 3d 3a 0f a3 bd e3 68 50 3d cf e0 3a bd
       0.033393264 -0.079618886 0.050881278 -0.04562455
0000c0 a4 67 98 bc 02 21 9f bd 1a 0d df 3b ce 67 d6 3c
       -0.018604107 -0.077699676 0.0068069817 0.026172545
0000d0 82 1f 99 bc 52 81 af bd d0 21 41 3d 59 95 27 bc
       -0.018691782 -0.08569588 0.047151387 -0.010228478
0000e0 09 e2 8a 3d 23 cb 9c 3d e2 9e 08 bd 9a 9f c5 3d
       0.06781394 0.07655933 -0.033354647 0.09649582
0000f0 3a dd 8d bd fc 92 70 bb b2 09 03 bd b4 d9 b6 3d
       -0.06926961 -0.0036708703 -0.031991668 0.08928242

attention.attention.2.weight f4 [10, 64]
000000 7c 33 9a 3d a7 27 8a bd 07 d8 bf bd 6c 52 76 bd
       0.07529351 -0.06745844 -0.09367376 -0.060137197
000010 a5 61 19 bd 00 24 d8 3c 4d fc f8 bd 59 cc ef bc
       -0.037446637 0.026384354 -0.121574976 -0.029272245
000020 33 6a e4 bd ac 80 71 3d 47 85 dd bc 66 4c 01 be
       -0.111530684 0.0589606 -0.02704109 -0.126268
000030 27 1c c5 bd d5 30 de bd a2 9f 96 3d 6c 7d f7 bd
       -0.0962451 -0.10849158 0.07354666 -0.12084469
000040 5d 1f 3f 3d 2b a6 86 3d 47 08 2d 3d a7 8f f9 bd
       0.04666077 0.06574663 0.042244222 -0.12185603
000050 5d 6a c6 3d aa 2a b5 3d dd 4c bc bd 79 3c 7b bd
       0.09688256 0.08846028 -0.09194348 -0.061336968
000060 60 6f 57 bd 1f 35 f1 3c 5a 97 be 3c 29 3a fd bd
       -0.05259645 0.029444275 0.02326553 -0.12364609
000070 89 12 ee bd 49 36 2a 3d 4d 1a 9e bd 19 ff 51 bd
       -0.11624629 0.041555677 -0.0771986 -0.05126867
000080 26 96 ee bd 53 8a d8 bd 1f 8b 05 be 38 f5 f2 bd
       -0.11649732 -0.10573258 -0.13041352 -0.11863178
000090 3d b8 fd bd 4e 35 2f 3d 17 a9 fd bd a3 85 40 bd
       -0.12388656 0.042775445 -0.12385767 -0.047002446
0000a0 22 1e 44 bd e9 a6 cc 3d 0b d2 8d bd a7 9b e4 bd
       -0.0478803 0.09992773 -0.06924828 -0.11162501
0000b0 7e f0 31 3b 80 12 a9 3d 72 ed 9e 3d 96 68 34 3b
       0.00271514 0.08255482 0.07760133 0.0027528158
0000c0 44 fd 68 3b ca 1f 01 3e a5 fe a9 bd af 7f de 3d
       0.0035551349 0.12609783 -0.08300523 0.108641975
0000d0 d6 11 1d b9 28 ed 9a 3d 70 50 8e bd b9 48 d9 bd
       -0.00014979331 0.07564765 -0.06948936 -0.10609574
0000e0 bf 05 73 3d 5c 73 bb 3d 6e f5 8a 3d ef c1 99 3d
       0.05933165 0.091528624 0.06785093 0.07507693
0000f0 eb 3d 2d 3c 02 87 c5 bd 2e fe dc bd 2a b6 7c 3d
       0.010573844 -0.09644891 -0.107906684 0.061697163
000100 68 fa 16 bd 1e bb 87 bd e3 66 b0 bd ad b9 89 bd
       -0.0368599 -0.06627487 -0.08613374 -0.06724868
000110 17 f6 c9 bd 9a c7 f6 3c cc a7 0c be ff 59 58 3d
       -0.09861391 0.030124474 -0.13735884 0.052820202
000120 65 9a 14 be 9b 49 c4 bb e8 62 a5 bd 29 a5 7b 3d
       -0.14512022 -0.00599022 -0.080755055 0.061436806
000130 f1 c6 59 bd 51 9e 8a bd 48 49 a0 3d b1 b3 98 3d
       -0.05316824 -0.06768478 0.07826477 0.074561484
000140 4e 8c 02 be 08 dd 31 3d 0c 6d a9 3c c7 61 59 bd
       -0.12748834 0.043423682 0.02068188 -0.053071763
000150 4f 96 6c bd f5 de 12 bd f9 f6 ab 3d 33 4b 9f 3c
       -0.057760533 -0.03585716 0.08396716 0.019445037
000160 d6 9c f6 bd fc d3 70 bd 45 e5 7b bc 83 db 1c 3d
       -0.12041633 -0.058795914 -0.015374486 0.03829528
000170 a2 1a 87 3d a0 a5 a2 3d ab 1e fa bd c6 47 b4 bd
       0.06596877 0.07941747 -0.12212881 -0.08802752
000180 61 01 e7 3b 54 48 17 be 93 cf 89 bc 4c a3 b8 bc
       0.007049725 -0.14773685 -0.016822612 -0.022538804
000190 10 a8 49 3d a0 e8 f9 bd e5 9d 6b 3c 6a cf ec bd
       0.049232543 -0.12202573 0.014380907 -0.115629986
0001a0 3a 76 be bd 95 4a d0 bd 10 48 d3 bd b5 24 a7 3d
       -0.09299894 -0.101704754 -0.10316479 0.08161298
0001b0 f6 d7 fd bd a2 d9 c0 3d dd f6 f1 bd ac 23 99 bb
       -0.12394707 0.0941651 -0.118146636 -0.004673442
0001c0 aa 20 73 bd a3 84 8d b9 24 b3 88 bd bd 5f 5f 3d
       -0.059357323 -0.00026992438 -0.06674793 0.054534663
0001d0 3a c6 3e 3d 5e e4 d8 bc 7d f9 1b be f6 19 eb bd
       0.046575762 -0.026476081 -0.15231891 -0.11479561
0001e0 3e 2e b1 bc 8e 62 ba bd 68 32 19 be 8c aa 8c bd
       -0.021628495 -0.09100829 -0.14960635 -0.06868467
0001f0 08 58 db 3c 1c f2 c5 bd 11 3d 5e 3c de b7 81 3d
       0.026775375 -0.09665319 0.013564364 0.06333898
000200 f2 8b c3 3d dc 8c cf 3d fa 92 84 bd 82 24 1f bc
       0.09548177 0.10134289 -0.06473346 -0.009713294
000210 d6 99 e4 bc 47 f1 90 bd b1 83 00 bd 2d b4 1d bd
       -0.027905386 -0.0707727 -0.03137559 -0.038501907
000220 31 1c 81 bd 32 3f 00 3e 78 17 10 3e 02 67 3e bd
       -0.06304205 0.12524107 0.14071453 -0.046484955
000230 28 b4 ff 3d 73 47 03 bd a8 c6 37 3d 2e 02 84 bd
       0.12485534 -0.03205056 0.044867188 -0.06445728
000240 4e 25 d5 3d 2b d7 c4 3d de e2 04 3e 4d 9f 30 3d
       0.10407506 0.096113525 0.12977168 0.04312067
000250 c1 13 65 bd 26 c1 1f 3e 9c 2f 2d 3d 7a 92 2d 3d
       -0.055927042 0.15601024 0.042281732 0.04237602
000260 13 d1 13 3e d2 fd ee 3d 18 3d a3 3d 6f 75 62 3b
       0.14435224 0.11669506 0.07970637 0.003455486
000270 11 eb 4a bd 2c 5b 56 3c d2 7b 70 ba 2f b0 40 bc
       -0.049540583 0.0130832605 -0.0009173724 -0.011760755
000280 a2 dc c6 bc 7e bb 83 bd eb 4c 01 3d a3 0d 12 3e
       -0.024275128 -0.06432246 0.031567495 0.14263014
000290 91 37 b1 3c 59 de b9 3d b6 59 f7 3d dc 09 53 bd
       0.021632941 0.090756126 0.12077658 -0.051523075
0002a0 2c d5 6e 3d 27 0f 15 3e 34 56 01 3d 1f 08 f5 bc
       0.058308765 0.14556561 0.03157635 -0.029911099
0002b0 83 cc 5a 3d cc c7 33 bd 67 37 12 3e 35 19 f0 3c
       0.053417694 -0.043891713 0.14278947 0.029308895
0002c0 37 42 46 bd b1 c3 c2 bd 71 ca 12 3e 16 e8 04 3e
       -0.04840299 -0.095099814 0.14335038 0.12979159
0002d0 b8 1a 89 bd e6 45 31 3d 76 db 27 3b 89 b6 a2 bd
       -0.06694549 0.04327955 0.0025612987 -0.07944972
0002e0 56 14 ee 3d cd 1e 89 bd 58 f5 11 3e 33 5c 92 3d
       0.116249725 -0.06695328 0.14253747 0.07146492
0002f0 df 21 64 3d f2 a3 46 3d 98 2a 11 3d 3d 5f 07 3e
       0.055696364 0.048496194 0.03544101 0.13219924
000300 13 e9 ef 3c 32 69 93 3c e2 36 d4 bd f8 9c cd 3d
       0.029285943 0.017994497 -0.103620306 0.10039705
000310 77 5c b3 bd 7d d8 19 3d 1b 74 8c 3d ad 63 c7 bd
       -0.08757871 0.037559975 0.06858083 -0.097358085
000320 44 c2 f0 bd 5e e7 9e ba 4b 83 ec bc af 7b 58 3d
       -0.11755803 -0.0012123396 -0.0288712 0.05285233
000330 5b 79 9a 3d 27 59 72 bd 55 3c be 3d 24 2a c4 3d
       0.07542678 -0.059167054 0.09288851 0.0957835
000340 64 c4 70 3d 47 1b b6 3d 65 cd 3c bd 5d f5 62 bd
       0.058781043 0.088919215 -0.046094317 -0.055409778
000350 44 04 07 be 4e 05 de 3d 40 9a 07 be 1a 51 4c bd
       -0.13185221 0.108408555 -0.13242435 -0.049882032
000360 8e 29 08 be f1 9b dd 3c dc e3 8b 3d 42 c9 c5 3c
       -0.13297102 0.027051898 0.0683057 0.024143819
000370 6e 8f be bd 79 9f 39 3d 0d dd 89 3d 14 e0 89 3c
       -0.09304701 0.0453181 0.06731615 0.016830482
000380 a8 09 6b 3d 4a 51 40 3d ab 29 06 be 1f c1 b4 bd
       0.057382256 0.046952523 -0.13101833 -0.088258974
000390 f0 5b ab 3d e9 42 97 bd 47 b1 01 bd 13 42 ef bc
       0.08367145 -0.07385809 -0.031663205 -0.029206311
0003a0 01 1e fe bd 15 35 e1 bd 57 d0 e8 bd 2e a4 d3 bd
       -0.124080665 -0.10996453 -0.11367863 -0.10334049
0003b0 4f 62 b2 3d c6 a2 36 bb c0 2d 06 be e3 b2 24 3d
       0.08710157 -0.0027868017 -0.1310339 0.040209662
0003c0 32 15 fa bc 3e 3e db 3d 7a 1d 31 3d 19 01 aa bd
       -0.030527685 0.10705231 0.043241 -0.083009906
0003d0 e4 25 01 be bc 82 e0 3d a4 12 8c bd 99 78 dc 3d
       -0.1261211 0.109624356 -0.06839493 0.1076519
0003e0 ed 70 8a 3d 87 27 f3 3c e7 e9 c8 3b 7d b4 bb bc
       0.0675982 0.029681934 0.006131399 -0.022913212
0003f0 c9 7a 15 bd 4e 12 03 3d e8 58 e8 bd 7f 63 c0 3d
       -0.03649405 0.03199988 -0.113450825 0.093939774

attention.attention.2.bias f4 [10]
000000 ad a1 e8 3c b0 5e 4b bd cc 6a 92 3d 0d 6f 2f 3d
       0.028397406 -0.049650848 0.07149276 0.042830516
000010 98 ff a7 3d 2c 9c ab bd 78 73 b4 bd b8 ea 9f bc
       0.082030475 -0.08379397 -0.088110864 -0.019521102
000020 f7 27 a4 3d 48 9c 90 3b
       0.08015435 0.0044131614

layers.0.weight f4 [23, 100]
000000 11 12 c3 3b ca 0c 2b bd 2d e8 a4 bd 76 7f 91 3c
       0.0059530814 -0.041760243 -0.080520965 0.017760973
000010 44 3e b4 3d 8b d3 42 bd 90 b1 bf bc 60 ef 74 bb
       0.08800939 -0.047565024 -0.023400098 -0.0037374124
000020 44 9d 9d 3c c6 a7 9d 3d 50 01 84 bc d0 a3 85 bd
       0.01924003 0.07698016 -0.016113907 -0.065253854
000030 26 b9 c2 bc bc f1 fe bb 4d fe 45 3c 37 9d e5 3b
       -0.023769926 -0.007780282 0.012084556 0.007007267
000040 71 8d 87 bd e9 d5 c8 bd 8e f2 d1 3d dd a2 2d bd
       -0.06618775 -0.09806425 0.10251342 -0.042391647
000050 e6 a9 fa 3d 84 1a d0 3d f8 d8 da bd c7 a3 a1 3d
       0.12239437 0.101613075 -0.10685915 0.07892566
000060 ee 9d 73 3d 57 78 49 bd 36 ff a1 bd ca 59 12 3e
       0.059476785 -0.04918703 -0.07910006 0.14292064
000070 14 e7 ac bc 1b 25 c4 bd c1 ad 7f bc 17 9b c1 bd
       -0.02110628 -0.0957739 -0.015605391 -0.09453409
000080 74 f2 19 3d 67 c5 ab bd 6a a9 e2 3a d2 d6 48 bd
       0.037584737 -0.08387261 0.0017292921 -0.049032994
000090 e4 6f 9f 3a 5e a6 a1 3d ac 80 1f 3d 97 b6 09 3d
       0.0012164083 0.0789306 0.03894107 0.033621397
0000a0 80 48 0a bc cb f6 87 bc 4d 76 d5 bc 18 f7 07 3c
       -0.008440137 -0.016597172 -0.026057387 0.008298658
0000b0 ec 27 70 3d bb ba 8d 3d 09 96 c6 bd e1 07 2d bc
       0.058631822 0.06920382 -0.09696586 -0.0105609605
0000c0 99 76 6b 3c 0f f1 86 3d 9f 77 8e 3d 85 53 4c 3d
       0.014371538 0.06588947 0.0695641 0.049884338
0000d0 00 c2 25 3b 01 af bd 3b 90 4b a1 bd fa 63 4b 3d
       0.0025292635 0.0057886844 -0.078757405 0.049655892
0000e0 7d 6f c1 3d 38 c4 cc bd 81 b5 98 3d a2 82 3e bd
       0.09445093 -0.09998363 0.07456494 -0.0465113
0000f0 c4 44 b8 bd e5 46 a5 3d 91 88 9a bd ca bb c9 3d
       -0.08997491 0.08070163 -0.07545579 0.09850271
000100 63 ff 80 3d bf 91 a3 3d af 5b 26 3d 00 8d 30 bb
       0.06298711 0.07986783 0.04061478 -0.0026939511
000110 34 93 85 bd de f7 d7 bc 17 ee 34 bc 8a e1 e5 bc
       -0.065222174 -0.02636331 -0.011043093 -0.028061647
000120 f8 0f 80 3c 48 a6 15 bd 12 d4 7d 3d a5 f2 be 3d
       0.015632614 -0.03653553 0.061969824 0.093236245
000130 bd 79 99 3d 9b e1 c3 bd da bb 18 bd 08 60 44 3c
       0.07493923 -0.09564515 -0.037288524 0.011985786
000140 81 35 58 bd 84 20 d7 3c ec b9 a1 bc fc 7f ca 3c
       -0.0527854 0.026260622 -0.019741975 0.02471923
000150 ee e1 10 bd f8 ab a2 bd 62 13 94 3c 29 ff 9f 3d
       -0.035371713 -0.07942957 0.018075649 0.0781234
000160 38 fc bd bd 6b 6e df 3c 00 a7 61 bb 06 cf bd 3c
       -0.092766225 0.027274331 -0.0034431815 0.023170006
000170 9c 85 bd 3d ed 08 8b 3d 1a 74 1c bc a1 7f 97 3d
       0.092539996 0.06788812 -0.009549165 0.0739739
000180 10 4c 0a bc 94 ef b1 bd ec 4e 86 bd b7 29 b9 bd
       -0.008440986 -0.08688274 -0.06558022 -0.090411596
000190 6a 15 e4 3a bc 1b b9 3d 6c cd f6 3c 9a 6c ff bc
       0.0017401401 0.09038493 0.03012725 -0.031179715
0001a0 7c 0b b6 bd 67 cf c1 3c 13 0c 64 3d 04 49 85 bd
       -0.08888909 0.023658467 0.055675577 -0.06508067
0001b0 d5 e6 dc 3d 98 77 c3 3c da ed ae 3d ad 16 c6 3d
       0.10786215 0.023860738 0.0854146 0.09672294
0001c0 0e 53 97 bd 9c 3f 58 3d 44 b3 89 3d 94 8e 8b bd
       -0.07388888 0.052795038 0.06723645 -0.06814304
0001d0 6c d5 88 bd 24 98 cf 3c 62 06 89 3d 8a 39 04 bd
       -0.06681332 0.025341101 0.066906705 -0.032281436
0001e0 68 8c 38 bd c9 3f 9f 3d 76 ee a5 bd 9a b9 5b bd
       -0.045055777 0.07775838 -0.081021234 -0.0536438
0001f0 13 90 90 3d a0 97 62 bd 82 13 b5 3c 49 3d 95 bc
       0.0705873 -0.055320382 0.022104029 -0.0182177
000200 45 2a e5 bc d3 4f 96 3d da 7a 93 bd a5 3f d4 bb
       -0.027974257 0.07339444 -0.072011665 -0.0064773136
000210 ad 33 6b 3b dc 2c b6 3d 17 d4 be 3d 9e 56 28 3d
       0.0035888955 0.08895275 0.09317797 0.04109823
000220 82 a1 9c bd 60 22 38 3d 06 c1 bc 3d 7f 4c b9 bb
       -0.07647993 0.044954658 0.09216504 -0.005654871
000230 63 69 45 bd e1 ed 8c 3d 6a 1e c4 bb 51 6d 8f 3d
       -0.048196208 0.06881309 -0.005985071 0.07003272
000240 0e 35 bd bd a4 44 e2 bd 68 c3 5e 3d cf 91 5e bd
       -0.09238635 -0.110482484 0.054385573 -0.054338273
000250 c8 5e af bd bd 2c 18 3d 9a fa 95 bd 99 ce b9 3d
       -0.08563 0.03715204 -0.07323189 0.090726085
000260 2b 4a c4 3d a9 5a a3 3d 35 be 62 3d 4d 8d 86 3d
       0.09584459 0.079762764 0.055357177 0.0656992
000270 a7 e5 cc bd 1f 98 c5 bd 20 94 7c bc 35 08 d7 3c
       -0.1000474 -0.096481554 -0.015416175 0.02624903
000280 fb ee be bd 34 00 98 bc 87 b7 a3 3d fe 45 ef bc
       -0.09322926 -0.018554784 0.079939894 -0.02920818
000290 92 c1 de bd f4 57 96 bd 8d 4b 87 3d 27 30 4a bd
       -0.10876764 -0.073409945 0.06606207 -0.049362328
0002a0 b6 59 5c bb c4 9e 19 bd 5a 71 a3 3d e3 9f b9 bc
       -0.0033622808 -0.037504926 0.079806045 -0.022659248
0002b0 9a 7a 11 bd 1a f3 a8 bd e5 28 bb 3d 32 f8 68 bd
       -0.035517313 -0.08249493 0.091386594 -0.056877322
0002c0 a7 b3 1d 3d c2 6b 62 3d 98 69 4e 3d b3 7e 00 bd
       0.038501408 0.055278547 0.05039367 -0.03137083
0002d0 38 01 82 3d b2 aa 75 3d d5 e1 3d bd 34 8a ad bd
       0.06347889 0.05997724 -0.04635795 -0.08473626
0002e0 2a ec 04 3d 86 6f b3 bd f1 86 ce bd 01 90 bd 3d
       0.032451786 -0.08761506 -0.10084332 0.09255982
0002f0 40 90 02 bc 29 0d a6 3d c3 ce 96 bd 85 a1 88 bb
       -0.007968962 0.08107979 -0.073636554 -0.0041696453
000300 15 88 cd 3c 12 d4 85 bd ef 02 9c 3d aa 60 b5 bd
       0.025089303 -0.0653459 0.07617747 -0.08856328
000310 dc bb 12 bd 3d 29 a1 bd 9b a5 6e 3c a5 18 17 3c
       -0.035823688 -0.07869194 0.014565851 0.009222184
000320 2f f3 d8 bc cb 2b 38 3d db 40 99 3d 73 c0 44 bd
       -0.026483146 0.04496364 0.07483073 -0.048035096
000330 f7 7c f2 bd e9 83 42 3d 87 61 4c 3d 9d ee 70 bd
       -0.118402414 0.04748908 0.049897697 -0.05882131
000340 2c 0a 75 3d 65 a4 ae 3c e9 34 61 3c a0 b5 38 bb
       0.059824154 0.021318624 0.013745525 -0.0028184429
000350 a4 ed 7d 3d 13 96 4a 3d b9 5a 40 bd 5a 3e a8 bd
       0.06199421 0.04945953 -0.04696152 -0.082150176
000360 4a da e4 ba 41 e2 be bc 66 99 c2 3d 5a 40 23 bd
       -0.0017460075 -0.023301246 0.09501915 -0.039856292
000370 e0 77 d5 3c fe f4 9d 3d 4f cc 5c 3c 65 6c 2b bd
       0.026058137 0.07712744 0.013476445 -0.04185142
000380 a0 b9 62 3d 41 d5 8b bc 7b 64 78 3d 97 b4 83 bc
       0.055352807 -0.01706946 0.0606427 -0.016077323
000390 30 f9 86 3c 9c 1f 24 bd 75 5d 4a 3d d2 d5 1d bd
       0.016476244 -0.040069208 0.049405534 -0.038533993
0003a0 89 c7 e4 bc 43 d5 ac bd 52 a9 2d 3d 8c cc 94 3d
       -0.027927177 -0.08439114 0.042397805 0.07265577
0003b0 78 1d cc 3c 63 fe ad bd bd 90 e7 bd e8 4e 54 bd
       0.024916396 -0.08495786 -0.113069035 -0.051833063
0003c0 01 d4 af 3d dc 68 27 3d 25 59 8c bd 61 a1 c6 3d
       0.085853584 0.040871486 -0.068529405 0.09698749
0003d0 29 a6 85 3d d4 5d 6c 3d dd 9f 58 bd a5 42 39 bd
       0.06525833 0.05770667 -0.052886833 -0.045229573
0003e0 8c 2e b5 3c 66 e0 01 be 28 fd d1 bd 94 86 a9 3c
       0.022116922 -0.12683257 -0.10253364 0.020694055
0003f0 7d e8 c4 bd d1 8c ad bd 27 0e 5d bc 98 d0 76 bc
       -0.09614656 -0.08474124 -0.013492144 -0.015064381

layers.0.bias f4 [23]
000000 dc dc a9 3d 16 2f 8c 3d ff e0 73 bc 38 f8 a9 bd
       0.08294079 0.068449184 -0.014885186 -0.08299297
000010 10 20 90 bd 64 d5 6d 3c 07 bc 6a bd 7b f7 dd 3c
       -0.070373654 0.014516208 -0.057308223 0.027095547
000020 ec 63 11 bd ce 8b 62 bc ea 7b 8c bd fb c3 d0 3d
       -0.035495684 -0.013827277 -0.06859572 0.1019363
000030 89 ee ce 3b 88 0f 8b bd b4 9b c0 3d 79 cc df 3d
       0.0063150567 -0.06790072 0.09404698 0.10927672
000040 91 8a 45 3d e6 62 bf 3d b7 59 9c 3d 3a 76 0c bd
       0.04822785 0.09345035 0.07634299 -0.034292437
000050 1a b8 75 bd 18 a9 76 3a b1 6f 0a bd
       -0.059990026 0.0009409352 -0.033797923

layers.1.weight f4 [250, 23]
000000 80 dc 0a be 9e e6 e8 3d 47 66 2e 3e 42 c3 4e be
       -0.13560677 0.11372112 0.17031203 -0.20191672
000010 c0 bd c2 bd b0 81 f2 bc c6 3a fb 3d f3 b7 00 3e
       -0.09508848 -0.029602855 0.122670695 0.12570171
000020 34 ee 3f 3d 16 15 09 be 9d 38 39 3e d4 57 76 3d
       0.046858028 -0.1338695 0.18088003 0.060142353
000030 18 63 fa bc 40 dc 15 bc e9 19 07 3e ec 83 0c bd
       -0.03056483 -0.00914675 0.13193478 -0.034305498
000040 de 4d a4 bd 70 81 e8 bc 60 e6 a2 3c d0 2b c1 bc
       -0.080226645 -0.028382033 0.019885242 -0.023580462
000050 c0 4a 61 3c 70 80 aa 3c 86 de 8b 3d 49 51 17 be
       0.013750732 0.020813197 0.06829552 -0.14777102
000060 62 33 a3 3d 1d 4f 3b be 75 89 37 be a0 15 7e 3c
       0.07968785 -0.18291898 -0.1792353 0.0155080855
000070 d0 71 c1 bc 45 e1 e5 bd 72 bb 96 bd 20 0f 01 3c
       -0.02361384 -0.112246074 -0.07359971 0.007877141
000080 54 e0 47 3d d5 a7 44 3e af e1 30 3e 24 ca 16 3d
       0.04879792 0.19204648 0.17273591 0.03681387
000090 0e 9b 8a bd 88 86 93 3c c7 99 2f be 38 ef ed 3c
       -0.067678556 0.018008485 -0.17148505 0.029044732
0000a0 44 ff 7f 3d f4 b7 4c be bc 32 c2 bd 18 68 e9 bc
       0.0624993 -0.19992048 -0.09482333 -0.028492019
0000b0 da fa b8 3d d8 ae 07 be 8d 1a c8 3d f7 04 8e 3c
       0.09032221 -0.13250291 0.09770689 0.017336352
0000c0 44 2f e6 3d cc 72 05 be 40 b1 9d 3b fc b2 40 3e
       0.11239484 -0.13032073 0.0048123896 0.18818277
0000d0 3e 31 91 3d f0 5a 45 3e b9 14 08 3e dc 54 bb bc
       0.0708947 0.19272971 0.13289155 -0.022867613
0000e0 4c 10 19 be fb f6 3b be 2d 3e 00 3e 58 36 4d bd
       -0.14947623 -0.18355934 0.12523718 -0.050100654
0000f0 3d 14 99 bd 24 e6 54 bd f0 33 28 3e 93 30 18 bd
       -0.07474563 -0.05197729 0.16426063 -0.0371557
000100 c8 3a 98 bc da 14 dc 3d 1b 09 65 3d 5c 71 1c be
       -0.018582717 0.107461646 0.055916887 -0.15277618
000110 19 6b 10 3e 74 86 84 3c 71 92 a4 bc da 03 93 3d
       0.14103355 0.016177393 -0.02008936 0.07178469
000120 05 04 26 3e 2e f3 23 be ee 63 09 3c 16 7f 0d be
       0.16212471 -0.16010734 0.0083856415 -0.1381801
000130 9a e7 43 be c4 99 61 be 7b f0 90 bc 3e 21 45 be
       -0.19131318 -0.22031313 -0.017692795 -0.19250962
000140 7a 36 2c 3e 13 c0 0a 3e 00 30 a5 3b 55 1f 39 3e
       0.16817656 0.13549833 0.0050411224 0.18078358
000150 2f 76 8b 3c 28 c2 eb 3d f8 3a 02 3e ee a6 38 3e
       0.017024128 0.11511642 0.12717807 0.18032429
000160 06 71 c6 bd d6 28 4c be c8 bd fc bd 38 70 54 3a
       -0.09689526 -0.19937453 -0.123408854 0.000810388
000170 40 3c f4 bc 34 53 89 bd 12 3a 07 be 40 47 7f 3c
       -0.029813886 -0.06705323 -0.13205746 0.015580952
000180 0c 2a 66 bd f4 0b 20 3d c0 9b 07 bc 38 1c e4 bd
       -0.056192443 0.0390739 -0.00827688 -0.11138195
000190 19 e6 49 3e d9 d1 16 3e 08 f1 9e bd 56 91 db 3d
       0.19716682 0.14728488 -0.07760817 0.1072108
0001a0 80 5a b1 bd 18 c1 00 bd 23 f5 2a 3e 9c dd 70 3d
       -0.0865984 -0.03143415 0.16695075 0.058805093
0001b0 d1 07 01 be d4 b0 aa bd a8 bd f8 bd 90 72 64 bd
       -0.12600638 -0.083345085 -0.12145549 -0.055773318
0001c0 a8 ce 03 bd cd dc 18 3e c0 5d e6 3b 3d d5 09 3e
       -0.032179505 0.14927979 0.007030219 0.1346025
0001d0 cc a4 41 3d 73 fc c4 3d 46 de 86 3d 36 89 3f be
       0.047276303 0.09618463 0.06585364 -0.18704686
0001e0 ed 4a b6 bc e0 d9 80 3c d6 84 d5 3d 69 7e 2f be
       -0.022252524 0.01572889 0.10425727 -0.17138065
0001f0 a9 3f a6 bc 2a 17 2f be 90 a0 32 3e 50 d1 40 bd
       -0.020294027 -0.1709868 0.17444062 -0.047074616
000200 80 80 bb bd ea 7c 22 3e a1 53 36 3e e6 c5 03 3e
       -0.09155369 0.15867963 0.1780534 0.12868461
000210 c1 04 22 3e c8 60 5a 3e 5e 18 9c 3d d6 75 1f 3e
       0.15822126 0.21325982 0.07621835 0.15572295
000220 71 1d e9 bd ed 2c 06 be 53 bb e4 bd 72 8a 89 3c
       -0.11382569 -0.13103075 -0.11168542 0.016789649
000230 0b 54 12 be 1c 13 3d 3d d4 f5 92 bd 3b a3 b0 bd
       -0.14289872 0.046160802 -0.07175794 -0.08624884
000240 9d c2 13 3e ad 4f d7 bc d1 72 91 bd 7f a8 13 3e
       0.14429708 -0.02628311 -0.071019776 0.14419745
000250 5a 1b e5 3d 12 22 41 3d 6a f4 32 be c6 5a 03 be
       0.111868575 0.047151633 -0.17476049 -0.12827596
000260 99 0d 2c be a8 cb a5 bd 58 c7 de 3d b0 b0 8f 3d
       -0.16802062 -0.08095485 0.108778656 0.07016122
000270 96 c9 c9 3c e9 93 06 bd 06 80 06 3e 5b 83 6f 3d
       0.024632256 -0.032855902 0.13134775 0.05847488
000280 68 dc 64 bc 6a 89 61 3e e6 a5 30 be 75 3d 0c ba
       -0.013968565 0.22025076 -0.17250785 -0.0005349734
000290 44 f2 af bd 59 c3 cf bd a5 90 5f 3e 0b af 28 3e
       -0.085911304 -0.101446815 0.21832521 0.16473024
0002a0 6a c7 03 3e b2 59 b9 3d ae 91 5d 3e 50 e7 04 bc
       0.12869039 0.09050311 0.21637604 -0.00811179
0002b0 e3 8e 62 3e e1 62 3e 3e 48 2f 10 be 54 fe 32 be
       0.2212482 0.18592407 -0.14080536 -0.17479831
0002c0 77 3c 5b bd 5f 6b 12 3e 6a 4f 26 3e 37 e8 ee 3b
       -0.05352446 0.14298771 0.16241232 0.0072908658
0002d0 1c 17 a8 3d f8 8e 54 bd 7b 8c 9b bc 11 57 49 be
       0.08207533 -0.051894158 -0.018987885 -0.1966212
0002e0 a0 7f 45 be 84 b9 43 3e 0f 12 09 be b2 bb 39 be
       -0.19286966 0.19113737 -0.13385795 -0.18138006
0002f0 eb ba 45 be e5 25 8e 3d 49 c2 1d 3e 6b 56 2c 3e
       -0.19309585 0.069408216 0.15406145 0.16829841
000300 bb fa a1 bc 7d fb 2a be 1b bf 10 3e 42 58 4c 3d
       -0.019772878 -0.16697498 0.14135401 0.049888857
000310 3e dd 30 3e dc 6a 83 bd 71 11 c5 3b 63 0c c4 3c
       0.17271897 -0.06416866 0.006014042 0.023931688
000320 f2 9b 4c bc c0 a0 ae bd 75 39 df bd b8 47 29 be
       -0.012488352 -0.085267544 -0.10899631 -0.16531265
000330 2a fe 03 be 92 a9 c2 bd 8f 60 e3 bc 5a fd 16 3e
       -0.12889925 -0.09504999 -0.027756004 0.14745083
000340 27 6b 53 be 7b d5 56 be c0 8e 7f 3b 8a 00 90 3d
       -0.20646344 -0.20979874 0.0038994998 0.07031353
000350 53 51 da 3d 4c 39 a0 bd bd 9e b2 bd b6 27 2b be
       0.106600426 -0.078234285 -0.08721683 -0.16714367
000360 5e 71 29 be 9a 7b a2 3d 5a 9e dc 3c 22 b5 4a 3d
       -0.16547152 0.079337314 0.026930977 0.049489148
000370 60 a9 29 be f4 b1 8d 3d 0b 49 e9 bc 26 40 32 3d
       -0.16568518 0.069187075 -0.028477212 0.043518208
000380 8c a2 eb 3c ff b2 f7 bd c4 69 ce bc ca da f1 3d
       0.028764032 -0.12094688 -0.025196917 0.11809309
000390 db fa 02 3d 08 70 ea bc c9 8e de 3d a2 77 ea 3d
       0.031977516 -0.028617874 0.10867078 0.114485994
0003a0 f2 2f c1 bd 95 40 3a 3e 3e 92 84 3d 69 1d 84 bd
       -0.09432973 0.18188699 0.06473206 -0.06450922
0003b0 b2 fb a8 3d 57 2a d8 3d 20 74 20 3d 44 b9 90 bd
       0.08251132 0.10554951 0.039173245 -0.070665866
0003c0 00 89 be 3c db 5c 0e be fa 68 2b bd 3e 5a a9 3d
       0.023258686 -0.13902609 -0.04184816 0.082691655
0003d0 59 9f 59 3e 74 20 42 be 3c 3a e5 bd f3 ed 56 3b
       0.21252193 -0.18957692 -0.11192748 0.0032795637
0003e0 ee 7f 22 3e 61 9a 46 be ff b9 53 be ef f1 92 bd
       0.15869114 -0.19394828 -0.2067642 -0.071750514
0003f0 c4 f2 0d 3d bb cb c1 bd fe 96 91 3d 81 6a 19 3e
       0.034655347 -0.09462687 0.071088776 0.14982034

layers.1.bias f4 [250]
000000 0a 3e 23 be 10 f7 37 bd f0 07 37 3e 7e 89 da 3d
       -0.15941635 -0.04491335 0.17874122 0.10670756
000010 f2 ca 4c be f9 41 1d 3e c6 9e 07 3e 0c f2 9e bd
       -0.19999292 0.15357198 0.13244161 -0.077610105
000020 e2 54 6b 3d e6 e6 1d bd 9a 02 34 3d e0 5a 41 be
       0.057453997 -0.03855028 0.043947794 -0.18882322
000030 56 29 f1 bd 04 54 09 be 77 ec 2e 3d 89 41 b2 3d
       -0.11775462 -0.13410956 0.04270598 0.08703906
000040 bb 2f 9b bd 2f 2b 1d 3e bb f0 9e bc 9b d1 27 be
       -0.07577463 0.15348504 -0.019401899 -0.16388552
000050 ea e2 9d bd a7 05 42 3e b6 d1 1c be c4 61 46 bd
       -0.07709296 0.18947469 -0.15314373 -0.04843308
000060 35 11 97 3d 98 32 ad bd a0 db 17 bd d3 7b 02 be
       0.07376329 -0.084569156 -0.037074685 -0.12742548
000070 e4 93 1e be bf 13 a5 3d ea 98 ae bd 32 e6 8d 3c
       -0.15486103 0.08060407 -0.0852526 0.01732168
000080 60 19 ad bc 26 ea 32 3e 98 ce bd 3d 26 07 88 3d
       -0.021130264 0.17472133 0.0926792 0.066419885
000090 b9 e5 3d 3d 65 4a 2b ba 1c 8a 51 3d 74 6d 41 be
       0.04636166 -0.0006534218 0.051157102 -0.1888941
0000a0 9d 1e f8 3d 00 7b 3b bc 70 52 01 be b1 6f 0d 3e
       0.12115214 -0.0114429 -0.12629104 0.13812138
0000b0 e6 79 00 be f6 c0 11 be 26 38 35 3e 8e 5e 33 3e
       -0.125465 -0.14233765 0.176972 0.17516539
0000c0 60 79 7c bd 40 0d 6e bb 3c 93 45 3e 9b 1a bc bc
       -0.06163919 -0.0036323816 0.19294447 -0.022961905
0000d0 4c e0 52 bd ae e8 2c 3e fc af 4f 3e a4 6f 45 3e
       -0.051483437 0.16885635 0.20281976 0.19280869
0000e0 61 e0 04 3e 99 d7 20 3e 48 a3 4f 3e ec 46 46 3e
       0.12976219 0.15707244 0.2027713 0.19362992
0000f0 88 30 02 3e e0 6e df bc 65 c4 be bd 08 a7 a3 bd
       0.12713826 -0.027274549 -0.09314803 -0.07990843
000100 da 15 9c 3d 34 a8 a3 3d 64 96 36 bd ec a0 08 3e
       0.07621355 0.079910666 -0.044577017 0.13342637
000110 81 b5 22 3e 81 01 c8 3d 31 58 be 3d 02 23 38 3e
       0.15889551 0.09765912 0.09294165 0.17982104
000120 1a 3a 75 bd c8 f9 87 bc 9c 6c 0d 3e 70 3c 2f bc
       -0.059869863 -0.016598597 0.13810962 -0.010695562
000130 00 ee dd bd db ae bf 3d 52 be 3c 3e c8 7b 65 bd
       -0.108364105 0.09359523 0.18431976 -0.05602625
000140 a5 cc fc bd fd d6 db 3d 80 d3 39 3d 96 03 35 be
       -0.1234372 0.10734365 0.045367718 -0.17677149
000150 e5 eb ca bc 10 2e bb 3c ca 86 29 be 21 ca cb 3d
       -0.024770686 0.022849113 -0.16555324 0.099506624
000160 49 2b 26 3e f7 c4 36 3e aa 87 00 3e ff 1d 41 be
       0.1622745 0.17848574 0.12551752 -0.18859099
000170 da 5d f7 3d ac dd 56 3e 5a 3e 21 be 2a 87 2f 3d
       0.12078448 0.20982999 -0.15746441 0.042853512
000180 d0 bf e3 bd 40 63 6c bc 83 01 45 3d c3 90 16 be
       -0.1112057 -0.01442796 0.048097145 -0.1470366
000190 9a 02 0d 3e b2 4f 36 be 19 9b c9 3d b0 d3 c9 bc
       0.13770524 -0.17803839 0.09844036 -0.024637073
0001a0 f8 6b f9 bc b8 1c 44 be 94 1c 06 bd b6 e9 be 3d
       -0.030446991 -0.1915158 -0.032742098 0.093219206
0001b0 a0 2e 87 bd 8a a5 8d bd 6e ef 17 be e8 70 5f 3e
       -0.0660069 -0.0691634 -0.14837429 0.21820414
0001c0 3b 3f 49 3e 6b 3c 14 3e b1 4b 48 3d 39 5e 3e be
       0.19653027 0.14476173 0.04890031 -0.1859063
0001d0 3e b2 5e 3c 8a b0 e0 3d df f5 bf 3b 82 74 a2 3d
       0.013592301 0.10971172 0.0058581675 0.07932378
0001e0 e1 75 6d 3d 54 ff 0c 3d 73 7e 07 3e cb db fa bd
       0.057973746 0.034423187 0.1323183 -0.122489534
0001f0 6a b7 a8 3c 80 af 25 3e 10 a6 a2 bd fd 5b 10 bd
       0.020595271 0.16180229 -0.0794183 -0.035243977
000200 a2 40 2f 3e 78 5d d1 3c 00 5f 42 3d ad 1f f0 bd
       0.17114499 0.025557265 0.04745388 -0.11724792
000210 e2 51 8b bd 14 64 36 be 6f c5 50 be 5c d6 1e 3d
       -0.06802727 -0.17811614 -0.20387815 0.038778648
000220 03 3c 1d be 9a fb 56 3e 9d 55 07 bd 97 8f 08 be
       -0.15354924 0.20994416 -0.03304063 -0.13336025
000230 a7 8a c5 3b 81 f3 32 3d 70 28 1f bd 51 28 16 be
       0.0060284915 0.043689255 -0.038856924 -0.14663817
000240 8a ec 14 be 18 22 25 bd 78 09 27 be 58 cf 05 bd
       -0.14543357 -0.040315717 -0.16312206 -0.03266844
000250 88 2c ff bc e7 49 2f be 7e ff 96 3d 97 4a 4b 3c
       -0.031149164 -0.17118035 0.0737295 0.01240792
000260 55 6b 3a be ea 5a ae 3d cc 7b 40 3e cd 97 42 be
       -0.18205006 0.08513434 0.18797225 -0.1900322
000270 2c 48 3e 3e 20 d1 4f bd 94 5f 26 3e 40 de 96 3d
       0.18582219 -0.050736547 0.16247398 0.073666096
000280 51 02 cb 3d fe 7b b3 3d 6b 62 52 be bc 1f 8a bc
       0.09912551 0.08763884 -0.20545356 -0.016860835
000290 34 31 f8 3c 49 db ec bd 90 c5 8d bd 04 73 45 bc
       0.0302969 -0.11565263 -0.06922448 -0.012051348
0002a0 67 2b 2d 3e 44 d8 4b 3e ae 0e 0f be 02 40 45 be
       0.16911088 0.19906718 -0.13970444 -0.19262698
0002b0 3d fd dd 3d b0 25 41 3e 22 b4 8a 3d 06 7f 1a 3e
       0.10839317 0.18862033 0.06772639 0.15087518
0002c0 36 40 01 be cf 8a e9 3d 18 cf 8b bd 1d 5b bc bd
       -0.12622151 0.11403429 -0.068266094 -0.09197066
0002d0 60 6f bb 3d a2 27 9a 3c f5 a4 ff bd 26 09 18 3e
       0.091521025 0.018817727 -0.12482635 0.1484724
0002e0 16 96 cf bd 96 4b 41 3e 57 5d 92 bb 9c 69 a2 3d
       -0.101360485 0.1887649 -0.0044666934 0.079303
0002f0 4b 36 c2 bd 40 dc 54 bb d0 f7 84 3c e9 13 29 be
       -0.09483012 -0.0032479912 0.016231447 -0.16511501
000300 50 ee 24 bc 76 48 46 be 8b 0f c8 bd 3c 3b 23 3e
       -0.010066584 -0.19363579 -0.097685896 0.15940565
000310 a9 49 57 3e 10 0f 7b 3d 52 e5 58 3d 24 63 82 bd
       0.21024193 0.06129366 0.052953072 -0.06366566
000320 05 45 ad 3d 17 5f fb 3c 01 ab 45 3e 5c 7f b6 bd
       0.0846043 0.03068499 0.19303514 -0.089110106
000330 17 4d 36 be d9 c7 55 3d e5 6f 3e be ab cd 1a be
       -0.17802845 0.052192543 -0.18597372 -0.15117519
000340 54 02 21 be 89 34 55 bd 3e e1 04 be 3b f6 b2 3c
       -0.15723544 -0.052052055 -0.12976548 0.021845927
000350 9d 77 eb bd 80 9f 7e bd a8 27 be bd 75 2f 87 3d
       -0.11497424 -0.06216383 -0.092849076 0.066008486
000360 1a 86 8b 3c db e6 45 be 6a 6c cd bd bd f4 11 3d
       0.017031718 -0.19326346 -0.10030444 0.03563379
000370 3c e4 bb bd a7 91 b2 bd 03 c2 32 3b e7 44 43 bc
       -0.091743916 -0.08719187 0.0027276285 -0.011918283
000380 f4 32 0b 3d d8 eb 1e be 68 82 45 3c 69 f5 37 be
       0.03398414 -0.15519655 0.012055017 -0.1796471
000390 d5 fe 5b 3e 03 cf 28 3e 36 d4 50 3c 19 5d 9b 3d
       0.2148393 0.16485219 0.0127459075 0.07586116
0003a0 61 59 48 3e c8 db eb 3c fa ce d5 3d b8 eb d8 3d
       0.19565345 0.028791323 0.10439868 0.10591835
0003b0 39 aa 75 3d 5c 11 16 be 5c bf 46 3e 9c 07 18 be
       0.05997679 -0.1465506 0.19408935 -0.14846653
0003c0 a2 ad 3b 3d 23 27 43 3e 60 0b d1 3d 93 c9 f3 bd
       0.045819886 0.19057898 0.10207248 -0.119036816
0003d0 6e 2c 29 3d 40 09 6f bd 1c 18 a7 3d d2 5d 92 3d
       0.041302137 -0.05835843 0.081588954 0.07146801
0003e0 f5 05 cd bd 7a c9 4f be
       -0.10010902 -0.20291701
