critic.pth (torch, 65534 bytes, 5 tensors)

layers.0.weight f4 [64, 180]
-0.00047541785 0.037491985 0.044035852 0.07569215 0.04235294 0.045480315 0.09016784 0.06754493
0.012828788 -0.050390624 -0.015409567 0.081186675 -0.05328033 -0.014499808 -0.021274842 -0.08445221
0.002152425 0.016693257 0.05616716 0.052094106 -0.025458671 -0.10821454 0.024675347 0.061104126
0.05807781 -0.018424654 0.015049452 0.011361996 -0.06585819 -0.050465558 -0.074433446 0.08833968
-0.09467425 0.03968882 -0.0667371 -0.033764802 -0.063799 0.032232117 0.036949784 -0.019224891
-0.0058481665 0.034695912 0.042405386 -0.010213562 -0.028501604 -0.1363798 0.048510674 -0.09097594
-0.028466837 0.022679051 0.053922903 0.044291988 0.060817476 0.057012156 0.019939277 -0.09386225
-0.06837561 -0.05611783 -0.0035905591 -0.050127264 -0.041752312 0.04008904 0.103858575 0.048589285
-0.0046931133 0.04417515 0.13658196 0.099695235 -0.0054043466 0.05436048 0.012655244 0.022876175
-0.03720753 -0.09356641 -0.06814816 -0.03889295 -0.034271207 0.011404944 0.017974937 0.022222256
0.07324694 0.07164251 0.023138715 -0.039840538 0.057595395 0.0059909867 -0.037134413 -0.035073236
-0.08692188 -0.025612053 -0.033861425 -0.033195376 0.02622721 -0.07742154 0.005403114 -0.04651665
0.050352994 -0.10771539 -0.06040777 0.03213659 -0.06653586 -0.03794443 -0.055717405 0.013943581
-0.119607754 -0.0032647985 -0.019649943 -0.06455877 0.04545028 -0.07139411 0.044853542 -0.043970335
-0.030623173 -0.07197484 -0.11531238 -0.05339509 -0.031428635 0.07143202 0.053133264 0.000853616
-0.010130886 0.032442227 0.10585792 0.05103811 0.01785585 0.11443333 0.14292438 -0.0038339773
0.01849778 -0.041852377 -0.01235521 -0.028993318 0.022663109 0.026327267 0.061925337 -0.0465345
-0.015569416 -0.028239416 0.0014842283 -0.08379666 -0.00850899 -0.03835088 0.016305316 -0.046317566
-0.05562436 -0.017594103 -0.0736099 0.054063525 0.024499482 0.06633062 -0.015031637 0.028550882
-0.0089462465 0.010626414 0.014858301 0.023407213 0.04671558 -0.03110235 -0.10175328 -0.056633044
0.0741145 -0.05058668 -0.06155058 -0.014673218 0.03235179 -0.04239528 -0.00984217 0.039109863
-0.008455871 -0.023435691 0.012092011 0.013818393 0.034405246 -0.041613564 -0.10123548 -0.17084913
-0.09659906 -0.019798912 0.037343062 -0.06294266 0.08163563 0.12917922 0.044821 0.054956906
0.09234936 0.08426022 0.07157952 -0.01367034 0.08954687 0.042337324 -0.018813042 0.0028696924
0.02497532 0.046675008 0.057838835 0.023953198 0.058169942 0.0200449 -0.030714879 -0.033854824
-0.025233004 0.046836372 -0.07341043 -0.07734246 -0.0016414989 0.0581981 0.06567306 0.08339577
-0.049206953 0.031808235 -0.017935049 0.007761297 -0.005719991 -0.018487485 0.07981365 -0.013075443
0.0589566 0.09665394 0.059940103 0.07689299 0.09687954 0.12746286 0.037809744 0.10597595
0.11213883 0.04758886 0.0676755 0.07394034 0.023103457 -0.012867645 0.0010735649 0.0030092066
0.04834216 -0.046737242 -0.05137549 0.08082657 0.05264014 -0.034595456 0.0374908 0.008857574
0.10159865 0.12879431 0.024663454 0.060256906 0.11375535 0.099137776 0.048274565 0.089421675
0.04993881 0.07701548 0.043369077 0.067824624 0.023237012 -0.03327647 0.009021525 -0.04474846
00000000: 8141 f9b9 3291 193d f05e 343d 7c04 9b3d
00000010: 477a 2d3d 9149 3a3d eba9 b83d ff54 8a3d
00000020: d62f 523c 6666 4ebd 6978 7cbc 3345 a63d
00000030: 7a3c 5abd 9a90 6dbc 9448 aebc 48f5 acbd
00000040: b30f 0d3b 4cc0 883c 890f 663d a160 553d
00000050: b48e d0bc 969f ddbd f423 ca3c 5248 7a3d
00000060: ffe2 6d3d 4def 96bc fa91 763c aa27 3a3c
00000070: a9e0 86bd f9b4 4ebd 9070 98bd 6feb b43d
00000080: 93e4 c1bd be90 223d 76ad 88bd f64c 0abd
00000090: 0da9 82bd d305 043d a858 173d 857d 9dbc
000000a0: faa1 bfbb 4d1d 0e3d 45b1 2d3d c956 27bc
000000b0: 327c e9bc 25a7 0bbe 21b3 463d 9851 babd
000000c0: 4933 e9bc 6bc9 b93c 43de 5c3d 846b 353d
000000d0: bf1b 793d 9485 693d b257 a33c da3a c0bd
000000e0: 8308 8cbd cfdb 65bd 964f 6bbb 3f52 4dbd
000000f0: 7904 2bbd 6834 243d ceb3 d43d 8f05 473d
00000100: b0c8 99bb 01f1 343d 24dc 0b3e 042d cc3d
00000110: f216 b1bb 18a9 5e3d f157 4f3c d166 bb3c
00000120: ec66 18bd bf9f bfbd 4391 8bbd 374e 1fbd
00000130: f75f 0cbd cddb 3a3c 2d40 933c 730b b63c
00000140: 7e02 963d 4fb9 923d 678d bd3c d52f 23bd
00000150: 26e9 6b3d 0a50 c43b 411a 18bd f4a8 0fbd
00000160: 1904 b2bd 5ed0 d1bc 47b2 0abd e0f7 07bd
00000170: 72da d63c 2f8f 9ebd 9b0c b13b 3e88 3ebd
00000180: f13e 4e3d e399 dcbd 236e 77bd a8a1 033d
00000190: f443 88bd 9e6b 1bbd ef37 64bd 9e73 643c
000001a0: e9f4 f4bd 3bf6 55bb ebf8 a0bc 6337 84bd
000001b0: 132a 3a3d 1337 92bd 59b8 373d 3d1a 34bd
000001c0: 73dd fabc 8b67 93bd e628 ecbd cfb4 5abd
000001d0: 50bb 00bd f34a 923d 44a2 593d 33c5 5f3a
000001e0: 04fc 25bc 24e2 043d 0acc d83d 560d 513d
000001f0: 6e46 923c 065c ea3d c55a 123e 7743 7bbb
00000200: a888 973c 666d 2bbd 826d 4abc 6583 edbc
00000210: fca7 b93c 48ac d73c 6ca5 7d3d f69a 3ebd
00000220: dd16 7fbc 5956 e7bc 708a c23a 959d abbd
00000230: 4a69 0bbc d015 1dbd ba92 853c 7db7 3dbd
00000240: 5ed6 63bd 8221 90bc cac0 96bd b771 5d3d
00000250: 23b3 c83c 59d8 873d 4147 76bc 8ae3 e93c
00000260: 4793 12bc 691a 2e3c 3b70 733c 7cc0 bf3c
00000270: d658 3f3d 5bca febc 0664 d0bd 0df8 67bd
00000280: 58c9 973d fb33 4fbd 761c 7cbd f067 70bc
00000290: 5083 043d aca6 2dbd 0e41 21bc aa31 203d
000002a0: 7e8a 0abc 35fc bfbc 921d 463c 8b66 623c
000002b0: 84ec 0c3d fc72 2abd 8c54 cfbd 13f3 2ebe
000002c0: bad5 c5bd 5431 a2bc 0af5 183d 15e8 80bd
000002d0: 9530 a73d 8f47 043e 3a96 373d 7e1a 613d
000002e0: a921 bd3d 9f90 ac3d 4998 923d 90f9 5fbc
000002f0: 5964 b73d e769 2d3d cf1d 9abc 7311 3c3b
00000300: 0b99 cc3c 4b2e 3f3d 6ae8 6c3d 7f39 c43c
00000310: 9b43 6e3d 3435 a43c c59d fbbc 5bab 0abd
00000320: 72b5 cebc 7fd7 3f3d 3558 96bd b965 9ebd
00000330: 9027 d7ba 2261 6e3d 997f 863d 67cb aa3d
00000340: 3b8d 49bd 5a49 023d 86ec 92bc 7a52 fe3b
00000350: c36e bbbb 1173 97bc 5775 a33d 623a 56bc
00000360: 7a7c 713d 80f2 c53d c183 753d 127a 9d3d
00000370: c868 c63d a085 023e 64de 1a3d eb09 d93d
00000380: 0ba9 e53d 89ec 423d 7499 8a3d 086e 973d
00000390: 7643 bd3c d1d2 52bc dcb6 8c3a 1c36 453b
000003a0: 6e02 463d 8d6f 3fbd 1b6f 52bd 6788 a53d
000003b0: 309d 573d f7b3 0dbd f48f 193d 5c1f 113c
000003c0: f412 d03d a8e2 033e 030b ca3c f2cf 763d
000003d0: 91f8 e83d bf08 cb3d 8dbb 453d b622 b73d
000003e0: a38c 4c3d 4bba 9d3d c6a3 313d a3e7 8a3d
000003f0: 8c5b be3c e84c 08bd 05cf 133c 294a 37bd

layers.0.bias f4 [64]
-0.012948848 0.13276748 0.017038465 0.05869733 0.083457515 0.0028712007 0.14244023 -0.032464933
0.008943631 0.114084095 0.003876356 0.07344369 0.11429977 0.053694636 0.12385716 0.07875259
0.104077965 0.010652381 0.08763762 0.05261708 0.011713091 0.044116404 0.099358074 0.12593016
0.08920674 0.072092995 0.12754346 0.032499954 0.033197425 0.122466095 0.0890485 0.011797891
0.10222169 -0.0052637723 0.06307955 0.06962964 -0.0016959874 0.09835584 0.13106297 -0.05165667
-0.020784715 0.0947904 0.113082424 -0.051228393 0.12754999 0.1317631 -0.015988369 0.031270523
0.044957507 0.013590555 -0.0016104692 0.10054166 0.11072413 -0.0808756 0.044151343 -0.0025462771
0.11027695 0.043671973 -0.06913665 0.07692829 0.08855684 0.064790934 0.07598379 0.0052362033
00000000: 6827 54bc 33f4 073e 4094 8b3c 9d6c 703d
00000010: c6eb aa3d c12a 3c3b dadb 113e f3f9 04bd
00000020: 4f88 123c eca4 e93d 760a 7e3b a569 963d
00000030: ff15 ea3d e8ee 5b3d d3a8 fd3d 0a49 a13d
00000040: d426 d53d 5387 2e3c 5a7b b33d 0285 573d
00000050: 44e8 3f3c 67b3 343d 3f7c cb3d d6f3 003e
00000060: 06b2 b63d 7ea5 933d c19a 023e ac1e 053d
00000070: 06fa 073d 81cf fa3d 0f5f b63d f14b 413c
00000080: 9b59 d13d b97b acbb da2f 813d fc99 8e3d
00000090: e54b deba c96e c93d 5f35 063e f295 53bd
000000a0: b544 aabc 7821 c23d c297 e73d ddd4 51bd
000000b0: 779c 023e e8ec 063e 0afa 82bc 8515 003d
000000c0: 5d25 383d ebaa 5e3c 6116 d3ba c9e8 cd3d
000000d0: 55c3 e23d 1ba2 a5bd 0ad8 343d 71df 26bb
000000e0: e2d8 e13d 62e1 323d 8497 8dbd 948c 9d3d
000000f0: 4a5d b53d 1cb1 843d 649d 9b3d 7594 ab3b

layers.1.weight f4 [64, 64]
0.087391526 0.13540162 0.043940607 -0.050804008 0.17302032 0.080951884 0.057721023 -0.14930882
0.057880934 0.03028436 0.047872342 0.11937974 0.008876939 0.105861194 0.06194959 0.10162133
-0.0007101946 -0.003694769 0.07237621 0.021308735 0.1366695 0.13574375 0.1283729 0.032482743
-0.086813256 0.08274998 0.09490825 0.03353794 -0.03402218 0.12706557 0.11515066 0.08673379
-0.0175906 0.1389114 -0.020150077 0.016885253 -0.078987725 0.013084988 0.0346981 -0.108885184
-0.06840783 0.09695187 -0.021986434 -0.007729888 0.003418907 0.1174601 -0.085346036 -0.04632883
0.033722643 0.046582367 0.052297555 0.05387231 0.067994125 -0.118418545 -0.023244068 0.03821491
0.14573137 0.040900398 -0.18852594 0.031594153 0.004958636 0.13759583 0.14595875 0.08553697
0.031807166 0.009256314 0.09986622 0.10380672 0.04996217 -0.08404928 -0.039894428 -0.0037856828
-0.04569204 -0.107008725 0.07080842 0.075630225 0.046418637 -0.10954108 -0.011964448 0.051870365
-0.08231119 -0.008785883 -0.017509598 -0.048653893 -0.08924229 -0.047079153 -0.0245095 -0.035192937
0.06110737 0.014806855 -0.036861133 0.0611791 -0.019465284 0.121299155 0.06333463 -0.040845413
-0.11371948 0.029719114 -0.06950088 0.10250186 0.091260046 -0.003734264 -0.09988235 -0.0036459514
-0.109053954 -0.0072962055 0.013339744 0.05677181 0.11279786 -0.11958176 -0.06877681 0.09292393
0.06276014 -0.077833 0.05595172 -0.0868799 -0.10075078 -0.085912794 -0.023601962 -0.055099316
-0.058105182 -0.028484957 -0.059944123 -0.08715615 -0.11160721 0.010280154 -0.014336247 -0.053671617
-0.106796354 -0.00828847 -0.038760487 0.07434742 0.04692684 -0.06439107 0.039263833 0.04236215
-0.12109792 -0.04042178 0.022817532 -0.051118355 0.05315969 0.031697787 0.075120315 0.07617336
-0.05413209 -0.100806296 0.0952401 -0.0018251236 -0.010478228 0.046508003 -0.041377194 -0.04876835
0.10125045 0.0043124263 -0.043705765 0.027972842 0.09620351 0.05210212 0.07808965 0.08206966
-0.07720872 -0.038979836 -0.095682986 -0.003477283 -0.014934177 0.09472144 -0.064795494 -0.071216874
0.008002626 -0.10447212 -0.04809262 1.0388858e-05 0.07800829 0.088787496 -0.12141994 0.08467918
-0.061794497 0.0505738 0.034964982 0.008671425 -0.12656355 0.0675671 -0.09317693 -0.06100615
-0.12908414 -0.04133739 0.06987748 -0.038228557 -0.012013345 -0.011460223 -0.019384293 -0.01362082
-0.00066424697 -0.03282154 -0.12065969 -0.061489597 0.105812915 0.05969917 0.07622852 0.011765347
-0.13151571 -0.09651976 -0.010494066 -0.044700712 0.023560286 -0.1268012 -0.11008649 0.06358
-0.034216736 -0.03133009 0.06470152 -0.09773776 -0.04262596 -0.09449851 0.029269235 0.078789085
0.020527162 0.088872395 0.057232324 -0.043326847 -0.03075619 0.0047925687 0.082918614 -0.13302732
-0.014856523 0.056920264 -0.03945395 -0.07903561 -0.0051311944 0.049538147 0.06931511 0.036044043
0.10128351 0.050867997 -0.036374576 0.014938583 0.109755196 0.04321977 -0.083318554 0.08611979
-0.068335 -0.067966275 0.06896145 0.008457287 -0.077268265 -0.040004175 -0.08362472 -0.08208314
0.08053388 0.032481063 0.0487834 0.040485233 0.03980009 0.03446528 -0.028645664 0.098400034
00000000: 54fa b23d b9a6 0a3e 11fb 333d dd17 50bd
00000010: 3d2c 313e 1aca a53d e16c 6c3d 69e4 18be
00000020: 8f14 6d3d e816 f83c ca15 443d 5d7d f43d
00000030: 9570 113c c1cd d83d dabe 7d3d d81e d03d
00000040: 5a2c 3aba f023 72bb fa39 943d a88f ae3c
00000050: 17f3 0b3e 6900 0b3e 2f74 033e a00c 053d
00000060: 26cb b1bd d278 a93d 425f c23d 145f 093d
00000070: d75a 0bbd 7a1d 023e 1cd4 eb3d 7ca1 b13d
00000080: 291a 90bc ca3e 0e3e c611 a5bc f152 8a3c
00000090: 51c4 a1bd 6b62 563c 981f 0e3d 32ff debd
000000a0: 6819 8cbd b48e c63d e51c b4bc 004b fdbb
000000b0: be0f 603b ec8e f03d e7c9 aebd 4dc3 3dbd
000000c0: c120 0a3d 27cd 3e3d f635 563d 36a9 5c3d
000000d0: 8140 8b3d 6c85 f2bd 586a bebc 3d87 1c3d
000000e0: 9b3a 153e 2d87 273d f20c 41be df68 013d
000000f0: 0e7c a23b ece5 0c3e 3676 153e 022e af3d
00000100: 3b48 023d cba7 173c a986 cc3d 9e98 d43d
00000110: 22a5 4c3d 0722 acbd 5768 23bd 3819 78bb
00000120: 9427 3bbd 6427 dbbd 0104 913d 05e4 9a3d
00000130: 7821 3e3d 1357 e0bd 8806 44bc 0576 543d
00000140: c592 a8bd aaf2 0fbc 4a70 8fbc 4e49 47bd
00000150: a9c4 b6bd 12d6 40bd 26c8 c8bc 7826 10bd
00000160: b94b 7a3d 7398 723c b3fb 16bd f096 7a3d
00000170: a975 9fbc b16b f83d 96b5 813d 854d 27bd
00000180: c2e5 e8bd 8075 f33c 7a56 8ebd 7fec d13d
00000190: 8ce6 ba3d 8eba 74bb 1e8f ccbd eaf0 6ebb
000001a0: ae57 dfbd 0215 efbb f18e 5a3c 8f89 683d
000001b0: 9002 e73d 48e7 f4bd dbda 8cbd e74e be3d
000001c0: 6388 803d e866 9fbd a12d 653d 17ee b1bd
000001d0: 6d56 cebd 0cf3 afbd e758 c1bc d2af 61bd
000001e0: b3ff 6dbd 4959 e9bc f887 75bd ec7e b2bd
000001f0: 5292 e4bd 176e 283c 94e2 6abc c5d6 5bbd
00000200: 0cb8 dabd 5dcc 07bc 51c3 1ebd 7643 983d
00000210: 5c36 403d 77df 83bd 1dd3 203d ef83 2d3d
00000220: 3002 f8bd 4f91 25bd d5eb ba3c 7b61 51bd
00000230: fabd 593d 8ad5 013d aed8 993d c700 9c3d
00000240: 9cb9 5dbd 8873 cebd 3e0d c33d fc38 efba
00000250: e0ac 2bbc 2d7f 3e3d 227b 29bd 52c1 47bd
00000260: 655c cf3d 414f 8d3b d104 33bd 4d27 e53c
00000270: 5906 c53d 0869 553d 77ed 9f3d 2314 a83d
00000280: 9b1f 9ebd 52a9 1fbd 71f5 c3bd 21e3 63bb
00000290: 7aae 74bc 50fd c13d 80b3 84bd 27da 91bd
000002a0: 721d 033c 7bf5 d5bd c4fc 44bd ce4b 2e37
000002b0: cfc2 9f3d 38d6 b53d 04ab f8bd 476c ad3d
000002c0: 3a1c 7dbd 7926 4f3d 7137 0f3d 9812 0e3c
000002d0: e099 01be 9f60 8a3d 8cd3 bebd 96e1 79bd
000002e0: a22e 04be 6551 29bd ed1b 8f3d 8c95 1cbd
000002f0: 9fd3 44bc a9c3 3bbc cfcb 9ebc dc29 5fbc
00000300: dc20 2eba e16f 06bd 6d1c f7bd 84dc 7bbd
00000310: 71b4 d83d 1e87 743d b31d 9c3d 71c3 403c
00000320: 0eac 06be 27ac c5bd 4eef 2bbc 1818 37bd
00000330: 8001 c13c 2cd8 01be 0775 e1bd 3b36 823d
00000340: d926 0cbd fb53 00bd 3b82 843d bc2a c8bd
00000350: 8f98 2ebd 6f88 c1bd 09c6 ef3c 2c5c a13d
00000360: 9428 a83c bb02 b63d 716c 6a3d 7e77 31bd
00000370: 68f4 fbbc fb0a 9d3b 3cd1 a93d 5038 08be
00000380: c668 73bc 3925 693d 779a 21bd 6cdd a1bd
00000390: 9423 a8bb 83e8 4a3d 15f5 8d3d eba2 133d
000003a0: bb6d cf3d f65a 503d 82fd 14bd f5c0 743c
000003b0: 55c7 e03d 3707 313d eba2 aabd 935f b03d
000003c0: 38f3 8bbd e731 8bbd a93b 8d3d 6f90 0a3c
000003d0: d33e 9ebd 6bdb 23bd 7043 abbd 351b a8bd
000003e0: f2ee a43d dd0a 053d 1ad1 473d d8d3 253d
000003f0: 6b05 233d 772b 0d3d 50aa eabc f585 c93d

layers.1.bias f4 [64]
0.13280526 -0.020920172 0.028351454 -0.07220991 0.111035496 0.037725255 0.020202037 0.054614387
0.09100747 -0.06435634 0.10153713 -0.081111886 -0.045650255 -0.051039077 -0.014458889 -0.047359724
-0.0053546056 0.13807938 -0.058412787 0.057940483 -0.052607186 0.11444246 0.048833042 0.07708731
-0.020734606 0.0023509134 0.0740903 0.10297529 -0.002216324 -0.01326078 0.18636332 -0.122962154
-0.011548804 0.065124996 -0.07225789 -0.12084595 -0.00418517 0.16622314 -0.029782362 0.07494156
-0.094249606 -0.019325428 0.059194576 -0.023281207 -0.117930226 0.09765656 0.043366343 0.0013644957
-0.036305584 -0.0077413837 0.15809855 0.04482296 0.088962086 0.14061433 0.06242829 0.046007864
-0.008005347 0.15831207 0.041514955 -0.04285334 0.03926115 -0.049883947 0.051498123 -0.058411065
00000000: 1afe 073e c860 abbc 4f41 e83c cae2 93bd
00000010: 9466 e33d cc85 1a3d be7e a53c 56b3 5f3d
00000020: 2062 ba3d 42cd 83bd b3f2 cf3d fd1d a6bd
00000030: c3fb 3abd 5a0e 51bd fae4 6cbc 45fc 41bd
00000040: b075 afbb ae64 0d3e 3f42 6fbd 0053 6d3d
00000050: a27a 57bd cf60 ea3d 2805 483d f4df 9d3d
00000060: 9fdb a9bc c811 1a3b a8bc 973d b5e4 d23d
00000070: bf3f 11bb be43 59bc 07d6 3e3e 95d3 fbbd
00000080: 3237 3dbc 4160 853d f2fb 93bd 157e f7bd
00000090: c023 89bb 6636 2a3e 24fa f3bc f67a 993d
000000a0: f005 c1bd 5c50 9ebc 0376 723d 3bb8 bebc
000000b0: 6785 f1bd 2a00 c83d e8a0 313d e1d8 b23a
000000c0: 2ab5 14bd 6fab fdbb 96e4 213e 4898 373d
000000d0: c131 b63d 34fd 0f3e ceb4 7f3d be72 3c3d
000000e0: dc28 03bc 8f1c 223e 960b 2a3d fc86 2fbd
000000f0: 4dd0 203d 1c53 4cbd b2ef 523d 7140 6fbd

layers.2.weight f4 [1, 64]
0.13888653 -0.12123168 -0.0985752 -0.039648358 -0.10587295 -0.09529325 -0.02432352 0.112290405
0.11097047 -0.065689 -0.052635625 0.034110863 0.14684795 -0.057847906 0.16775782 -0.13188171
-0.04611972 0.15137416 0.11530381 -0.060260795 0.07627435 0.078240246 0.15798861 0.11146432
0.103517935 -0.082935564 0.17890805 -0.009931749 -0.010141553 -0.0069050184 0.1666959 -0.05140998
0.14614266 -0.10261596 -0.079862855 -0.040189452 -0.012888332 0.16855171 0.07378236 0.17581756
-0.09400659 0.10140119 0.0151200835 0.16142274 -0.09644461 -0.0756337 0.10362153 -0.06864495
0.1262583 0.051588748 0.14860365 0.07711876 -0.0038944734 0.062062915 -0.074558 0.06282166
-0.0627284 0.16899002 0.096528344 0.12986168 0.096939355 -0.0152130015 0.16654748 -0.058284618
00000000: 4538 0e3e 5148 f8bd cbe1 c9bd 5166 22bd
00000010: ebd3 d8bd 1c29 c3bd 1e42 c7bc 83f8 e53d
00000020: 7c44 e33d f487 86bd 7498 57bd d5b7 0b3d
00000030: 4f5f 163e edf1 6cbd b5c8 2b3e 000c 07be
00000040: 08e8 3cbd d401 1b3e 6724 ec3d 06d4 76bd
00000050: ba35 9c3d 6c3c a03d c4c7 213e 6847 e43d
00000060: 3601 d43d 1fda a9bd ac33 373e c6b8 22bc
00000070: c228 26bc 7e43 e2bb 54b2 2a3e 4593 52bd
00000080: 6ca6 153e 5128 d2bd 238f a3bd b29d 24bd
00000090: 9529 53bc d298 2c3e 351b 973d 8509 343e
000000a0: 8786 c0bd 6dab cf3d 3aba 773c 014c 253e
000000b0: c084 c5bd d7e5 9abd 8637 d43d b995 8cbd
000000c0: db49 013e b94e 533d 8e2b 183e 71f0 9d3d
000000d0: 6c3a 7fbb af35 7e3d ddb1 98bd a4a8 803d
000000e0: bf77 80bd b80b 2d3e a7b0 c53d 76fa 043e
000000f0: 2488 c63d f43f 79bc 6c8b 2a3e dabb 6ebd
