critic.pth (torch, 35326 bytes, 5 tensors)

layers.0.weight f4 [64, 62]
-0.028517446 -0.06500849 -0.16472536 0.26110682 -0.051466193 0.22604127 0.0033109349 0.07145345
0.02736766 0.08207218 0.081751384 0.062551 0.119500585 -0.1777403 -0.08605146 0.15527776
0.15917325 0.07896185 -0.061607376 0.0055274316 0.010506286 0.05859881 0.16180354 0.118072845
-0.22791564 0.1442087 0.14254421 -0.106272 -0.10838185 -0.079671726 -0.14552459 -0.01951542
0.2292801 0.008459762 0.02047591 0.004107418 -0.11864801 -0.09667993 0.061054014 0.17340432
0.017539183 -0.05191269 -0.15417744 0.0385645 -0.047562364 -0.061660614 -0.09623895 0.008553923
0.09096058 -0.1727623 0.26622605 0.03798842 -0.0011253085 0.11574128 0.009416508 -0.14155276
-0.087005414 0.058252074 -0.13363366 0.052055407 0.08804928 0.124910824 0.038222 0.24110065
-0.19046953 -0.12598683 -0.022048056 0.2231034 0.22508726 0.051688444 -0.04161668 -0.26126477
-0.23029517 -0.016804215 0.12155985 -0.030786283 -0.11767152 -0.14355357 -0.07384826 0.275407
-0.06580918 -0.11400753 -0.19157113 -0.061703112 -0.055848848 0.16178985 -0.045873906 -0.10651701
-0.05467079 0.06680241 -0.008715607 -0.07129799 -0.086278215 0.015716307 -0.040930867 0.011131577
0.05232015 -0.14895298 0.16138795 -0.0040642926 -0.045502204 0.26814014 0.039120965 -0.0017812888
-0.13468654 -0.11885442 -0.11269253 0.16232485 -0.067036435 -0.087649435 0.13109797 0.20124324
-0.11062465 0.104589015 -0.1292244 0.06482564 0.013600861 -0.027312314 0.06200971 -0.03562181
-0.06026931 0.010533367 0.017677188 0.15331125 -0.06304101 0.19711049 -0.09228843 0.04990424
0.11112679 0.08738652 -0.07140456 0.025824785 -0.11604769 0.030110897 -0.13519488 0.047696576
-0.22413747 0.02865251 0.018855076 -0.023307445 0.0668535 0.07404694 -0.05167284 -0.062075272
-0.1885039 0.08197316 -0.01665221 0.006972051 0.026836192 0.1670437 0.15476373 0.23478572
-0.09437153 0.03490407 -0.05690828 -0.0775218 -0.089714885 -0.088227876 -0.0076707704 0.13711989
-0.26654804 0.14370672 0.24969187 0.06406338 -0.1964633 -0.04400436 0.02223037 -0.19601312
-0.00017057016 -0.16453576 0.39108962 0.09112985 -0.037075907 0.06807695 0.097197905 0.08504143
-0.105548434 -0.11035951 -0.027499858 0.15605983 -0.09035216 0.19014032 0.18527833 0.0042927805
0.16936527 0.07697589 0.13883932 0.0018993702 -0.024318954 -0.10229279 -0.008756 0.03369408
-0.021564582 -0.08620595 -0.14494257 0.14261693 0.029695906 0.21448155 0.024016822 -0.018687513
-0.05741173 -0.11312651 -0.2287174 0.14299913 0.23073362 0.11305139 0.015043114 -0.050615475
0.06154088 0.07755414 0.2539207 -0.12184657 -0.113092534 0.18329796 -0.10375003 -0.009268115
0.048016075 -0.2265732 0.15902586 -0.15670891 -0.120059386 -0.04034963 0.18149337 -0.17360413
-0.0939505 -0.020276804 -0.27177903 -0.034530476 0.11204231 -0.18447164 0.017636392 -0.10905132
-0.009549356 -0.12888516 0.006449783 -0.06512165 0.06615917 0.16108562 0.16395015 -0.033171725
-0.14675367 -0.14573237 0.088132694 0.059734397 0.009310609 -0.108381525 -0.03412854 -0.1545029
0.032140184 0.055054754 0.13362387 0.107227154 0.04962576 -0.03101171 0.041308712 -0.018627899
00000000: 6b9d e9bc 2c23 85bd c4ad 28be cbaf 853e
00000010: 37ce 52bd 5d77 673e 45fc 583b 3056 923d
00000020: 2532 e03c 7615 a83d 456d a73d bd1a 803d
00000030: b9bc f43d 8e01 36be bf3b b0bd 2201 1f3e
00000040: 50fe 223e c0b6 a13d 0458 7cbd 751f b53b
00000050: 8f22 2c3c 4e05 703d d4af 253e 2dd0 f13d
00000060: b862 69be 72ab 133e 1cf7 113e 22a5 d9bd
00000070: 4ef7 ddbd ee2a a3bd 6604 15be cdde 9fbc
00000080: 67c8 6a3e d09a 0a3c 18bd a73c 8597 863b
00000090: bafd f2bd 2100 c6bd c613 7a3d e790 313e
000000a0: 55ae 8f3c 67a2 54bd b1e0 1dbe cff5 1d3d
000000b0: c1d0 42bd d78f 7cbd ed18 c5bd c125 0c3c
000000c0: 8a49 ba3d 9ae8 30be c84e 883e bf99 1b3d
000000d0: 167f 93ba c409 ed3d b247 1a3c 35f3 10be
000000e0: e52f b2bd ba99 6e3d 43d7 08be 0d38 553d
000000f0: 2e53 b43d 3fd1 ff3d ac8e 1c3d 17e3 763e
00000100: 720a 43be b102 01be 209e b4bc 3875 643e
00000110: 467d 663e 43b7 533d 4076 2abd 7fc4 85be
00000120: 7fd2 6bbe fea8 89bc 5ff4 f83d 8433 fcbc
00000130: c4fd f0bd b5ff 12be c23d 97bd 2502 8d3e
00000140: f7c6 86bd c87c e9bd 392b 44be 67bc 7cbd
00000150: c3c1 64bd 3dac 253e 47e6 3bbd 9725 dabd
00000160: 7aee 5fbd b4cf 883d e8cb 0ebc ae04 92bd
00000170: a2b2 b0bd 7cbf 803c 20a7 27bd 3861 363c
00000180: a74d 563d 2187 18be e242 253e c22d 85bb
00000190: 8560 3abd aa49 893e 4e3d 203d 227a e9ba
000001a0: 45eb 09be f269 f3bd 57cb e6bd 7c38 263e
000001b0: 664a 89bd 8c81 b3bd 8c3e 063e b512 4e3e
000001c0: 2d8f e2bd c432 d63d 6753 04be 4ec3 843d
000001d0: 25d6 5e3c 13be dfbc e5fd 7d3d 2de8 11bd
000001e0: f4dc 76bd 2594 2c3c c0cf 903c a0fd 1c3e
000001f0: a51b 81bd 55d7 493e b701 bdbd 6368 4c3d
00000200: 7196 e33d b4f7 b23d 8e3c 92bd 808e d33c
00000210: 69aa edbd 21ab f63c 8770 0abe 7c5d 433d
00000220: 4b84 65be abb8 ea3c f675 9a3c 41ef bebc
00000230: 7dea 883d eca5 973d e6a6 53bd a442 7ebd
00000240: 2b07 41be 8be1 a73d 376a 88bc ce75 e43b
00000250: 93d7 db3c 810d 2b3e 627a 1e3e ab6b 703e
00000260: dc45 c1bd 92f7 0e3d a818 69bd c0c3 9ebd
00000270: 70bc b7bd d1b0 b4bd 165b fbbb 2869 0c3e
00000280: fc78 88be db27 133e 3aaf 7f3e a933 833d
00000290: ad2d 49be ea3d 34bd 771c b63c aab7 48be
000002a0: 14db 32b9 107c 28be e63c c83e 49a2 ba3d
000002b0: e8dc 17bd ee6b 8b3d b20f c73d 342a ae3d
000002c0: c729 d8bd 2b04 e2bd 6247 e1bc 26ce 1f3e
000002d0: 8e0a b9bd 25b4 423e 9ab9 3d3e 74aa 8c3b
000002e0: 176e 2d3e 89a5 9d3d e52b 0e3e 4af4 f83a
000002f0: 8b38 c7bc e27e d1bd 5375 0fbc ce02 0a3d
00000300: 35a8 b0bc bf8c b0bd d36b 14be 2c0a 123e
00000310: d444 f33c 0da1 5b3e edbe c43c 8e16 99bc
00000320: 9028 6bbd dfae e7bd e534 6abe 5d6e 123e
00000330: 6f45 6c3e 7d87 e73d 6577 763c 2c52 4fbd
00000340: 4a12 7c3d b4d4 9e3d e501 823e b28a f9bd
00000350: 0f9d e7bd 76b2 3b3e e57a d4bd 4bd9 17bc
00000360: 81ac 443d ce02 68be add7 223e 4d78 20be
00000370: b2e1 f5bd a745 25bd 66d9 393e 48c5 31be
00000380: 1f69 c0bd 8a1b a6bc 9f26 8bbe d46f 0dbd
00000390: 7076 e53d 22e6 3cbe 327a 903c 4c56 dfbd
000003a0: e774 1cbc 79fa 03be b458 d33b 805e 85bd
000003b0: 757e 873d a1f3 243e 8ce2 273e 13df 07bd
000003c0: 9846 16be de3a 15be ea7e b43d 0eac 743d
000003d0: 868b 183c 22f7 ddbd 5eca 0bbd 0236 1ebe
000003e0: 6da5 033d 1881 613d b2d4 083e e999 db3d
000003f0: 6244 4b3d 450c febc 5333 293d 8999 98bc

layers.0.bias f4 [64]
-0.067195445 -0.046212018 0.08675737 0.10736099 0.00030708042 -0.052340496 -0.055815477 0.16184093
-0.05004896 0.06423729 -0.009967287 -0.018974194 0.031089224 -0.016287994 -0.073057525 -0.040043533
0.105263494 -0.08036029 -0.055204667 0.16481423 -0.016807487 -0.048672006 -0.122368276 -0.031521242
0.09537969 0.121621035 0.016015843 -0.006271234 0.030231357 -0.10792507 -0.061198365 -0.054588903
0.15653104 0.0726537 0.01820792 0.020984603 -0.060737886 -0.025252508 0.048836898 0.09088756
0.099411726 -0.048191376 -0.054129165 0.011370275 0.062768 0.06194976 -0.01965229 0.06392806
0.087436594 -0.0395755 -0.018779442 0.013156018 -0.011423625 -0.028928366 -0.10078995 -0.0007760047
0.10037903 -0.053823803 0.009236362 -0.039810546 -0.021470794 0.09327213 0.009598417 -0.08544948
00000000: c49d 89bd d048 3dbd d9ad b13d 14e0 db3d
00000010: a3ff a039 fd62 56bd c59e 64bd a1b9 253e
00000020: 2300 4dbd d78e 833d d54d 23bc c56f 9bbc
00000030: d4ae fe3c 666e 85bc 2f9f 95bd b004 24bd
00000040: 6394 d73d f093 a4bd 4a1e 62bd 10c5 283e
00000050: dbaf 89bc 4c5c 47bd 389c fabd 6b1c 01bd
00000060: 6d56 c33d 7314 f93d a833 833c ec7e cdbb
00000070: c0a7 f73c d207 ddbd 23ab 7abd 9d98 5fbd
00000080: ac49 203e 77cb 943d c728 953c e7e7 ab3c
00000090: 4ac8 78bd 59de cebc 3309 483d 4223 ba3d
000000a0: 6098 cb3d 5264 45bd 8bb6 5dbd 644a 3a3c
000000b0: 828c 803d 08bf 7d3d d7fd a0bc b7ec 823d
000000c0: f511 b33d eb19 22bd 58d7 99bc 578c 573c
000000d0: 282a 3bbc 2efb ecbc f66a cebd cb6c 4bba
000000e0: 8593 cd3d 5976 5cbd 1c54 173c 6210 23bd
000000f0: 85e3 afbc 7505 bf3d ae42 1d3c 2300 afbd

layers.1.weight f4 [64, 64]
0.101875186 0.112311974 0.05017225 -0.07047136 -0.15538462 0.11116322 0.1847861 -0.07770124
0.018377276 -0.084539935 0.057600755 -0.14096826 0.08353112 0.14191271 0.030140918 -0.01950863
-0.1696848 -0.08631827 -0.04717373 0.10654344 -0.227106 -0.090198584 0.23202568 -0.20779936
0.2071268 0.12574981 0.13114801 -0.011280467 -0.27856746 -0.14458144 -0.0394169 -0.0933519
0.08796333 -0.20725754 -0.095778815 -0.0861386 0.080170825 0.00614823 0.04819473 -0.013398583
-0.15995346 0.17992035 -0.11226277 0.13134675 0.12575944 -0.057973046 0.11688956 -0.019704686
-0.10017114 -0.031306665 0.16723889 -0.06508754 0.026795423 0.036867365 0.10764001 -0.1251573
-0.19223583 -0.0944604 -0.12629831 0.03018544 0.24353994 -0.18101503 -0.12424384 0.04261062
-0.042503506 -0.029386066 -0.04551487 -0.030611014 0.108318955 0.15457128 0.04030973 -0.16061172
-0.05867391 0.19800183 0.08122717 -0.05823271 0.23969376 0.013684459 -0.06509815 0.027265884
-0.0128680095 0.30496582 0.109122016 0.007155277 -0.12390731 -0.16139655 0.014694488 0.07258949
0.23776774 -0.03154966 -0.27313212 0.1406988 0.055336416 0.16934983 0.08802761 0.057845395
0.117507026 -0.07710443 -0.18606052 0.21292895 -0.14119276 0.06555213 0.047242958 -0.10204954
-0.13114037 0.1172067 0.053757224 0.041002434 0.04726635 0.17937554 -0.1869896 0.17216225
0.024194209 0.1546778 -0.07269555 -0.106758736 0.0675615 -0.02951039 0.12798625 0.0075411364
0.113818005 0.016504813 -0.062343027 -0.0107484255 -0.23135161 -0.04358744 0.03927154 0.096200354
-0.05828243 0.26994947 -0.053255048 -0.020662678 0.08179136 0.013078164 0.04398189 -0.03558658
-0.05195045 -0.12773134 -0.10723468 0.19735377 0.014554388 -0.047504935 -0.057903677 -0.26324585
0.03543078 0.1245578 0.14125364 0.0036731055 0.028545808 0.34522656 0.02527219 -0.10754384
0.17714332 -0.004451718 0.264688 -0.1021366 -0.10121636 -0.035990614 -0.02848539 0.16293444
-0.1296288 -0.04922703 -0.17604008 0.035123114 -0.12684771 -0.047489442 0.0863228 -0.093473375
-0.13311815 -0.11905438 0.015620933 0.085020036 0.111952074 0.02147526 -0.06520301 -0.21117517
0.23737094 0.06504549 -0.13996884 -0.086147286 -0.0021966181 -0.027782246 -0.103202075 0.17061748
0.06351038 -0.06515998 -0.09117773 -0.046502937 0.008258979 -0.05373654 -0.0632487 0.031284306
0.31077692 -0.07066882 0.04313245 -0.15233216 0.18905103 0.040145885 0.042988874 -0.020752685
-0.048590895 -0.02280162 -0.15624744 -0.10613724 0.08494742 0.10792816 0.026320385 0.0927502
0.12736382 0.111898534 -0.024554398 0.0521829 0.044060413 -0.12205171 0.1526013 -0.20052233
-0.031731647 0.003330389 0.1469461 0.16695303 0.05299493 -0.025412368 0.0025755574 -0.045167856
0.020712417 0.19333568 -0.038349714 0.116489254 0.002504294 0.21498549 0.1088701 0.28560823
0.004719515 -0.30660933 0.270436 0.08155247 -0.07459939 0.18811841 -0.051294457 0.10467635
0.05003234 0.05890687 -0.10984974 0.13052759 0.22604668 -0.028402714 -0.093399785 0.026194774
0.030894332 0.02613994 0.1520952 -0.10210264 0.1587838 0.0054608933 0.056397967 0.020527292
00000000: f0a3 d03d d203 e63d 6b81 4d3d 4a53 90bd
00000010: 251d 1fbe 8ba9 e33d 9138 3d3e d421 9fbd
00000020: f18b 963c 4623 adbd c5ee 6b3d fc59 10be
00000030: 5d12 ab3d 9151 113e 16ea f63c 90d0 9fbc
00000040: dac1 2dbe a2c7 b0bd 3e39 41bd 7233 da3d
00000050: 7a8e 68be 09ba b8bd 2498 6d3e 5bc9 54be
00000060: 0c19 543e 8fc4 003e aa4b 063e b5d1 38bc
00000070: 65a0 8ebe 280d 14be 9e73 21bd 482f bfbd
00000080: 1e26 b43d 523b 54be af27 c4bd 6f69 b0bd
00000090: 9a30 a43d 1777 c93b d667 453d bb85 5bbc
000000a0: d7ca 23be 0a3d 383e 06ea e5bd c37f 063e
000000b0: 15c7 003e 2575 6dbd cb63 ef3d b96b a1bc
000000c0: 8726 cdbd 6b3b 00bd ac40 2b3e 9e4c 85bd
000000d0: 1382 db3c 3c02 173d 5e72 dc3d 3c29 00be
000000e0: 78d9 44be 7474 c1bd 5854 01be 7547 f73c
000000f0: 8962 793e 015c 39be 8e73 febd 7988 2e3d
00000100: 2818 2ebd 0cbb f0bc cd6d 3abd f3c3 fabc
00000110: 54d6 dd3d ef47 1e3e d11b 253d 6677 24be
00000120: 0e54 70bd fec0 4a3e 6e5a a63d 6c85 6ebd
00000130: 4872 753e c834 603c 2e52 85bd b45c df3c
00000140: 58d4 52bc 7b24 9c3e 5d7b df3d d076 ea3b
00000150: 1ec3 fdbd 2345 25be 26c1 703c cca9 943d
00000160: 6379 733e 373a 01bd f9d7 8bbe 5913 103e
00000170: 70a8 623d 0b6a 2d3e d247 b43d 4bef 6c3d
00000180: 86a7 f03d ede8 9dbd a686 3ebe 0c0a 5a3e
00000190: d694 10be 3240 863d d581 413d 59ff d0bd
000001a0: a949 06be 110a f03d 8930 5c3d 2bf2 273d
000001b0: 5c9a 413d 39ae 373e 347a 3fbe 4d4b 303e
000001c0: ef32 c63c db63 1e3e 68e1 94bd 53a4 dabd
000001d0: af5d 8a3d c6bf f1bc d40e 033e a31b f73b
000001e0: 6a19 e93d 1a35 873c 675b 7fbd 2a1a 30bc
000001f0: 70e7 6cbe be88 32bd 32db 203d b104 c53d
00000200: 8fb9 6ebd d136 8a3e f721 5abd c744 a9bc
00000210: 3b82 a73d cc45 563c 5b26 343d 3cc3 11bd
00000220: ffc9 54bd 01cc 02be db9d dbbd 1b17 4a3e
00000230: 8775 6e3c 8994 42bd 682c 6dbd 29c8 86be
00000240: de1f 113d 2918 ff3d cba4 103e 7cb8 703b
00000250: e6d8 e93c 89c1 b03e a007 cf3c f23f dcbd
00000260: 0f65 353e b8df 91bb 2f85 873e fe2c d1bd
00000270: 864a cfbd e56a 13bd 315a e9bc 49d8 263e
00000280: 6abd 04be 48a2 49bd da43 34be 41dd 0f3d
00000290: 5ee4 01be 4a84 42bd 02ca b03d f86e bfbd
000002a0: 2050 08be c8d2 f3bd f1ee 7f3c fc1e ae3d
000002b0: 2147 e53d e2ec af3c 2889 85bd 4e3e 58be
000002c0: 5e11 733e 9236 853d fe53 0fbe fd6d b0bd
000002d0: 23f5 0fbb 9897 e3bc 9c5b d3bd 59b6 2e3e
000002e0: bb11 823d 9872 85bd 64bb babd dd79 3ebd
000002f0: ab50 073c d91a 5cbd 8988 81bd f923 003d
00000300: 271e 9f3e d0ba 90bd a7ab 303d f6fc 1bbe
00000310: 9896 413e 0370 243d 1a15 303d 8901 aabc
00000320: 3f07 47bd 77ca babc 54ff 1fbe 7b5e d9bd
00000330: eaf8 ad3d 7009 dd3d d99d d73c d1f3 bd3d
00000340: a96b 023e 0f2b e53d 4e26 c9bc bdbd 553d
00000350: b178 343d 3ff6 f9bd 8443 1c3e ba55 4dbe
00000360: 0bf9 01bd a842 5a3b 0a79 163e bcf5 2a3e
00000370: 3611 593d 992d d0bc afca 283b ee01 39bd
00000380: 16ad a93c caf9 453e 9714 1dbd eb91 ee3d
00000390: 151f 243b 2825 5c3e 49f7 de3d 3e3b 923e
000003a0: 29a6 9a3b e6fb 9cbe 9676 8a3e fb04 a73d
000003b0: 91c7 98bd 1da2 403e 231a 52bd 8e60 d63d
000003c0: b6ee 4c3d 5548 713d e7f8 e0bd 06a9 053e
000003d0: c878 673e cfac e8bc 6348 bfbd 6c96 d63c
000003e0: 1c16 fd3c 6d23 d63c d8be 1b3e 301b d1bd
000003f0: 3898 223e 4bf1 b23b 8e01 673d da28 a83c

layers.1.bias f4 [64]
-0.16563064 0.009730024 -0.041694995 0.07336743 -0.09071803 0.028825572 0.09857642 0.08278316
0.06597797 0.111537814 -0.042709354 0.043754835 -0.100771345 -0.07733298 -0.10658549 -0.017231598
-0.01425609 0.07947537 0.0021579983 -0.039864276 -0.07081001 -0.113086015 -0.029230503 0.111975476
-0.034051567 -0.079912625 0.025495175 -0.057406522 0.033500556 -0.008787599 0.045675263 -0.00950404
-0.0064096353 -0.10428437 -0.13857777 0.1574623 -0.0691764 0.073493436 0.060419574 0.11285319
-0.044267237 -0.012625113 0.08738235 -0.121907786 -0.122050405 -0.029817998 -0.05633411 0.084259905
-0.064647175 0.13688642 0.15227637 0.023766838 0.033515956 -0.11391065 -0.06400583 0.07297071
0.020194108 -0.13615243 0.0913846 -0.069147125 0.041875143 -0.005536698 0.011471778 0.09944805
00000000: 149b 29be ae6a 1f3c 5fc8 2abd aa41 963d
00000010: 60ca b9bd 9b23 ec3c 6fe2 c93d 388a a93d
00000020: 751f 873d f06d e43d 01f0 2ebd 4538 333d
00000030: 3561 cebd c160 9ebd 7e49 dabd 4829 8dbc
00000040: 6092 69bc fcc3 a23d 346d 0d3b b948 23bd
00000050: d704 91bd a499 e7bd cf74 efbc 6653 e53d
00000060: a879 0bbd 3ba9 a3bd 42db d03c 1a23 6bbd
00000070: e137 093d ddf9 0fbc fc15 3b3d d5b6 1bbc
00000080: eb07 d2bb 0b93 d5bd 55e7 0dbe cc3d 213e
00000090: 5bac 8dbd ba83 963d 847a 773d 931f e73d
000000a0: 9051 35bd 90d9 4ebc 84f5 b23d caaa f9bd
000000b0: 90f5 f9bd e044 f4bc 99be 66bd 7590 ac3d
000000c0: bd65 84bd f42b 0c3e 56ee 1b3e acb2 c23c
000000d0: 0748 093d fd49 e9bd 7d15 83bd ab71 953d
000000e0: 1d6e a53c 8b6b 0bbe d927 bb3d 029d 8dbd
000000f0: 4585 2b3d 306d b5bb 20f4 3b3c 6bab cb3d

layers.2.weight f4 [1, 64]
-0.059884954 -0.083358005 -0.11808561 0.15547977 0.045705624 0.19670695 -0.099940345 -0.11372041
0.05061161 0.12007993 0.05106984 0.05674968 -0.18237492 -0.070303306 0.030022422 -0.038455274
0.05793069 -0.018003372 -0.107311286 0.023753522 -0.030332733 -0.1316342 -0.040647376 0.15710235
-0.18035218 0.05763548 0.056977507 -0.02974127 -0.15617386 0.08355343 -0.24702603 0.046351917
-0.074818924 -0.17081943 -0.02136891 0.15991482 -0.027915562 0.036040783 -0.14011206 0.14354305
-0.10432569 0.066961415 -0.015724313 -0.0707818 -0.057670213 -0.06636165 0.11199855 -0.0970298
-0.056623794 0.13158497 0.023197314 -0.119404994 0.18974926 0.068006426 -0.026401104 0.13148022
-0.09405949 -0.02346523 -0.16090326 -0.027256986 0.060423136 -0.09376492 0.060732443 0.081513725
00000000: ed49 75bd 9ab7 aabd ded6 f1bd 1736 1f3e
00000010: d235 3b3d 8c6d 493e 86ad ccbd 3fe6 e8bd
00000020: 1f4e 4f3d 77ec f53d 9c2e 513d 5a72 683d
00000030: 7ec0 3abe 2efb 8fbd 95f1 f53c 4783 1dbd
00000040: bb48 6d3d cf7b 93bc 05c6 dbbd bf96 c23c
00000050: 5a7c f8bc 1ecb 06be dd7d 26bd 70df 203e
00000060: 3eae 38be 2e13 6c3d 3f61 693d f7a3 f3bc
00000070: 0aec 1fbe 101e ab3d 64f4 7cbe 82db 3d3d
00000080: aa3a 99bd 4aeb 2ebe da0d afbc b6c0 233e
00000090: 2daf e4bc 809f 133d 8979 0fbe f3fc 123e
000000a0: b5a8 d5bd 1123 893d 46d0 80bc 0cf6 90bd
000000b0: 9a37 6cbd 9ee8 87bd 7f5f e53d 8fb7 c6bd
000000c0: 5aee 67bd 36be 063e 4b08 be3c 9b8a f4bd
000000d0: a14d 423e f446 8b3d 2147 d8bc c0a2 063e
000000e0: 43a2 c0bd 273a c0bc d3c3 24be 0b4a dfbc
000000f0: 407e 773d d307 c0bd 95c2 783d abf0 a63d
