critic.pth (torch, 474430 bytes, 5 tensors)

layers.0.weight f4 [264, 180]
000000 42 6f 49 3d 36 3c 55 3d 52 e8 c0 bc d0 db 9b bb
       0.04917837 0.052059375 -0.023548279 -0.0047564283
000010 58 89 84 3d bb f5 9c 3d d0 c8 b0 3d 43 12 a5 3d
       0.06471509 0.07664057 0.08632052 0.08060124
000020 04 49 37 bb d0 73 a5 bb b3 61 e1 3c 53 e8 3f bd
       -0.0027967105 -0.0050492063 0.027512407 -0.04685242
000030 02 45 36 bd 10 86 88 bd f5 8f 80 3d ef 4c 2f bd
       -0.044499405 -0.066661954 0.062774576 -0.04279798
000040 fa 97 db ba 3c ec 81 bd 62 d3 0d 3d 78 40 a9 3c
       -0.0016753667 -0.06343886 0.03462542 0.020660624
000050 5f 80 2e bb 8a ca 7b 3d ed 78 5c 3c 60 57 64 bd
       -0.0026626808 0.061472453 0.013456565 -0.05574739
000060 b5 e4 cc 3d 71 01 94 bd bf 29 7b 3c 74 23 05 3d
       0.1000456 -0.072268374 0.015329777 0.032504514
000070 a5 18 98 bd 3a 30 11 3d 00 4e 84 bd 20 68 6c bb
       -0.074265756 0.035446383 -0.0646019 -0.0036072806
000080 97 87 45 bd a2 45 06 3d c9 74 25 3d 68 4e ca 3c
       -0.04822501 0.03278125 0.040394578 0.02469559
000090 22 9f 5f 3c 28 42 22 3c 38 0c 08 3d 1c 00 8c 3c
       0.01364878 0.009903468 0.033214778 0.017089896
0000a0 ed 00 a0 bc 56 06 1d bd 80 47 e1 3c 22 e2 1f 3d
       -0.019531691 -0.03833612 0.027499914 0.039034016
0000b0 08 2f 53 3c e9 ea 4a 3c 6c f5 2a bd 8b 61 06 bd
       0.012889631 0.0123851085 -0.04173796 -0.032807868
0000c0 0a 93 50 bd ae 04 a9 bc c8 8c 20 3d 4c 87 fa 3c
       -0.050921477 -0.020632114 0.03919676 0.030582093
0000d0 d6 74 3d bd 34 30 4f bd ab e2 b8 3c 8c 2b 61 3d
       -0.046254 -0.05058308 0.022569021 0.05497317
0000e0 c1 a0 ee 3c 76 1a 71 bd b7 65 65 bc 3c da d9 bd
       0.029129388 -0.058863126 -0.0140013015 -0.10637328
0000f0 e4 f3 a0 3d 57 49 16 bd 3c 99 28 3c 78 b2 40 3c
       0.078590184 -0.036691036 0.01029044 0.0117613
000100 4d 6e 05 3d 73 38 11 bc 83 f7 b6 3c d9 15 59 bd
       0.032575894 -0.008863556 0.02233482 -0.05299935
000110 23 ea 59 bd b2 1b 3e bd fd 2b eb bc ba 7e 6c 3d
       -0.053201806 -0.04641313 -0.028707499 0.057738043
000120 64 4a ce 3d 48 6a 9c 3c 50 5f e1 3c 84 e6 4d 3d
       0.10072783 0.019093648 0.027511269 0.050268665
000130 bf 80 ca 3a 30 3b b5 3c e3 09 2b bd 6c 30 1f bd
       0.0015449746 0.02212295 -0.041757476 -0.038864538
000140 ae 8d 1a 3d 7c 8d f5 3c 0c 3e 10 3d 60 3a 15 bb
       0.037732773 0.029974692 0.035215423 -0.002277039
000150 32 dd e6 3c 02 38 80 bc 80 cb 26 3d 75 44 81 bd
       0.028181646 -0.015651707 0.040721416 -0.06311885
000160 e6 57 9a bd 77 f1 72 bd 9a 07 2a 3d 7a c1 7d 3d
       -0.075362965 -0.05931231 0.041511156 0.06195209
000170 df 96 3c 3c 5e 3c 04 3d d8 4b 60 3c fa 14 49 3d
       0.01151058 0.032284133 0.013689958 0.04909227
000180 23 56 76 3d 81 08 8d 3d fc de cf bc 1e 89 6a 3d
       0.06014074 0.068863876 -0.025374882 0.05725967
000190 54 af 5e 3d 48 41 c7 3c 9b bf 79 3d d0 65 8a 3c
       0.054366425 0.02432312 0.060973745 0.016894251
0001a0 1a ab 5b 3d 0b f4 fe bc ad ae 2d bd cb 8d 89 3d
       0.053629972 -0.031122228 -0.042402912 0.06716498
0001b0 e0 11 da bb 8e b3 cd bc 90 a7 e4 3c 70 1a bd 3b
       -0.006654963 -0.025110032 0.027911931 0.005770974
0001c0 73 64 61 bd 30 85 2d 3d d7 7f 2c 3d 42 68 bb 3c
       -0.055027436 0.042363346 0.042114105 0.022876862
0001d0 c4 2b 8f bd c1 02 8b 3d dc 33 8e bd 4c 84 f4 bd
       -0.069907695 0.06787635 -0.06943485 -0.11939296
0001e0 52 d2 d8 bc bc 19 64 bd fe de 8b 3c 22 d0 b7 bc
       -0.026467476 -0.055688605 0.017074104 -0.022438113
0001f0 83 b2 91 3d bf 3f 5f bd 46 ce 75 bb 90 32 66 3b
       0.071141265 -0.054504152 -0.0037506982 0.0035125352
000200 88 6a 9f 3c 70 ef 92 3c 7b ec 9c bd 12 10 35 3d
       0.019459978 0.017936438 -0.076622926 0.04420478
000210 d8 7b d0 bc 3e 03 37 3d 5b 87 13 3d 84 db 1d bd
       -0.025449678 0.044680826 0.036017757 -0.038539425
000220 b4 68 01 3e 93 44 92 3d 9c f5 32 bc 48 cf 06 3d
       0.12637597 0.07141986 -0.010922816 0.032912523
000230 08 ea 8b bc 2e ce 70 3d 9a 53 5b bd 70 9d ad 3b
       -0.017079368 0.05879038 -0.053546526 0.005298309
000240 19 fc 9a 3d 13 a2 8d 3d 64 c4 d3 bc aa fd db bc
       0.07567615 0.06915679 -0.025850482 -0.026854355
000250 27 ab 6d 3d fa 32 73 3d 04 7d 82 bd fe ad 60 3d
       0.05802455 0.059374787 -0.06371501 0.054853432
000260 85 47 e5 3c af 70 3e bd 98 c2 36 3d f9 83 45 bd
       0.027988205 -0.046494182 0.044619173 -0.048221562
000270 11 b7 75 3d 64 ca 82 3c b0 50 96 bd 80 55 da bb
       0.05998904 0.015965648 -0.07339609 -0.0066630244
000280 bb 48 ab 3d cb 81 81 bd 54 91 ad 3c 40 12 d4 bb
       0.083634816 -0.06323584 0.021187462 -0.006471902
000290 09 35 86 bd da 12 51 bd 04 f3 a0 3c 0b 0c 2a bd
       -0.065530844 -0.05104337 0.019647129 -0.04151539
0002a0 f9 f1 06 bd 2e eb ae bc 80 ba 3b 3d c0 b6 24 3b
       -0.032945607 -0.021352377 0.045832157 0.0025133342
0002b0 70 ec 4f bd 20 a8 27 3b 6a 5b dc 3d 1d c6 7b bc
       -0.050762594 0.0025582388 0.10759623 -0.015367058
0002c0 68 40 8f 3b e4 fa 85 bc 27 3d 52 3d df 32 20 be
       0.0043716915 -0.016354986 0.05132785 -0.15644406
0002d0 ed 48 d9 bc c7 a7 2c bd cb 19 2b 3a 38 cd ba bc
       -0.026524032 -0.042152192 0.0006526976 -0.022802934
0002e0 1e ed 1a 3d f8 79 a6 3d 7d 8f 57 bd eb 2d ac 3c
       0.03782379 0.081287324 -0.052627075 0.02101799
0002f0 2d 94 73 bc ac 62 4d bd 81 bd 15 3d 90 f7 20 3d
       -0.014866871 -0.05014293 0.036557678 0.039298594
000300 f2 e1 07 bd 68 2b 1d bc 06 a4 5a bd 28 e4 2e bc
       -0.033174463 -0.009592868 -0.05337908 -0.010674514
000310 3b 50 d2 3d 23 5d 8c bd 92 29 90 3d 0c 44 1b 3d
       0.10269209 -0.06853702 0.07039179 0.03790669
000320 bb b3 66 3c 31 c9 8c bd 97 a8 dc 3d 94 4c 04 bd
       0.014080937 -0.06874312 0.107743435 -0.032299593
000330 22 64 c7 bc 80 25 f7 3c f6 cc 6e bb 59 24 6f bd
       -0.02433974 0.030169249 -0.0036438084 -0.058384273
000340 40 bb 40 3d b8 9e c1 3c ca 4f 4b bd 20 6f 9b bc
       0.047053576 0.023635253 -0.04963664 -0.018973887
000350 10 f4 f5 bc 7d 93 81 bd de d5 94 bd 98 97 c9 3c
       -0.030023605 -0.06326959 -0.072673544 0.024608418
000360 e1 be 8a 3d 46 43 20 3d 1a 9b 0c bd 52 6a 57 3d
       0.067746885 0.039126657 -0.034327604 0.05259163
000370 3c 5f 47 3d d0 94 a9 3c cc bc 67 3a 6e 30 85 bd
       0.048674807 0.020700842 0.00088400836 -0.06503378
000380 5e 58 71 3d d6 ff 9a 3d ec 7a 91 3c c2 c9 f1 bc
       0.058922164 0.07568328 0.017758809 -0.029515151
000390 c3 92 92 3d 00 c4 fd 3a 1c 1f c3 3c 00 3c 46 3a
       0.07156899 0.0019360781 0.023818545 0.0007562041
0003a0 a6 4f 36 3d 7c 30 c9 3c 9e c9 a8 3d a7 d5 e5 3c
       0.044509552 0.024559252 0.082415804 0.028055979
0003b0 e0 65 01 bd 2a 2b f9 bb c2 d0 48 bd ed 3f 24 be
       -0.031591296 -0.0076040225 -0.049027212 -0.16040011
0003c0 69 61 b6 3c 4c 12 ed 3c b1 51 e0 bc 84 92 38 3d
       0.022263246 0.028939389 -0.027382703 0.045061603
0003d0 67 cf 9e bc 23 0e c3 bc 62 a1 1b 3d 04 aa 77 3c
       -0.019386007 -0.023810452 0.037995704 0.0151162185
0003e0 08 3f e9 bd 88 2c c5 3c 2b 06 9e 3c 4e ec 68 3d
       -0.113889754 0.024069086 0.01929005 0.056865983
0003f0 a1 56 62 3c 72 94 d3 bc a7 81 a3 3d f4 8b 90 bd
       0.013814599 -0.02582762 0.079837136 -0.07057944

layers.0.bias f4 [264]
000000 67 86 27 3d 6f b9 3a 3d 08 c3 41 bd ee 2e 4e 3d
       0.04089966 0.045587 -0.047305137 0.050337724
000010 57 9d 1e bd b4 6a 9e bd 16 bb 7a bd ad 5e 8b 3d
       -0.03872427 -0.07735196 -0.061213575 0.06805167
000020 9d e3 11 3d b3 c0 50 bd 1d 5b 88 bd fb 1f 00 3c
       0.03561746 -0.050965022 -0.066580035 0.007820125
000030 37 6b 86 3d e1 56 63 bd 69 5c b1 3d 4a 8d c6 3c
       0.06563418 -0.055502776 0.08660204 0.024237294
000040 35 c5 cc bc 11 d2 75 3d ce cc 00 bd 4f b7 78 bd
       -0.02499638 0.060014788 -0.031445317 -0.06072169
000050 ad 6d 80 3d 79 67 92 3d 83 46 1c bd 8d 56 45 bd
       0.06270919 0.07148642 -0.038153183 -0.048178244
000060 12 01 41 3d 28 c8 1b bc 3c 82 84 3d 2b 80 29 3c
       0.04712016 -0.00950817 0.06470153 0.010345499
000070 96 5f 2b bd 7e 5f 19 bd 84 a8 9f bd 1c de 1f 3d
       -0.041839205 -0.037444584 -0.07795814 0.03903018
000080 03 71 fd 3c 5f 0c 24 bd 54 b9 50 bc c1 76 3f bc
       0.030937677 -0.04005086 -0.012739498 -0.011686028
000090 50 36 6d 3d 5b 11 52 bd 74 06 c3 3c 42 8e 63 3d
       0.057913125 -0.051286083 0.023806788 0.05555559
0000a0 da 8b 81 bc c7 52 8a 3d be 5b d2 3c 42 6c fb bc
       -0.015813757 0.0675407 0.025678512 -0.03069127
0000b0 b9 54 63 3c d4 c1 3a 3d 53 f1 3d 3d cd 47 3e bd
       0.01387518 0.045595005 0.046372723 -0.046455193
0000c0 ea fe 04 bc 90 0a 8b 3d 6b d5 01 3d 48 1b dc 39
       -0.008117417 0.06789124 0.03169767 0.00041981996
0000d0 61 0e 8e bd 6b 86 5f 3b 49 1d 31 3d 35 5a a3 3d
       -0.06936336 0.003410722 0.04324082 0.0797619
0000e0 b0 1b c5 3c be b6 e5 bc e8 7b 64 bd 3f ad 1e 3d
       0.024061054 -0.02804124 -0.05578223 0.03873944
0000f0 1f c0 58 3d 83 cc 7b bd 27 b0 36 bd d7 8d a6 3d
       0.052917596 -0.061474334 -0.044601586 0.081325226
000100 87 eb 03 3c 1d 50 45 bd e1 82 01 ba 7e ce 84 3c
       0.00805176 -0.048172105 -0.0004940462 0.016211744
000110 0e 3e 6d bc ae 77 3b 3b bf cb 82 3d 61 0f 84 3b
       -0.014480127 0.002860527 0.06386518 0.0040301536
000120 b3 26 1c 3d 10 91 85 bc 4f d2 85 bd 7b 88 10 bd
       0.038122844 -0.016304523 -0.06534254 -0.035286408
000130 86 ec 19 3d c9 f4 02 bd f8 08 79 bd 25 82 8a 3d
       0.037579082 -0.031971727 -0.06079957 0.06763104
000140 f0 02 e5 bc 6c ed 84 bb 47 5f 59 3d e4 a5 0f bb
       -0.027955502 -0.004056623 0.05306938 -0.0021918947
000150 52 02 90 3d 9d df 60 bd 81 5c 33 3d e4 1b 13 3b
       0.070316926 -0.054900754 0.04378939 0.0022447044
000160 02 68 d8 3c 3d b4 b2 bd 4b b2 1a bd 4b 61 f6 3c
       0.026416782 -0.08725784 -0.03776769 0.03007569
000170 28 3e 9c 3d 59 9e 3e bd ce 04 00 bc 65 33 a2 3d
       0.07629043 -0.04653773 -0.0078136455 0.07919959
000180 11 76 3e 3d 83 7a 87 3c 94 d1 82 3c 51 56 9b bc
       0.046499316 0.01653791 0.015969075 -0.018962057
000190 ea ce 2d bc 79 21 84 3c df 76 78 3d af d9 16 bd
       -0.010608414 0.016129242 0.06066024 -0.036828693
0001a0 94 cb 99 3d 09 cb 3a 3d 88 f1 2a 3c 69 e4 87 bc
       0.075095326 0.045603786 0.010433562 -0.016588407
0001b0 17 cd 52 3d 54 2b b3 bb f9 ba 96 3d ec ba 90 3c
       0.05146512 -0.0054678116 0.07359881 0.017667256
0001c0 dd 3c 94 3c a6 c0 e3 bc 48 f6 5c bd 43 45 49 3d
       0.018095428 -0.027801823 -0.05394581 0.04913832
0001d0 1c e5 1f 3d ba a0 1f bd 4c 20 96 3d 8d 23 e6 bc
       0.039036855 -0.03897164 0.07330379 -0.028093124
0001e0 f6 35 8f bd 33 54 42 3d d3 7c f7 bb 4e 37 cc bc
       -0.06992714 0.04744358 -0.007552722 -0.024928715
0001f0 74 79 41 3d 1b 45 89 3b d0 9c 01 bd 61 b1 3a 3d
       0.047234967 0.004189146 -0.03164369 0.045579318
000200 41 da 1d 3d 20 3f 1c 3c 4f b1 40 3d d9 46 7c 3d
       0.03853822 0.009536535 0.047044095 0.061591003
000210 43 de 5a bd e0 c7 a1 bb 2c 55 2d 3d d5 56 28 bd
       -0.05343462 -0.004937157 0.042317554 -0.041098434
000220 00 23 47 bc 54 26 ce bc 36 2e 04 bd 2f ab 95 3c
       -0.012154341 -0.02516476 -0.032270633 0.018270103
000230 b3 9c 64 3c 05 82 07 bd ed 6f c3 bc 54 8b 17 bc
       0.013953376 -0.03308298 -0.023857081 -0.009249527
000240 18 6d 6d bd fd 41 4d bd 17 66 36 3c d9 3d 3c bd
       -0.057965368 -0.05011176 0.011132739 -0.04595742
000250 31 6e 72 3d c3 58 b3 bc 95 0a 80 3d b2 0c 8c 3d
       0.059187118 -0.02189291 0.06252018 0.06838359
000260 a7 a0 53 3d 20 61 84 bd d5 35 88 bd 5b 04 8c 3d
       0.051666882 -0.064638376 -0.06650893 0.06836768
000270 55 51 8e bc d1 2d 3b 3d 9c b6 3a bc 2d f8 df bc
       -0.017372767 0.04569799 -0.0113960765 -0.02734002
000280 37 f0 9f 3d 6c fc 3d 3d 14 cb aa 3c 0f dc 3b bd
       0.07809489 0.046383306 0.020848788 -0.04586416
000290 02 70 8c 3c 8d 85 b0 bb 0b c9 1e bd da 01 dd 3b
       0.017143253 -0.0053870142 -0.03876595 0.0067446055
0002a0 6d d1 3d 3d 73 cb 95 3c 9c fb 92 bd ea 0c 58 bd
       0.046342302 0.018285489 -0.07176897 -0.05274669
0002b0 50 9b 58 bd 51 b0 81 bc 48 a7 51 bd 46 40 d5 3c
       -0.052882493 -0.015831145 -0.051184922 0.026031625
0002c0 87 af 09 3d db f1 2c 3c 87 26 fa bc f5 57 f2 3c
       0.03361466 0.01055571 -0.03053595 0.029582957
0002d0 15 52 84 3d 23 85 7d bc 92 b3 aa bc 7b 6b 2e bc
       0.064609684 -0.015473637 -0.020837579 -0.0106457425
0002e0 85 f6 8a 3c fe d7 b4 bc ff 04 1e bd 08 c4 30 3d
       0.016963253 -0.02207565 -0.038578983 0.0431557
0002f0 32 16 2a 3d 74 f7 d7 bc fc ae 0b 3a d0 2f a2 3d
       0.041525073 -0.026363112 0.0005328504 0.07919276
000300 c8 e1 e7 bc 87 0e 2b bc 80 dc e7 bc 20 20 08 bc
       -0.028305903 -0.010440475 -0.028303385 -0.00830844
000310 6c 08 89 bd 57 08 41 3d ba 81 95 bd 0a ae cb 3a
       -0.066910595 0.047127094 -0.07300134 0.0015539539
000320 09 6e b6 bd 58 e2 fe 3c 89 fb 4f bd 0a ea 94 bc
       -0.08907706 0.031113788 -0.050776992 -0.018178005
000330 16 5f 7a 3d db 9b a5 bc dc b3 92 bc 87 5d 23 3d
       0.061125837 -0.02021592 -0.01790803 0.039884117
000340 f2 8f a9 3d 9a da fc ba 2a be ef 3c ff cf 1b 3d
       0.082794085 -0.0019291223 0.029265482 0.038040157
000350 30 02 7e 3d 5c 58 2a 3c 36 c6 57 3c 13 bb 8c 3b
       0.062013805 0.010397043 0.013169816 0.004294762
000360 7c 3f 55 3d 94 dd 8b 3d d1 13 09 bc 50 97 5d bd
       0.052062497 0.06829372 -0.008366541 -0.05409938
000370 9b 7e 9d 3d 80 6a 1e bd df 13 73 3d 12 a8 08 bd
       0.07690164 -0.038675785 0.059345122 -0.03336341
000380 2b bf 9b 3d 26 be 4b 3d 3a 1b 99 3a 58 bb 94 3d
       0.07604822 0.049741887 0.0011681088 0.072622955
000390 a2 81 97 bd d4 58 14 bd 65 bb 6b bd c9 86 67 3d
       -0.07397772 -0.036217526 -0.05755176 0.056525026
0003a0 8e 84 a9 bc 87 f7 74 3d 2a a1 3f bd e2 86 f6 bc
       -0.02069309 0.059806373 -0.046784557 -0.030093614
0003b0 0e 40 3d 3d 24 69 63 3c a1 a8 8c 3d da c4 b4 3c
       0.046203665 0.013880048 0.06868101 0.022066522
0003c0 7b ee c4 bc 81 41 8c 3d 69 50 a9 bc 37 73 7c bc
       -0.024039498 0.068484314 -0.020668225 -0.015408329
0003d0 38 56 3e 3d 83 d5 02 bc 23 d4 ac 3d dd 46 96 3d
       0.046468943 -0.0079854755 0.08438899 0.07337735
0003e0 08 a2 a7 bc 5f bb a6 bd bd d6 1a bc e7 99 05 bd
       -0.020463005 -0.08141207 -0.009450612 -0.032617476
0003f0 48 ea 7f bd e2 62 e2 3b 18 41 18 bd 63 51 85 3d
       -0.062479287 0.0069087604 -0.037171453 0.06509664

layers.1.weight f4 [264, 264]
000000 b6 a8 f8 3c 13 ba 4c 3b e0 69 47 bd 1c 8b 33 bd
       0.030353885 0.0031238839 -0.048684955 -0.043833837
000010 c7 47 9f 3c ce a1 2c bc 4f 28 ad 3c 39 ed 0e bd
       0.019443406 -0.010536624 0.021137385 -0.034894202
000020 d7 e7 3a 3d 79 8c 9d bd 50 8d 98 bc 58 5c b7 bc
       0.045631256 -0.07692809 -0.01862207 -0.0223829
000030 e4 c8 58 bc e3 80 52 ba 5b 95 05 bc 05 db 8c bc
       -0.01323149 -0.000803007 -0.008153285 -0.01719428
000040 5e 3e fe 3c a9 56 53 bd 63 0d 1e 3d fa c8 99 bb
       0.031035598 -0.051596317 0.038586985 -0.0046931477
000050 59 32 44 3d b6 c0 1d bc 4a 54 a0 3c f7 bc 4d 3d
       0.047899578 -0.009628465 0.019571442 0.05022904
000060 1b 0c 17 bd 29 4e 8c 3c 8e 56 95 bc 68 d6 33 bd
       -0.03687678 0.017127113 -0.018229749 -0.043905646
000070 e5 a0 d6 bc 24 57 74 3d d8 f0 89 3c 78 e9 46 3d
       -0.026199767 0.059653416 0.016838476 0.048562497
000080 ea 58 94 bd 9f e7 96 bc 32 9d 83 bd 44 9e 27 bd
       -0.072435215 -0.018420992 -0.06426467 -0.04092242
000090 f9 6a 00 3d c8 bc 91 bd a6 73 21 3d c3 51 a6 3b
       0.031352017 -0.07116085 0.03941693 0.0050756647
0000a0 a0 64 6f bd 56 46 7b bb cf b6 81 bb 2f 93 21 3d
       -0.058445573 -0.0038341484 -0.00395856 0.039447006
0000b0 1e 4a 44 bc 13 4c b0 3c 41 93 8c 3c 28 c0 99 bc
       -0.011980562 0.02152065 0.01716006 -0.018768385
0000c0 2b 25 0f 3d 9d 50 76 3d 82 a4 51 bd 74 2c ac bc
       0.034947556 0.060135473 -0.051182278 -0.02101729
0000d0 56 91 01 bd 10 13 1b bd 5b 0c 12 3d 7b f9 4b 3c
       -0.031632744 -0.037859976 0.035656314 0.0124496175
0000e0 4d 50 05 bd d8 02 a9 3c b3 a8 db 3d 0f 55 6b 3d
       -0.032547284 0.020631239 0.10725536 0.057454165
0000f0 5f 7b 93 bd f3 41 a1 3c 0b 4b 95 bd 89 02 41 3d
       -0.072012655 0.019684767 -0.07289704 0.04712156
000100 1b 45 45 3d 17 95 85 3b e7 cc a7 3d 4b 0f 7e 3d
       0.048161607 0.004076611 0.08193379 0.062026303
000110 90 c1 66 bd 6a e6 f7 3c ee 47 1b bc 0d 24 5b bd
       -0.05633694 0.030261237 -0.009477599 -0.053501178
000120 b5 6b 87 3d 73 27 52 ba 89 c5 8c bc b9 d9 20 bd
       0.0661234 -0.00080167426 -0.017184036 -0.039270137
000130 2d 57 77 bc ff 05 34 3d a1 85 3c 3d 56 f7 06 3d
       -0.015096468 0.04395103 0.046025876 0.03295072
000140 3f 61 15 bd c9 b3 a0 3d 3e ec 95 bc 3c 49 a8 3c
       -0.036469694 0.07846791 -0.018301126 0.020542733
000150 ca 78 92 bc a1 df 28 bd 59 58 33 bc 07 f1 f8 bc
       -0.017879862 -0.041228894 -0.010946357 -0.030388368
000160 ce 32 78 3a 35 68 1e 3c 93 da 2d 3d 01 61 86 ba
       0.00094680197 0.0096684 0.042444777 -0.0010252298
000170 ae d4 13 3d 3f 34 be bc 70 61 76 ba 92 dc a0 3a
       0.0360915 -0.023218272 -0.00093986746 0.0012272766
000180 a4 b5 9d bc 89 15 9c 3b cf 41 b4 3c 59 20 52 3d
       -0.019251652 0.0047633094 0.022004036 0.05130038
000190 2c 6b 93 bc 7d 1b c0 bc 0c ca 7d 3c b5 55 9b bd
       -0.01799544 -0.023450607 0.015490066 -0.07584707
0001a0 ce 79 16 bd 06 f0 84 3c 9c 75 d0 3c aa de 11 bc
       -0.036737256 0.016227733 0.025446706 -0.008903185
0001b0 c9 18 18 3d 7e eb 92 bc ef dc 7d 3d ec e6 5f bd
       0.037133012 -0.017934557 0.061978277 -0.054663584
0001c0 98 d7 74 3c 70 9f 54 bd 7a da 97 bd 55 4c 2c bd
       0.01494398 -0.051909864 -0.07414718 -0.042064983
0001d0 19 21 39 bc 7d 71 d2 3c e3 16 63 bd d6 b2 42 bc
       -0.011299395 0.025688881 -0.05544175 -0.011883458
0001e0 bc 44 63 3d 92 f1 97 3d ae 4e 82 3d 71 c2 a2 bc
       0.055485472 0.07419123 0.06362663 -0.019868108
0001f0 90 28 89 3d 93 d4 b0 3c 2f 28 90 3b 98 73 44 3d
       0.0669719 0.021585738 0.0043993215 0.0479618
000200 40 5a 25 3d 40 c6 96 bd fe 5a 8d bd 94 9c bc 3b
       0.040369272 -0.07362032 -0.06902121 0.0057559703
000210 00 49 59 bb 1b 98 91 3d 3d 97 48 3d 18 99 67 bc
       -0.0033155084 0.0710909 0.048972357 -0.0141356215
000220 24 58 db 39 fc cb 1b bd 6c e5 9a 3c 78 59 28 3c
       0.00041836605 -0.03803633 0.018908225 0.010275237
000230 ba f0 27 bd c1 44 53 bb 5a 8e 0e 3d a3 00 9c bc
       -0.04100106 -0.0032237025 0.034803726 -0.019043272
000240 51 1d 7d bd 8e e7 94 bc e5 3c 68 bc fe f4 27 3d
       -0.061795536 -0.01817682 -0.014174675 0.041005127
000250 71 48 ad bb 07 a2 62 3c d1 c4 0f bd d2 9f 8a 3d
       -0.0052881767 0.013832576 -0.035099808 0.067687646
000260 28 dc 08 3c c6 b7 04 3c ec 2a 96 3b ed 69 54 3d
       0.008353271 0.008100456 0.0045827534 0.05185883
000270 08 54 4d 3d 77 bf 8c 3d 7f c6 b5 bc b2 fe bf bb
       0.050128967 0.068724565 -0.022189377 -0.0058592195
000280 9e 26 60 3d 0e a2 27 3c 97 9b 56 3b 76 50 c8 3c
       0.05472433 0.010231508 0.0032746547 0.02445243
000290 f7 bd 93 bc 81 48 9d bd b3 d0 a2 3c 7e 38 80 bd
       -0.018034918 -0.07679845 0.019874906 -0.06260775
0002a0 65 05 b4 bd eb 8f 07 bd d8 52 95 bd bf 57 fc bb
       -0.087900914 -0.033096235 -0.07291192 -0.00770089
0002b0 95 65 2e 3d 03 1e 0e 3d b5 ce 6e bd 71 7e 6b bc
       0.042577345 0.03469659 -0.0583026 -0.014373408
0002c0 6c 19 5f 3d d8 b3 c7 bc d4 fe 8a bc 61 97 24 bd
       0.054467604 -0.024377748 -0.016967215 -0.04018343
0002d0 9b fd 6b bb af a0 46 bd 2e f9 80 3d a1 66 f1 ba
       -0.0036009315 -0.048493084 0.06297527 -0.0018417427
0002e0 36 21 74 3d 6e ac 80 3d 1a 9d 99 3a 6e 90 ef 3b
       0.059601985 0.06282888 0.0011719794 0.0073109185
0002f0 69 12 61 3d 10 b0 64 3d d1 59 9a bd e2 d6 45 3c
       0.054949198 0.05583197 -0.07536662 0.012075158
000300 76 de 01 3d d4 16 f0 bb 3a ab 37 bd 98 2f 41 bc
       0.031706296 -0.00732694 -0.04484103 -0.011791132
000310 b3 4d 5e bd 87 1b 87 3d 9c 69 39 bd e6 7b 3a 3c
       -0.05427332 0.06597047 -0.045266733 0.011382079
000320 6b e6 69 bd 61 cb 37 3c 00 00 e9 bc 8a 89 aa bc
       -0.05710451 0.011217923 -0.028442383 -0.020817537
000330 39 91 69 3d 65 f7 3c bd 4e 1b d1 bc d6 4d 98 3d
       0.05702326 -0.04613437 -0.025525715 0.07436721
000340 f2 a3 92 bc a4 85 06 3c 57 0a 2c bd df 3a 10 3d
       -0.01790044 0.008210573 -0.04200205 0.035212394
000350 3c ea f0 3c 7d 27 81 3b 0d 6b 09 3d 88 34 90 3c
       0.029408567 0.003941475 0.033549357 0.017603174
000360 22 b7 9f 3c fd 5f 14 bd 5b 9c e8 3c 5e 6c fe 3c
       0.019496504 -0.036224354 0.028394869 0.031057533
000370 f7 6a 17 3b 36 7d 1c 3d 3c 9b 56 3d 10 79 02 3d
       0.0023104527 0.038205348 0.052394137 0.031853735
000380 94 b5 58 3d ae 83 9f bd db e7 86 bd 3b 68 d9 3b
       0.05290754 -0.07788788 -0.06587192 0.0066347397
000390 24 8c 94 3c 1b d6 b1 bc 2b d0 0c 3d 63 ee 44 3d
       0.01813323 -0.021708539 0.034378212 0.048078906
0003a0 1d 67 86 3d 8c 10 6a ba ea 0b 3c bb 86 89 83 bd
       0.06562636 -0.0008928857 -0.0028693625 -0.06422715
0003b0 c8 a2 8a 3b 0e 06 eb bc 70 ff b3 bc 09 c7 a0 bc
       0.004230831 -0.02868941 -0.021972388 -0.019626157
0003c0 5a 8a 7d bd 0f ec 63 3c 6c 25 cd bc aa bc 1f bc
       -0.06189952 0.013911261 -0.025042258 -0.009749571
0003d0 33 58 31 bd 53 86 15 3d 8f fe 9a bd b9 75 54 3d
       -0.043297004 0.036505055 -0.075680844 0.05187008
0003e0 65 0e 47 3c 19 56 51 3d 90 45 61 b7 96 32 52 3d
       0.012149428 0.0511075 -1.3427241e-05 0.051317774
0003f0 b9 6a 60 bc 68 ce 00 bb 6d f6 e7 bc 55 aa a1 ba
       -0.01369732 -0.0019654278 -0.028315747 -0.0012334088

layers.1.bias f4 [264]
000000 84 ce 23 bc 95 84 02 bc f2 a4 6c bc 58 f5 1e 3d
       -0.009997968 -0.00796618 -0.014443623 0.038808197
000010 6d 35 38 bd 22 61 8d 3c 9d 06 32 3d 90 4b 69 3d
       -0.044972826 0.01725823 0.04346334 0.056956828
000020 54 3b 86 bd cc 1f 57 3d bb 10 43 bd 58 38 ec 3b
       -0.06554285 0.05252056 -0.047623377 0.007208865
000030 0b ed b3 bc 2a 7a 56 3b 9e 2c 47 3d 57 6a 91 3d
       -0.021963617 0.0032726624 0.048626535 0.07100361
000040 e0 b7 24 bd a2 a2 96 bd 57 2c e8 3c f4 22 88 3c
       -0.04021442 -0.073552385 0.028341455 0.01661823
000050 9f 0f e2 3c b4 ba 81 bc a0 17 c0 3b c2 f2 2a 3d
       0.02759534 -0.015836097 0.0058621913 0.04173542
000060 26 4f fc 3c a9 e8 64 3b 31 5b 74 3d c5 af 02 3d
       0.03079946 0.0034928715 0.05965728 0.03190591
000070 ac 51 aa bb 2e 79 e8 b9 1f c7 30 3d 6a d5 54 3d
       -0.0051977243 -0.00044340774 0.043158647 0.05196134
000080 e4 da d7 bb d6 c3 ae bc a0 e5 88 bd 7e 77 59 3c
       -0.006587373 -0.021333616 -0.066844225 0.013273118
000090 d8 a7 e1 bc d4 64 cc 3c 0b 3d 38 bd 83 a7 ea bc
       -0.027545854 0.024950422 -0.04498009 -0.028644329
0000a0 16 a3 d8 3a 40 f5 cc 3b dc ef 05 3b ef 62 53 bd
       0.0016528096 0.006254822 0.0020437157 -0.051608022
0000b0 a1 1c 21 bd b1 82 2a 3d 10 ec 52 bd 16 94 f2 3c
       -0.039333943 0.041628543 -0.051494658 0.029611629
0000c0 55 2a 70 bb 79 4a a4 3c b0 c4 f9 3a 7d 85 0d bc
       -0.0036646326 0.020055043 0.001905581 -0.008637783
0000d0 bb 96 70 3d 0b ea 4a bd d0 37 91 bd 79 01 7a 3c
       0.058737498 -0.049539607 -0.070907235 0.01525914
0000e0 a8 6e e6 3c 9b 57 18 3c 62 fc 3b bd c8 41 8a 3c
       0.028128937 0.0092982305 -0.045894988 0.01687707
0000f0 a7 6b 2f 3c d1 86 81 3c d3 d2 f7 bc 4f ac 55 3d
       0.010706819 0.015811356 -0.030251896 0.05216628
000100 35 22 11 3d 16 24 a2 bc ce 06 65 bc f2 ed 2c bd
       0.035433013 -0.019792598 -0.013978673 -0.04221911
000110 48 df 3b 3d b6 58 10 3c 15 10 61 3c 84 dd 86 3d
       0.045867234 0.008810213 0.013736744 0.065852195
000120 94 d6 e2 bc 89 ef 1f bd ea 2a 6e bd e7 0b 46 bc
       -0.02769021 -0.039046798 -0.058146395 -0.012087799
000130 d6 df 53 3d 9a 6f 50 bd 0f 80 58 bd dc 19 9b 3a
       0.05172714 -0.05088768 -0.0528565 0.0011833268
000140 33 a5 64 3d 7e 8f ec bc 0f a2 88 bd 9d a6 d4 3b
       0.05582161 -0.028877016 -0.06671535 0.0064895884
000150 04 42 1f 3d 96 ff 7c 3d c1 c5 4b bc 7a 77 37 bd
       0.038881317 0.061767183 -0.012437285 -0.044791676
000160 01 1b 9d 3c 04 b1 48 3c c7 d1 01 3d c7 26 48 bc
       0.019177916 0.012249235 0.0316942 -0.0122162765
000170 bb c3 28 bd 54 22 9b 3d f1 8c d8 3c 58 78 e8 3c
       -0.041202288 0.07574907 0.026434394 0.028377697
000180 5f d0 86 bd 99 e1 3f bd f1 63 29 bd ac e9 7b bd
       -0.065827124 -0.046846006 -0.041355077 -0.061502144
000190 89 69 28 3c e5 7e fb 3c d8 fb 8d bd af ac 10 3d
       0.010279068 0.030700156 -0.06932801 0.035320934
0001a0 28 92 f1 3c 90 29 91 bd 41 10 f7 3b 1c 08 8f 3d
       0.029488638 -0.070880055 0.0075397794 0.069839686
0001b0 2c f2 36 bd 3e ff d7 3c f2 b3 fd 3c 5b de 45 3d
       -0.044664547 0.026366826 0.030969594 0.048307758
0001c0 1f 2b 96 bc 05 1d c6 3b 15 5e a2 bc 5e 1c f2 bb
       -0.018331109 0.00604594 -0.019820252 -0.0073886355
0001d0 ca 26 33 3c de 7b 29 bd 01 94 6d bd 51 c2 2b 3d
       0.010934541 -0.041377895 -0.058002476 0.04193336
0001e0 a4 93 38 bd d3 61 d1 3c bd c1 4a bc be 03 b8 bb
       -0.045062676 0.025559342 -0.012375292 -0.0056156805
0001f0 ed 87 82 bd 01 e6 6f bd 2a ca d6 bc bf e7 55 3c
       -0.06373582 -0.05856896 -0.026219446 0.013055741
000200 31 1a 88 3c dc b2 66 bc 65 9f cf 3c 4b e4 10 bd
       0.016614052 -0.014080729 0.02534456 -0.035373967
000210 eb 3c 37 3d 55 24 14 3d 8b 8b d3 ba c1 50 1d 3d
       0.04473583 0.03616746 -0.001613961 0.03840709
000220 4c 02 42 3c 74 50 ce 3c 84 4f f4 3c 84 1f 26 bd
       0.011841368 0.025184847 0.029823072 -0.0405574
000230 5e 78 10 bd a7 4e 8d 3d 30 20 1c bc cb d5 12 bc
       -0.03527104 0.06899767 -0.0095291585 -0.008962105
000240 a8 35 4f bd 05 25 26 bd d2 99 19 bd c9 c9 7f bd
       -0.05058828 -0.04056265 -0.03750021 -0.062448297
000250 31 59 8e 3c d1 8f 48 bb cd 47 be bb 4b 30 c2 3c
       0.017376514 -0.00306033 -0.005806899 0.023704669
000260 08 7e 19 3d 9f de 39 3d f5 cf 35 bd 16 b8 32 ba
       0.03747371 0.045378324 -0.044387776 -0.0006817592
000270 98 4a 35 bd 79 d3 95 bd 94 d4 0e bd 7a 2b c3 3c
       -0.04426059 -0.07315726 -0.0348707 0.023824442
000280 c2 c6 49 3d 58 12 5d bd 7a 99 2e bd ed 87 0c bd
       0.049261816 -0.053972572 -0.042626835 -0.034309316
000290 d0 2f b1 bc 07 eb f3 bc 39 18 84 bb 44 15 d6 bc
       -0.021629244 -0.029775156 -0.004031208 -0.026133187
0002a0 9d 88 fd 3c 05 31 b2 bc de 55 cc bc 1e 62 74 3d
       0.030948931 -0.02175189 -0.024943288 0.059663884
0002b0 ed ce 94 3c df ba bb 3c ce 3b 0d bd 29 90 13 bd
       0.018165076 0.022916256 -0.034480862 -0.036026154
0002c0 12 af 60 3c 43 74 8d 3b 6e 91 59 bb da ae 63 3d
       0.013713615 0.004316838 -0.0033198255 0.055586673
0002d0 52 13 e7 bc c9 98 a0 bc 65 3b 6f bd 05 16 b1 bc
       -0.028207455 -0.019604104 -0.058406252 -0.021616945
0002e0 02 fa 68 bb 57 56 0d bd ec 7d 0f 3d 42 29 82 3c
       -0.0035549407 -0.03450617 0.035032198 0.015888814
0002f0 dd e2 38 bd 8e fc 3a 3c 93 bd 8e bc 92 d8 34 3d
       -0.04513823 0.011412753 -0.01742438 0.04415185
000300 06 53 9b bc ec 48 23 bb 95 5e 12 bd 52 44 eb bc
       -0.018960487 -0.002491529 -0.03573473 -0.028719101
000310 df c5 0f 3c 5a ce 9f 3c 48 26 50 bd ed bf 77 3d
       0.0087752035 0.019507576 -0.050817758 0.06048577
000320 30 a8 3f bd 87 a5 8e 3c a3 df 7e 3c bf 96 a5 bc
       -0.046791255 0.017412914 0.015556249 -0.020213483
000330 72 24 58 bd f9 1c 6c bc 96 da d5 3b d2 15 12 bd
       -0.052769132 -0.0144112045 0.0065263016 -0.03566534
000340 f8 93 13 3d e6 a2 3a bd cf e1 af 3b 2c 73 d7 3b
       0.036029786 -0.04556551 0.0053674947 0.006575009
000350 73 60 bb bc 6f 84 88 bc 7e 90 7e bd 1d 7a 84 bb
       -0.022873139 -0.016664712 -0.062149517 -0.0040428774
000360 5a f8 42 bd 90 74 28 3d 98 4f c0 3c 8e c2 f4 3b
       -0.047600128 0.041126788 0.023475453 0.007469482
000370 45 00 8d 3c e8 37 0f 3d e1 2b 74 bd 65 42 22 bd
       0.017212043 0.034965426 -0.05961216 -0.0396141
000380 58 be 3b bd 84 9a 12 bd 7b 3b 50 3d 74 f8 3f bd
       -0.045835823 -0.03579189 0.050837975 -0.046867803
000390 ff 24 84 3d 72 83 24 bc 25 4f 8d 3d 96 f5 28 3d
       0.06452369 -0.010041105 0.06899861 0.041249834
0003a0 4b 3a 4d bc 8c ab f8 3c 4a ab f4 bb a5 53 e9 bc
       -0.012526105 0.030355237 -0.0074667083 -0.028482268
0003b0 90 ff c6 bc 5e e5 ed 3c 56 cf 84 bc a6 1e 00 3d
       -0.024291784 0.029040035 -0.016212147 0.03127923
0003c0 e9 da 94 3c cc 84 1a bc b6 57 0f bd a6 59 c4 ba
       0.01817079 -0.009431075 -0.034995757 -0.0014980331
0003d0 a7 8a db bc 12 74 47 bd 5a 4c 90 bd b0 a6 7e bd
       -0.026799513 -0.048694678 -0.07045813 -0.062170684
0003e0 47 7b 4a 3a 0d 78 4c 3c b2 9c d5 bc 62 61 f4 bc
       0.0007724058 0.012479794 -0.026075695 -0.029831592
0003f0 6c 91 1f ba c3 49 8e 3c 7e e7 a4 bc cc cb 6b 3d
       -0.0006087038 0.017369157 -0.020129915 0.057567403

layers.2.weight f4 [1, 264]
000000 49 a6 35 3d 2d a1 bf 3d 28 cb 42 bd d9 cd ba bd
       0.044348035 0.09356914 -0.047557026 -0.091212936
000010 b3 47 c3 3d 28 56 2d 3d 2d ce 5b bd c3 c4 b6 3d
       0.0953516 0.042318493 -0.05366342 0.08924248
000020 15 6b 81 bd 3a ac 95 3d 1b 87 b4 3d 40 74 be 3d
       -0.063192524 0.0730824 0.08814832 0.09299517
000030 dc 14 a0 bd 20 a4 99 bd ad 6b 39 3d 7e 0c b3 3d
       -0.078164786 -0.075020075 0.045268703 0.08742617
000040 a0 49 9b bd af e5 82 bd d2 c1 43 3d 43 25 a9 3d
       -0.07582402 -0.06391465 0.047792263 0.0825906
000050 63 51 4a bd 4e 96 a3 bd 7d 0d 7e 3d e9 65 9d bd
       -0.049394023 -0.07987653 0.062024582 -0.076854534
000060 a2 d9 74 3d 0a 70 47 bd 5b 75 c9 3d fe 99 9e bd
       0.059777863 -0.048690833 0.09836837 -0.077442154
000070 4c de c6 3d bb 84 51 bd 78 88 96 3d 21 18 3f 3d
       0.097103685 -0.051151972 0.07350248 0.04665387
000080 58 4b 4c 3d ca 9c a6 bd d5 6f 9c bd 94 09 b1 3d
       0.04987654 -0.08135374 -0.07638518 0.08644405
000090 58 6a 36 bd d0 59 82 3d 1e 10 a8 3d 99 38 ab bd
       -0.04453501 0.063647866 0.08206199 -0.083604045
0000a0 37 b8 8e 3d 17 2f 77 3d aa 87 bf 3d 07 b7 c6 bd
       0.0696873 0.060347643 0.09352048 -0.097028784
0000b0 f7 2e 9d bd 1d 63 70 bd a2 00 66 bd 51 d3 14 bd
       -0.076749735 -0.05868827 -0.056152947 -0.03633434
0000c0 3f f7 4d bd 92 53 83 3d e6 60 5e 3d 94 50 5b 3d
       -0.05028462 0.06412424 0.05429163 0.053543642
0000d0 10 4f a7 3d 83 c5 9d 3d e9 b0 97 bd 72 ed b8 3d
       0.08169377 0.07703688 -0.0740679 0.09029664
0000e0 99 a7 6a 3d f0 dd 0e bd c3 66 be 3d a6 95 8d 3d
       0.05728874 -0.034879625 0.09296944 0.06913309
0000f0 ca b9 65 bd f9 60 7f 3d b2 a6 9d 3d c9 d5 93 3d
       -0.056085385 0.06234834 0.0769781 0.07218511
000100 51 cb 11 bd 7f b4 44 3d 72 60 58 bd f6 c1 6d bd
       -0.03559429 0.048023697 -0.052826352 -0.058046304
000110 dc 49 1b 3d bc 38 ba 3d 0d 39 40 3d aa a6 ac 3d
       0.037912235 0.090928525 0.046929408 0.08430226
000120 2d a4 0f 3d 78 fd a7 3d 9d e3 24 bd 28 39 75 bd
       0.03506868 0.08202642 -0.04025613 -0.05986896
000130 32 c9 93 3d e8 fb 8e bd 20 dc 45 3d ee 83 5c bd
       0.07216109 -0.06981641 0.04830563 -0.053836755
000140 0e b8 50 3d bc c9 90 bd 3a ca 95 bd 13 3f a7 bd
       0.05095678 -0.07069728 -0.07313962 -0.08166327
000150 94 8b 8a bd b3 ae 71 3d 01 ac 9e bd 01 a2 5f bd
       -0.06764904 0.059004497 -0.07747651 -0.05459786
000160 fc 83 a3 bd ed 6f b9 3d 01 22 36 bd 51 2b 34 bd
       -0.079841584 0.09054551 -0.044466022 -0.043986622
000170 33 8b a7 3d e7 ff 8b 3d da b8 39 bd 3d b6 ba 3d
       0.08180847 0.06835919 -0.045342304 0.091167904
000180 0b 06 94 bd 32 2c 80 bd ab 5e 61 3d 98 f7 91 bd
       -0.07227715 -0.062584296 0.055021923 -0.07127303
000190 0b cd c2 3d 9a 6a 19 bd 6d cf 91 bd 03 44 2b 3d
       0.09511765 -0.03745518 -0.071196415 0.041812908
0001a0 c9 03 6f bd a2 b4 13 bd 12 d7 87 bd a2 3d 81 3d
       -0.05835322 -0.036060937 -0.06632818 0.06310584
0001b0 b0 41 a3 bd 40 60 47 3d 17 fe 85 bd 34 be 51 bd
       -0.07971513 0.048675776 -0.065426044 -0.051206782
0001c0 e3 2e b1 3d 89 29 9f bd 27 1b c4 bd bb 0f 6a bd
       0.08651521 -0.07771594 -0.095754914 -0.057143908
0001d0 0e 07 9a bd 21 82 88 3d 3c 2e 5c bd 11 67 c8 3d
       -0.07520877 0.06665445 -0.05375503 0.09785283
0001e0 f5 55 8a bd b1 0a aa bd 69 e1 4b bd 3b 71 98 3d
       -0.06754676 -0.083028205 -0.049775515 0.07443472
0001f0 a9 b3 3a bd eb 17 1a bd 85 8a bd 3d 70 c2 91 bd
       -0.045581494 -0.037620466 0.09254936 -0.07117164
000200 4a 20 8c bd a5 12 ad 3d 3c 06 46 bd 6e 32 93 bd
       -0.06842096 0.08450822 -0.04834579 -0.07187353
000210 89 c9 44 bd 51 48 54 bd 50 09 6c 3d 6d 27 ce 3d
       -0.04804376 -0.05182678 0.05762607 0.100661136
000220 48 a4 a0 3d 2d 30 c0 bd 7f b5 c2 bd ad 4e bf 3d
       0.07843834 -0.09384189 -0.09507274 0.09341178
000230 7e a6 b4 bd 01 aa a9 3d df c1 8c bd 5e d7 45 3d
       -0.08820818 0.08284379 -0.068729155 0.048301093
000240 d9 90 bf bd bb 8a 94 bd 35 0a 75 bd 91 80 5d bd
       -0.093537994 -0.07253023 -0.059824187 -0.05407769
000250 e7 44 5b bd 47 97 a7 3d 92 0d bf bd bc d7 53 3d
       -0.053532507 0.08183151 -0.0932876 0.051719412
000260 2a e3 7b 3d 39 9d 73 3d 22 c9 7c bd e1 d8 32 bd
       0.061495937 0.05947611 -0.061715253 -0.043663863
000270 72 44 b7 bd ac 19 88 bd 70 cc 0f bd ac a2 36 3d
       -0.08948602 -0.066455215 -0.035107076 0.04458873
000280 30 cd c9 3d 88 22 3b bd b3 1c a6 bd 46 ca aa bd
       0.098535895 -0.04568723 -0.08110943 -0.08339362
000290 69 fb 1b 3d bf 10 bc bd 44 4e 0f 3d 4b 5c 8b bd
       0.03808156 -0.091828816 0.03498675 -0.06804713
0002a0 12 ab 85 bd dd de 64 bd d5 c1 a3 3d 7c 22 83 3d
       -0.0652677 -0.0558766 0.07995955 0.06403062
0002b0 cb 9a 0b bd 62 6c 27 bd 8f 74 4e bd c8 9a 27 3d
       -0.03408317 -0.040874846 -0.050404128 0.040919095
0002c0 89 af 8c 3d e7 b7 43 bd d8 34 99 bd 56 f3 2a 3d
       0.06869418 -0.047782805 -0.07480782 0.04173597
0002d0 4f 75 5a 3d 4b f5 7b bd 0b fc 8f bd 5c 51 c7 3d
       0.05333453 -0.061513226 -0.07030495 0.09732315
0002e0 9d 99 4c 3d f2 0a 8b 3d 1c 8b 10 3d 10 1e 3d bd
       0.049951185 0.06789197 0.035288915 -0.046171248
0002f0 fa 87 94 bd 4c 7e 9b 3d ba 4a c3 3d c3 51 2b 3d
       -0.07252498 0.075924486 0.09535737 0.04182602
000300 95 4b a2 bd a3 3c 2d bd 1f a6 84 bd 0e 33 74 3d
       -0.079245724 -0.042294156 -0.064769976 0.059619002
000310 5a f6 83 3d 86 5e 79 3d 5d 8c c7 bd b8 88 8b 3d
       0.06443472 0.06088116 -0.09743569 0.068131864
000320 95 7f 1f 3d a2 0a 47 3d 46 74 ae 3d 8e e9 53 3d
       0.03894003 0.048594125 0.08518271 0.051736407
000330 81 bd bd bd 26 86 8f 3d 5b 90 c0 3d 62 e8 8b bd
       -0.092646606 0.07008009 0.094025336 -0.06831433
000340 11 0b b4 3d fa d5 a6 3d bb 86 63 bd f6 b2 38 bd
       0.08791173 0.081462815 -0.05554841 -0.045092545
000350 2f f3 98 3d f2 4c af 3d 6b 92 2d bd 64 53 8b 3d
       0.074682586 0.08559598 -0.042375963 0.06803015
000360 e6 96 c3 bd b6 d4 88 3d 75 64 bc bd 39 53 9f bd
       -0.09550266 0.066811964 -0.09198848 -0.07779545
000370 f0 1b 31 3d 5c 29 9e bd be 45 61 bd 2a f4 53 bd
       0.043239534 -0.077227324 -0.054998152 -0.051746525
000380 31 ff 6d bd b3 6f c4 bd 0e be 1a 3d 0f 75 86 bd
       -0.058104698 -0.095916174 0.037778907 -0.06565296
000390 a6 fd 75 3d 6a 57 2b 3d 72 4c 0b 3d c7 f6 90 3d
       0.06005635 0.04183141 0.03400845 0.07078319
0003a0 42 9a cb bd f2 9c 83 3d 93 0f 74 bd d9 0c 84 bd
       -0.09941532 0.06426419 -0.059585165 -0.06447763
0003b0 5b a5 55 3d 2b cf 8e 3d e4 f9 b0 3d 8b 50 a4 bd
       0.05215965 0.06973108 0.08641413 -0.08023175
0003c0 7b c4 0e 3d e3 e2 51 3d 9f ae 8c bd 3e 22 5c 3d
       0.034855347 0.051241767 -0.06869244 0.053743593
0003d0 bd c5 8d bd 94 c5 32 bd 63 f9 99 bd ac 93 88 bd
       -0.06922481 -0.043645456 -0.0751827 -0.06668791
0003e0 00 8e 97 bd a8 c0 be bd 24 4a a0 3d a0 ba 92 3d
       -0.07400131 -0.0931409 0.07826641 0.07164502
0003f0 14 3d 6d 3d 8b 81 04 3d 93 5e 96 3d f4 bc 21 3d
       0.057919577 0.032350104 0.07342257 0.03948684
