critic.pth (torch, 71386 bytes, 29 tensors)

projection.layers.0.weight f4 [10, 2]
0.029897053 0.3008131 0.21210313 -0.3503496 -0.5016119 0.4169678 0.12732291 0.55757016
0.291735 -0.09624165 -0.09678931 0.51588094 0.22247508 -0.018797074 0.2381543 -0.06276365
-0.27470696 0.29856038 0.62698776 0.33657753
00000000: aaea f43c 2d04 9a3e 9031 593e 0661 b3be
00000010: a369 00bf ce7c d53e f060 023e ebbc 0e3f
00000020: 4a5e 953e 581a c5bd 7939 c6bd c610 043f
00000030: 82d0 633e 52fc 99bc b9de 733e 3b8a 80bd
00000040: 64a6 8cbe e8dc 983e 4582 203f e453 ac3e

projection.layers.0.bias f4 [10]
0.39693952 0.5903255 0.22740185 0.38797554 -0.47394264 -0.6603514 -0.40877628 -0.33553424
0.13713923 0.64990103
00000000: a83b cb3e 921f 173f 08dc 683e bba4 c63e
00000010: 9ca8 f2be ca0c 29bf 204b d1be 25cb abbe
00000020: 3a6e 0c3e ea5f 263f

projection.layers.1.weight f4 [10, 4]
0.3382566 -0.41172045 0.2698095 -0.30674204 0.37972572 -0.4395352 -0.11909204 0.097345136
-0.15111798 -0.42222202 -0.28099757 -0.022603929 0.47129324 0.30126673 -0.13636398 -0.08338479
0.32868987 0.09388973 -0.053831633 0.50144947 0.43198988 -0.07751431 -0.42293695 -0.20856152
0.44518644 -0.060822368 0.005447529 -0.13058752 -0.081710145 0.055102594 0.17918591 -0.084950075
-0.07210941 0.015443461 0.23288181 0.4127686 0.0097762365 0.57675415 -0.084788986 0.34644523
00000000: f82f ad3e 06cd d2be 7924 8a3e 4b0d 9dbe
00000010: 696b c23e c20a e1be 87e6 f3bd e35c c73d
00000020: acbe 1abe 7c2d d8be eade 8fbe e02b b9bc
00000030: 594d f13e a23f 9a3e 00a3 0bbe a5c5 aabd
00000040: 0a4a a83e 4249 c03d 8f7e 5cbd fe5e 003f
00000050: c72d dd3e d3bf 9ebd 318b d8be 2791 55be
00000060: 7aef e33e e020 79bd 2f81 b23b bcb8 05be
00000070: a657 a7bd 42b3 613d 837c 373e 4efa adbd
00000080: 19ae 93bd 9206 7d3c 9278 6e3e 6856 d33e
00000090: 822c 203c 29a6 133f d9a5 adbd 4561 b13e

projection.layers.1.bias f4 [10]
-0.24102566 0.5575057 -0.0012761354 0.5417151 0.28172165 0.30254406 -0.4528041 0.32651818
-0.40139294 0.40335912
00000000: 6ecf 76be b2b8 0e3f 0044 a7ba d7ad 0a3f
00000010: d23d 903e 0ee7 9a3e f0d5 e7be 642d a73e
00000020: 6083 cdbe 1685 ce3e

projection.layers.2.weight f4 [10, 4]
0.3071227 -0.4153841 0.076100975 0.38265252 -0.45778567 -0.09611899 -0.13817012 0.28436804
0.16552365 -0.15553093 -0.08888459 -0.39546984 0.18361972 0.49536446 -0.15070134 0.1048849
0.3648182 0.39743808 -0.14273408 0.12685132 0.17962141 0.285946 0.36922604 0.43883294
0.439039 0.0010467145 -0.49035764 0.0510541 0.34284312 -0.29718497 -0.4384127 -0.36162445
-0.0816525 0.09438025 0.48492852 0.10696363 -0.22820073 -0.01627772 -0.1362482 0.25744364
00000000: 303f 9d3e 3aad d4be d4da 9b3d 08eb c33e
00000010: e262 eabe 08da c4bd 787c 0dbe b098 913e
00000020: 087f 293e 8043 1fbe 2009 b6bd 067b cabe
00000030: cf06 3c3e 69a0 fd3e 7451 1abe e5cd d63d
00000040: 73c9 ba3e 017d cb3e e228 12be 50e5 013e
00000050: adee 373e 8467 923e 320b bd3e b6ae e03e
00000060: b8c9 e03e e931 893a 2810 fbbe 1b1e 513d
00000070: 2289 af3e a128 98be a177 e0be d726 b9be
00000080: 6d39 a7bd 6f4a c13d 8d48 f83e bf0f db3d
00000090: 74ad 69be da58 85bc a684 0bbe a7cf 833e

projection.layers.2.bias f4 [10]
-0.16827631 -0.27074403 -0.34223473 0.4840899 -0.33558252 -0.032452844 -0.40692404 0.16154695
0.14897034 0.4967249
00000000: a050 2cbe f69e 8abe 6439 afbe a2da f73e
00000010: 79d1 abbe 46ed 04bd 5958 d0be 906c 253e
00000020: ae8b 183e ba52 fe3e

projection.layers.3.weight f4 [10, 4]
0.5433814 -0.3252732 -0.2548043 0.5828295 -0.038063765 -0.42718303 -0.30975765 -0.2663204
0.122252226 -0.37111682 -0.118540764 -0.015534103 -0.3351159 -0.33292043 -0.22138232 -0.29883683
-0.16863161 0.43674996 -0.25931025 -0.42511082 -0.40246123 -0.4124086 -0.111994684 -0.10412979
-0.41979444 -0.4187408 -0.048827864 0.4397871 -0.009269476 -0.4924087 -0.23064995 -0.2247634
0.22837833 -0.07544565 -0.46747848 0.36913776 -0.46741158 0.31244037 -0.4977647 0.45957112
00000000: 0b1b 0b3f 358a a6be b675 82be 5034 153f
00000010: c0e8 1bbd bcb7 dabe 8e98 9ebe 265b 88be
00000020: 605f fa3d 0603 bebe 80c5 f2bd c082 7ebc
00000030: 5094 abbe 8c74 aabe 0cb2 62be 2401 99be
00000040: c4ad 2cbe b19d df3e 50c4 84be 20a8 d9be
00000050: 660f cebe 3827 d3be 785d e5bd 0042 d5bd
00000060: 4cef d6be 3265 d6be baff 47bd c62b e13e
00000070: 00df 17bc fe1c fcbe 802f 6cbe 6028 66be
00000080: 02dc 693e 4083 9abd 5759 efbe a0ff bc3e
00000090: 9250 efbe 2ff8 9f3e 04db febe e84c eb3e

projection.layers.3.bias f4 [10]
0.20637962 -0.41819316 -0.30725127 -0.082054555 -0.2919143 -0.4950121 -0.037281275 -0.38132113
0.1650692 -0.4508525
00000000: 2e55 533e 6a1d d6be 0a50 9dbe 380c a8bd
00000010: cb75 95be 3a72 fdbe 40b4 18bd 863c c3be
00000020: e607 293e 24d6 e6be

projection.layers.4.weight f4 [10, 4]
0.28650996 -0.051327042 0.13264155 -0.38023552 -0.090012856 -0.05397028 0.3194163 0.22007188
-0.3486032 -0.241947 0.25347483 -0.24320143 0.25522155 -0.25094596 -0.0020295302 -0.2492794
-0.015308797 -0.06276399 -0.3387943 -0.069958806 -0.086140946 0.27651408 0.24169713 -0.25547653
-0.36067548 -0.11047283 0.033201534 0.2620665 0.04472618 -0.4872287 0.21858248 0.46424544
0.51090866 0.3202282 0.0054101925 -0.1253827 0.25123137 0.08132587 0.11483082 -0.05462816
00000000: 6fb1 923e 4e3c 52bd 30d3 073e 3bae c2be
00000010: a958 b8bd f10f 5dbd 898a a33e 865a 613e
00000020: 1e7c b2be f4c0 77be 74c7 813e cc09 79be
00000030: 66ac 823e fd7b 80be de01 05bb 1943 7fbe
00000040: c0d1 7abc 688a 80bd 7276 adbe 9046 8fbd
00000050: aa6a b0bd 4193 8d3e 747f 773e d2cd 82be
00000060: 75aa b8be 943f e2bd 55fe 073d 952d 863e
00000070: cd32 373d 0a76 f9be 16d4 5f3e 94b1 ed3e
00000080: e9ca 023f f3f4 a33e fc47 b13b 5364 00be
00000090: 66a1 803e 2d8e a63d 6c2c eb3d c7c1 5fbd

projection.layers.4.bias f4 [10]
-0.0062831007 0.60982525 -0.35459495 -0.010749775 -0.18599832 -0.3114874 0.30320475 -0.42698154
0.3890452 -0.07778116
00000000: 78e2 cdbb 821d 1c3f 788d b5be d31f 30bc
00000010: 5876 3ebe 477b 9fbe a73d 9b3e 539d dabe
00000020: ef30 c73e bb4b 9fbd

projection.layers.5.weight f4 [10, 1]
0.78282356 0.2793451 -0.041617274 -0.2553303 -0.20572697 0.063552596 -0.12659024 -0.25608146
0.7551699 -0.40625688
00000000: 2067 483f 5206 8f3e e076 2abd a7ba 82be
00000010: 17aa 52be dd27 823d dfa0 01be 1c1d 83be
00000020: d152 413f e700 d0be

projection.layers.5.bias f4 [10]
-0.7838894 0.15161575 -0.28716493 0.18839243 1.313437 1.6404387 0.1450379 -0.48331845
1.0890205 1.2759713
00000000: faac 48bf 2941 1b3e 4807 93be f2e9 403e
00000010: b41e a83f e5f9 d13f d184 143e 8475 f7be
00000020: 0665 8b3f 0753 a33f

projection.layers.6.weight f4 [10, 1]
0.7279487 -0.06610314 -0.0034591025 -0.9358953 -0.72633845 0.2786227 0.9556746 -0.9679954
-0.59031355 -0.2249018
00000000: d95a 3a3f 1561 87bd 1cb2 62bb d696 6fbf
00000010: 51f1 39bf a2a7 8e3e 17a7 743f 8cce 77bf
00000020: ca1e 17bf a84c 66be

projection.layers.6.bias f4 [10]
-0.08863097 0.6444356 0.29437143 0.19443418 0.79270625 0.6458146 0.24372615 -0.024891973
-0.84637535 -0.9150208
00000000: 2784 b5bd bbf9 243f dab7 963e c119 473e
00000010: ccee 4a3f 1b54 253f 5993 793e 40ea cbbc
00000020: 0eac 58bf ce3e 6abf

projection.layers.7.weight f4 [10, 1]
-0.8464273 -0.019591376 -0.51845384 0.24125302 -0.3733939 0.3128717 0.30127203 -0.23903179
0.34392262 0.16959107
00000000: 76af 58bf 187e a0bc 64b9 04bf 080b 773e
00000010: 7c2d bfbe b830 a03e 5440 9a3e c0c4 74be
00000020: a016 b03e 48a9 2d3e

projection.layers.7.bias f4 [10]
-0.6810267 0.6445752 -0.24773812 -0.31636477 -0.4286579 -0.10049018 -0.8996422 -0.4250989
0.05843685 -0.27041602
00000000: c457 2ebf e102 253f 10af 7dbe 90fa a1be
00000010: 0c79 dbbe cccd cdbd f44e 66bf 90a6 d9be
00000020: 7a5b 6f3d f873 8abe

projection.layers.8.weight f4 [10, 1]
-0.49866593 0.8260902 0.2564782 0.00065910816 -0.27994406 -0.9933758 0.84344983 -0.2717762
0.9054815 0.18836355
00000000: 2451 ffbe a67a 533f 1c51 833e 00c8 2c3a
00000010: d454 8fbe e04d 7ebf 54ec 573f 4026 8bbe
00000020: a3cd 673f 60e2 403e

projection.layers.8.bias f4 [10]
0.6598233 -0.6494149 -0.6801399 -0.15093148 -0.7685077 -0.9303783 0.91180456 0.81315136
0.34042084 0.47359124
00000000: 2eea 283f 0e40 26bf a61d 2ebf c88d 1abe
00000010: ecbc 44bf 462d 6ebf 066c 693f b02a 503f
00000020: a44b ae3e 8d7a f23e

projection.layers.9.weight f4 [10, 1]
-0.6568699 -0.3851397 0.30847228 -0.85368264 0.1912153 -0.72708607 0.7022192 0.48782027
-0.5442877 0.6800766
00000000: a028 28bf 0831 c5be 14f0 9d3e f28a 5abf
00000010: f2cd 433e 5022 3abf a3c4 333f 94c3 f93e
00000020: 7056 0bbf 8019 2e3f

projection.layers.9.bias f4 [10]
-0.73768914 -0.08028245 -0.65587795 0.29815322 0.25166827 0.25054637 -0.40460587 0.27863482
-0.04802823 -0.017199932
00000000: 32d9 3cbf 206b a4bd 9ee7 27bf 8aa7 983e
00000010: aada 803e 9d47 803e 8028 cfbe 39a9 8e3e
00000020: 40b9 44bd dfe6 8cbc

attention.attention.0.weight f4 [64, 100]
0.12501124 0.025674636 0.10112096 0.004324429 0.090227775 0.021491801 0.032685604 0.08799807
0.097627155 0.1170068 -0.05144611 0.075632416 0.07422116 0.021219335 0.06970355 0.03209038
0.037544135 0.19354469 0.12667605 0.10526955 0.10810252 0.022762077 0.08924152 0.048329767
0.109690815 0.18699943 0.061788965 0.09317109 0.15156311 0.05049091 0.08538143 0.059250187
-0.05216358 0.06844962 -0.0046944423 -0.028484821 -0.0007947988 0.07017528 0.10418121 0.1597374
0.04864939 0.22478838 -0.067512356 0.08882628 -0.063365355 0.078575924 0.019165082 0.03526957
0.014216447 0.06120175 0.1089647 0.07090904 0.06973753 0.15821482 0.046228103 0.1267698
0.13995788 0.03405397 0.04821514 0.06431902 -0.024161436 0.20974924 0.10526255 0.022985592
-0.013490759 0.1670506 0.05955754 -0.095502675 0.039305758 -0.041321874 0.093352966 0.111765265
0.030875623 -0.06832073 -0.025855912 0.09792166 0.0009948254 0.015284002 -0.023236573 0.05926144
0.013141796 0.09868279 0.086728744 0.03385544 0.0045021414 0.0044818046 0.17833741 0.06606886
0.060884684 0.037317194 -0.02515911 -0.06753134 -0.09414043 0.1178852 0.20990503 0.121261895
0.011008604 0.0038466393 -0.0895796 0.14446989 0.08555225 -0.00811745 0.14098318 0.09406962
-0.03625244 -0.011352599 -0.0059009553 0.013626314 0.091225356 0.15105967 -0.04085451 0.07258806
-0.013097811 0.06293886 0.117398486 0.018323556 0.05726893 0.08103683 -0.05678249 0.1407666
0.118063614 -0.042728193 0.069536306 0.012445539 0.110677436 0.025466816 0.011870014 0.10832851
0.1635525 0.032392617 0.15980339 0.04626863 0.035862625 -0.05075797 0.03220181 0.022294212
0.037507474 0.089335136 0.048882708 0.113491096 0.097379364 0.20432512 -0.05814835 -0.06658095
0.08919572 -0.03576824 0.086248755 0.0673766 0.01984193 -0.04499053 0.044680804 0.056472152
-0.09500798 0.105809085 0.05828044 0.21997453 0.19918704 0.04119153 0.17611961 0.13656996
-0.04959564 0.08375538 0.15839253 0.20021798 0.059485912 -0.018446706 0.072883435 -0.0364581
0.025694823 -0.07147276 0.06860282 0.14234036 -0.02201202 -0.086469345 -0.05839312 0.0009978415
0.07119018 -0.09040644 -0.040309988 0.019213034 0.13806531 0.025594484 -0.09874713 -0.019657766
-0.07205458 -0.07684491 0.041412678 0.112470254 0.02846343 0.010067288 0.09963407 0.013809728
0.09464045 0.16727762 0.1219946 0.07473839 -0.041500013 0.0015598164 -0.04728954 0.15295637
0.03433415 -0.10657009 -0.054197665 -0.12839705 -0.06003758 0.017895961 -0.03931427 0.07788672
0.017676173 0.026281724 -0.0035730742 -0.03687244 0.0115276575 -0.11885561 -0.06736479 -0.025374128
0.08653096 -0.04877506 -0.09889548 -0.06776957 -0.052786037 0.05267665 0.08002233 -0.047702406
0.057909902 -0.071875714 0.07366378 0.06889914 0.03246569 -0.038601734 0.023994256 -0.09589013
-0.040680896 -0.011875487 -0.045017265 -0.048352458 0.029376881 0.0089002615 -0.11924396 -0.07317678
-0.06352894 -0.074229285 0.0022452832 -0.0070406315 -0.08407611 0.011964588 0.024239557 -0.05669211
0.047126766 0.046999153 -0.09075573 0.06944136 -0.07239707 0.047150217 -0.070513256 -0.035078757
00000000: f202 003e 9d53 d23c 8218 cf3d f1b3 8d3b
00000010: 57c9 b83d 930f b03c 57e1 053d 5538 b43d
00000020: bff0 c73d 43a1 ef3d 28b9 52bd 2be5 9a3d
00000030: 4301 983d 2cd4 ad3c bcc0 8e3d 3471 033d
00000040: e1c7 193d 9430 463e 5eb7 013e 9097 d73d
00000050: db64 dd3d 8977 ba3c 42c4 b63d 6ff5 453d
00000060: 94a5 e03d c77c 3f3e 6d16 7d3d 7cd0 be3d
00000070: 5c33 1b3e 8ecf 4e3d 76dc ae3d 53b0 723d
00000080: 7aa9 55bd 502f 8c3d d6d3 99bb 0059 e9bc
00000090: 0b5a 50ba 0fb8 8f3d f55c d53d 3392 233e
000000a0: 9544 473d ed2e 663e eb43 8abd 8dea b53d
000000b0: b2c5 81bd 6aec a03d 1700 9d3c d376 103d
000000c0: 1aec 683c b0ae 7a3d e228 df3d c238 913d
000000d0: 8dd2 8e3d 1103 223e ae59 3d3d f1cf 013e
000000e0: 1e51 0f3e 2d7c 0b3d 3d7d 453d b1b9 833d
000000f0: 34ee c5bc 81c8 563e e493 d73d 484c bc3c
00000100: 5808 5dbc 500f 2b3e 9bf2 733d e896 c3bd
00000110: 13ff 203d 2041 29bd d72f bf3d 30e5 e43d
00000120: e0ee fc3c bdeb 8bbd c7cf d3bc 278b c83d
00000130: cd64 823a c069 7a3c a05a bebc 20bc 723d
00000140: b050 573c 341a ca3d d79e b13d 00ac 0a3d
00000150: b386 933b 1adc 923b 159e 363e 1c4f 873d
00000160: 3862 793d ead9 183d 7a1a cebc df4d 8abd
00000170: b3cc c0bd cc6d f13d 58f1 563e 2858 f83d
00000180: 6f5d 343c e617 7c3b 8275 b7bd eaef 133e
00000190: 0536 af3d 0eff 04bc e55d 103e 93a7 c03d
000001a0: 707d 14bd 4000 3abc cd5c c1bb e740 5f3c
000001b0: 5cd4 ba3d 63af 1a3e 0f57 27bd 0ca9 943d
000001c0: 3398 56bc 17e6 803d 9e6e f03d 481b 963c
000001d0: d392 6a3d a3f6 a53d c294 68bd 1f25 103e
000001e0: 56cb f13d c203 2fbd 0d69 8e3d 60e8 4b3c
000001f0: daaa e23d c99f d03c 727a 423c 56db dd3d
00000200: 4e7a 273e 1fae 043d 80a3 233e 2d84 3d3d
00000210: b0e4 123d 97e7 4fbd 0ce6 033d 5aa2 b63c
00000220: 70a1 193d 57f5 b63d 3c39 483d 056e e83d
00000230: d56e c73d 9b3a 513e f72c 6ebd 985b 88bd
00000240: 3fac b63d b881 12bd 30a3 b03d befc 893d
00000250: 8b8b a23c fd47 38bd 3803 373d 584f 673d
00000260: 8b93 c2bd 6fb2 d83d 78b7 6e3d 0141 613e
00000270: b0f7 4b3e 73b8 283d b358 343e ffd8 0b3e
00000280: cc24 4bbd f187 ab3d a731 223e f105 4d3e
00000290: 80a7 733d 8c1d 97bc e943 953d 1755 15bd
000002a0: f37d d23c 4f60 92bd a37f 8c3d acc1 113e
000002b0: 8d52 b4bc d716 b1bd a02d 6fbd 01ca 823a
000002c0: 28cc 913d 0327 b9bd 161c 25bd a764 9d3c
000002d0: fe60 0d3e 86ab d13c ef3b cabd 5309 a1bc
000002e0: 5a91 93bd dd60 9dbd 57a0 293d ce56 e63d
000002f0: 242c e93c 44f1 243c f30c cc3d 3342 623c
00000300: dad2 c13d d34a 2b3e 4ed8 f93d 7110 993d
00000310: ebfb 29bd c172 cc3a adb2 41bd 98a0 1c3e
00000320: f7a1 0c3d 6b41 dabd 5ffe 5dbd 847a 03be
00000330: f7e9 75bd 8d9a 923c 0008 21bd 1383 9f3d
00000340: 9fcd 903c c54c d73c 3d2a 6abb 8e07 17bd
00000350: 80de 3c3c 926a f3bd 8df6 89bd 67dd cfbc
00000360: 2537 b13d 5bc8 47bd b789 cabd c6ca 8abd
00000370: 2c36 58bd 79c3 573d bfe2 a33d 9963 43bd
00000380: ef32 6d3d 9333 93bd 09dd 963d fe1a 8d3d
00000390: befa 043d da1c 1ebd 9a8f c43c 0b62 c4bd
000003a0: 03a1 26bd 6791 42bc 0664 38bd 3a0d 46bd
000003b0: c9a7 f03c 67d2 113c 2d36 f4bd b5dd 95bd
000003c0: 761b 82bd 8605 98bd 9a25 133b 19b5 e6bb
000003d0: 1830 acbd 1f07 443c 0992 c63c fc35 68bd
000003e0: ff07 413d 2f82 403d 24de b9bd 4637 8e3d
000003f0: ea44 94bd 9620 413d 4169 90bd beae 0fbd

attention.attention.0.bias f4 [64]
0.044249028 0.107511416 0.03665153 0.07307192 0.16900383 0.09113198 0.10516058 0.016552249
0.055888936 0.11449591 0.13924563 0.017832309 0.026046231 0.18137744 -0.07795165 0.10533237
0.12739938 0.016842492 0.009826665 0.12942635 0.037342124 0.08761128 0.022831721 0.008906623
0.012701222 0.011801095 0.08694062 0.047124546 0.1413945 -0.04412484 0.08233689 0.065213345
0.087626524 -0.05868029 0.18093786 -0.09065361 0.054352324 0.15104288 0.17483062 0.07501357
0.11956938 0.1883004 -0.017136632 0.06268918 0.2020628 0.16947934 0.0665611 0.04139313
0.0641512 0.008992348 0.17624539 0.09286421 0.16266982 0.11099633 0.08237046 0.009088851
0.16477442 0.07314272 0.082484305 0.03819968 0.0852281 0.1834778 0.053757578 0.032174423
00000000: 783e 353d f22e dc3d ea1f 163d bba6 953d
00000010: 570f 2d3e 67a3 ba3d 6e5e d73d 9598 873c
00000020: cceb 643d d57c ea3d 6896 0e3e 1015 923c
00000030: e85e d53c 02bb 393e 1da5 9fbd 7fb8 d73d
00000040: fc74 023e 44f9 893c 0500 213c 5788 043e
00000050: 0ef4 183d 8b6d b33d 9709 bb3c 16ed 113c
00000060: c918 503c 6159 413c ec0d b23d ab05 413d
00000070: b8c9 103e 40bc 34bd 3ea0 a83d 938e 853d
00000080: 8975 b33d be5a 70bd c647 393e 9aa8 b9bd
00000090: 8ba0 5e3d fcaa 1a3e cc06 333e b7a0 993d
000000a0: cbe0 f43d d2d1 403e 1f62 8cbc 2f63 803d
000000b0: 8de9 4e3e fe8b 2d3e 3051 883d d88b 293d
000000c0: b461 833d a454 133c ac79 343e 972f be3d
000000d0: eb92 263e 0b52 e33d d8b1 a83d 67e9 143c
000000e0: a0ba 283e dacb 953d 88ed a83d 4577 1c3d
000000f0: 128c ae3d 9be1 3b3e e830 5c3d 54c9 033d

attention.attention.2.weight f4 [10, 64]
0.026579315 -0.032510605 -0.008644463 -0.0069023813 -0.16117752 -0.09867259 0.003290782 -0.12905811
0.016775524 -0.11326412 0.026678916 -0.021844316 -0.17114101 -0.0599886 -0.056935888 -0.09121211
0.034221828 -0.12820087 -0.059723943 -0.17752899 -0.03808368 -0.06737821 0.047924403 -0.10835918
-0.15588462 -0.12387167 -0.16413343 0.01122953 -0.18734297 -0.03881457 -0.13431054 0.029872213
-0.0039298576 -0.055841673 -0.18649632 -0.020199515 -0.14083695 -0.12396521 -0.10315938 -0.045722835
-0.12522048 -0.05452268 -0.08400111 -0.0035608478 -0.17337108 -0.14809795 -0.158294 0.05320865
-0.10856362 -0.03555874 -0.0014122489 -0.19567694 -0.15006937 -0.034110334 -0.1713496 -0.026956664
0.002660821 -0.17684019 -0.009541571 -0.04382385 -0.16998765 -0.108375445 -0.14293343 -0.109878205
-0.0117431395 -0.085325524 0.042138524 -0.103475235 -0.1931211 0.03833223 -0.089919336 -0.052960478
-0.10952835 -0.1869084 -0.04952649 -0.06991451 -0.075174056 -0.20686506 0.0151108345 -0.044855237
-0.10484846 0.011148827 -0.10643384 -0.002485524 -0.10581131 -0.15568754 -0.041006267 -0.20679979
-0.11513724 0.02490444 0.031128507 -0.20072986 -0.14281984 -0.08182715 -0.06682929 -0.06595681
-0.119583234 -0.09102691 -0.14294095 -0.15626489 0.026587956 -0.014097228 -0.19153516 -0.13345091
-0.03805543 -0.21109691 -0.1884327 -0.05598037 -0.031482514 -0.020015528 -0.2112504 0.05849431
-0.12797888 -0.14329632 -0.07068729 -0.15246652 -0.15160182 -0.06321451 -0.013734021 -0.16238977
-0.018374497 -0.06358679 0.01928639 -0.08362739 -0.1288422 -0.08917086 -0.15672173 -0.1729685
-0.009449428 -0.13277839 0.006495329 0.031128325 -0.15717667 0.017096156 -0.00929724 -0.048757937
-0.10282212 -0.16256937 -0.18059361 -0.057338614 0.045399215 -0.06929824 -0.10787758 -0.09457279
-0.1749677 0.007984092 -0.040840216 -0.019309077 -0.10493498 -0.07658155 -0.16694275 -0.03289455
-0.07577134 -0.19889031 0.007431204 -0.05424988 -0.16513175 -0.15093273 -0.17085476 -0.021533681
-0.1394224 -0.0110450955 -0.18487337 0.04975651 0.014086051 -0.14527577 -0.03593585 0.009421749
-0.09972563 -0.018761132 0.05227448 -0.05122301 0.023234148 0.0013126613 -0.04432939 0.009016436
-0.18824817 -0.1310859 -0.043970205 -0.05396638 -0.15622576 -0.20683134 -0.11373521 -0.03622996
-0.13745709 -0.19732639 -0.076386616 -0.14379211 -0.19892165 -0.09377514 -0.11956987 0.037503365
-0.19391783 -0.16242613 -0.15968588 -0.09217669 -0.20993364 -0.032761138 -0.13988106 0.015745366
-0.046834618 0.019441435 -0.07111282 -0.17941757 -0.10973416 -0.0031656844 0.06720707 0.016953684
-0.13612601 -0.20869818 -0.012146862 -0.06476664 -0.17646857 -0.05867711 -0.09565245 -0.11389734
-0.11304082 -0.05168151 -0.19795668 -0.067615345 0.008141898 -0.019839147 0.030643115 -0.16960329
0.010489793 -0.12176033 -0.20645422 -0.16170217 0.020610236 0.0090182675 -0.1973011 -0.020925395
-0.11882521 -0.008467377 -0.12766065 -0.14791685 0.03380401 0.033412855 -0.0667949 0.03035274
-0.124950424 -0.20592952 -0.13251853 -0.07005531 -0.06872651 -0.004720833 -0.03814114 -0.14070946
-0.14085695 -0.08141873 -0.17100649 -0.18913576 -0.16795254 -0.10290995 -0.16199473 -0.10769409
00000000: ddbc d93c d729 05bd 81a1 0dbc 5f2d e2bb
00000010: b80b 25be db14 cabd 29aa 573b cf27 04be
00000020: d36c 893c 05f7 e7bd be8d da3c daf2 b2bc
00000030: 973f 2fbe 9bb6 75bd 9b35 69bd 6acd babd
00000040: 302c 0c3d 1747 03be 18a1 74bd 29ca 35be
00000050: a2fd 1bbd 96fd 89bd 614c 443d 6beb ddbd
00000060: 38a0 1fbe 6eb0 fdbd 9812 28be 10fc 373c
00000070: d6d6 3fbe 07fc 1ebd b488 09be 92b6 f43c
00000080: 09c6 80bb 3dba 64bd e4f8 3ebe 7479 a5bc
00000090: 9037 10be 79e1 fdbd 3a45 d3bd de47 3bbd
000000a0: cc39 00be 2c53 5fbd c608 acbd 1d5d 69bb
000000b0: 3088 31be fda6 17be d317 22be 50f1 593d
000000c0: 9a56 debd 0ba6 11bd 361b b9ba 895f 48be
000000d0: c9ab 19be 47b7 0bbd 4576 2fbe 39d4 dcbc
000000e0: 2b61 2e3b 9815 35be 4054 1cbc a380 33bd
000000f0: 3e11 2ebe f2f3 ddbd 245d 12be d307 e1bd
00000100: 4c66 40bc 26bf aebd 7299 2c3d d3ea d3bd
00000110: 8ac1 45be 4202 1d3d a127 b8bd 16ed 58bd
00000120: 6650 e0bd ea64 3fbe 4adc 4abd 572f 8fbd
00000130: dbf4 99bd 6fd4 53be 6f93 773c 20ba 37bd
00000140: caba d6bd 92a9 363c fcf9 d9bd 2ce4 22bb
00000150: 9ab3 d8bd 8e6c 1fbe 30f6 27bd 53c3 53be
00000160: 13cd ebbd 6504 cc3c 3601 ff3c 218c 4dbe
00000170: 5d3f 12be fe94 a7bd cbdd 88bd 5d14 87bd
00000180: 0ee8 f4bd 516c babd 1d5f 12be e703 20be
00000190: fcce d93c 0ff8 66bc cb21 44be 5ba7 08be
000001a0: 03e0 1bbd ca29 58be 80f4 40be ac4b 65bd
000001b0: cff3 00bd 9bf7 a3bc 0652 58be bb97 6f3d
000001c0: e50c 03be 45bc 12be 7fc4 90bd 2f20 1cbe
000001d0: 823d 1bbe 9c76 81bd a904 61bc 8149 26be
000001e0: 1d86 96bc ca39 82bd 7efe 9d3c d644 abbd
000001f0: 36ef 03be 369f b6bd a97b 20be a81e 31be
00000200: c6d1 1abc 0ff7 07be c5d6 d43b d400 ff3c
00000210: ecf2 20be 3d0d 8c3c 7353 18bc 67b6 47bd
00000220: 6794 d2bd 9678 26be 88ed 38be e5db 6abd
00000230: 87f4 393d 3cec 8dbd ecee dcbd 61af c1bd
00000240: bc2a 33be b6cf 023c 1248 27bd 122e 9ebc
00000250: 27e8 d6bd cad6 9cbd 0af3 2abe 70bc 06bd
00000260: 012e 9bbd e7a9 4bbe 7581 f33b 1f35 5ebd
00000270: 4c18 29be 1c8e 1abe 8df4 2ebe 6767 b0bc
00000280: bfc4 0ebe 7df6 34bc 724f 3dbe 7bcd 4b3d
00000290: 2ec9 663c 2cc3 14be 7831 13bd ae5d 1a3c
000002a0: f33c ccbd f2b0 99bc c41d 563d 38cf 51bd
000002b0: 8a55 be3c 9b0d ac3a bc92 35bd acb9 133c
000002c0: 21c4 40be 623b 06be 1a1a 34bd da0b 5dbd
000002d0: a5f9 1fbe 98cb 53be 01ee e8bd de65 14bd
000002e0: 8dc1 0cbe ee0f 4abe 9670 9cbd 3d3e 13be
000002f0: 1eb2 4bbe 2e0d c0bd 0ce1 f4bd 219d 193d
00000300: 6592 46be 0953 26be b284 23be 22c7 bcbd
00000310: d8f8 56be 8b30 06bd fb3c 0fbe 6dfc 803c
00000320: a8d5 3fbd a543 9f3c 99a3 91bd 3db9 37be
00000330: 4ebc e0bd 5f77 4fbb dca3 893d 74e2 8a3c
00000340: 9e64 0bbe fab4 55be a203 47bc 5fa4 84bd
00000350: 2db4 34be 6957 70bd 6fe5 c3bd 0243 e9bd
00000360: f281 e7bd feaf 53bd 28b5 4abe ea79 8abd
00000370: 9865 053c b585 a2bc 4507 fb3c 7cac 2dbe
00000380: 61dd 2b3c 7b5d f9bd bc68 53be 4195 25be
00000390: ccd6 a83c 5bc1 133c 4d09 4abe bc6b abbc
000003a0: a25a f3bd c1ba 0abc 79b9 02be 8477 17be
000003b0: 1376 0a3d ebdb 083d c4cb 88bd 4fa6 f83c
000003c0: 02e6 ffbd 30df 52be f0b2 07be 2979 8fbd
000003d0: 7cc0 8cbd 38b1 9abb e239 1cbd 2416 10be
000003e0: ce3c 10be ddbe a6bd 531c 2fbe ceac 41be
000003f0: c0fb 2bbe 74c2 d2bd f2e1 25be b88e dcbd

attention.attention.2.bias f4 [10]
0.016118066 0.01956226 -0.07114147 -0.16803133 -0.0018811785 0.026885025 0.045244694 -0.01901942
0.046277195 -0.12249042
00000000: 090a 843c 0841 a03c 9eb2 91bd 6810 2cbe
00000010: e091 f6ba fc3d dc3c 8052 393d 9dce 9bbc
00000020: 288d 3d3d 42dc fabd

layers.0.weight f4 [22, 100]
-0.0899231 -0.06722031 -0.07136444 0.027039636 -0.0024297 0.045743585 -0.089233175 0.0004790187
-0.083855286 0.043319214 0.028291572 0.06389489 -0.04231037 0.07126548 -0.0045975684 0.012393392
-0.02905047 0.01623155 -0.004432726 -0.012778533 0.097355776 0.038157403 -0.07966274 -0.013394189
-0.011501503 -0.033157207 0.02134732 0.008542264 0.040703665 0.04463316 0.014287961 0.0051161884
0.0035545111 -0.056235123 -0.089013495 0.020849025 -0.06307967 0.027732586 0.042618204 -0.08838731
0.013400353 -0.06380268 -0.005973411 -0.027008891 0.08811813 0.0044919136 -0.06025088 -0.025987243
-0.044389762 -0.036475874 0.09530761 -0.08787044 -0.069913924 -0.014778388 -0.047344316 0.052983105
-0.097961836 -0.059908092 0.03208084 0.014467955 -0.034219433 0.09258564 0.07939521 -0.060972143
-0.07868949 -0.070136584 0.035721432 -0.07672491 0.046761967 0.07787184 -0.018268062 -0.03251758
-0.08115893 -0.032850325 -0.07666383 -0.06463132 0.069119945 -0.09278566 0.0124389175 0.09693439
0.044666078 -0.044567704 -0.08824368 -0.04726981 -0.042225577 -0.019699514 -0.025999546 -0.056648623
-0.05350825 0.09411558 0.019776797 -0.002342391 0.068247996 -0.013330913 -0.04056275 0.08863709
0.056685913 0.010067666 0.0794688 -0.015920913 -0.0012805939 0.053863287 0.057705592 0.08229189
0.061583053 -0.034020044 0.041816305 0.06569099 0.06417581 0.06280563 -0.040317655 0.09861421
-0.078766756 -0.058487892 0.043963432 0.08626508 0.07314437 -0.023840535 0.08039627 0.069652915
0.09496786 0.087021545 -0.0091968775 -0.071982615 0.012495697 -0.073090754 -0.028081656 0.009920264
0.008708144 -0.025616204 -0.062211573 -0.084611736 -0.04046127 -0.074280314 -0.00022921563 0.020941496
0.053505924 -0.09804924 -0.0026980997 -0.06712281 0.087486066 -0.054866005 -0.0920737 -0.028119791
-0.09113498 -0.08905429 -0.05699251 -0.040731695 -0.02955469 0.03190428 -0.0693905 0.09081198
0.03881371 0.09957985 0.03903879 -0.064693525 -0.08697499 -0.09661221 -0.017198706 0.070863545
-0.04494686 -0.080871515 0.06476843 0.06759759 0.03536688 0.09066155 -0.024836993 0.0015165567
0.036985386 -0.096411385 -0.087948024 0.06058642 -0.0708076 -0.016317738 0.09213525 0.05610266
-0.027083768 -0.080916956 0.022602737 0.030510176 0.06318199 -0.018931448 0.0107481005 0.042754102
-0.06135234 0.044226147 0.037778854 0.0794243 -0.036523294 -0.05679175 -0.06460706 0.00629102
0.01400547 0.003630364 -0.05716014 -0.033632793 -0.09557318 -0.01899389 0.004389453 0.09105229
0.033768274 0.03713403 -0.020437086 0.025949884 -0.0376269 -0.027163887 0.03756993 -0.044083107
-0.04491178 -0.09752077 0.009333253 0.048252452 0.058776 0.0037038922 0.0654906 0.00032411815
-0.07505987 0.052832674 0.04757731 0.075146034 -0.09589046 -0.0135576725 0.006289518 -0.09726828
0.019997096 0.085752405 0.06974091 0.096384265 -0.08349413 0.040125776 -0.0925773 -0.09174297
0.041665137 -0.01732092 -0.0071656704 0.005488479 0.0138219595 0.08265149 0.03405578 0.055418383
-0.061933316 0.0040246486 0.0934275 0.021227205 -0.07240071 0.04604235 -0.083187595 0.091450825
0.021340419 0.05990554 0.000680387 0.057244565 -0.03555126 -0.046281744 -0.06590829 -0.03553952
00000000: 9a29 b8bd cdaa 89bd 8527 92bd 3a82 dd3c
00000010: 9a3b 1fbb a05d 3b3d e2bf b6bd cd24 fb39
00000020: 52bc abbd 7d6f 313d bac3 e73c 53db 823d
00000030: a34d 2dbd a3f3 913d 33a7 96bb a70d 4b3c
00000040: 40fb edbc 07f8 843c 6740 91bb 0d5d 51bc
00000050: 7762 c73d f04a 1c3d 3826 a3bd 4d73 5bbc
00000060: cd70 3cbc dacf 07bd 93e0 ae3c daf4 0b3c
00000070: e3b8 263d 43d1 363d 0d18 6a3c b3a5 a73b
00000080: cdf2 683b cd56 66bd b54c b6bd 93cb aa3c
00000090: ea2f 81bd 732f e33c 6d90 2e3d 6804 b5bd
000000a0: 278d 5b3c fbaa 82bd 9abc c3bb c041 ddbc
000000b0: 4777 b43d e730 933b a0c9 76bd 33e3 d4bc
000000c0: 0ad2 35bd ba67 15bd a330 c33d 6bf5 b3bd
000000d0: 082f 8fbd 0d21 72bc 1dec 41bd d004 593d
000000e0: 37a0 c8bd 3062 75bd 3367 033d 000b 6d3c
000000f0: ad29 0cbd 8a9d bd3d f599 a23d edbd 79bd
00000100: f527 a1bd c5a3 8fbd a350 123d f321 9dbd
00000110: 7a89 3f3d 457b 9f3d e7a6 95bc 2731 05bd
00000120: a736 a6bd 108e 06bd ed01 9dbd 6d5d 84bd
00000130: c28e 8d3d 6806 bebd 9acc 4b3c 8a85 c63d
00000140: c7f3 363d a08c 36bd 1ab9 b4bd fd9d 41bd
00000150: baf4 2cbd e060 a1bc 00fd d4bc 6308 68bd
00000160: 772b 5bbd abbf c03d f302 a23c cd82 19bb
00000170: 9bc5 8b3d e769 5abc 2025 26bd 5d87 b53d
00000180: 7d2f 683d daf2 243c 8ac0 a23d 936c 82bc
00000190: 9ad9 a7ba c09f 5c3d b35c 6c3d a788 a83d
000001a0: 833e 7c3d 9a58 0bbd 9347 2b3d ff88 863d
000001b0: 9b6e 833d 3da0 803d 2024 25bd 3ff6 c93d
000001c0: 7750 a1bd 0091 6fbd 0013 343d bfab b03d
000001d0: b7cc 953d 3a4d c3bc cda6 a43d 30a6 8e3d
000001e0: 827e c23d 5a38 b23d 80ae 16bc 9f6b 93bd
000001f0: c0ba 4c3c 9bb0 95bd 800b e6bc 9a88 223c
00000200: 9aac 0e3c 13d9 d1bc 90d1 7ebd eb48 adbd
00000210: b7ba 25bd 4720 98bd 9a59 70b9 808d ab3c
00000220: 0729 5b3d 0ace c8bd 9ad2 30bb af77 89bd
00000230: e52b b33d 2dbb 60bd 2391 bcbd 7a5b e6bc
00000240: faa4 babd 1862 b6bd fa70 69bd 47d6 26bd
00000250: ad1c f2bc 10ae 023d 9b1c 8ebd a2fb b93d
00000260: 20fb 1e3d 85f0 cb3d 23e7 1f3d 0a7e 84bd
00000270: f21f b2bd 9fdc c5bd 4de4 8cbc e820 913d
00000280: 331a 38bd f79f a5bd 50a5 843d 9b70 8a3d
00000290: dddc 103d c3ac b93d f376 cbbc 33c7 c63a
000002a0: fd7d 173d 5573 c5bd 181e b4bd 7729 783d
000002b0: 9303 91bd c7ac 85bc 68b1 bc3d e7cb 653d
000002c0: c7de ddbc cab7 a5bd 6029 b93c 7af0 f93c
000002d0: 8f65 813d 2016 9bbc cd18 303c ed1e 2f3d
000002e0: 974c 7bbd 7a26 353d 00be 1a3d 35a9 a23d
000002f0: 7399 15bd 779e 68bd b550 84bd e724 ce3b
00000300: 3377 653c 67eb 6d3b c020 6abd 8ac2 09bd
00000310: dfbb c3bd 1399 9bbc 67d5 8f3b 9f79 ba3d
00000320: 9a50 0a3d da19 183d ad6b a7bc da94 d43c
00000330: aa1e 1abd cd86 debc ede2 193d 7d90 34bd
00000340: 6af5 37bd f8b8 c7bd 80ea 183c 5da4 453d
00000350: 1abf 703d 00bd 723b f01f 863d 67ee a939
00000360: fdb8 99bd 1367 583d 6de0 423d 2ae6 993d
00000370: 3862 c4bd 0021 5ebc 4d18 ce3b 9834 c7bd
00000380: f3d0 a33c f59e af3d 52d4 8e3d 1d65 c53d
00000390: f8fe aabd ed5a 243d 2b99 bdbd bde3 bbbd
000003a0: 10a9 2a3d 9ae4 8dbc 00ce eabb b3d8 b33b
000003b0: 8075 623c 2f45 a93d 137e 0b3d 63fe 623d
000003c0: caad 7dbd 33e1 833b eb56 bf3d ade4 ad3c
000003d0: d346 94bd e796 3c3d 425e aabd 924a bb3d
000003e0: 1ad2 ae3c 835f 753d 005c 323a 4779 6a3d
000003f0: 339e 11bd ed91 3dbd edfa 86bd e391 11bd

layers.0.bias f4 [22]
-0.05394168 0.04668845 0.0779741 -0.0038231134 -0.05867498 0.09337049 -0.042401623 0.029196227
0.05982807 0.013430464 0.06288133 0.07067074 -0.026108598 0.07497432 0.0037153126 -0.008880913
0.032394815 -0.024903668 0.05590863 0.0335758 0.036940098 -0.052058946
00000000: f3f1 5cbd 633c 3f3d e3b0 9f3d 338d 7abb
00000010: 2d55 70bd 0739 bf3d 53ad 2dbd ed2c ef3c
00000020: 470e 753d 730b 5c3c edc7 803d d2bb 903d
00000030: b3e1 d5bc 238c 993d 9a7c 733b 4081 11bc
00000040: 6db0 043d c702 ccbc 7300 653d c786 093d
00000050: 804e 173d c33b 55bd

layers.1.weight f4 [250, 22]
0.13792624 0.028153874 -0.15277545 -0.042719677 -0.023125416 0.06008833 0.18893725 -0.19633433
-0.10900584 0.056344498 -0.06321149 -0.106421106 0.08293695 -0.18443026 0.15660354 -0.16783984
-0.20976025 -0.18697074 -0.017248258 0.09235677 -0.0696148 -0.07874148 0.11599726 0.20902456
0.1318804 0.013213776 -0.078658804 0.044001307 -0.15347977 -0.19059357 -0.14957693 0.058583833
-0.045084592 0.11941646 -0.08202732 0.11596478 0.1671883 -0.20626421 0.12625499 -0.16479254
-0.09363101 0.2104274 0.11211057 0.15503672 -0.0317109 -0.057185195 0.12366565 0.17636208
0.042398654 -0.07383616 -0.16561803 -0.18072836 0.13881256 -0.07346833 0.105764724 -0.02041864
-0.18739334 0.17104258 0.11819682 0.076080784 -0.1382964 -0.2009722 -0.12397915 0.05594418
0.18816194 -0.15971401 -0.08689922 -0.006427048 0.11779843 -0.091607094 -0.03870507 -0.15369272
0.05451179 0.18815178 0.13584027 0.086002156 -0.098027356 0.15909512 -0.20474948 0.09117686
0.15240271 -0.07819525 0.11975393 -0.18515968 0.12843673 -0.09876522 0.04149216 0.16878709
-0.0086074695 -0.035677016 -0.14370087 -0.16170123 0.04275023 0.095416546 0.06348328 -0.17775631
-0.04643667 0.057462987 0.026014244 0.057803653 -0.07903643 0.028696699 0.20558247 -0.0378705
0.15070872 0.04842081 -0.0070863767 -0.17036884 0.21060555 0.10744975 -0.12814392 -0.02077888
-0.12773564 0.093344904 -0.034438163 -0.045718405 0.20836163 0.12171128 -0.121419 -0.02138809
-0.20078115 -0.06657897 -0.1396919 0.2096371 -0.050143473 0.15004994 -0.028498814 0.20794228
0.12340956 -0.064754084 0.07699259 0.09762803 0.048912346 -0.1530752 0.03928058 -0.024300782
0.01749156 0.013836075 0.026720135 -0.057676423 -0.19278543 -0.09397775 -0.12884866 0.05309116
-0.15807481 0.05104534 -0.07128534 0.13524765 -0.0023300936 -0.19877923 0.16230442 0.005965807
0.03823252 0.097030506 -0.044592954 -0.13112994 0.18730499 0.12185617 -0.17211409 -0.19739288
0.072100714 0.19693287 0.14443684 -0.12632379 -0.13686845 -0.039895788 -0.00763769 -0.12407044
-0.04613189 -0.21232688 0.08546111 -0.10698622 0.15402567 0.16575631 0.12437441 0.20012243
-0.070310116 0.047447905 0.057430174 -0.09675391 -0.0429319 0.07264567 0.061661422 -0.20312814
0.101935394 -0.16036254 0.036964796 0.20984076 -0.072666414 0.17909256 0.028867034 -0.16750519
-0.16280963 0.16632235 -0.0010591658 -0.059293818 -0.060473222 -0.04863008 -0.02441904 0.02042901
0.123309456 -0.1028105 0.13189583 0.058438636 -0.20400007 -0.18768175 0.15633154 -0.16457084
-0.010373034 -0.16823931 -0.12209505 0.012807356 -0.042300705 0.19019048 0.09113159 0.040735796
0.13533106 0.16517459 0.040525965 -0.1469672 0.16053486 -0.0056390907 -0.12719154 0.022292983
-0.013743079 0.18891412 -0.058349427 -0.15802816 0.028388333 0.059747104 -0.050424796 -0.17240527
-0.112234496 0.20235452 -0.015747167 -0.1713489 0.01566228 -0.19704321 0.14506689 -0.12544286
0.10773214 -0.04184559 -0.06623594 -0.056242432 0.027305633 0.111811 0.08150178 -0.06940271
-0.0026069446 0.14203443 -0.050942052 0.17811088 0.017913917 -0.1056412 0.078807235 0.18628766
00000000: 893c 0d3e f4a2 e63c 2b71 1cbe d4fa 2ebd
00000010: 8371 bdbc 2e1f 763d c478 413e de0b 49be
00000020: 743e dfbd 7dc9 663d 0775 81bd 4ff3 d9bd
00000030: d9da a93d 49db 3cbe ae5c 203e 35de 2bbe
00000040: 64cb 56be 4275 3fbe 384c 8dbc 8c25 bd3d
00000050: 3492 8ebd 3743 a1bd f98f ed3d 890a 563e
00000060: a80b 073e 987e 583c de17 a1bd b73a 343d
00000070: cd29 1dbe f62a 43be b22a 19be 9af5 6f3d
00000080: 9faa 38bd 9e90 f43d f1fd a7bd f17e ed3d
00000090: 6933 2b3e ed36 53be fd48 013e 60bf 28be
000000a0: 9dc1 bfbd 487a 573e 3a9a e53d f2c1 1e3e
000000b0: 4ae3 01bd 063b 6abd 6b44 fd3d 4398 343e
000000c0: 36aa 2d3d 6a37 97bd c697 29be db10 39be
000000d0: e124 0e3e 9076 96bd 2d9b d83d fe44 a7bc
000000e0: 0ae4 3fbe c925 2f3e 2d11 f23d 3ed0 9b3d
000000f0: 929d 0dbe a8cb 4dbe c8e8 fdbd b925 653d
00000100: 86ad 403e 128c 23be 38f8 b1bd fc99 d2bb
00000110: 4e40 f13d 809c bbbd 3589 1ebd a061 1dbe
00000120: c147 5f3d dcaa 403e b619 0b3e e621 b03d
00000130: 91c2 c8bd d5e9 223e d9a9 51be efba ba3d
00000140: 750f 1c3e d524 a0bd 8c41 f53d 809a 3dbe
00000150: eb84 033e 6b45 cabd aff3 293d 86d6 2c3e
00000160: 5806 0dbc 1022 12bd 5226 13be 0295 25be
00000170: dd1a 2f3d c069 c33d 8603 823d c005 36be
00000180: 6134 3ebd 4f5e 6b3d d31b d53c 86c3 6c3d
00000190: dadd a1bd 5715 eb3c 3684 523e 191e 1bbd
000001a0: 6353 1a3e e654 463d d634 e8bb 2b75 2ebe
000001b0: fba8 573e 9d0e dc3d 2938 03be 7838 aabc
000001c0: 22cd 02be 9d2b bf3d 080f 0dbd 3943 3bbd
000001d0: c05c 553e c343 f93d 86aa f8bd 1336 afbc
000001e0: 9399 4dbe 8e5a 88bd 650b 0fbe 1cab 563e
000001f0: 3e63 4dbd b1a6 193e 5876 e9bc d2ee 543e
00000200: 27be fc3d ca9d 84bd 4bae 9d3d 34f1 c73d
00000210: 5058 483d bfbf 1cbe ace4 203d 6f12 c7bc
00000220: 764a 8f3c b4b0 623c 2fe4 da3c 1d3e 6cbd
00000230: 8b69 45be 6877 c0bd e7f0 03be 1e76 593d
00000240: 5dde 21be eb14 513d 0cfe 91bd 5c7e 0a3e
00000250: 7cb4 18bb c88c 4bbe 2133 263e d17c c33b
00000260: b499 1c3d eeb7 c63d 1aa7 36bd ed46 06be
00000270: e1cc 3f3e ba8f f93d ad3e 30be 5c21 4abe
00000280: 8aa9 933d c5a8 493e 40e7 133e 065b 01be
00000290: 3e27 0cbe c469 23bd 9645 fabb a518 febd
000002a0: cbf4 3cbd 386c 59be 3c06 af3d 971b dbbd
000002b0: e8b8 1d3e 06bc 293e 03b8 fe3d e5ec 4c3e
000002c0: c0fe 8fbd bc58 423d e73b 6b3d ea26 c6bd
000002d0: 5cd9 2fbd 41c7 943d b090 7c3d d300 50be
000002e0: 81c3 d03d 1436 24be 6668 173d 7fe0 563e
000002f0: 21d2 94bd 0a64 373e 8f7a ec3c 7b86 2bbe
00000300: 91b7 26be 6850 2a3e b5d3 8aba 13de 72bd
00000310: c5b2 77bd 5630 47bd 700a c8bc bd5a a73c
00000320: ab89 fc3d 508e d2bd b30f 073e 5a5d 6f3d
00000330: 65e5 50be a52f 40be 6015 203e 4285 28be
00000340: a8f3 29bc ed46 2cbe f80c fabd f2d5 513c
00000350: 8143 2dbd 4bc1 423e 33a3 ba3d 94da 263d
00000360: 3a94 0a3e 8723 293e 8efe 253d 927e 16be
00000370: 4063 243e 1fc8 b8bb 803e 02be c69f b63c
00000380: a72a 61bc b472 413e cfff 6ebd 22d2 21be
00000390: a68e e83c 61b9 743d 3b8a 4ebd 028b 30be
000003a0: 33db e5bd 0636 4f3e 3400 81bc 1676 2fbe
000003b0: 2f4e 803c b2c5 49be 6a8c 143e 1874 00be
000003c0: aba2 dc3d 4866 2bbd b5a6 87bd 775e 66bd
000003d0: 10b0 df3c 2afd e43d 68ea a63d 0223 8ebd
000003e0: 46d9 2abb 7971 113e 9da8 50bd b362 363e
000003f0: 35c0 923c 6a5a d8bd b065 a13d 31c2 3e3e

layers.1.bias f4 [250]
0.08841663 -0.20789455 0.18478489 0.20193319 0.11981332 -0.18333757 -0.025587315 0.05084451
-0.009202954 0.1451214 -0.15237361 0.13746907 -0.09737062 0.07559009 0.14888474 -0.13494927
-0.07321137 -0.06578077 0.08585078 -0.12876835 -0.06078487 0.084108144 0.2061332 -0.08267898
-0.0044075064 -0.13579111 -0.13749667 -0.17300196 -0.024911212 0.1193973 -0.18518843 0.13657299
0.19005522 0.06333288 -0.14289652 0.20955248 -0.027250862 -0.20113494 0.20151047 -0.0021400366
0.036005385 -0.10247257 -0.0785792 0.06623538 -0.11788126 0.20092995 -0.030077472 0.20075478
-0.07103652 -0.07131349 0.08841841 -0.20242429 -0.06508624 -0.06346781 0.13967566 -0.06390426
0.20029636 0.009678962 0.00027461455 -0.12514761 0.14441413 -0.09981808 0.14605567 -0.14376189
-0.09286821 0.15592034 0.033697173 -0.13597152 0.0011031092 0.17670055 0.18108015 -0.03561292
0.19637847 0.03299291 0.1842454 -0.017637117 0.10802269 0.14857554 0.15702063 0.17250836
-0.048684012 -0.16274923 -0.027980337 0.16612126 -0.16662863 -0.07536551 -0.07244466 0.038970027
0.12068627 -0.059714418 -0.08001752 -0.13248694 -0.048883855 -0.17169102 0.09854667 0.21022329
0.085723 -0.024060808 -0.04361982 0.08717432 0.101433694 -0.09435799 0.17214864 0.17590392
-0.15439887 0.16922434 -0.0948969 -0.1938558 0.108262226 0.045912046 0.088686086 0.008524691
-0.120375335 -0.20126872 -0.13922708 0.010173065 -0.15921935 -0.122381866 -0.19742997 -0.08000967
-0.1439652 0.0006599899 0.20613346 0.1968322 -0.15592797 0.16544613 -0.07804543 0.20488484
0.1547773 -0.05921841 0.0957822 0.1119013 0.035637725 -0.20947105 -0.10814323 0.17718776
-0.03579919 -0.025493354 0.060448926 -0.033552077 0.20478003 0.18229945 0.11906786 -0.10218599
-0.13830854 0.028840754 -0.029614834 0.018994788 0.17451532 0.005955997 0.07050762 0.16531646
-0.0979096 -0.06080904 -0.010876769 0.20232314 -0.18947768 0.09149216 -0.109181836 -0.049325727
0.06812143 0.035102017 0.037531663 0.086282365 0.0659922 0.10961477 0.008939193 -0.15838706
0.18470831 -0.099158674 0.079880275 0.19620295 0.052809585 0.039944712 0.09262709 0.16899157
-0.068565875 -0.050118133 -0.020127734 -0.114278995 -0.15798587 0.08574813 0.20559043 -0.052898537
-0.030626321 0.18064904 -0.17843316 0.0042115017 0.16863789 -0.015554544 -0.062102333 -0.16645591
-0.090907656 0.18542266 -0.06925952 -0.03995541 0.10854897 -0.18856744 0.12421857 0.005802309
-0.015511923 0.033331852 0.014762521 0.049709275 0.054519717 0.19751102 -0.055579443 -0.013872774
-0.16489144 0.054175615 0.18763511 0.058593825 -0.07975203 -0.13243157 0.07832195 0.21192394
-0.0684693 -0.1517494 0.19337386 0.07843871 0.016379049 -0.016914451 -0.01433892 0.049940884
0.07177517 -0.024669409 -0.09938787 0.19591182 0.11553856 0.0040977164 0.05527034 -0.13246132
0.024936983 0.09195986 0.028909273 -0.2129047 -0.066018835 -0.06981106 0.02964945 0.17042845
0.17412375 -0.04762294 -0.12484007 -0.17410122 0.123831436 0.1584007 -0.07820404 0.089562595
-0.1442055 -0.16396455
00000000: c713 b53d 4fe2 54be 4038 3d3e 93c7 4e3e
00000010: b060 f53d d8bc 3bbe 7d9c d1bc 5542 503d
00000020: fdc7 16bc b49a 143e d407 1cbe b1c4 0c3e
00000030: 3f6a c7bd face 9a3d 3e75 183e 2430 0abe
00000040: d8ef 95bd 11b8 86bd 89d2 af3d dadb 03be
00000050: 8ef9 78bd e440 ac3d 9514 533e 9953 a9bd
00000060: d86c 90bb d30c 0bbe edcb 0cbe 6d27 31be
00000070: 9912 ccbc 9286 f43d 09a2 3dbe cad9 0b3e
00000080: d69d 423e abb4 813d 7753 12be ed94 563e
00000090: 333d dfbc 51f6 4dbe c358 4e3e db3f 0cbb
000000a0: 627a 133d 24dd d1bd 22ee a0bd 6aa6 873d
000000b0: bb6b f1bd 95c0 4d3e 0865 f6bc a992 4d3e
000000c0: 987b 91bd cf0c 92bd b614 b53d 5048 4fbe
000000d0: ef4b 85bd 69fb 81bd 2307 0f3e 3de0 82bd
000000e0: 7d1a 4d3e 8294 1e3c 24fa 8f39 b226 00be
000000f0: 4ce1 133e 6c6d ccbd 9e8f 153e 5136 13be
00000100: b031 bebd 95a9 1f3e 0c06 0a3d 1e3c 0bbe
00000110: 3496 903a fdf0 343e 136d 393e dade 11bd
00000120: 7017 493e 9323 073d d3aa 3c3e b77b 90bc
00000130: 003b dd3d 3024 183e 04ca 203e 08a6 303e
00000140: e368 47bd bca7 26be 0537 e5bc b11b 2a3e
00000150: b2a0 2abe 3c59 9abd de5d 94bd 099f 1f3d
00000160: 5d2a f73d 1b97 74bd 3ae0 a3bd a8aa 07be
00000170: 703a 48bd c5cf 2fbe d6d2 c93d c644 573e
00000180: 8a8f af3d 2c1b c5bc b2aa 32bd 7388 b23d
00000190: 78bc cf3d c33e c1bd bc47 303e 2820 343e
000001a0: bd1a 1ebe 2549 2d3e 4e59 c2bd 2382 46be
000001b0: 96b8 dd3d 450e 3c3d 0da1 b53d 25ab 0b3c
000001c0: 5887 f6bd 6319 4ebe 8b91 0ebe edac 263c
000001d0: 660a 23be 58a3 fabd 152b 4abe 1cdc a3bd
000001e0: 9d6b 13be 2c03 2d3a a614 533e 618e 493e
000001f0: 95ab 1fbe b66a 293e 48d6 9fbd 55cd 513e
00000200: f17d 1e3e 018f 72bd 7529 c43d 822c e53d
00000210: ddf8 113d 947f 56be 337a ddbd b570 353e
00000220: 2ca2 12bd 70d7 d0bc 4b99 773d e76d 09bd
00000230: dbb1 513e b5ac 3a3e dad9 f33d e346 d1bd
00000240: c1a0 0dbe 7243 ec3c cf9a f2bc f59a 9b3c
00000250: 25b4 323e 862a c33b 4d66 903d b848 293e
00000260: d484 c8bd e612 79bd 7a34 32bc cc2d 4f3e
00000270: 7006 42be 3e60 bb3d ba9a dfbd c609 4abd
00000280: 4083 8b3d 22c7 0f3d cdba 193d cfb4 b03d
00000290: eb26 873d b57d e03d b175 123c 3830 22be
000002a0: 2d24 3d3e b413 cbbd 4598 a33d 6de9 483e
000002b0: dd4e 583d 119d 233d 46b3 bd3d 200c 2d3e
000002c0: 446c 8cbd ac48 4dbd ebe2 a4bc 1b0b eabd
000002d0: 0cc7 21be b79c af3d 4c86 523e 23ac 58bd
000002e0: 0de4 fabc 10fc 383e 2fb7 36be a300 8a3b
000002f0: 69af 2c3e 7cd8 7ebc 045f 7ebd 6b73 2abe
00000300: cb2d babd 70df 3d3e efd7 8dbd 49a8 23bd
00000310: ec4e de3d d317 41be 4e66 fe3d 4c21 be3b
00000320: b825 7ebc fb86 083d 80de 713c f49b 4b3d
00000330: 1150 5f3d 5440 4a3e 45a7 63bd a24a 63bc
00000340: 4dd9 28be 40e7 5d3d 6b23 403e 1400 703d
00000350: 0855 a3bd 249c 07be 4267 a03d 9702 593e
00000360: a239 8cbd 3264 1bbe cc03 463e 79a4 a03d
00000370: 5b2d 863c 2d90 8abc caed 6abc d08e 4c3d
00000380: dcfe 923d 8017 cabc de8b cbbd 1c9d 483e
00000390: 7b9f ec3d 2346 863b 2763 623d f1a3 07be
000003a0: a548 cc3c 7355 bc3d 24d3 ec3c b103 5abe
000003b0: e234 87bd 1af9 8ebd 67e3 f23c cc84 2e3e
000003c0: 7f4d 323e 4610 43bd 27ac ffbd 9747 32be
000003d0: 569b fd3d cb33 223e 7129 a0bd 986c b73d
000003e0: 9baa 13be 53e6 27be

layers.2.weight f4 [1, 250]
-0.029452354 0.024764147 -0.027753519 -0.017049713 0.05534195 0.028950958 0.009426742 -0.033305906
-0.027189627 -0.021856682 -0.03688822 0.04151541 0.05147024 0.01785219 0.014902392 -0.009556254
0.022678008 -0.010291155 0.026589328 -0.030821074 0.025064638 0.02501012 0.056329697 -0.051721655
-0.0416186 -0.058600746 -0.042383622 0.05332723 0.012808015 0.023894288 -0.05972233 0.011050401
0.0028643678 0.03357637 -0.004996187 0.03137732 0.0500539 -0.020616766 0.033586938 0.044781104
0.0021936502 0.010573945 -0.016114715 -0.021899845 -0.060660694 -0.06098366 0.028727677 0.05436377
-0.045327142 0.009315791 0.06075872 0.045776952 -0.052781492 -0.051671043 0.037165303 -0.008238327
0.0323 -0.030892465 0.021701755 0.03102344 -0.045380846 0.01791739 -0.01820827 -0.00038549997
-0.012779169 -0.050196808 -0.051175732 -0.05264343 -0.02064206 0.01523673 0.018202504 0.031500638
-0.047512107 -0.022434771 0.012452153 0.05741866 -0.016037632 0.05493975 0.0025468965 0.05074339
-0.018576121 0.06305345 -0.012618096 -0.033394065 -0.033915743 -0.051526744 0.020455044 0.047189243
-0.028462332 0.0041498225 -0.05250649 -0.023107206 0.0026343164 0.0018375391 0.01497168 0.032628637
-0.015758129 -0.031101376 0.028926378 0.011448537 -0.008433938 -0.0216118 0.053763438 -0.05199603
0.025833407 0.055212688 0.05085974 -0.028561838 0.04848637 0.03588416 0.054900035 -0.024393694
0.011625444 -0.0345852 -0.031391934 0.013598858 -0.007881627 0.02686773 -0.011640446 0.008693318
0.04690324 0.05294273 -0.0102548 -0.030422652 -0.051871162 -0.04199083 -0.036666498 0.0069136065
-0.040905092 0.05880451 0.0007951262 0.048064355 -0.04161907 -0.010154977 0.060297262 -0.009951706
-0.01378273 0.023420682 -0.06064425 -0.010491765 0.048443705 -0.02824313 -0.030666282 -0.023381712
0.0068836827 -0.03434856 0.048464157 0.03145821 -0.019473912 0.010828741 -0.033206135 -0.028413877
0.036143675 0.0019396686 -0.056965385 0.02283841 -0.055046238 -0.018892944 0.027380684 0.031873807
-0.04287763 -0.015973622 0.04526883 -0.026012167 -0.040265594 0.014513658 0.012039065 -0.025612064
0.023616558 0.030019887 -0.020898817 0.0051354407 -0.05509933 -0.06230391 -0.016535612 0.038262654
-0.039524335 0.045876693 0.035986636 0.041865475 0.060429916 0.010316028 -0.0062754746 0.027341237
-0.019274743 0.04674575 0.022480972 0.009997795 -0.004729841 -0.058345173 0.026893327 0.02241513
-0.023936154 0.002295041 0.0057447646 -0.042998336 -0.023346057 0.02895778 0.058305282 0.007473208
-0.052247677 0.023788134 0.018663632 0.048598383 0.006191613 0.0315484 -0.03404187 0.044565067
-0.017269887 0.057238292 -0.062257595 -0.060410593 0.008313262 -0.0059190392 -0.04828805 0.03433582
-0.02066379 -0.03540129 0.06142833 0.022983002 0.046672784 -0.0014681736 0.033742487 0.009940706
0.0013856089 0.0051731532 -0.020591449 -0.011126414 -0.037117064 0.0029652459 -0.03703049 -0.023923503
0.023475306 -0.013527174 -0.025427723 0.054571617 -0.018622443 -0.047452934 0.0506323 -0.022255685
0.018889062 -0.028385144 0.037296902 -0.047895033 0.014986118 0.00074902247 0.037279606 -0.054110594
-0.06273355 -0.043067038
00000000: 1046 f1bc 2ede ca3c 595b e3bc d7ab 8bbc
00000010: 3eae 623d 8f2a ed3c 9f72 1a3c c66b 08bd
00000020: c8bc debc c90c b3bc 1a18 17bd 100c 2a3d
00000030: 75d2 523d c23e 923c 2a29 743c d691 1cbc
00000040: 3bc7 b93c 3c9c 28bc ddd1 d93c 7a7c fcbc
00000050: 5b54 cd3c 06e2 cc3c f8b9 663d 16da 53bd
00000060: 4478 2abd 5607 70bd 739a 2dbd a76d 5a3d
00000070: b5d8 513c f4bd c33c 679f 74bd be0c 353c
00000080: 1eb8 3b3b 6087 093d 0eb7 a3bb 8185 003d
00000090: 5105 4d3d 7ee4 a8bc 7592 093d 646c 373d
000000a0: 58c3 0f3b 573e 2d3c 0203 84bc 4e67 b3bc
000000b0: 5977 78bd 01ca 79bd 4e56 eb3c 8bac 5e3d
000000c0: f4a8 39bd 42a1 183c 23de 783d 9d80 3b3d
000000d0: 6831 58bd 04a5 53bd a53a 183d 0cfa 06bc
000000e0: 014d 043d 3212 fdbc e1c7 b13c df24 fe3c
000000f0: 44e1 39bd 7ec7 923c 8329 95bc ee1c cab9
00000100: b85f 51bc 2b9b 4dbd a59d 51bd a3a0 57bd
00000110: 8a19 a9bc 7aa3 793c 6b1d 953c d006 013d
00000120: 0e9c 42bd 20c9 b7bc 1d04 4c3c d42f 6b3d
00000130: 5a61 83bc 8108 613d d5e9 263b 4dd8 4f3d
00000140: f32c 98bc 2b22 813d 21bc 4ebc 37c8 08bd
00000150: 3ceb 0abd b50d 53bd 5691 a73c 8249 413d
00000160: d629 e9bc 3cfb 873b 0c11 57bd 534b bdbc
00000170: 7fa4 2c3b 95d9 f03a c74b 753c 9ba5 053d
00000180: 3117 81bc 50c8 febc 03f7 ec3c a592 3b3c
00000190: 802e 0abc 3b0b b1bc 0d37 5c3d caf9 54bd
000001a0: 95a0 d33c b326 623d 4d52 503d 84fa e9bc
000001b0: a599 463d 45fb 123d dcde 603d 49d5 c7bc
000001c0: a578 3e3c 36a9 0dbd d494 00bd bfcd 5e3c
000001d0: f121 01bc b719 dc3c 92b7 3ebc 6b6e 0e3c
000001e0: 9d1d 403d 7ada 583d c003 28bc ed38 f9bc
000001f0: db76 54bd 94fe 2bbd 9c2f 16bd 898b e23b
00000200: 198c 27bd ffdc 703d 0470 503a 21df 443d
00000210: c278 2abd 1061 26bc 43fa 763d 7b0c 23bc
00000220: f6d0 61bc bbdc bf3c 1b66 78bd a7e5 2bbc
00000230: e86c 463d 235e e7bc db37 fbbc 018b bfbc
00000240: 8490 e13b 13b1 0cbd 5a82 463d 53da 003d
00000250: c187 9fbc 086b 313c 2803 08bd 38c4 e8bc
00000260: 640b 143d 7a3c fe3a 8954 69bd 9e17 bb3c
00000270: 2a78 61bd 60c5 9abc 754d e03c 1c8e 023d
00000280: 74a0 2fbd 1ddb 82bc cf6b 393d 7817 d5bc
00000290: 89ed 24bd b2ca 6d3c 803f 453c 64d0 d1bc
000002a0: 8377 c13c 44ec f53c ff33 abbc 3347 a83b
000002b0: d6af 61bd 6232 7fbd b175 87bc 4db9 1c3d
000002c0: 45e4 21bd 33e9 3b3d b966 133d 227b 2b3d
000002d0: 5c85 773d 8f04 293c 7fa2 cdbb bbfa df3c
000002e0: 11e6 9dbc 7978 3f3d 042a b83c cbcd 233c
000002f0: c8fc 9abb 59fb 6ebd 654f dc3c ef9f b73c
00000300: c115 c4bc 6668 163b 943e bc3b 061f 30bd
00000310: 3b40 bfbc de38 ed3c 85d1 6e3d d0e1 f43b
00000320: a901 56bd 55df c23c 79e4 983c 190f 473d
00000330: 04e3 ca3b e538 013d 7d6f 0bbd dc89 363d
00000340: 9479 8dbc b372 6a3d d201 7fbd 1971 77bd
00000350: 5934 083c 80f4 c1bb b1c9 45bd b7a3 0c3d
00000360: 1c47 a9bc f100 11bd 469c 7b3d d946 bc3c
00000370: f62b 3f3d bb6f c0ba 9035 0a3d 58de 223c
00000380: 529d b53a 8e83 a93b 66af a8bc 904b 36bc
00000390: 1008 18bd 9254 423b 48ad 17bd 39fb c3bc
000003a0: 494f c03c 14a1 5dbc cd4d d0bc 7d86 5f3d
000003b0: 188e 98bc 025e 42bd d163 4f3d 8e51 b6bc
000003c0: 3cbd 9a3c f687 e8bc a3c4 183d 952d 44bd
000003d0: 5688 753c 0c5a 443a 80b2 183d 12a3 5dbd
000003e0: 737a 80bd 1067 30bd
