critic.pth (torch, 72794 bytes, 29 tensors)

projection.layers.0.weight f4 [10, 2]
0	0xbeff260c	-0.49833715
1	0x3ea08212	0.31349236
2	0x3e20a394	0.156874
3	0xbf1ac8ec	-0.6046283
4	0x3f13ee9d	0.5778597
5	0xbf298639	-0.6622043
6	0x3e3f69f9	0.18692769
7	0x3e764b5d	0.24052186
8	0xbef79db6	-0.4836251
9	0xbf12c982	-0.57338727
10	0xbf2e3fb7	-0.6806597
11	0xbc280773	-0.010255682
12	0x3f3b3ea1	0.7314244
13	0xbec79ce9	-0.389869
14	0xbeaf4d94	-0.34238875
15	0x3e291bdb	0.16514532
16	0x3d495f2a	0.04916302
17	0x3f1c1491	0.6096888
18	0x3e757159	0.2396902
19	0xbf40213e	-0.75050724

projection.layers.0.bias f4 [10]
0	0xbf1fd412	-0.6243297
1	0xbea826ac	-0.32842004
2	0x3f35ae6e	0.70969284
3	0x3f0e191f	0.5550708
4	0x3f39a51e	0.72517574
5	0x3e1890e5	0.14899023
6	0xbeae5c67	-0.34054872
7	0x3e360d32	0.17778471
8	0x3f1b5189	0.6067129
9	0x3f1f0e00	0.6213074

projection.layers.1.weight f4 [10, 4]
0	0x3d4c41b7	0.049867358
1	0x3f03e932	0.515277
2	0x3eb64d39	0.3560579
3	0xbced8b06	-0.028996956
4	0x3e1af845	0.1513377
5	0x3ef465b1	0.47733834
6	0xbe2d36c4	-0.16915423
7	0x3e595a42	0.21225837
8	0x3dcdbffa	0.10046382
9	0x3ed68feb	0.41906676
10	0x3dbf03e3	0.09326913
11	0xbd48d0c7	-0.04902723
12	0xbd05a880	-0.032631397
13	0x3eb0f411	0.34561208
14	0x3ecd03e1	0.40042022
15	0x3e9834db	0.29727826
16	0x3e8795f8	0.26481605
17	0x3ca53367	0.020166112
18	0x3e38d7c3	0.18051057
19	0xbe081069	-0.1328751
20	0xbd5645e8	-0.05231276
21	0x3d9a760f	0.07542049
22	0x3ea2b62f	0.3177962
23	0xbeccfe7e	-0.40037912
24	0x3dfd3ec8	0.1236549
25	0xbbfa1880	-0.007632315
26	0x3cff91a0	0.03119737
27	0xbe4508f8	-0.19241703
28	0x3ec51605	0.38493362
29	0xbe7ddd10	-0.2479136
30	0x3ef31599	0.47477415
31	0x3ebc2d78	0.3675344
32	0x3e99333f	0.2992191
33	0xbdc44e80	-0.09585285
34	0x3e9f15b7	0.31071255
35	0xbeeb2c23	-0.4593211
36	0xbe073998	-0.13205564
37	0x3eb8568e	0.36003536
38	0xbe797d1c	-0.24364132
39	0x3c01bda3	0.007918748

projection.layers.1.bias f4 [10]
0	0x3c9e6ce9	0.019339042
1	0x3d60f400	0.054920197
2	0xbeb31e75	-0.34984174
3	0xbe69eba3	-0.22843795
4	0x3e06c736	0.1316193
5	0x3e1321a3	0.143683
6	0xbee36f1e	-0.44420713
7	0x3e7e2767	0.24819718
8	0x3e3654e3	0.17805819
9	0xbe444674	-0.191675

projection.layers.2.weight f4 [10, 4]
0	0xbe7c281f	-0.2462468
1	0x3d40e497	0.047093
2	0xbed1ce1d	-0.40977564
3	0x3e029d0c	0.12755221
4	0xbdbed408	-0.093177855
5	0x3e589c66	0.21153411
6	0xbe1026d6	-0.14077315
7	0x3db27eed	0.087156154
8	0x3e3be73f	0.18349932
9	0xbeb41cf1	-0.3517833
10	0x3e3cc844	0.1843577
11	0x3edc1bdb	0.42990002
12	0xbd32b6d0	-0.043631375
13	0x3e1cbca4	0.15306336
14	0xbe2db010	-0.16961694
15	0xbec2b09e	-0.38025373
16	0xbe9b314a	-0.30311042
17	0x3e5533cc	0.2082054
18	0xbe5198c8	-0.20468438
19	0xbe7822d4	-0.24232036
20	0xbee3826d	-0.44435444
21	0x3ef71257	0.4825618
22	0xbe4806ec	-0.1953389
23	0xbdc8dfa6	-0.098082826
24	0x3eee5478	0.4654882
25	0x3eb17ebc	0.34667003
26	0x3e1bd304	0.15217215
27	0x3e45006a	0.19238439
28	0x3ee10e50	0.43956232
29	0x3ee9eab3	0.45686874
30	0x3eeeda78	0.46651053
31	0x3e356757	0.17715202
32	0xbdb33750	-0.087507844
33	0xbd736960	-0.059426665
34	0xbda9c058	-0.0828864
35	0xbec747c0	-0.38921928
36	0xbeb47759	-0.35247305
37	0x3eb704d1	0.35745862
38	0x3d9bedeb	0.076137386
39	0xbe1430bd	-0.14471717

projection.layers.2.bias f4 [10]
0	0x3eff4d7a	0.49863797
1	0x3d712338	0.058871478
2	0xbecd2b20	-0.40071964
3	0xbeabef20	-0.33580875
4	0xbebca51c	-0.36844718
5	0x3cadab50	0.021199852
6	0xbea358f4	-0.31903803
7	0x3f043dda	0.5165688
8	0xbec996a8	-0.39372754
9	0x3e84af2f	0.25914904

projection.layers.3.weight f4 [10, 4]
0	0xbe7afe02	-0.24510959
1	0x3f0ac09b	0.5420014
2	0xbebd2f10	-0.36949968
3	0x3d8cd168	0.068758786
4	0x3ea461e6	0.3210594
5	0x3f02a38b	0.51030797
6	0xbdfcc1b2	-0.12341632
7	0x3df28ade	0.11842893
8	0x3c91c892	0.017795835
9	0x3e90f403	0.28311166
10	0x3e2530fb	0.16131966
11	0x3ef6b90a	0.4818805
12	0x3e8c4667	0.27397463
13	0x3c26247d	0.010140535
14	0x3ee1bcf0	0.4408946
15	0x3f0520dc	0.52003264
16	0x3e89aa83	0.26887903
17	0x3e991e6c	0.29906023
18	0x3eb2f58c	0.34952962
19	0xbeaa83c4	-0.33303654
20	0xbd8b31c5	-0.06796602
21	0x3e94ffba	0.29101354
22	0xbe45f3a6	-0.19331226
23	0x3e399dbe	0.1812658
24	0xbe0d5bec	-0.13804597
25	0xbdf1cf58	-0.11807126
26	0xbef64d8c	-0.4810604
27	0x3e689c48	0.22715867
28	0xbe4e9bb9	-0.20176591
29	0xbd417e1f	-0.04723942
30	0x3eeadf7e	0.45873636
31	0x3e1aab06	0.15104303
32	0x3e5a9fa9	0.21349968
33	0xbec37866	-0.38177794
34	0x3e065c7d	0.13121219
35	0xbe38df3c	-0.18053907
36	0xbe15c8a4	-0.1462732
37	0x3ea395b5	0.31950155
38	0x3ead621b	0.3386391
39	0x3e687f46	0.22704801

projection.layers.3.bias f4 [10]
0	0xbeb9e9f1	-0.36311296
1	0xbeb4fad9	-0.35347632
2	0x3d58d7ff	0.052940365
3	0x3e0b42e9	0.13599743
4	0x3f07dee1	0.5307446
5	0x3ea62305	0.32448593
6	0xbea03da0	-0.31297016
7	0x3ed89ea0	0.4230852
8	0xbeb26150	-0.3483987
9	0x3f06f896	0.5272306

projection.layers.4.weight f4 [10, 4]
0	0xbee70b88	-0.45125985
1	0x3efa3544	0.48868763
2	0xbefe7294	-0.4969679
3	0x3dd8e1f4	0.10589972
4	0xbeb3730c	-0.3504871
5	0xbde6d648	-0.1127134
6	0xbdda0278	-0.10645002
7	0x3de0f998	0.10985106
8	0x3e3019af	0.17197298
9	0xbe61a191	-0.22034289
10	0xbe7a37d6	-0.24435362
11	0x3ebb5e10	0.36595201
12	0x3ed8115f	0.42200753
13	0x3ea09efb	0.31371292
14	0xbe928d91	-0.28623632
15	0x3e69ea5e	0.2284331
16	0x3eb6d02d	0.357057
17	0x3ce4c04b	0.027923724
18	0xbe418a07	-0.1890031
19	0x3eab9ecd	0.33519593
20	0x3d83362a	0.06406815
21	0x3e2c2deb	0.16814391
22	0x3e9eb754	0.30999243
23	0xbe9c0c6e	-0.30478233
24	0xbefac4ec	-0.48978364
25	0xbdc0aa00	-0.09407425
26	0xbe805712	-0.2506643
27	0xbea8c82c	-0.3296522
28	0x3e500179	0.20313062
29	0x3e4c04ae	0.1992366
30	0xbe96535a	-0.29360467
31	0xbe53bb8c	-0.20677012
32	0xbdc79e3e	-0.09746979
33	0x3ea590d0	0.32337046
34	0xbe862973	-0.26203498
35	0x3e32fdef	0.1747968
36	0xbe8f755e	-0.28019232
37	0xbd32de20	-0.043668866
38	0x3d3417b0	0.043967903
39	0x3e764bfc	0.24052423

projection.layers.4.bias f4 [10]
0	0xbe3541f7	-0.17700945
1	0xbef59f0a	-0.479729
2	0xbe535461	-0.20637657
3	0x3ee03da5	0.4379703
4	0x3e235c82	0.15953258
5	0xbe8a0f8a	-0.2696498
6	0xbe936b7e	-0.28792948
7	0xbe48f9c4	-0.19626528
8	0x3e98344f	0.29727408
9	0xbed5e69c	-0.41777503

projection.layers.5.weight f4 [10, 1]
0	0x3f6179be	0.8807639
1	0x3e42bc76	0.19017205
2	0x3ec39b28	0.38204312
3	0xbedd1bbc	-0.43185222
4	0xbf163146	-0.58668935
5	0xbf7177ab	-0.94323224
6	0xbf7523aa	-0.95757544
7	0xbd24f613	-0.040273737
8	0xbf7e24ea	-0.99275076
9	0xbf0205da	-0.5079018

projection.layers.5.bias f4 [10]
0	0xbf37198c	-0.71523356
1	0x3f505b11	0.81388956
2	0xbe8e989c	-0.27850807
3	0xbf7ca8ec	-0.98695254
4	0xbd7178c0	-0.058953047
5	0x3f7fec41	0.9996987
6	0x3f13cf4c	0.57738185
7	0x3e7887b7	0.24270521
8	0xbe970e0c	-0.29502904
9	0x3f299848	0.6624799

projection.layers.6.weight f4 [10, 1]
0	0x3eaa757c	0.33292758
1	0xbd3985c0	-0.04529357
2	0x3f40e089	0.75342613
3	0xbeaa9b80	-0.33321762
4	0xbedfbac0	-0.43697166
5	0xbe8d9984	-0.27656186
6	0x3f3c9e21	0.73678786
7	0xbdf83241	-0.1211896
8	0xbd6feb80	-0.0585742
9	0x3f595e75	0.84909755

projection.layers.6.bias f4 [10]
0	0xbec36a54	-0.3816706
1	0xbdfcc910	-0.12343037
2	0x3eecf7be	0.46282762
3	0xbf4e362a	-0.805514
4	0xbde2e770	-0.110792994
5	0xbcff1000	-0.03113556
6	0x3f0826cb	0.53184193
7	0x3e1b51ba	0.15167895
8	0xbf7fe852	-0.9996387
9	0xbf550129	-0.83204895

projection.layers.7.weight f4 [10, 1]
0	0xbf2dfdfa	-0.6796566
1	0x3eee0633	0.46489105
2	0xbf6150d2	-0.88013947
3	0x3f2c884f	0.6739549
4	0xbf1e3f68	-0.618155
5	0xbf6c8a1a	-0.92398226
6	0xbf30d0e8	-0.69068766
7	0x3f23afd3	0.6394016
8	0xbe150f88	-0.14556706
9	0xbe5e2d9a	-0.21697083

projection.layers.7.bias f4 [10]
0	0x3d7beff0	0.06150812
1	0xbd9b9f9a	-0.07598801
2	0x3ed41f71	0.41430238
3	0x3f1dc72b	0.6163203
4	0xbe832358	-0.25612903
5	0xbf121a70	-0.5707159
6	0x3f63397a	0.8875958
7	0x3ec927c0	0.3928814
8	0xbf628e04	-0.8849795
9	0x3ee94fdf	0.4556875

projection.layers.8.weight f4 [10, 1]
0	0x3d1ad6ad	0.037802387
1	0xbdee1790	-0.11625588
2	0x3d392ba0	0.04520762
3	0x3f6f8b7f	0.9357223
4	0x3d4b95d9	0.049703453
5	0xbf61fef8	-0.88279676
6	0x3e5dd9e3	0.21665148
7	0x3de9e0d0	0.11419833
8	0xbf70dff0	-0.940917
9	0x3f3f9de6	0.7485031

projection.layers.8.bias f4 [10]
0	0x3f514062	0.81738865
1	0xbecb6c0c	-0.3973087
2	0xbf7238d0	-0.9461794
3	0x3edd6da3	0.4324771
4	0x3f4969e1	0.78677183
5	0xbf76626a	-0.9624392
6	0xbe17751d	-0.14790769
7	0xbf5ca0e4	-0.86183
8	0xbf3c47b0	-0.73546886
9	0xbe2fe355	-0.17176564

projection.layers.9.weight f4 [10, 1]
0	0x3f325430	0.6965971
1	0x3f1ea238	0.61966276
2	0x3f059fa2	0.52196705
3	0xbdde9bf0	-0.108695865
4	0x3e5fd868	0.21859896
5	0xbe96cabd	-0.29451552
6	0x3e878ae7	0.26473162
7	0xbf3d9b76	-0.7406534
8	0xbf7f376e	-0.99693954
9	0xbf7580bc	-0.9589956

projection.layers.9.bias f4 [10]
0	0x3e9b219e	0.30299085
1	0xbc8b6c79	-0.017019497
2	0x3f2f274e	0.6841935
3	0xbf3bb20a	-0.7331854
4	0xbf679bd0	-0.90472126
5	0x3f3a76e9	0.7283769
6	0xbc2297b4	-0.009923864
7	0xbe8d9454	-0.27652228
8	0x3f7e1544	0.992512
9	0xbf41f638	-0.75766325

attention.attention.0.weight f4 [64, 100]
0	0xbd9e9018	-0.077423275
1	0xbd1e75ca	-0.03868655
2	0x3cfe525f	0.031045137
3	0xbd9b7d72	-0.07592286
4	0xbc95bcea	-0.018278558
5	0xbdb8d7e0	-0.0902555
6	0x3d303b87	0.04302552
7	0x3cf5de23	0.03001315
8	0xbdc90b19	-0.0981657
9	0x3cfed6cf	0.031108288
10	0xbd6c1723	-0.057639252
11	0x3d532cc0	0.05155635
12	0xbd1002a3	-0.035158765
13	0x3d6a69dc	0.05722986
14	0xbc9209b7	-0.017826898
15	0xbdfe9cdd	-0.12432263
16	0x3ce27c44	0.027647145
17	0x3d5684c9	0.052372728
18	0xbdbf851a	-0.09351559
19	0xbd0bac78	-0.034100026
20	0x3da11571	0.07865418
21	0x3d879ec6	0.066220805
22	0x3d9a6353	0.07538476
23	0x3d84c68d	0.06483183
24	0x3d6acaea	0.05732242
25	0xbc62aee2	-0.013835641
26	0x3d8ea311	0.06964696
27	0x3dbcdac8	0.09221417
28	0x3cdf6044	0.027267583
29	0xbba7a7e4	-0.0051164497
30	0xbcedc926	-0.02902658
31	0x3d87cd4a	0.06630953
32	0x3d37239a	0.044711687
33	0x3dddd09a	0.10830803
34	0xbd91956f	-0.0710858
35	0x3d102580	0.035192013
36	0xbbe022b0	-0.0068400726
37	0xbd2fa0b2	-0.04287786
38	0x3d31a581	0.043370727
39	0x3da58f24	0.080839425
40	0x3dd0fe42	0.10204746
41	0x3da84991	0.08217157
42	0x3e0b433c	0.13599867
43	0xbd36b734	-0.04460831
44	0x3dee2ae4	0.116292745
45	0xbd094c63	-0.033520114
46	0xbd41559a	-0.047200777
47	0xbd79c526	-0.06097903
48	0x3de6a267	0.112614445
49	0x3dc5b885	0.09654335
50	0x3dcc75b2	0.09983386
51	0xbceb001e	-0.02868658
52	0x3ce612b6	0.028085094
53	0x3d362202	0.044466026
54	0x3d002cba	0.031292655
55	0xbd7891b9	-0.060685847
56	0xbdc09363	-0.09403112
57	0xbd097792	-0.033561297
58	0x3c99776c	0.018733703
59	0x3d156cba	0.036480643
60	0xbdb904a5	-0.09034089
61	0xbd178974	-0.03699632
62	0xbcde0410	-0.027101547
63	0xbd3c99a3	-0.046044957
64	0x3d886c5d	0.06661294
65	0x3db6fbd7	0.089347534
66	0xb885dc36	-6.382952e-05
67	0x3c4af3f8	0.012387268
68	0x3d5688d2	0.052376576
69	0xbdb0011f	-0.08593964
70	0x3c98fd67	0.01867552
71	0x3d644e2f	0.055738624
72	0xbb04d2de	-0.0020267288
73	0x3d3c010c	0.045899436
74	0x3dc13e39	0.09435696
75	0x3d1d9692	0.038473673
76	0xbd5f4a45	-0.05451419
77	0x3d15fce7	0.03661814
78	0xba77b300	-0.00094489753
79	0xbcf0a42e	-0.029375162
80	0x3d457941	0.04821134
81	0xbc262e58	-0.010142885
82	0x3d030316	0.031985365
83	0xb8d926db	-0.00010354604
84	0xbd99f4fa	-0.07517429
85	0xbc3ef1a8	-0.011654295
86	0x3c9da3a8	0.019243076
87	0x3d09deee	0.033659868
88	0xbcdfa1b8	-0.027298793
89	0x3da77e26	0.08178358
90	0xbd082634	-0.03323956
91	0xbd1f17e8	-0.03884116
92	0xbca64e5a	-0.020301033
93	0xbdc271f7	-0.09494393
94	0xbb7ed960	-0.003888689
95	0xbd513446	-0.051075242
96	0x3d7f6676	0.062353574
97	0xbd986066	-0.074402615
98	0xbdbb274b	-0.09138354
99	0xbd3820fd	-0.044953335
100	0x3d612bda	0.05497346
101	0xbd16bf50	-0.036803544
102	0x3d3dea4d	0.046366025
103	0x3d55acc1	0.052166704
104	0x3dab689c	0.08369562
105	0xbcc215b7	-0.023691995
106	0x3c11104b	0.008853982
107	0xbc5ac4ce	-0.013352586
108	0x3b8f08fb	0.004365084
109	0x3cd4c3a2	0.025972191
110	0x3d0f853c	0.03503917
111	0xbd1de0a7	-0.038544323
112	0xbde0b719	-0.10972423
113	0xbda97b55	-0.08275477
114	0xbca58c88	-0.020208612
115	0xbe03e893	-0.12881689
116	0x3d5be592	0.053685732
117	0x3c4be604	0.012444977
118	0xbde6a88d	-0.11262617
119	0xbc5aced0	-0.013354972
120	0x3ce484b9	0.027895318
121	0x3db56249	0.08856637
122	0x3e0be670	0.13662124
123	0x3c2261b0	0.009910986
124	0x3b17cd60	0.0023163185
125	0x3dff2e14	0.124599606
126	0x3c2b9377	0.01047217
127	0x3dc9acb9	0.09847397
128	0x3d6c0252	0.0576194
129	0x3dad1a2a	0.08452256
130	0x3ce771a6	0.028252434
131	0xbdaf02e4	-0.08545473
132	0xbd831de6	-0.06402187
133	0xbd3e92bb	-0.04652665
134	0x3d1af86b	0.037834566
135	0x3e091bfe	0.13389584
136	0xbd4f7cca	-0.050656117
137	0xbc42a293	-0.011879581
138	0x3d189935	0.037255485
139	0x3dd14eee	0.10220133
140	0x3e04f639	0.12984551
141	0x3d8c7275	0.068577684
142	0x3d8f7781	0.070052154
143	0xbd7fbed9	-0.062437866
144	0x3d4389ad	0.04773872
145	0xbdba5971	-0.09099091
146	0xbcf5062c	-0.02991017
147	0xbbf7f92d	-0.007567546
148	0x3bdab49b	0.006674362
149	0xbda60d86	-0.08108048
150	0x3d9f81bd	0.077884175
151	0xbac8f2ed	-0.0015331187
152	0x3c944b99	0.018102454
153	0x3d9c458b	0.07630452
154	0xbcb357f8	-0.021892533
155	0x3dd2fbaa	0.10301907
156	0xbbc36c4f	-0.005963839
157	0xbd4c1d2d	-0.04983251
158	0xbd5eb9cd	-0.054376412
159	0xbd446dab	-0.04795615
160	0x3c510ad8	0.012758933
161	0x3d944183	0.07239058
162	0x3dbcf204	0.09225848
163	0x3c7bf818	0.015378974
164	0x3dba1761	0.090864904
165	0x3d5b2702	0.053503998
166	0x3ddb6e2c	0.10714373
167	0xbd89fce0	-0.06737685
168	0x3d002302	0.031283386
169	0x3d0e97a8	0.0348126
170	0x3d5fc728	0.05463329
171	0x3dacd27c	0.08438584
172	0x3da5c1c9	0.08093602
173	0x3d09cd86	0.033643268
174	0xbb1cdca0	-0.0023935214
175	0x3d2f849e	0.042851083
176	0xbd020202	-0.031740196
177	0x3cb955b0	0.022623867
178	0x3dc08951	0.09401191
179	0x3deb0807	0.114761405
180	0xbac717db	-0.0015189605
181	0xbd65574a	-0.05599145
182	0xbd567bea	-0.052364267
183	0xbc55573f	-0.013021289
184	0xbbe70094	-0.0070496295
185	0x3c126aa8	0.008936562
186	0x3dfcafde	0.123382315
187	0xbcd6e594	-0.026232518
188	0xbd9f2a96	-0.077717945
189	0xbcec5d57	-0.028853102
190	0xbd0a7bf1	-0.033809606
191	0xbd8f8830	-0.070083976
192	0x3e002713	0.12514906
193	0x3c950d74	0.018194892
194	0xbba44480	-0.0050130486
195	0xbcdc9b76	-0.026929598
196	0xbc2982da	-0.010346139
197	0xbd95cf25	-0.073149
198	0x3d0fd20f	0.035112437
199	0x3d843b99	0.0645668
200	0xbd97ca4b	-0.07411631
201	0xbd9a1342	-0.075232044
202	0x3ca89bd6	0.02058212
203	0x3d975f06	0.07391171
204	0xbdd23bc8	-0.102653086
205	0x3c19322c	0.009350341
206	0xbd29a664	-0.041418448
207	0x3d246f60	0.040145278
208	0xbd6d2297	-0.057894316
209	0xbe1ee2ab	-0.15516154
210	0x3d6cf00b	0.05784611
211	0xbd99b3b1	-0.075049765
212	0x3dd58a20	0.10426736
213	0x3da7ce32	0.081936255
214	0x3d93ce80	0.07217121
215	0x3da37358	0.079809844
216	0x3a35a300	0.0006928891
217	0xbdacd468	-0.08438951
218	0xbd161f3f	-0.036650892
219	0x3cdc99a3	0.026928728
220	0x3d05f183	0.032701027
221	0xbd2c74cc	-0.042103574
222	0xbd757661	-0.059927348
223	0x3c8b5474	0.017008044
224	0x3d45d0e6	0.048294924
225	0xbe00bd3e	-0.1257219
226	0xbc8fb67c	-0.01754307
227	0xbd1fcc50	-0.039013207
228	0xbc96076c	-0.018314086
229	0x3d47d5a1	0.048787717
230	0xbd7c0e91	-0.06153733
231	0xba9014db	-0.0010992544
232	0xbbb063c9	-0.005382989
233	0x3d491384	0.049090877
234	0xbd8f82bc	-0.070073575
235	0xbe062692	-0.13100651
236	0x3d4b6d8e	0.049665026
237	0xbd77ee9f	-0.0605303
238	0xbc94be35	-0.018157104
239	0xbdce7efa	-0.100828126
240	0xbdc38b0d	-0.09548006
241	0xbd8601f5	-0.06543342
242	0xbe173397	-0.14765774
243	0x3d6f3adb	0.05840574
244	0xbdb4e846	-0.08833365
245	0xbd751719	-0.05983648
246	0x3d7483a2	0.059695847
247	0x3e019b3e	0.12656876
248	0xbc30365a	-0.010755146
249	0xbda91d73	-0.0825757
250	0xbdea9451	-0.1145407
251	0x3d231308	0.03981307
252	0xbdf61472	-0.120156184
253	0xbcd57f38	-0.02606164
254	0xbd49ad53	-0.04923756
255	0x3d86f012	0.065887585

attention.attention.0.bias f4 [64]
0	0xbd5a685b	-0.053322177
1	0xbc9b0a4d	-0.01892581
2	0xbd9c171c	-0.07621595
3	0x3c116281	0.008873583
4	0xbc222b5d	-0.009898034
5	0x3dda71ca	0.10666235
6	0xbd555454	-0.052082375
7	0xbd3570cd	-0.04429703
8	0x3d18bf41	0.03729177
9	0x3cdf6b45	0.02727283
10	0x3dd900ca	0.105958536
11	0x3ddd7604	0.10813525
12	0xbc5e998a	-0.013586411
13	0x3d994f9c	0.074858874
14	0x3d779c9c	0.06045209
15	0x3d95941e	0.07303642
16	0xbc7219bc	-0.014776643
17	0x3d0c3d0c	0.034237906
18	0xbd83fc7b	-0.06444641
19	0x3dd62485	0.10456184
20	0x3d2e9b23	0.04262842
21	0xbd99eec8	-0.07516247
22	0xbd9bc908	-0.07606703
23	0x3ae9af2e	0.0017828697
24	0x3d696536	0.056981288
25	0x3d39d2e3	0.045367133
26	0x3c0a3b7c	0.008437034
27	0xbd4b7563	-0.049672496
28	0x3db70692	0.089368
29	0x3d907e96	0.07055394
30	0x3c78f545	0.015195196
31	0xbd9eabdf	-0.077476256
32	0x3c90cecd	0.017676735
33	0x3d9b746d	0.07590566
34	0xbd8911fc	-0.06692883
35	0xbd8dfdb4	-0.06933156
36	0x3d85767f	0.06516742
37	0xbc5e0ff0	-0.0135536045
38	0x3d657bdc	0.056026325
39	0x3db1d05c	0.086823195
40	0x3c8ad54c	0.016947411
41	0x3dfcba35	0.12340204
42	0x3dbbd6dc	0.091718405
43	0x3c35af66	0.0110891815
44	0xbdc7a95f	-0.09749102
45	0xbcdfd0ca	-0.027321238
46	0x3d8a2b24	0.0674651
47	0x3df8d6bd	0.12150333
48	0xbd6ae3c4	-0.05734612
49	0x3d48fc32	0.049068637
50	0x3c182b06	0.009287601
51	0xbca6bf2e	-0.020354833
52	0x3d985372	0.07437791
53	0x3df0de7e	0.11761187
54	0x3d4e3d87	0.050351646
55	0xbd88bf8a	-0.06677158
56	0x3dbe7c3d	0.0930104
57	0x3b95befb	0.004569886
58	0x3d1fe37a	0.039035298
59	0x3a109962	0.000551602
60	0xbce5cb89	-0.028051155
61	0x3c9979c6	0.018734824
62	0x3c44230a	0.011971245
63	0xbd7f88b5	-0.062386233

attention.attention.2.weight f4 [10, 64]
0	0x3e116672	0.14199236
1	0x3d9be3ff	0.07611846
2	0xbd80e22e	-0.0629314
3	0xbd2c9e3b	-0.042143088
4	0xbd350e96	-0.044203363
5	0x3e1747fb	0.14773552
6	0xbacea89e	-0.0015766805
7	0x3dd11e6d	0.102108814
8	0x3e312b23	0.17301612
9	0xba6db28c	-0.0009067438
10	0xbaa0304e	-0.0012221427
11	0x3ca22d0b	0.019796869
12	0x3df07de1	0.117427595
13	0x3c114d08	0.008868463
14	0x3d88cf84	0.066802055
15	0x3bfbfd71	0.0076901247
16	0x3c56d6bc	0.01311272
17	0x3d5e3c41	0.05425668
18	0x3dca6758	0.098829925
19	0x3d6dc6a3	0.058050763
20	0x3b170287	0.0023042278
21	0x3d60699f	0.054788228
22	0x3ddd323c	0.10800597
23	0x3da8a3c6	0.08234362
24	0xbd9d6cd9	-0.07686777
25	0xbd5f86a4	-0.054571763
26	0x3cd5ee9d	0.026114756
27	0xbcc0bd70	-0.02352783
28	0x3c3d3084	0.011547212
29	0xbbf0cea9	-0.0073488546
30	0x3c5d24b5	0.013497521
31	0x3d435588	0.04768899
32	0xbca965b9	-0.020678388
33	0xbce292c8	-0.027657881
34	0xbd04e15b	-0.03244148
35	0x3dec99a1	0.1155274
36	0x3e15c787	0.14626895
37	0x3db044e6	0.08606891
38	0x3ce0156c	0.027353965
39	0x3c52c37f	0.012863993
40	0xbbf190e7	-0.00737201
41	0x3e28471b	0.16433375
42	0x3ce1ed8a	0.027579088
43	0x3dc99479	0.09842772
44	0xbd453164	-0.048142806
45	0x3e1cf59f	0.15328072
46	0x3ce8c26b	0.028413018
47	0x3d93bb7d	0.07213495
48	0xbcb25d0c	-0.021772884
49	0x3d92d001	0.0716858
50	0xbd3ded12	-0.046368666
51	0x3d115414	0.035480574
52	0x3e33d5e6	0.17562065
53	0x3cba0dc7	0.022711648
54	0x3d840f43	0.064482234
55	0x3d8953bf	0.067054264
56	0xbc61d189	-0.013782867
57	0xbd11e565	-0.03561916
58	0xbd848bfa	-0.06472011
59	0x3d764b8c	0.06013064
60	0x3e0c2ba9	0.1368853
61	0x3d8e2d6b	0.069422565
62	0xbc11ae74	-0.0088916905
63	0xba158215	-0.00057032827
64	0xbc9b7e1d	-0.018981034
65	0x3d0e268f	0.03470474
66	0xbdc0d165	-0.09414939
67	0xbdc4aaeb	-0.096029125
68	0xbdb29cfa	-0.08721347
69	0x3d5b004c	0.05346708
70	0xbd088840	-0.033333063
71	0xbd83fc79	-0.0644464
72	0x3c0ca0ee	0.0085832905
73	0x3d326a14	0.043558195
74	0xbcb02df0	-0.02150628
75	0x3d58d9b2	0.052941985
76	0xbdf87cfa	-0.121332124
77	0xbcd81d6f	-0.026381223
78	0xbd9c7e13	-0.07641234
79	0xbd87eb6e	-0.066367015
80	0xbdfd3ffe	-0.12365721
81	0x3cda55da	0.026652265
82	0xbc765ef8	-0.015037291
83	0x3d23ae71	0.039961282
84	0xbdc5c176	-0.0965604
85	0x3d97a36b	0.074042164
86	0xbda8be3f	-0.082394116
87	0x3d467bde	0.048457973
88	0xbdc07ada	-0.09398432
89	0xbc675c09	-0.014121064
90	0x3d60b864	0.05486335
91	0xbdce87dd	-0.100845076
92	0xbcbbbd16	-0.022917312
93	0xbd88709b	-0.06662103
94	0x398da10a	0.000270136
95	0x3da079b2	0.078357115
96	0x3ceb8deb	0.028754195
97	0xbc8aaa39	-0.016926872
98	0x3d31b3ef	0.04338449
99	0xbda8b2d0	-0.08237231
100	0xbd1b2bab	-0.037883442
101	0xbdeea287	-0.116520934
102	0xbdca04b5	-0.09864179
103	0xbe054c4b	-0.13017385
104	0xbd827e2a	-0.0637172
105	0xbdbd03b8	-0.09229225
106	0x3cd968d8	0.026539251
107	0xbe023a26	-0.12717494
108	0xbd99525b	-0.07486411
109	0xbda44e58	-0.080227554
110	0xbddc4416	-0.10755174
111	0x3d8548d0	0.065080285
112	0xbd866610	-0.065624356
113	0xbd2171bd	-0.03941511
114	0x3d73fa02	0.059564598
115	0xbc5969cd	-0.013269854
116	0xbd890dd0	-0.06692088
117	0xbc932251	-0.0179607
118	0x3db9f6a9	0.0908025
119	0x3da70214	0.08154693
120	0xbdf991b1	-0.121859916
121	0x3ce1cc66	0.027563285
122	0xbda2b887	-0.07945352
123	0xbd1829e7	-0.037149336
124	0xbd4062c3	-0.046969187
125	0x3db67830	0.08909643
126	0xbdfd9eea	-0.12383826
127	0xbe062b52	-0.13102463
128	0xbdd5e034	-0.10443154
129	0xbd6d1f2e	-0.057891063
130	0x3ccc4d57	0.024939222
131	0xbdc570ef	-0.09640681
132	0x3b846a61	0.0040410017
133	0x3e004412	0.12525967
134	0xbbde3740	-0.0067814887
135	0xbc6ed2b6	-0.014576605
136	0x3d9159b4	0.07097188
137	0xbd9fde9a	-0.0780613
138	0x3d8a0d32	0.06740798
139	0xbdc67416	-0.096901104
140	0x3c27f66a	0.010251621
141	0x3d868073	0.065674685
142	0xbdd94651	-0.10609115
143	0xbdb09903	-0.08622935
144	0x3de5a779	0.112135835
145	0xbcfbc2eb	-0.030732593
146	0x3dc16e2d	0.094448425
147	0xbb94b9d6	-0.004538755
148	0xbde66a05	-0.1125069
149	0x3ddf0d38	0.10891193
150	0xbdc4e6b7	-0.09614318
151	0x3da4332a	0.08017571
152	0x3dd2f6c2	0.103009716
153	0xbc8b40ca	-0.016998667
154	0xbcd10649	-0.025515692
155	0x3df1faec	0.11815438
156	0xbc684a66	-0.014177894
157	0x3d9f08bc	0.07765338
158	0x399edcf5	0.00030300734
159	0x3def644d	0.11689053
160	0x3dc17f68	0.09448129
161	0x3c468730	0.012117192
162	0x3cdaa938	0.026692018
163	0x3d7dfa59	0.06200633
164	0xbd826db1	-0.06368578
165	0x3ccde0a5	0.025131533
166	0xbd1d29c4	-0.03836991
167	0x3cfdd218	0.03098397
168	0xbda98c04	-0.08278659
169	0xbd3cfd62	-0.046140082
170	0x3d90102e	0.07034336
171	0x3c87c5ed	0.01657387
172	0x3d9cfd1b	0.076654635
173	0x3ce6171f	0.028087197
174	0xbdc376d9	-0.09544153
175	0x3d44aaef	0.048014577
176	0x3dd3115f	0.10306048
177	0x3d53b39a	0.051684953
178	0x3c77442a	0.015091935
179	0x3d093d89	0.03350595
180	0xbd8ea916	-0.06965844
181	0xbc77035a	-0.015076483
182	0xbded237a	-0.11579032
183	0x3dadf079	0.08493132
184	0xbc93ec83	-0.018057114
185	0x3dbf3e1e	0.0933802
186	0x3d9af4c6	0.07566218
187	0x3e02e622	0.12783101
188	0x3dc42703	0.095777534
189	0x3adeb5c8	0.0016991431
190	0x3dcf50b5	0.101228155
191	0xbd494efa	-0.049147584
192	0x3d51698d	0.05112605
193	0x3d209389	0.0392032
194	0xbd82e7f3	-0.06391897
195	0x3d360ee2	0.044447787
196	0xbd56e50a	-0.052464522
197	0x3d989ca1	0.074517496
198	0xbc1c544a	-0.00954158
199	0xbd8c5637	-0.06852382
200	0x3d2affb7	0.041747775
201	0x3e0c313d	0.13690658
202	0x3e1af26b	0.15131538
203	0x3dedbcb5	0.11608259
204	0x3e0c2cc4	0.13688952
205	0xbd470406	-0.04858782
206	0x3d30234f	0.043002423
207	0x3df2e87a	0.11860748
208	0xbd44c3d9	-0.048038337
209	0xbc27d449	-0.010243484
210	0x3d853b38	0.06505436
211	0x3dd3b89b	0.10337945
212	0x3cce413a	0.025177587
213	0xbc888547	-0.016665114
214	0xbd9e4406	-0.07727818
215	0xbcdfc97c	-0.027317755
216	0x3d4d2503	0.050084125
217	0x3e209247	0.156808
218	0xbb2ca0d5	-0.002634098
219	0x3cc79f97	0.02436809
220	0x3e194fad	0.149718
221	0xbcd32d08	-0.025778309
222	0x3c212e98	0.009837769
223	0xbda06a82	-0.07832815
224	0xbd6e0351	-0.05810863
225	0xbcb09899	-0.02155714
226	0x3d380aa4	0.044932023
227	0x3c415b47	0.011801547
228	0xbbb20b7f	-0.0054334993
229	0x3cd25ca1	0.025678935
230	0x3e08b50d	0.13350315
231	0x3ce85458	0.02836053
232	0x3de18b65	0.110129155
233	0x3dea7101	0.11447335
234	0xbd8323fd	-0.064033486
235	0x3e136571	0.14394166
236	0xbcc8fc49	-0.024534361
237	0x3db7e566	0.08979301
238	0xbda86f8b	-0.082244
239	0x3dd4de32	0.10393943
240	0x3e1eea9b	0.15519182
241	0xbccdcfbe	-0.025123473
242	0xbc3c02e1	-0.011475296
243	0xbd7dc2a8	-0.061953217
244	0x3da6651a	0.08124752
245	0x3df63f6b	0.12023815
246	0x3dfa8629	0.1223262
247	0xbd9b967c	-0.07597062
248	0xbd65e857	-0.05612978
249	0x3c9d59d8	0.01920788
250	0x3d542a34	0.05179806
251	0x3d0e7641	0.034780744
252	0x3c98ed60	0.018667877
253	0xbda8d432	-0.08243598
254	0xbcc0c81d	-0.023532921
255	0xbbf0e747	-0.007351789

attention.attention.2.bias f4 [10]
0	0xbd36af95	-0.04460104
1	0x3b04c99a	0.0020261765
2	0x3b6616ec	0.0035108877
3	0xbd2a03cb	-0.041507524
4	0xbd8e248a	-0.06940563
5	0xbd01b22a	-0.03166405
6	0x3d12ea04	0.035867706
7	0xbdb0379d	-0.086043574
8	0xbe09a8d3	-0.13443308
9	0xbd8f67af	-0.07002198

layers.0.weight f4 [23, 100]
0	0x3d586b92	0.052836962
1	0xbd3cddaa	-0.046109833
2	0x3c890f88	0.016731039
3	0x3d92591b	0.07145902
4	0xbc35f3d8	-0.0111055
5	0x3d87e825	0.06636075
6	0xbd929152	-0.07156624
7	0xbdb2c74f	-0.08729421
8	0x3c8ad7e0	0.01694864
9	0x3d59a9a2	0.05314029
10	0xbd1fcc1a	-0.039013006
11	0x3cea499c	0.028599553
12	0xbd39a0fa	-0.045319535
13	0x3b7f7ac0	0.0038983077
14	0xbdccb30d	-0.09995089
15	0x3cbfd434	0.023416616
16	0x3d3768f6	0.044777833
17	0xbda470e6	-0.08029346
18	0xbd32874d	-0.043586064
19	0x3c4d0000	0.012512207
20	0xbd169c0a	-0.036769904
21	0xbd8cbe0d	-0.06872187
22	0xbbad3250	-0.0052855387
23	0xbcb31ea0	-0.02186519
24	0x3d9e3c21	0.077263124
25	0xbcf25174	-0.029579856
26	0x3cfac3f4	0.030611016
27	0xbd9efb4e	-0.07762776
28	0x3c35b3d0	0.011090234
29	0xbd19c03d	-0.03753685
30	0x3cd11b04	0.025525577
31	0xbdc1431d	-0.09436629
32	0x3d8f8c77	0.070092134
33	0xbc532000	-0.012886047
34	0xbd5cbaf3	-0.053889226
35	0x3da9f52f	0.08298718
36	0xbd0c41e0	-0.03424251
37	0x3d8306b9	0.063977666
38	0x3dba0229	0.09082443
39	0xbc992acc	-0.018697165
40	0xbd5ddf30	-0.054167926
41	0xbd9d372d	-0.076765396
42	0xbc16ba68	-0.009199716
43	0xbd236753	-0.03989346
44	0xbd8c898e	-0.06862174
45	0x3bca8280	0.0061801076
46	0x3d5879b2	0.052850433
47	0x3d04f43a	0.032459475
48	0xbc60afb0	-0.013713762
49	0x3dba4fb1	0.09097231
50	0xbd0dc924	-0.03461565
51	0xbd5921d3	-0.053010773
52	0x3c38d280	0.011280656
53	0x3d4e7012	0.050399847
54	0xbd22f29d	-0.039782155
55	0x3d4393f6	0.04774853
56	0x3d9853d9	0.07437868
57	0x3d15a3d2	0.036533184
58	0xbd4c7ff3	-0.04992671
59	0x3d5e892a	0.05433003
60	0x3d873c1f	0.06603264
61	0x3cfffa14	0.031247176
62	0xbd0b91c4	-0.03407456
63	0xbd8bd660	-0.06827998
64	0xbcdcaf58	-0.02693908
65	0x3c0bee80	0.00854075
66	0xbd833494	-0.06406513
67	0xbac95380	-0.0015359968
68	0xbd8cf793	-0.068831585
69	0x3dbda199	0.09259338
70	0xbdc01eda	-0.093808845
71	0xbcbcdfa0	-0.023055851
72	0x3cff4c84	0.031164415
73	0x3d834409	0.06409461
74	0xbdc467cb	-0.095901094
75	0x3d6aab26	0.057292126
76	0x3dbb6a59	0.091511436
77	0x3d9283d1	0.07154048
78	0xbd9381de	-0.072025046
79	0x3c160400	0.009156227
80	0x3ced93f4	0.029001214
81	0xbd050ab0	-0.032480896
82	0x3d3f94a2	0.046772607
83	0x3dba6013	0.09100356
84	0xbd9c0d2d	-0.076197006
85	0x3da4f31d	0.08054183
86	0xbdc10c2d	-0.094261505
87	0xbd15ffa0	-0.036620736
88	0x3ab2d680	0.0013644248
89	0x3ce69c4c	0.0281507
90	0xbd2ccae7	-0.04218569
91	0x3d7b37ce	0.061332516
92	0x3db1edff	0.08687972
93	0x3d3e610e	0.046479277
94	0xbc204300	-0.009781599
95	0xbd6a2337	-0.05716249
96	0xbd809ab8	-0.0627951
97	0x3d44d892	0.0480581
98	0x3db46d7f	0.08809947
99	0xbc606030	-0.013694808
100	0xbd3a4f40	-0.045485735
101	0xbd74f007	-0.05979922
102	0xbd0ed4c5	-0.03487088
103	0x3d2fba88	0.0429025
104	0x3d2db0ba	0.042404868
105	0x3d9324dd	0.071847655
106	0x3e188198	0.14893186
107	0xbc11b81b	-0.008893992
108	0x3d9847f2	0.074355975
109	0x3de071cb	0.10959204
110	0x3c605a3e	0.01369339
111	0x3cc0d97d	0.023541206
112	0x3d2e1620	0.04250157
113	0x3dbd3ee2	0.092405096
114	0x3d825043	0.06362965
115	0x3db94485	0.09046272
116	0x3d2fcca6	0.042919777
117	0x3d8e6bbe	0.06954144
118	0x3cfc1641	0.03077233
119	0x3d198367	0.03747883
120	0x3d4aed4c	0.04954271
121	0xbc4e51f8	-0.012592785
122	0x3e0d6c4c	0.13810843
123	0x3dcb289f	0.09919857
124	0xbcb90018	-0.022583053
125	0x3cfa6c74	0.030569293
126	0x3de24d4d	0.110499
127	0x3da78afd	0.08180807
128	0x3da4d849	0.080490656
129	0x3bf58974	0.0074931923
130	0x3e40fd67	0.18846665
131	0x3d2952c5	0.0413387
132	0x3c749d59	0.014930093
133	0xbcfb3b72	-0.030667994
134	0x3d0ff855	0.035148937
135	0x3dd18b70	0.10231674
136	0x3da5c165	0.08093528
137	0xbcec9d64	-0.028883643
138	0xbd4e3e05	-0.050352115
139	0xbc9085ae	-0.017641868
140	0x3c9f1a08	0.019421592
141	0x3d81e31d	0.063421465
142	0x3bebbd0a	0.007194166
143	0x3daaf8da	0.08348246
144	0x3d22a71d	0.039710153
145	0xbcb8e42a	-0.022569735
146	0xbd1288cc	-0.03577499
147	0xbc9eb1ae	-0.019371834
148	0xbd5f59ea	-0.054529108
149	0x3cb1d3ec	0.021707498
150	0xbd8649c8	-0.065570414
151	0x3dd983d0	0.10620844
152	0x3cabfe42	0.020995263
153	0xbda370ab	-0.07980474
154	0x3d9d5091	0.076813824
155	0xbd6c6f3b	-0.057723265
156	0xbd072f41	-0.03300405
157	0xbc3cc627	-0.011521853
158	0x3dbe5e6d	0.09295354
159	0x3de972df	0.11398863
160	0x3da8c9bd	0.082416035
161	0x3daa2275	0.083073534
162	0x3d53d1da	0.051713802
163	0x3d914813	0.07093825
164	0x3dafc5f1	0.08582676
165	0x3da39759	0.07987852
166	0x3c2159ab	0.009848039
167	0xbb449126	-0.0029993742
168	0x3d80af23	0.06283405
169	0xbd86fee6	-0.06591587
170	0xbd8a9b69	-0.067679234
171	0x3d3fec0d	0.046855975
172	0x3d880a40	0.0664258
173	0xbd9648de	-0.07338117
174	0x3aa58cc0	0.0012630448
175	0x3da28e0b	0.07937249
176	0x3c21b0b1	0.009868787
177	0xbbf26ebd	-0.007398455
178	0x3dbababf	0.0911765
179	0xbd5e863f	-0.054327246
180	0x3d83cc03	0.064353965
181	0x3dbc8809	0.09205634
182	0xbc48e380	-0.0122612715
183	0xbd7cfd8b	-0.061765235
184	0x3de5a8c4	0.1121383
185	0x3d3c060e	0.04590421
186	0xbca093e8	-0.019601777
187	0xbd9aec0b	-0.07564553
188	0xbc8bcb68	-0.017064765
189	0x3dc8d842	0.09806873
190	0x3de91463	0.113808416
191	0x3d6b5cf4	0.057461694
192	0x3c54b1e7	0.012981868
193	0xbdc14ae7	-0.094381146
194	0x3da373ed	0.079810955
195	0x3d24cbbd	0.040233362
196	0xbd466259	-0.048433635
197	0x3c33b2d0	0.010967925
198	0x3d6f7026	0.058456562
199	0xbcb488ac	-0.022037826
200	0x3cdbf5dc	0.026850633
201	0xbc335ba8	-0.0109471455
202	0xbdc6afeb	-0.097015224
203	0xbdcc7c52	-0.0998465
204	0xbd0ebcd6	-0.034848057
205	0x3db3151d	0.087442614
206	0x3dc9e40d	0.0985795
207	0xbc6d5e58	-0.014487825
208	0x3990d600	0.00027625263
209	0xbc8c5208	-0.01712896
210	0x3dc1fcf1	0.09472073
211	0x3c9debac	0.019277416
212	0xbb913030	-0.004430793
213	0x3da4aee7	0.080411725
214	0xb97d6a00	-0.00024167448
215	0xbd1d40bd	-0.038391817
216	0xbd8ede43	-0.06975987
217	0xbdadb7ad	-0.08482299
218	0xbcf50748	-0.029910699
219	0x3d13254a	0.035924233
220	0xbd71c187	-0.059022453
221	0x3d32d972	0.043664403
222	0xbd0d1d50	-0.034451783
223	0x3d08b1da	0.033372737
224	0xbda712e0	-0.08157897
225	0x3d585dfa	0.052823998
226	0x3cdfdae4	0.027326055
227	0xbd326dda	-0.043561794
228	0x3c5ce1a8	0.013481535
229	0x3c4ff830	0.01269345
230	0x3d5b5732	0.053549953
231	0x3ccb9f54	0.024856247
232	0xbd6cd3ba	-0.057819106
233	0x3a536280	0.0008063689
234	0xb8f96c00	-0.00011893362
235	0x3cb1a068	0.021682933
236	0x3c6dde80	0.01451838
237	0x3d3fc9ba	0.04682324
238	0x3d212642	0.039343126
239	0x3da7cc3d	0.08193252
240	0xbdbc1d83	-0.091853164
241	0xbd797300	-0.06090069
242	0xbb91eeb0	-0.0044535026
243	0x3b934850	0.0044947043
244	0x3d887421	0.06662775
245	0x3db456eb	0.08805641
246	0x3dacae19	0.08431644
247	0x3d30551e	0.043049924
248	0xbd7a17d3	-0.061057877
249	0xbd04c91a	-0.032418348
250	0x3da16307	0.07880216
251	0x3d9feaf1	0.078084834
252	0xbd31ff00	-0.043456078
253	0xbb63b840	-0.0034747273
254	0x3d2c6ac2	0.042094
255	0x3ba70660	0.0050971955

layers.0.bias f4 [23]
0	0xbdc2b182	-0.09506513
1	0x3d48dc02	0.04903794
2	0xbd1c91bd	-0.038224924
3	0x3d1991da	0.03749261
4	0xbca30cf0	-0.01990363
5	0xbda87610	-0.08225644
6	0x3da214f8	0.07914156
7	0x3d49dbed	0.049282003
8	0x3ca446d1	0.0200533
9	0x3a1fb9ee	0.00060930743
10	0x3c64133e	0.013920603
11	0xbd66df37	-0.056365218
12	0xbc81f5a3	-0.015864199
13	0xbd4141d3	-0.047181915
14	0x3db79080	0.08963108
15	0xbd1a35e4	-0.03764905
16	0x3db0c61e	0.08631538
17	0xbd132dfc	-0.035932526
18	0xbdbbf7c0	-0.09178114
19	0xbdb47173	-0.08810701
20	0xbc9a8f98	-0.018867299
21	0xbc265a6f	-0.010153397
22	0xbdca802d	-0.09887729

layers.1.weight f4 [250, 23]
0	0xbe53cb08	-0.20682919
1	0x3e115b47	0.14194976
2	0x3e0f0577	0.13966928
3	0xbd579b9c	-0.052638635
4	0xbce54000	-0.02798462
5	0x3d9cddc2	0.076594844
6	0x3e1549e7	0.14578973
7	0x3da01a5e	0.07817529
8	0xbd88eeb4	-0.06686154
9	0x3d5b42f4	0.05353065
10	0xbd5f057c	-0.05444859
11	0xbe1f4eec	-0.1555745
12	0x3d8ca66e	0.068676814
13	0xbdf88e56	-0.121365234
14	0x3d90b996	0.07066648
15	0x3e506a0b	0.20352952
16	0xbd0f18e0	-0.034935832
17	0x3e534afb	0.20634072
18	0x3dcaec5e	0.09908365
19	0xbd69c778	-0.057074994
20	0x3d143f74	0.036193326
21	0xbdffff09	-0.12499816
22	0x3e28a685	0.16469772
23	0x3ddf2e46	0.10897498
24	0x3c591666	0.013249969
25	0xbdcccac0	-0.09999609
26	0x3d451c7b	0.048122864
27	0x3e3e1a05	0.18564613
28	0x3d9e339e	0.07724689
29	0xbcb172e1	-0.021661224
30	0xbd6f958c	-0.05849223
31	0xbcc41db0	-0.023939937
32	0xbd8d8362	-0.06909825
33	0xbccacaeb	-0.024754962
34	0xbe058430	-0.13038707
35	0x3e018f09	0.1265222
36	0xbe3b2baa	-0.18278375
37	0x3da72e2a	0.08163102
38	0x3dec1ae6	0.11528568
39	0x3e03f8ed	0.12887926
40	0x3daaa49a	0.083321765
41	0x3e4cd92f	0.20004724
42	0x3e4c542f	0.19953988
43	0x3d26c624	0.040716305
44	0x3e3149d9	0.17313327
45	0xbe0f9f41	-0.14025594
46	0x3d91c8a2	0.07118346
47	0xbddc08f1	-0.10743893
48	0x3e3b508b	0.18292443
49	0xbe12f23a	-0.14350215
50	0xbe1539e6	-0.14572868
51	0x3d1eabe8	0.03873816
52	0x3d91f07e	0.07125948
53	0xbe2b6142	-0.1673632
54	0x3dffeb5e	0.124960646
55	0x3d487d0c	0.04894738
56	0xb8d1d000	-0.000100046396
57	0x3d01672c	0.031592533
58	0xbc5d7300	-0.013516188
59	0x3dae5b16	0.08513467
60	0xbe1641f6	-0.146736
61	0xbcd18370	-0.02557537
62	0x3e3e1855	0.1856397
63	0x3dcb247a	0.09919067
64	0xbd8452be	-0.06461094
65	0x3cb745d0	0.022372156
66	0xbe3674e4	-0.17818028
67	0xbd580ee0	-0.05274856
68	0xbe167186	-0.14691743
69	0xbe49073a	-0.19631663
70	0xbd8bef38	-0.06832737
71	0xbe24c61b	-0.16091196
72	0xbe513779	-0.20431317
73	0x3e15c76b	0.14626853
74	0x3e24e12f	0.16101526
75	0xbe0a21d4	-0.13489467
76	0x3e250e33	0.16118698
77	0xbe12f748	-0.14352143
78	0xbe2be2b1	-0.16785695
79	0x3e00ec95	0.12590249
80	0x3d31454c	0.043278977
81	0x3c46f060	0.012142271
82	0xbe38bb09	-0.18040098
83	0x3c9c2d10	0.019064456
84	0x3e1b6e53	0.15178804
85	0xbdd6b622	-0.10483958
86	0x3bff9980	0.007800281
87	0xbdd919a3	-0.10600593
88	0x3e43405b	0.19067518
89	0xbd82e7e4	-0.06391886
90	0x3e036f4f	0.1283543
91	0xbe04110c	-0.12897128
92	0x3d0a0444	0.033695474
93	0x3e4c0213	0.19922666
94	0x3d4479ac	0.047967598
95	0xba202418	-0.0006108894
96	0xbbaa2c3e	-0.0051932624
97	0x3c0d9140	0.008640587
98	0x3e3e2a59	0.18570842
99	0xbd7e6036	-0.062103473
100	0xbc4b3684	-0.012403134
101	0xbe015e8c	-0.12633723
102	0xbd83dfe6	-0.064391896
103	0x3e52576f	0.20541166
104	0xbe0493a6	-0.12946948
105	0x3c7cc6c0	0.015428245
106	0x3e331073	0.17486744
107	0x3d4fc333	0.050723266
108	0x3d3a04ab	0.045414608
109	0xbd4b3cac	-0.049618408
110	0xbd4c1154	-0.049821213
111	0xbc124570	-0.008927688
112	0x3d1bdc04	0.03805162
113	0xbe397c9a	-0.18113938
114	0x3e16f6e1	0.14742614
115	0x3e271865	0.163179
116	0x3dac7a17	0.08421724
117	0x3e3e79c5	0.18601139
118	0xbe4fd4dc	-0.20296043
119	0x3e056500	0.1302681
120	0xbe12ad32	-0.14323881
121	0x3bf4feac	0.0074766483
122	0x3e5534c6	0.20820913
123	0xbd87a51a	-0.066232875
124	0x3dea48c5	0.11439661
125	0x3e03af14	0.12859756
126	0x3d8dfd32	0.06933059
127	0xbde58002	-0.11206056
128	0xbe1c3932	-0.15256193
129	0xbd548d76	-0.05189272
130	0x3d32b93f	0.043633696
131	0xbd574f41	-0.052565817
132	0x3daf9926	0.085741326
133	0x3df4a4be	0.119454846
134	0xbe4299e9	-0.19004025
135	0xbae72a00	-0.0017636418
136	0xbd81e186	-0.06341843
137	0xbd8ad4c6	-0.067788646
138	0x3ce68ea8	0.028144196
139	0xbdd94423	-0.10608699
140	0x3e0f3561	0.13985206
141	0x3e113fbf	0.14184473
142	0x3e305f53	0.17223863
143	0x3cddfa88	0.027097002
144	0x3ca2bf38	0.01986657
145	0xbe201028	-0.15631163
146	0xbceddb50	-0.02903524
147	0xbdfe5853	-0.1241919
148	0xbdd888ee	-0.10572992
149	0xbd42d288	-0.04756406
150	0xbe4b689e	-0.19864127
151	0xbcbc1b90	-0.022962362
152	0xbbab5900	-0.0052291155
153	0x3d8479e2	0.0646856
154	0x3ca01b78	0.019544348
155	0xbe2916de	-0.1651263
156	0xbd15ec40	-0.03660226
157	0x3e2f331f	0.17109345
158	0xbe11636e	-0.14198086
159	0xbd22e574	-0.039769605
160	0xbe2dc934	-0.16971284
161	0xbe1df2e3	-0.15424685
162	0x3da51f2e	0.08062588
163	0x3d34cac4	0.044138685
164	0x3c8e3290	0.017358094
165	0x3dbf8ed2	0.09353413
166	0x3d284860	0.041084647
167	0xbdd9aa9c	-0.10628244
168	0xbe25502e	-0.16143867
169	0x392be400	0.00016392767
170	0x3e1c7145	0.15277584
171	0xbdadcc60	-0.08486247
172	0xbe29f3bb	-0.16596882
173	0x3d0911ac	0.03346412
174	0xbe508bc8	-0.20365822
175	0x3d88211a	0.066469386
176	0xbd4a11a8	-0.049333245
177	0x3dc1ff76	0.094725534
178	0xbd90a8be	-0.07063435
179	0x3e2f92d5	0.17145856
180	0x3e13d595	0.14436944
181	0xbe537f48	-0.20654023
182	0xbe4862af	-0.19568895
183	0xbdc7b639	-0.09751553
184	0xbc063860	-0.008192152
185	0xbdb7f9e8	-0.08983213
186	0xbc86ee20	-0.016470969
187	0xbe548e9c	-0.20757526
188	0xbaa72e00	-0.0012754798
189	0xbd95f5be	-0.07322262
190	0xbe3b1b30	-0.1827209
191	0xbdd82b9f	-0.10555195
192	0xbdb2dd95	-0.0873367
193	0xbbd65c40	-0.006541759
194	0xbd4319e0	-0.0476321
195	0x3e4e5321	0.20148899
196	0x3dc07dea	0.09399016
197	0x3e181b09	0.14854063
198	0xbe1a4c71	-0.15068223
199	0x3dd176de	0.1022775
200	0x3e29e1e1	0.16590072
201	0xbe4770c7	-0.19476615
202	0xbe072202	-0.13196567
203	0xbc4728e0	-0.012155741
204	0x3d46feac	0.048582718
205	0x3e21c1f1	0.15796639
206	0xbe4fb383	-0.20283322
207	0x3e0d5887	0.13803302
208	0x3d971032	0.07376136
209	0xbdcf7f7d	-0.10131738
210	0x3de95d12	0.11394705
211	0xbdf9f5d4	-0.12205091
212	0x3dddbdc6	0.10827212
213	0xbe2879e2	-0.16452745
214	0x3e4fe2c3	0.20301346
215	0x3e3cd3eb	0.18440215
216	0x3d2c3ef4	0.042052224
217	0x3d835d92	0.064143315
218	0x3cc36af0	0.023854703
219	0x3e47261f	0.19448136
220	0x3db2503e	0.08706711
221	0xbe24edbb	-0.16106312
222	0xbe4e9db2	-0.20177343
223	0x3cd437d0	0.02590552
224	0xbde518fe	-0.111864075
225	0x3d26c40c	0.04071431
226	0xbd11ebf4	-0.035625413
227	0x3db95e36	0.090511724
228	0x3dd4935e	0.103796706
229	0x3d169050	0.03675872
230	0x3db6554e	0.08902989
231	0xbe1b69f6	-0.1517714
232	0xbc7194a0	-0.014744908
233	0xbe081a27	-0.13291226
234	0x3de45e3e	0.11150788
235	0xbd218c04	-0.03944017
236	0xbdef9bfd	-0.11699674
237	0x3df87582	0.12131788
238	0x3dc4ae06	0.09603505
239	0xbe04a244	-0.12952524
240	0xbd79a534	-0.060948566
241	0xbe150aa2	-0.14554837
242	0xbe119474	-0.14216787
243	0x3d07ed84	0.033185497
244	0x3e028e21	0.1274953
245	0xbd44b63c	-0.048025355
246	0x3e296c89	0.16545309
247	0xbca49500	-0.02009058
248	0xbe3ee98e	-0.18643782
249	0x3e479b2f	0.19492792
250	0x3de9881e	0.114029154
251	0xbe3b5bf5	-0.18296798
252	0x3d5ba6a4	0.053625718
253	0xbd4af7b4	-0.049552634
254	0x3e09f217	0.13471256
255	0x3df7291a	0.120683864

layers.1.bias f4 [250]
0	0xbdf6b63f	-0.120464794
1	0xbd89a241	-0.067204006
2	0xbc9667b0	-0.018359989
3	0xbe49ba7c	-0.19700044
4	0x3e2d9798	0.1695236
5	0x3db0656b	0.08613094
6	0xbdf6ef17	-0.120573215
7	0xbe3b2fd1	-0.1827996
8	0xbe0f686a	-0.14004675
9	0xbd7c7a0c	-0.06163983
10	0xbda71b7e	-0.081595406
11	0xbe384b9e	-0.17997596
12	0x3e3cf131	0.18451382
13	0xbdf0871d	-0.11744521
14	0xbe2959e8	-0.16538203
15	0xbe0aeda5	-0.13567217
16	0x3d4b6abe	0.049662344
17	0xbe1ebabf	-0.15500925
18	0x3cb19a58	0.021680042
19	0xbe1bdef0	-0.15221763
20	0xbe54b20f	-0.20771049
21	0x3d92a43c	0.071602315
22	0xbd37e318	-0.044894308
23	0x3d787bc6	0.060664915
24	0xbe1ce0e8	-0.1532017
25	0x3d90ad9f	0.070643656
26	0x3d760869	0.060066614
27	0x3cc945d0	0.024569422
28	0x3d877328	0.06613761
29	0x3e44975b	0.19198363
30	0x3d0f25bc	0.034948096
31	0xbdd1e3c7	-0.10248523
32	0x3c654421	0.013993294
33	0x3d83a495	0.06427876
34	0xbc6fa5c0	-0.01462692
35	0x3e4d48e7	0.20047341
36	0x3dc534bc	0.09629199
37	0xbde110e9	-0.109895535
38	0x3e140236	0.14453968
39	0x3cba7c31	0.022764297
40	0xbe2aed5b	-0.16692106
41	0x3dc38682	0.0954714
42	0x3df9600b	0.12176522
43	0xbde866b6	-0.113477156
44	0xbd119014	-0.035537794
45	0x3e6390a7	0.22223149
46	0x3be9ce2b	0.007135173
47	0xbde01e80	-0.109433174
48	0x3e1cc48c	0.15309352
49	0xbd48c918	-0.049019903
50	0x3e0a53b9	0.135085
51	0x3def3ae6	0.11681156
52	0x3b7691b8	0.0037623476
53	0xbe454a5f	-0.19266652
54	0xbe120c27	-0.14262448
55	0xbd56d2ec	-0.052447245
56	0x3da65b0c	0.081228346
57	0xbd14b0d2	-0.03630144
58	0x3e10d468	0.14143527
59	0x3d3a8efc	0.045546517
60	0xbe1356bd	-0.14388557
61	0x3ddf9a03	0.10918047
62	0x3e115f0f	0.14196418
63	0x3d2511f8	0.04030034
64	0x3db2a262	0.08722378
65	0x3d80b835	0.06285135
66	0xbe14e92f	-0.14542077
67	0xbe22dc58	-0.15904367
68	0x3d9dc1dd	0.07702992
69	0x3e322541	0.17397024
70	0x3e432518	0.19057119
71	0x3e1e81f0	0.15479255
72	0xbd2bcc90	-0.041943133
73	0x3b30712d	0.0026922927
74	0xbcf2ae7f	-0.029624222
75	0x3d12b029	0.03581253
76	0x3e4a03bb	0.19727986
77	0x3db27a11	0.087146886
78	0xbe30558a	-0.1722013
79	0xbd82a83e	-0.06379746
80	0xbe1421c6	-0.14466009
81	0x3e19a0c3	0.15002732
82	0xbc5a2450	-0.013314322
83	0xbb07c522	-0.0020716866
84	0xbe117ce0	-0.14207792
85	0xbaad4ec0	-0.0013222322
86	0xbdbc43f8	-0.091926515
87	0x3e21a59f	0.15785836
88	0x3d3d105f	0.04615819
89	0xbd803de4	-0.06261805
90	0x3d92480f	0.0714265
91	0x3e23a26b	0.15979926
92	0x3d27b994	0.040948465
93	0xbe3ddc00	-0.18540955
94	0xbe2727a0	-0.1632371
95	0xbe152da6	-0.14568195
96	0x3db4fa81	0.08836842
97	0x3d4182e5	0.04724397
98	0xbe353c44	-0.17698771
99	0x3d861d36	0.0654854
100	0x3a1672c0	0.0005739145
101	0xbdb899d3	-0.09013715
102	0x3dfedc71	0.124443896
103	0x3df10d46	0.1177011
104	0x3e1a2686	0.15053758
105	0x3e0459e6	0.12924919
106	0xbdb89af1	-0.09013928
107	0xbd96df8e	-0.073668584
108	0xbcba6490	-0.02275303
109	0x3dba6554	0.09101358
110	0x3e0dc5d3	0.13844995
111	0x3e1c9258	0.152902
112	0x3e10ac4d	0.14128228
113	0x3e3bc977	0.18338571
114	0xbe26c3c4	-0.16285616
115	0x3d0d825a	0.03454814
116	0xbe037774	-0.12838537
117	0x3dfe0285	0.12402824
118	0xbdbac158	-0.09118909
119	0x3d971d58	0.07378644
120	0xbe015171	-0.12628724
121	0x3e1c1911	0.15243937
122	0x3cadfc5b	0.021238497
123	0x3e0b68f0	0.13614249
124	0x3e1b617d	0.15173908
125	0x3d75772e	0.05992811
126	0x3d1ae6ac	0.037817642
127	0x3da7dd7d	0.081965424
128	0x3bc85307	0.0061134133
129	0xbe354a4c	-0.17704123
130	0x3e3b6e70	0.18303847
131	0x3baaa27d	0.0052073584
132	0x3c29b15e	0.010357229
133	0xbdfb0b27	-0.122579865
134	0x3e066ae1	0.13126709
135	0x3e02d3db	0.12776129
136	0xbd8c273a	-0.068434194
137	0xbdea4ed5	-0.11440817
138	0xbdc89fb8	-0.09796089
139	0xbe49fffc	-0.19726557
140	0x3da8ea19	0.082477756
141	0x3dd26b7d	0.10274408
142	0x3e0f33cc	0.13984603
143	0x3cee01c3	0.029053574
144	0x3e09b5f1	0.13448311
145	0x3d010ac0	0.031504393
146	0x3e0f695c	0.14005035
147	0xbdb09dc8	-0.086238444
148	0xbc25abf0	-0.010111794
149	0xbe411b2d	-0.18858023
150	0x3db3e102	0.08783151
151	0xbe532750	-0.20620465
152	0x3dfa0116	0.122072384
153	0xbe101d4f	-0.1407368
154	0x3de3a658	0.11115712
155	0xbb6d1b00	-0.0036179423
156	0x3dfe27b3	0.12409916
157	0x3dd26c74	0.10274592
158	0xbdc83c7e	-0.09777163
159	0x3d35b4d1	0.044361893
160	0xbe072a4c	-0.13199729
161	0x3e341437	0.17585836
162	0x3dd47755	0.10374323
163	0xbd7e6b9c	-0.062114343
164	0x3c0fdeae	0.008781118
165	0x3e2802cd	0.16407318
166	0x3d05b9a9	0.032647762
167	0x3d95a768	0.07307321
168	0xbdc8f6bf	-0.09812688
169	0x3e1a567c	0.15072054
170	0x3d8f964e	0.0701109
171	0x3d9a14c1	0.0752349
172	0x3e13392d	0.1437728
173	0x3dcc7bfe	0.09984587
174	0x3e4e6536	0.20155796
175	0xbd88bf6e	-0.06677137
176	0xbd82ac0c	-0.063804716
177	0xbdc4ec91	-0.09615434
178	0x3d0e75bc	0.03478025
179	0x3dd87dc3	0.10570862
180	0x3d8e00f4	0.069337755
181	0x3dc9f63f	0.09861421
182	0x3e492bb5	0.19645579
183	0x3db849f2	0.08998479
184	0x3d8466ca	0.06464918
185	0x3e32ed91	0.17473437
186	0xbdf8f915	-0.121568836
187	0xbcb90a30	-0.022587866
188	0x3e3cc3d3	0.18434076
189	0xbd4c29e0	-0.049844623
190	0xbe120e9c	-0.14263386
191	0xbe324b94	-0.17411643
192	0x3dfce59e	0.123484835
193	0x3e2070ec	0.15668076
194	0x3e51fe2f	0.2050712
195	0x3d95befb	0.07311817
196	0xbe423a41	-0.18967535
197	0xbe0c152a	-0.13679948
198	0x3e399f14	0.1812709
199	0xbdb8655e	-0.09003709
200	0xbdf80748	-0.12110764
201	0x3e5fedeb	0.21868102
202	0xbda56a20	-0.08076882
203	0x3e31a564	0.17348248
204	0xbca2f638	-0.019892797
205	0xbd5480a0	-0.05188048
206	0xbe0ecb64	-0.13944775
207	0xbdad6c28	-0.08467895
208	0xbdf595b0	-0.11991441
209	0x3df50b17	0.11965006
210	0x3d004298	0.03131351
211	0xbe111922	-0.14169744
212	0x3cc1ccef	0.02365729
213	0xbdc00372	-0.09375657
214	0x3dc5d7c5	0.096602954
215	0xbe0de283	-0.13855939
216	0xbe4187d8	-0.18899477
217	0x3e68bd9f	0.22728585
218	0x3e3eb3f4	0.18623334
219	0xbd867566	-0.06565361
220	0x3e138d3a	0.14409342
221	0xbe429b82	-0.19004634
222	0xbd6b9f07	-0.057524707
223	0x3e051944	0.1299792
224	0xbe11d872	-0.14242724
225	0x3d5ae264	0.05343856
226	0x3e2703fb	0.16310112
227	0xbe0887bc	-0.13333029
228	0xbe4a9f63	-0.19787364
229	0x3e390545	0.18068416
230	0x3e24528a	0.16047111
231	0x3e63de08	0.22252667
232	0x3da1974d	0.078901865
233	0xbe510335	-0.2041138
234	0x3b3d8c0c	0.0028922586
235	0xbe0029ca	-0.12515941
236	0xbdaa6a64	-0.08321074
237	0xbbd77a53	-0.0065758615
238	0x3e21f315	0.15815385
239	0x3de26a5e	0.11055444
240	0xbd482150	-0.048859894
241	0xbe1b279a	-0.15151826
242	0xbd545438	-0.05183813
243	0x3e661d03	0.22472005
244	0xbe1361a0	-0.1439271
245	0xbdbe0b28	-0.09279472
246	0xbd3d3d18	-0.04620084
247	0x3c92b1d4	0.01790706
248	0x3e255a69	0.1614777
249	0x3e097f30	0.13427424
