critic.pth (torch, 72666 bytes, 29 tensors)

projection.layers.0.weight f4 [10, 2]
00000000: 0c26 ffbe 1282 a03e 94a3 203e ecc8 1abf
00000010: 68aa 0d3f 8acf 30bf 63d5 393e 341c 763e
00000020: 4ac1 1bbf f806 29bf b73f 2ebf 45aa a6bd
00000030: 6c9a 343f 02fa a5be 8f18 92be 52a9 423e
00000040: 1516 933c 12f1 103f 2c3b 7e3e 95c9 2dbf
-0.49833715 0.31349236 0.156874 -0.6046283 0.55338144 -0.6906668 0.18147807 0.24034196
-0.6084181 -0.6602626 -0.6806597 -0.08137945 0.7054813 -0.32417303 -0.28534362 0.19009903
0.017954865 0.56617844 0.2482726 -0.67885715

projection.layers.0.bias f4 [10]
00000000: 12d4 1fbf ac26 a8be ccac 243f a36d 083f
00000010: 2f09 203f 3fc6 033e 40a5 bbbe 7e7d 4f3e
00000020: 5c22 0e3f 5e40 203f
-0.6243297 -0.32842004 0.6432617 0.5329229 0.62514013 0.12868594 -0.36649513 0.20262715
0.5552118 0.62598217

projection.layers.1.weight f4 [10, 4]
00000000: a0b1 b53c eed1 f43e e47b cf3e 3748 203d
00000010: 53c9 013e 6903 f33e 1fa4 2cbe 1927 513e
00000020: 1bab ca3d 0832 da3e 1fb9 f43d f871 2abc
00000030: f1d8 b7bb 01cd b03e f4b2 e53e ada6 a53e
00000040: 2935 683e 844c 733c e692 473e ad05 1bbe
00000050: 17b0 f1bd f23f 25bc 2b0b b93e 5aed f9be
00000060: c83e fd3d 8018 fabb a091 ff3c f808 45be
00000070: c132 c33e 80a7 81be c824 e23e 079c a73e
00000080: 780e a23e eb59 fdbd 3f43 c63e 9ba8 bdbe
00000090: 43f8 82bd 244a 9d3e 1c7d 79be 787c 93bd
0.022179425 0.47816414 0.4052421 0.03913137 0.12674455 0.4746354 -0.16859482 0.20425071
0.09895917 0.42616296 0.119493715 -0.010403149 -0.005610578 0.34531406 0.44863093 0.32353726
0.22676529 0.014849786 0.19489631 -0.15138884 -0.118011646 -0.0100860465 0.36141333 -0.48813897
0.1236549 -0.007632315 0.03119737 -0.19241703 0.3812466 -0.25323105 0.44168687 0.32736227
0.31651664 -0.12370666 0.3872318 -0.37042698 -0.063950084 0.30720627 -0.24364132 -0.07201475

projection.layers.1.bias f4 [10]
00000000: 8d07 753c 8d43 133d 597c afbe 93c3 6ebe
00000010: 820f 013e 973e dd3d 1e6f e3be 66ca 7b3e
00000020: 36af 5a3e bf5e 7abe
0.0149554135 0.035953093 -0.34274557 -0.23316793 0.12603572 0.10802954 -0.44420713 0.24588928
0.213559 -0.24450205

projection.layers.2.weight f4 [10, 4]
00000000: d005 75be 910b 373d 6e02 dfbe f056 9c3d
00000010: abce a9bd b46f 4f3e 5520 0ebe df12 023e
00000020: 3e1a d63d a221 a7be 354f d43d 4030 ae3e
00000030: d0b6 32bd a4bc 1c3e 10b0 2dbe 9eb0 c2be
00000040: 4a31 9bbe cc33 553e c898 51be d422 78be
00000050: 1030 ecbe c6b3 e63e 3295 59be a7dd 05be
00000060: 9eb3 d73e eee9 a53e 78d4 033e db26 233e
00000070: 9997 d63e ae13 e23e 8c09 d93e e653 0b3e
00000080: 5037 b3bd 6069 73bd 58c0 a9bd c047 c7be
00000090: ef75 a9be a44b a33e d00f 133c a0b2 57be
-0.23927999 0.044688765 -0.4355654 0.076337695 -0.08291372 0.20257455 -0.13879521 0.12702511
0.10454224 -0.32642847 0.1036667 0.34021187 -0.043631375 0.15306336 -0.16961694 -0.38025373
-0.30311042 0.2082054 -0.20468438 -0.24232036 -0.4613042 0.4505903 -0.2124832 -0.13072835
0.42129225 0.32405037 0.12874019 0.15932791 0.41912535 0.4415564 0.42390096 0.13606223
-0.087507844 -0.059426665 -0.0828864 -0.38921928 -0.3309779 0.31893647 0.008975938 -0.21064234

projection.layers.2.bias f4 [10]
00000000: 235b f53e 182f 9b3d bb16 fbbe 20ef abbe
00000010: 1ca5 bcbe c569 f4bb 07a9 b6be a050 fe3e
00000020: a896 c9be 120c 653e
0.47921094 0.07577342 -0.4904078 -0.33580875 -0.36844718 -0.007458898 -0.35675833 0.49670887
-0.39372754 0.22367886

projection.layers.3.weight f4 [10, 4]
00000000: 70ea 67be 2cbf fe3e 102f bdbe 83ac f33c
00000010: f132 903e 16c5 fd3e 57ac e5bd 6a29 b23d
00000020: 6940 aeba 11ab 8c3e fff1 013e 28c4 d03e
00000030: ca83 7b3e a279 63bb aded e23e a538 f53e
00000040: 0fe5 753e 45f0 903e 3123 963e fa7a d6be
00000050: bf66 c4bd 7746 773e 4b0a 20be 56ff dd3d
00000060: ec5b 0dbe 58cf f1bd 8c4d f6be 489c 683e
00000070: ad29 72be 5598 a5bd baf4 033f 1435 c13d
00000080: 08a3 5b3e 6678 c3be dc5f 073e 3cdf 38be
00000090: 7292 4abe fd59 933e 360d b93e ef73 2b3e
-0.22648025 0.49755228 -0.36949968 0.029745346 0.28163865 0.49564427 -0.11214512 0.08699305
-0.0013294342 0.27474263 0.1268997 0.40774655 0.24561992 -0.003470995 0.44321957 0.4789478
0.2401316 0.2830831 0.29323724 -0.418907 -0.0958991 0.24147974 -0.15628926 0.10839717
-0.13804597 -0.11807126 -0.4810604 0.22715867 -0.2364871 -0.08085696 0.515453 0.09433952
0.2144891 -0.38177794 0.13220161 -0.18053907 -0.19782427 0.28779593 0.36142892 0.16743444

projection.layers.3.bias f4 [10]
00000000: ecab d0be e2da cbbe 2c27 573c aadd b53d
00000010: ba5a f63e a900 893e a03d a0be 5965 ba3e
00000020: 97df b1be 5d6f ec3e
-0.40756166 -0.39815432 0.013131898 0.0888017 0.48116094 0.26758316 -0.31297016 0.36405447
-0.34740898 0.46178713

projection.layers.4.weight f4 [10, 4]
00000000: 880b e7be 97d6 db3e 9472 febe cdc8 683d
00000010: 0c73 b3be 48d6 e6bd 7802 dabd 98f9 e03d
00000020: d967 0e3e 2ff6 4fbe a012 87be 6d2e a23e
00000030: 770b cd3e f0a0 7f3e 6d7d 8ebe d841 403e
00000040: 7a6c a43e d427 633b fcd0 77be d79e a43e
00000050: 5b41 913d e992 313e e87b b53e 5e89 acbe
00000060: ecc4 fabe 00aa c0bd 1257 80be 2cc8 a8be
00000070: 80a7 883e 70e9 893e 0ce1 87be 75a8 64be
00000080: d055 25be 8098 a83e a3da afbe 582c b63d
00000090: 5e75 8fbe 20de 32bd b017 343d fc4b 763e
-0.45125985 0.42937157 -0.4969679 0.056832124 -0.3504871 -0.1127134 -0.10645002 0.10985106
0.13906802 -0.20308755 -0.26381397 0.31676045 0.4004781 0.24963737 -0.27830067 0.18775117
0.3211401 0.003466119 -0.24200815 0.32152435 0.07092544 0.17341198 0.35446095 -0.33698553
-0.48978364 -0.09407425 -0.2506643 -0.3296522 0.26690292 0.2693591 -0.26538885 -0.22329886
-0.16146016 0.32928848 -0.34346494 0.08895177 -0.28019232 -0.043668866 0.043967903 0.24052423

projection.layers.4.bias f4 [10]
00000000: dafe 71be 0a9f f5be abd9 82be b26a da3e
00000010: 8e7d ee3d 25a3 6ebe 7e6b 93be 801b bebd
00000020: 5ac4 843e 9ce6 d5be
-0.23632374 -0.479729 -0.25556692 0.42659527 0.116450414 -0.23304422 -0.28792948 -0.09282589
0.25931054 -0.41777503

projection.layers.5.weight f4 [10, 1]
00000000: e345 623f 1cfd 3f3e ccad b73e bc1b ddbe
00000010: 4631 16bf 383f 79bf aa23 75bf e7e4 68bd
00000020: ea24 7ebf 5d5f 0cbf
0.8838789 0.18748897 0.35874784 -0.43185222 -0.58668935 -0.9736209 -0.95757544 -0.056858923
-0.99275076 -0.5483301

projection.layers.5.bias f4 [10]
00000000: 644d 36bf 6ae6 4c3f f785 9abe eca8 7cbf
00000010: c078 71bd 09ec 733f 5a67 0b3f 9d5f 553e
00000020: 0c0e 97be 3947 173f
-0.7121184 0.80039084 -0.30180332 -0.98695254 -0.058953047 0.95282036 0.54454577 0.20837255
-0.29502904 0.5909305

projection.layers.6.weight f4 [10, 1]
00000000: 7c75 aa3e c085 39bd ed2a 363f 809b aabe
00000010: c0ba dfbe 8499 8dbe 57ed 3c3f d0d6 06be
00000020: 80eb 6fbd 4f99 633f
0.33292758 -0.04529357 0.7115925 -0.33321762 -0.43697166 -0.27656186 0.7379965 -0.13167882
-0.0585742 0.88905805

projection.layers.6.bias f4 [10]
00000000: 546a c3be 10c9 fcbd 46b9 d63e 2a36 4ebf
00000010: 70e7 e2bd 0010 ffbc 5443 0b3f 80fa e53d
00000020: 52e8 7fbf 4fc6 4abf
-0.3816706 -0.12343037 0.41938227 -0.805514 -0.110792994 -0.03113556 0.5439961 0.1122942
-0.9996387 -0.79208845

projection.layers.7.weight f4 [10, 1]
00000000: fafd 2dbf 3cc2 fe3e d250 61bf 47c2 253f
00000010: 683f 1ebf 1a8a 6cbf 584a 3bbf 1c5a 243f
00000020: 880f 15be 7faa 75be
-0.6796566 0.49757564 -0.88013947 0.6474957 -0.618155 -0.92398226 -0.73160315 0.64199996
-0.14556706 -0.2399082

projection.layers.7.bias f4 [10]
00000000: 1b5c ae3c 365c 31bd 8530 c43e f063 123f
00000010: 5823 83be 701a 12bf d022 583f 5c48 cd3e
00000020: 048e 62bf 4795 dd3e
0.021284154 -0.04330083 0.38318267 0.5718374 -0.25612903 -0.5707159 0.8442812 0.40094268
-0.8849795 0.43277952

projection.layers.8.weight f4 [10, 1]
00000000: 6b40 7cbb 9017 eebd a02b 393d 1774 603f
00000010: be00 57ba f8fe 61bf f74d 613e d0e0 e93d
00000020: f0df 70bf 1f77 373f
-0.0038490545 -0.11625588 0.04520762 0.8767714 -0.000820171 -0.88279676 0.22002397 0.11419833
-0.940917 0.7166614

projection.layers.8.bias f4 [10]
00000000: b916 403f 0c6c cbbe d038 72bf 5396 c13e
00000010: 4a28 393f 6a62 76bf 0701 14be e4a0 5cbf
00000020: b047 3cbf a07f 50be
0.7503467 -0.3973087 -0.9461794 0.3781 0.723271 -0.9624392 -0.14453517 -0.86183
-0.73546886 -0.20361185

projection.layers.9.weight f4 [10, 1]
00000000: 6e29 2d3f 6936 173f f99c fd3e f09b debd
00000010: 68d8 5f3e b3a2 a1be 16dc 743e 769b 3dbf
00000020: 6e37 7fbf bc80 75bf
0.6764134 0.590674 0.49533823 -0.108695865 0.21859896 -0.31569442 0.23912081 -0.7406534
-0.99693954 -0.9589956

projection.layers.9.bias f4 [10]
00000000: 6782 8e3e 3775 3cbd e4c4 253f 0ab2 3bbf
00000010: d09b 67bf 7616 333f 948d 11bd 5494 8dbe
00000020: ffea 6d3f 38f6 41bf
0.27833864 -0.046010222 0.64753556 -0.7331854 -0.90472126 0.6995615 -0.03553541 -0.27652228
0.929367 -0.75766325

attention.layers.0.weight f4 [64, 100]
00000000: 1890 9ebd ca75 1ebd 8052 1c3d 644c 96bd
00000010: 3910 7e3c 9ef7 57bd c146 013c d8d4 2f3d
00000020: b96c bcbd 7b9b 1d3d d9fd 9b3b 2c01 c13c
00000030: 9140 9f3d 619d f53d 0654 f23c 5f9c a4bd
00000040: 447c e23c ced6 9f3d 2386 b3bc a66b babd
00000050: 34ee 8c3c 1c1c 4b3d 2252 8f3d 8dc6 843d
00000060: eaca 6a3d 78a8 9abd 8daa ba3d 8117 e53d
00000070: 4460 df3c dfdd 813c 80ab 09be dd3a a43d
00000080: b32b 3a3d 0e57 033e 5a48 e5bc 4f37 c53b
00000090: b022 e0bb f462 053c 71d7 413d 11d9 db3d
000000a0: 8226 c23c 9149 a83d 325b 563d 67a1 8ebd
000000b0: c18c b03d d1b0 d83c 9a55 41bd d39e 183d
000000c0: ee50 953d 85b8 c53d 3fa8 ca3d 0094 cebc
000000d0: b100 bc3c 0222 363d ba2c 003d aba4 31bd
000000e0: 6893 99bd eae8 d6bc 6c77 993c 7929 503d
000000f0: a504 b9bd 7489 17bd 4ec5 e4bc a399 3cbd
00000100: 5d6c 883d d7fb b63d 88cd 20ba fb00 bb3c
00000110: d288 563d 37c9 a8bd 8b0e 1c3d edb2 5a3d
00000120: a679 8e3c d08d 3c3d 393e c13d 9296 1d3d
00000130: b069 21bd 37c1 123d 00b3 77ba 7440 98bc
00000140: cfbd 593d 582e 26bc 1603 033d 24f9 e6ba
00000150: 8e15 90bd a8f1 3ebc ab25 913c eede 093d
00000160: b8a1 dfbc 67c3 a23d 88c6 0ebd ea5c 29bd
00000170: f732 9fbc f771 c2bd 60d9 7ebb d9d6 26bd
00000180: 79ad 6f3d 6660 98bd 5531 94bd fd20 38bd
00000190: da2b 613d 50bf 16bd f9c4 af3d 57e4 9f3d
000001a0: 648e 1a3e 910e 113c a9b0 0dbd dd44 5b3b
000001b0: 871f 093d 756b 883d 7b1a e93d f611 10bd
000001c0: 4c81 58bc 5627 7639 3290 4d3d 6790 25bd
000001d0: 92e5 5b3d a5cc 883d 6446 dabc 2fd5 0dbe
000001e0: ef82 13bd 5abf bf3d bbad c03d b061 223c
000001f0: 60cd 173b f953 ca3c e48b 773d 73d9 113e
00000200: 5202 6c3d 9e56 bf3d 57a5 ffbd 0495 e8bc
00000210: 6fd2 08bd 7482 0a3b 2fba c63d f681 003e
00000220: ca7c 4fbd 8e8d 693d fff5 243d ade7 1a3e
00000230: 8077 993b 7572 8c3d 4f64 40bd 821b 84bd
00000240: 1162 2b3d 07ec 0cbd 2c06 f5bc c23d 76bd
00000250: d507 89bc 860d a6bd e9dd d03d 77ac c23c
00000260: 48b7 1a3d 8b45 9c3d f857 b3bc fa30 f53d
00000270: 08e6 213c 83f6 c4bc cdb9 5ebd 0c6d e9bc
00000280: d80a 513c 8341 943d b3c1 ee3d 18f8 7b3c
00000290: 6117 ba3d 0227 5b3d 840f 073e 249c 5dbd
000002a0: 0223 003d 4200 8a3d cfab 963d e54d dc3d
000002b0: 20d7 c53d 234b 703d a0dc 1cbb 9e84 2f3d
000002c0: e0ce 3dbc 69e7 413d 5189 c03d 7fe0 0f3e
000002d0: 1cb0 c63c 4a57 65bd ea7b 56bd 8c92 373c
000002e0: 99df 963c a86a 123c 0b11 153e 94e5 d6bc
000002f0: 962a 9fbd 2cfa d4bb d3d2 23bc 5133 44bd
00000300: 2c8b 193e 740d 953c 8044 a4bb 4c7e a7ba
00000310: 75f0 433c 25cf 95bd c718 4f3d 993b 843d
00000320: 4bca 97bd 4213 9abd a423 1fbb 3a32 6f3d
00000330: ca4a 0bbe 40d4 6cbc 52ff debb fb1c 293d
00000340: 3983 97bd 3d95 2fbe 6058 36bb e721 90bd
00000350: 8569 8b3b 5081 2b3b 961d e93c 3867 cd3d
00000360: 00a3 353a 5b62 0dbe 55f5 9cbd 4752 0d3e
00000370: c373 de3d aea2 0fbd bc4e 2cbd 7454 8b3c
00000380: e6d0 453d f93f 7cbc f25c 85bd bb86 9bbd
00000390: 6c07 96bc 9449 663d 5496 c83d 338a 02bd
000003a0: 64e1 1fbd 3b89 06bb 3792 d6bd 8316 edbd
000003b0: 8e6d 4b3d 6f5a fdbd 7458 67bc 60af 11be
000003c0: 0180 933c f501 86bd 86f0 60bd 2a71 843d
000003d0: 8dc4 adbd 7b92 c5bc a283 743d 89a1 c83d
000003e0: 6486 903c 731d a9bd 6834 0ebe 850d c33c
000003f0: c5e7 10be 387f d5bc 53ad 49bd b3e8 7c3d
-0.077423275 -0.03868655 0.038164616 -0.07338789 0.0155067975 -0.05272638 0.007890404 0.042927593
-0.09200425 0.038478356 0.0047604856 0.02356013 0.07775987 0.11992908 0.029581081 -0.08037638
0.027647145 0.078046426 -0.021914547 -0.091025636 0.017203428 0.049587354 0.069980875 0.06483183
0.05732242 -0.07551664 0.09114561 0.11186124 0.027267583 0.015852867 -0.13444328 0.0801904
0.04545183 0.12826177 -0.027988601 0.006018556 -0.0068400726 0.008141268 0.0473246 0.107347615
0.023700003 0.08217157 0.052333064 -0.06964379 0.08620597 0.0264515 -0.047200777 0.03726084
0.07290827 0.09654335 0.09895372 -0.025217056 0.022949548 0.044466026 0.031292655 -0.04336993
-0.07498819 -0.026234109 0.018733703 0.0508208 -0.09034089 -0.03699632 -0.027926113 -0.046044957
0.06661294 0.089347534 -0.0006134142 0.022827616 0.052376576 -0.08241504 0.038099807 0.053393293
0.01739199 0.04603368 0.09435696 0.038473673 -0.039407432 0.035828795 -0.00094489753 -0.018585421
0.05315953 -0.010142885 0.031985365 -0.0017621857 -0.07035361 -0.011654295 0.017718157 0.033659868
-0.027298793 0.07947426 -0.034857303 -0.041348375 -0.019433482 -0.09494393 -0.003888689 -0.04073224
0.058515046 -0.074402615 -0.07235972 -0.044953335 0.05497346 -0.036803544 0.085824914 0.07807224
0.1509338 0.008853571 -0.034592304 0.0033457794 0.033477332 0.06661121 0.11382004 -0.03517338
-0.0132144205 0.00023475042 0.050186343 -0.040420916 0.053685732 0.06679658 -0.026644893 -0.13850854
-0.03601354 0.09362669 0.094081365 0.009910986 0.0023163185 0.024698244 0.060436144 0.14243107
0.0576194 0.09342693 -0.12482708 -0.028391369 -0.03340381 0.0021134885 0.097034805 0.12549576
-0.050656117 0.057019763 0.040273663 0.1512744 0.004683435 0.068577684 -0.04697066 -0.06450559
0.04184157 -0.03440478 -0.02991017 -0.06011749 -0.016727367 -0.08108048 0.10198576 0.023763878
0.037772447 0.07630452 -0.021892533 0.11972232 0.009881504 -0.024043327 -0.054376412 -0.02849438
0.012758933 0.07239058 0.11658039 0.015378974 0.090864904 0.053503998 0.13189512 -0.054103985
0.031283386 0.067383304 0.07356989 0.10757045 0.096601725 0.058665406 -0.0023935214 0.042851083
-0.011584967 0.04733983 0.09401191 0.14050482 0.024253897 -0.05599145 -0.052364267 0.011204373
0.018417167 0.008936562 0.14557283 -0.026232518 -0.077717945 -0.0064995494 -0.009998995 -0.0479005
0.14994496 0.018194892 -0.0050130486 -0.0012778728 0.011959185 -0.073149 0.05056074 0.0645668
-0.07411631 -0.075232044 -0.0024282718 0.05839751 -0.13602749 -0.014454901 -0.006805339 0.041287404
-0.073980756 -0.17146774 -0.0027823672 -0.07037716 0.0042545223 0.0026169606 0.02845649 0.10029453
0.0006928891 -0.13807051 -0.07663981 0.13800918 0.108619235 -0.035067253 -0.042067274 0.017008044
0.048294924 -0.015396112 -0.065118685 -0.07594057 -0.018314086 0.056222513 0.09794298 -0.03187008
-0.03903331 -0.0020528573 -0.10477107 -0.115765594 0.049665026 -0.123707645 -0.01412021 -0.14227057
0.018005373 -0.06543342 -0.05491688 0.06466897 -0.08484755 -0.024117699 0.059695847 0.097964354
0.017642207 -0.0825757 -0.13887179 0.023810158 -0.14150913 -0.02606164 -0.04923756 0.061745357

attention.layers.0.bias f4 [64]
00000000: 6ea2 43bd a1a1 ea3b 0758 bcbd c6cd 48bd
00000010: 96f5 9fbc 8a9c d63d 9cde 1cbd 16ce 45bd
00000020: 32af 00bd a1d3 9b3c 444a 9b3d fd8d 063e
00000030: d190 97bd 62af 833d b5ad 3e3c 9616 b63c
00000040: 513f 60bd fb31 4d3d 6472 debd 7b18 c23d
00000050: 0638 51bc 062e a5bc f52c c6bd 27fc e93c
00000060: 8c4d 603b d2c6 0a3d 6c94 483d 7f11 6ebd
00000070: 71b5 973d 4940 683d e6e2 d13c a1f9 08bc
00000080: 0da2 933d 22b6 b63d ad56 5cbd ccff 02be
00000090: 0823 c63c ffe0 51bd f051 453c 6987 523d
000000a0: a957 21bd 8f59 403d dd56 c13d e780 8fbd
000000b0: dc53 e7bd 7569 cabd 3bd7 213d ac63 1f3e
000000c0: a0b9 a7bd 4208 833c 7379 9e3d bd8d 21bd
000000d0: dcce 9c3c 25ff d83d 98e4 6a3d 8f85 39bd
000000e0: ce36 803d 845a 5c3d 7093 e6bb 9192 0cbd
000000f0: be88 e3bc fe36 9e3d aa18 d8bc 9482 14be
-0.047762327 0.007160381 -0.091964774 -0.049024366 -0.019526284 0.10479076 -0.038298234 -0.048292242
-0.03141708 0.019021811 0.075825244 0.13140102 -0.074006684 0.06429936 0.011638095 0.022227567
-0.054747883 0.050096493 -0.10861662 0.094773255 -0.012769705 -0.020163547 -0.096765436 0.028562618
0.003422591 0.033881016 0.04896967 -0.058122154 0.07407654 0.056701932 0.025620889 -0.008360297
0.07208643 0.08921458 -0.053793598 -0.12792891 0.024186626 -0.051239964 0.012043461 0.05139867
-0.03939024 0.04696041 0.09440396 -0.07007008 -0.11295292 -0.098833956 0.0395119 0.15565366
-0.08189702 0.015995149 0.07738008 -0.039441813 0.019141607 0.1059554 0.05734691 -0.045293387
0.06260453 0.05379726 -0.007036619 -0.034319464 -0.027775165 0.07725333 -0.026378948 -0.14502937

attention.layers.1.weight f4 [10, 64]
00000000: 405a 223d f517 273b 361b b8bd aa74 aabd
00000010: ee93 bdbd 2d07 8f3d 8ec0 55bd 7551 413d
00000020: 38a7 0c3e bb00 1c3d e02b 3abd 6666 4ebc
00000030: 36bd c53d 9d45 b6bc 5b1c 82bc 2051 b2bc
00000040: 0377 dfbc 9ff8 16bd 2770 053d 9fb9 53bb
00000050: f149 64bd 70ef 3fbb 56d3 5d3d 91b8 2d3d
00000060: 661e edbd d600 0dbe 188e b93b e80f 06be
00000070: a720 1ebd 6030 f7bc e4be 39bd 81db 10bd
00000080: 8782 c2bd ce8e 85bd 76f8 c5bd c7c8 ea3d
00000090: 0469 f33d e81b 7a3d 06d4 35bd b88f 29bd
000000a0: 780c febc ef11 1d3e bed9 09bd df30 753d
000000b0: 7185 b4bd eeeb c83d df3e 273c ba87 103d
000000c0: 2b44 d5bd 454b 633d 0e97 eabd 16da cf3c
000000d0: ff28 0e3e 2c63 4cbd f85c afbb c2f2 4a3a
000000e0: f0a8 82bd e62f c7bd bbe2 d8bd ad35 0e3d
000000f0: e6bb 563d 9acf 48bc 4123 10bd 7e10 27bd
00000100: b926 833d a17a 0c3e 07b3 1cbe 171c 10be
00000110: a13d 12be 437f 903d c5e5 89bd 3ab3 773b
00000120: 5c55 74bd 5107 fe3c 9188 7a3d bf73 0a3e
00000130: a4cd b0bd e72e b3bd 52ae 143d 0015 02be
00000140: 6082 23be 2b2f 1e3e 9bc5 87bd 3003 f73c
00000150: 71b1 96bd 7e1c 2c3e b243 12be 0f59 8abc
00000160: f304 10be f55b db3d efac 2f3c 6965 3d3d
00000170: d0a6 793d 270d b9bd ef56 c83d 764c 3f3e
00000180: d5dc 073d 5a38 7ebd 9c5b 1e3e 6d09 29be
00000190: ac73 cfbd 069f 46be 081e 3dbc d869 f9bd
000001a0: df8e f9bd b466 26be 5ee6 06bd 04a3 31be
000001b0: 6f6c 04be 8167 dcbd b5f4 3cbe 8fab 133e
000001c0: ce5e 3f3d ff20 04bd 5257 043e 06fb aebd
000001d0: fa07 d2bd 2e8d c63d 1907 533e d74d b23d
000001e0: bb3d 39be 8752 0d3e 9b91 eabd e0f5 e6bd
000001f0: ab96 843d a8a4 fc3d 6b73 47be 93d9 3dbe
00000200: 5162 9bbd 56c2 b6bd fb78 fd3c 7594 ddbd
00000210: fa0d 18bb b0a2 c13d 5640 94bc 35bd d2bc
00000220: a865 ae3d 01bf 66bc 5f7d 933d 66e7 d4bd
00000230: 1d1f 4a3c 8bb5 733d 1eac c9bd 5e13 9abd
00000240: 46e7 e33d 3e54 6dbd 3407 a43d 3a94 183c
00000250: 7efb 0abe 2063 d73d 973f d0bd 0592 b53d
00000260: 8287 bc3d 47ad 40bc 7deb 1ebd 60df 9a3d
00000270: 4d8c bebb a255 8f3d a535 55bb 50c7 b23d
00000280: c9d1 c13d f483 5abb 4d1e 6abc ef40 be3d
00000290: 5dd8 50bd 4fc1 fe3c 866a e7bc 4e7f d23c
000002a0: 19f9 9ebd 4213 97bc 7a0c 7b3d 26df 303c
000002b0: 3c10 a23d ee28 aa3b fe5a b0bd d38b 6b3d
000002c0: bce3 ab3d 54e3 173d ef0c 90b7 ae2c 063d
000002d0: 950b a1bd 502c e4bc 03f5 fabd faef c63d
000002e0: cdc3 70bc 3e42 9c3d 6096 603d 0cc0 043e
000002f0: 43d5 713d e344 f0bb 9cff d03d 23f4 4fbd
00000300: cb5a 623c a2f2 c33a d0c3 d0bd 916f 0dbb
00000310: f577 c5bd 553b f03b 25c0 44bd ea28 9fbd
00000320: 4517 2d3d f1f8 573c e094 013e 328c 103c
00000330: b722 023e dfff c7bd 6039 07bb 4681 893d
00000340: c0d1 e0bc 5ca6 c63a c59c c03c 5075 3b3d
00000350: 6f3d 033d f151 febc 503b 01be 6ecc 24bd
00000360: 4b33 37ba 4093 2c3e bd28 9dbd c67a 653d
00000370: f203 003e e091 97bc 232d a3bb e6bc a4bd
00000380: f11c a4bd ef49 8bbd ace5 6fbc a763 13bd
00000390: 2d1a 85bd 0ac3 3abd 3bea 1d3e ee49 473d
000003a0: 8685 503d 59a5 843d 0b3b 85bd 5daa c33d
000003b0: 504d 96bd a06a 913d ce64 2bbe 9a8f 873d
000003c0: 19c3 203e 6eec 45bd d605 7ebd 156a 05be
000003d0: 13d2 093d 6050 023e de2f de3d a207 f2bd
000003e0: b57d b7bd 8d82 9cbb 72e7 953c 2cc4 0dbd
000003f0: d3d1 2f3c f9cf dabd a75b a4bd 446b 7bbd
0.03963685 0.0025496457 -0.08989565 -0.08323033 -0.09256731 0.069837905 -0.052185588 0.047196824
0.13735664 0.038086634 -0.045452 -0.012597656 0.0965523 -0.022249991 -0.015882662 -0.021767199
-0.027278429 -0.036858197 0.03257766 -0.0032306684 -0.05573458 -0.0029287003 0.054156624 0.042412344
-0.11578064 -0.1376985 0.005662691 -0.13092005 -0.03860536 -0.030174434 -0.045348063 -0.035365585
-0.09497552 -0.065213785 -0.09666531 0.114640765 0.118852645 0.06106177 -0.044391654 -0.041396827
-0.031011805 0.15338872 -0.03365492 0.05986106 -0.088145144 0.09810625 0.010207861 0.03528569
-0.10413393 0.055491704 -0.11454593 0.025372546 0.13882826 -0.049899265 -0.005351659 0.0007741862
-0.063798785 -0.09725933 -0.105901204 0.034719158 0.052425288 -0.012256527 -0.03518987 -0.040787213
0.0640387 0.13718654 -0.15302669 -0.14073215 -0.14281322 0.07055523 -0.06733278 0.0037796036
-0.059651718 0.031009348 0.061165396 0.13520716 -0.08632973 -0.0874918 0.036299057 -0.12703323
-0.15967703 0.1544768 -0.06629487 0.030152887 -0.07358063 0.16807744 -0.14283636 -0.01688817
-0.14064388 0.10710899 0.010722383 0.04623929 0.0609501 -0.09035712 0.09782206 0.18681511
0.033169586 -0.06206546 0.15464634 -0.16507502 -0.101294845 -0.193966 -0.011542805 -0.12178391
-0.121854536 -0.16250116 -0.03293454 -0.17347342 -0.12931989 -0.10761929 -0.18452723 0.14420913
0.046721272 -0.03225803 0.12923935 -0.08543973 -0.10255428 0.09694897 0.20608176 0.08706253
-0.18089955 0.13801013 -0.11453553 -0.11277366 0.0647405 0.12336093 -0.19477622 -0.18540029
-0.07587112 -0.089237854 0.030941477 -0.108193316 -0.002320169 0.09454858 -0.018097084 -0.025724987
0.08515483 -0.014083625 0.07201647 -0.10395698 0.01233652 0.059499305 -0.09847282 -0.07523225
0.11128096 -0.057941668 0.080091864 0.009312684 -0.13572499 0.105169535 -0.10168379 0.08865742
0.092055336 -0.011760063 -0.038798798 0.07562137 -0.005815065 0.06998755 -0.0032533195 0.08729422
0.094638415 -0.003334281 -0.014289451 0.09289729 -0.05098759 0.031098036 -0.028249037 0.02569547
-0.07762355 -0.0184418 0.061291195 0.01079539 0.07913253 0.0051928675 -0.086111054 0.057506394
0.08393046 0.03708203 -1.717216e-05 0.032757454 -0.07863537 -0.027853161 -0.122537635 0.09713741
-0.01469512 0.07629822 0.05483091 0.12963885 0.059041273 -0.0073324307 0.102050036 -0.050769936
0.013815592 0.001494963 -0.10193598 -0.0021581391 -0.096420206 0.0073312917 -0.048034806 -0.077714756
0.04225852 0.013181911 0.12654448 0.008822488 0.12708555 -0.097656004 -0.0020633563 0.0671411
-0.027443767 0.001515578 0.023512254 0.045766175 0.03204101 -0.031044932 -0.12620282 -0.04023402
-0.0006988539 0.16853046 -0.07673786 0.05602529 0.12501505 -0.018502176 -0.004979746 -0.08043842
-0.08013333 -0.06801211 -0.01464216 -0.035983708 -0.06499133 -0.04559616 0.15421383 0.04865449
0.050908588 0.0647685 -0.06505402 0.095539786 -0.07338965 0.07100415 -0.16737673 0.06619187
0.15699424 -0.04832118 -0.062017284 -0.13028748 0.033647608 0.12725973 0.10848974 -0.11817862
-0.089595236 -0.004776305 0.018298838 -0.034610912 0.010731178 -0.10684199 -0.08025294 -0.061381593

attention.layers.1.bias f4 [10]
00000000: 14f0 babd 63af ad3d cbe7 1eba 21fa 8cbd
00000010: 7b7e 3bbd e147 1dbd 94e0 873d 2267 adbd
00000020: eb4d 1fbe 1420 8bbd
-0.091278225 0.08480718 -0.00060617615 -0.06883646 -0.045774918 -0.038398627 0.06634632 -0.08466937
-0.15557067 -0.06793228

layers.0.weight f4 [23, 100]
00000000: 926b 583d aadd 3cbd 4e83 523c f0f9 813d
00000010: 72b1 75bc 9c17 733d 5291 92bd 73b6 c3bd
00000020: ec85 0e3c acde 493d 4725 3bbd 81d8 b53c
00000030: 011b 3fbd 6752 14bb 385f d8bd fcca 953c
00000040: f668 373d 5423 afbd fd98 49bd 4790 e33b
00000050: 5cbc 32bd 212b 9bbd 5df4 06bc a01e b3bc
00000060: 213c 9e3d b797 10bd fbcd d33c 2440 aebd
00000070: d0b3 353c 651a 40bd e00c a43c f6c1 ccbd
00000080: e1e8 823d 23d7 97bc d1f0 7fbd b6c0 9a3d
00000090: e041 0cbd ebfd 6b3d 2902 ba3d 4cf4 d4bc
000000a0: 10ec 74bd 2d37 9dbd 919a f2bb a362 41bd
000000b0: a555 98bd 0708 313b b279 583d 3af4 043d
000000c0: 642d acbc b14f ba3d 24c9 0dbd 5e96 77bd
000000d0: 80d2 383c 1270 4e3d 9df2 22bd 7236 253d
000000e0: 6922 893d 5a31 ee3c f37f 4cbd 8219 403d
000000f0: 1f3c 873d 14fa ff3c 50f4 29bd 60d6 8bbd
00000100: 58af dcbc 80ee 0b3c 285a 92bd dce4 12bc
00000110: 93f7 8cbd 99a1 bd3d 6987 cfbd a0df bcbc
00000120: a14e c23c 8afd 673d cb67 c4bd 26ab 6a3d
00000130: 5a26 ac3d 904a 833d de81 93bd 7279 dd3a
00000140: 6ed9 b03c b00a 05bd a294 3f3d ce2a ab3d
00000150: cb47 abbd 1df3 a43d 2d0c c1bd a0ff 15bd
00000160: 80d6 b23a 4c9c e63c b16a 4bbd ce37 7b3d
00000170: 96a6 a23d 0e61 3e3d 0043 20bc 6b58 84bd
00000180: b89a 80bd 92d8 443d 352d a53d 3060 60bc
00000190: 404f 3abd 07f0 74bd 61fe 88bd 5076 833c
000001a0: 57b3 f93c 0e44 273d f0f7 823d a150 82bd
000001b0: 390b 423d 8000 8d3d 9178 36bc a1c4 3bb9
000001c0: 3e7c 623d edce 423d 08e6 8e3d 183f 333e
000001d0: a6cc 2f3d 34ed 403d bb51 453d d07c a9bc
000001e0: d9da 7f3c dad8 1fbd 83f8 4abc 9f28 cb3d
000001f0: 1800 b9bc 8dcb 13bd a205 9b3d 93f6 5f3d
00000200: 49d8 a43d 8137 26bd ccd5 cd3d 13d2 1d3d
00000210: 91c6 23bd 649d 9bbd 2974 bb3c 690b 5f3d
00000220: 65c1 a53d 8b29 81bd 4608 5ebd 013c 68bd
00000230: c282 3bbd 1de3 813d 257e 79bc fb96 853d
00000240: 42b7 933c 4d04 353d cc88 12bd 9550 2cbe
00000250: da69 99bd ecd3 b13c d460 a6bd 4b16 b63d
00000260: 8de0 473b ab70 a3bd 9150 9d3d 469b b6bd
00000270: 8e00 86bd ebee 04bd 6d5e be3d 1aa5 ad3d
00000280: bdc9 a83d 7522 aa3d 62be 1c3d 1348 913d
00000290: f1c5 af3d 5997 a33d c1b3 50bb ecff f5bc
000002a0: 23af 803d 93e4 9cbd 66d7 c1bd 2450 043d
000002b0: 5b5b 223d 911c b3bd c08c a53a 0b8e a23d
000002c0: 62a7 60bc a693 adbc bfba ba3d d919 97bd
000002d0: f6c0 343d 0988 bc3d 80e3 48bc 7ce8 a3bd
000002e0: c2b2 bc3d 0e06 3c3d 2cb1 24bd 0bec 9abd
000002f0: 68cb 8bbc 42fb a03d f6bd c33d 4dbb 203d
00000300: 320b 99bb e74a c1bd ed73 a33d f10d 923c
00000310: e21c 88bd d0b2 333c a90c da3c ac88 b4bc
00000320: dcf5 db3c a85b 33bc cbb8 e3bd 5928 e8bd
00000330: 7d9f 4fbd 97d5 b93d 46b5 aa3d 4a1b b1bc
00000340: bbe3 44bc 1cc9 09bd f8d9 c93d 2eaa 0f3c
00000350: 82d0 cfba 81db d93d 5ae4 80bc 8625 dfbd
00000360: 43de 8ebd a75d 93bd 6d09 67bd ac43 85bc
00000370: 801c efbd 4037 003d 0db0 38bd dab1 083d
00000380: e012 a7bd a269 6f3b d639 0c3d b809 3bbd
00000390: a8e1 5c3c 8159 7bbb 68f5 0a3d 29ee 513c
000003a0: bf61 34bd b132 833c 01b1 5cbc b07a d23b
000003b0: 80de 6d3c f2fc 8a3d 4226 213d f23d b13d
000003c0: baf4 ecbd 0073 79bd fe1e 40bc ad05 34bc
000003d0: 469b 703d 9988 c73c 19ae ac3d bedd 8c3b
000003e0: 78cf a1bd 1ac9 04bd 4c6f 8c3d 89b6 813d
000003f0: b032 5abd 40b8 63bb c26a 2c3d 1cb2 e83b
0.052836962 -0.046109833 0.012848688 0.063465 -0.01499592 0.059348688 -0.07156624 -0.09556284
0.008698922 0.049284622 -0.045689847 0.022197964 -0.046656612 -0.0022632123 -0.105650365 0.018285267
0.044777833 -0.0855166 -0.049218167 0.0069446894 -0.043636665 -0.075765856 -0.008236972 -0.02186519
0.077263124 -0.035300937 0.025855055 -0.085083276 0.011090234 -0.04690017 0.02002567 -0.099979326
0.063920744 -0.018535202 -0.06248552 0.07556288 -0.03424251 0.057615202 0.09082443 -0.025995396
-0.05979544 -0.076765396 -0.0074036797 -0.047213208 -0.074382104 0.0027012841 0.052850433 0.032459475
-0.021017738 0.09097231 -0.03461565 -0.060446136 0.011280656 0.050399847 -0.039782155 0.040335126
0.06696016 0.029076267 -0.04992671 0.046899326 0.06603264 0.031247176 -0.04149276 -0.06827998
-0.02693908 0.00854075 -0.07146102 -0.008965697 -0.068831585 0.09259338 -0.10133249 -0.023055851
0.023719134 0.056638278 -0.095901094 0.057292126 0.084057525 0.06410706 -0.072025046 0.0016897155
0.021588054 -0.032480896 0.046772607 0.08357774 -0.08363303 0.08054183 -0.094261505 -0.036620736
0.0013644248 0.0281507 -0.049662296 0.061332516 0.0794193 0.046479277 -0.009781599 -0.06462177
-0.0627951 0.0480581 0.08065263 -0.013694808 -0.045485735 -0.05979922 -0.06689144 0.016047627
0.030481024 0.040836386 0.063949466 -0.06363035 0.047373984 0.06884861 -0.011137144 -0.0001790696
0.055294268 0.04756062 0.06977469 0.17504537 0.042919777 0.047101215 0.048173647 -0.020689398
0.015616142 -0.039025165 -0.012388351 0.09919857 -0.022583053 -0.036082793 0.07569434 0.05467851
0.080490656 -0.040580276 0.10050544 0.03853042 -0.03998429 -0.07598379 0.022882538 0.05445424
0.08093528 -0.06306752 -0.05420711 -0.05669785 -0.045778997 0.063421465 -0.015227829 0.06522938
0.01803172 0.044193555 -0.03577499 -0.16827615 -0.07490893 0.021707498 -0.08123937 0.08890971
0.0030498833 -0.07980474 0.076813824 -0.08916335 -0.065430745 -0.032454412 0.09295354 0.08478756
0.082416035 0.083073534 0.0382675 0.07093825 0.08582676 0.07987852 -0.0031845423 -0.03002926
0.06283405 -0.076607846 -0.09464912 0.03230299 0.039637905 -0.08745683 0.0012630448 0.07937249
-0.013711782 -0.021188568 0.0911765 -0.07377977 0.044129334 0.09205634 -0.0122612715 -0.08003327
0.09213783 0.04590421 -0.040208027 -0.07564553 -0.017064765 0.078604236 0.095577165 0.039241124
-0.004670524 -0.094381146 0.079810955 0.017828913 -0.06646134 0.010967925 0.026617365 -0.022037826
0.026850633 -0.0109471455 -0.11119231 -0.11335821 -0.05068921 0.09073942 0.083353564 -0.021619458
-0.012017186 -0.03363906 0.09856027 0.008768601 -0.0015854987 0.1063757 -0.015733887 -0.10895829
-0.06975987 -0.07195597 -0.056405474 -0.01626762 -0.11675358 0.03130269 -0.04508977 0.033372737
-0.08157897 0.0036531468 0.034234844 -0.045663565 0.013481535 -0.003835291 0.033925444 0.012813129
-0.04403853 0.016015382 -0.013469935 0.006423317 0.01451838 0.06786527 0.039343126 0.08654393
-0.115701154 -0.06090069 -0.011726139 -0.010987681 0.05874183 0.024357127 0.08431644 0.0042988947
-0.079009 -0.032418348 0.06857166 0.06333644 -0.053270996 -0.0034747273 0.042094 0.0071013104

layers.0.bias f4 [23]
00000000: 1ef2 d1bd ec54 df3c a675 58bd 6fc5 213d
00000010: fd13 6ebd 1076 a8bd 0276 533d 8ce2 fa3b
00000020: acec b83c 379a 31bb ce8b e1bb 7d13 75bd
00000030: 699d e4bc d341 41bd 2248 453d ec73 2bbd
00000040: 0855 523d edeb 3dbd 7e8b c9bd 9e04 cfbd
00000050: 68db 8bbc d411 aabb 2ed2 b9bd
-0.10251258 0.027262174 -0.052846573 0.039494928 -0.05812453 -0.08225644 0.051626213 0.007656401
0.022573791 -0.0027099976 -0.006883121 -0.05983304 -0.02790709 -0.047181915 0.048164494 -0.0418586
0.051350623 -0.046367574 -0.09841059 -0.101083025 -0.017072394 -0.0051901136 -0.09073292

layers.1.weight f4 [250, 23]
00000000: a27b 57be d7ac 143e b39e 243e 0a87 5fbd
00000010: c4a6 3fbc c2dd 9c3d e749 153e 2ecd ba3d
00000020: b4ee 88bd 66f0 393d 4bf5 26bd 747c 0abe
00000030: fdd5 873d 568e f8bd 333b 9a3d f68f 483e
00000040: 56ef f9bc 32f2 443e 5aed ac3d 6745 8fbd
00000050: c088 033d b327 08be deac 2f3e 3d99 de3d
00000060: 9615 0c3d 8543 c6bd a185 b03c f2f2 543e
00000070: 9e33 9e3d 4029 53bc 33be 16bd b01d c4bc
00000080: a559 93bd 734b 1a3d 772e 01be 9bcf 0b3e
00000090: aa2b 3bbe 1f8b e13d d35c e83d e0da 0d3e
000000a0: 4261 c53d 8621 473e d246 483e 9660 053e
000000b0: 8e81 353e 8fe5 c3bd a2c8 913d f108 dcbd
000000c0: 8b50 3b3e 3af2 12be e639 15be e8ab 1e3d
000000d0: 7ef0 913d 4261 2bbe 5eeb ff3d 0c7d 483d
000000e0: 00d0 d1b8 2c67 013d 0073 5dbc 165b ae3d
000000f0: f641 16be 7083 d1bc 5518 3e3e 7a24 cb3d
00000100: be52 84bd d045 b73c e474 36be e00e 58bd
00000110: 8671 16be 3a07 49be 38ef 8bbd 1bc6 24be
00000120: 7937 51be 6bc7 153e 2fe1 243e d421 0abe
00000130: 330e 253e 48f7 12be b1e2 2bbe 95ec 003e
00000140: 4c45 313d 60f0 463c 09bb 38be 102d 9c3c
00000150: 536e 1b3e 22b6 d6bd 8099 ff3b a319 d9bd
00000160: 5b40 433e e4e7 82bd 4f6f 033e 0c11 04be
00000170: dd28 0f3d e1b7 303e 823f 6d3c 95ad 1f3c
00000180: d0fe 4fbd 4091 0d3c 23ca 1a3e bd3a d8bd
00000190: 307d 57bc 06a8 ffbd 5217 cabd bc77 4e3e
000001a0: 231e 09be c0c6 7c3c a94d 173e 8e76 573d
000001b0: d0ae 313c 8f09 52bd 7d3b 28bd 0e9c 513b
000001c0: 5740 5b3d 76df 40be 8059 213e 1268 283e
000001d0: 9796 2e3d cb60 1b3e 6fe6 41be 1591 aa3d
000001e0: 32ad 12be f8aa f4bc 2898 193e 48eb 88bd
000001f0: db85 ed3d 62c1 a73d 3220 863d 39e5 efbd
00000200: 3239 1cbe c15c a2bd af04 353d 3f62 b7bd
00000210: 7f47 ad3d e491 013e 4775 36be 01ec f93b
00000220: 9f2b 8dbd a187 8bbd a88e e63c 2344 d9bd
00000230: 6135 0f3e bf3f 113e 535f 303e 88fa dd3c
00000240: 38bf a23c 2810 20be 50db edbc 5358 febd
00000250: ee88 d8bd 88d2 42bd 9e68 4bbe 901b bcbc
00000260: 0059 abbb e279 843d 781b a03c de16 29be
00000270: 40ec 15bd 1f33 2f3e 6e63 11be 74e5 22bd
00000280: 34c9 2dbe e3f2 1dbe 2e1f a53d c4ca 343d
00000290: 9032 8e3c d28e bf3d 6048 283d 9caa d9bd
000002a0: 2e50 25be 00e4 2b39 4571 1c3e 60cc adbd
000002b0: bbf3 29be ac11 093d c88b 50be 1a21 883d
000002c0: a811 4abd 76ff c13d bea8 90bd d592 2f3e
000002d0: 95d5 133e 487f 53be af62 48be 39b6 c7bd
000002e0: 6038 06bc e8f9 b7bd 20ee 86bc 9c8e 54be
000002f0: 002e a7ba bef5 95bd 301b 3bbe 9f2b d8bd
00000300: 95dd b2bd 405c d6bb e019 43bd 2153 4e3e
00000310: ea7d c03d 091b 183e 714c 1abe de76 d13d
00000320: e1e1 293e c770 47be 0222 07be e028 47bc
00000330: acfe 463d f1c1 213e 83b3 4fbe 6969 0c3e
00000340: d2af 923d b562 5fbd 125d e93d 310f c1bd
00000350: c6bd dd3d e279 28be 82d1 723e ebd3 3c3e
00000360: 9613 013d 7e6e 9f3d b0e8 bb3c 6b3b 553e
00000370: 3e50 b23d 8c87 0dbe a599 58be 87a6 00bb
00000380: a3e3 00be 2b12 0c3d 42d8 4bbd 2c01 933d
00000390: 9de6 2c3e 08cd 0b3d 4e55 b63d 1e60 3bbe
000003a0: 8f46 d23c 271a 08be 6a6b bf3d 048c 21bd
000003b0: fd9b efbd 350e 233e 06ae c43d 44a2 04be
000003c0: 6f2e 3fbc a20a 15be 9f81 62bd 84ed 073d
000003d0: 1e25 133e 8670 0fbd ec24 273e 83b4 efbc
000003e0: 1c28 4abe 5063 533e 6767 cc3d 25ec 07be
000003f0: 98ca a23d b4f7 4abd 91b4 2f3e 6cc2 f23d
-0.21043256 0.14519058 0.16076164 -0.054572143 -0.011697475 0.076594844 0.14578973 0.09121166
-0.06686154 0.045395277 -0.040761273 -0.13524038 0.06632612 -0.121365234 0.075308226 0.19586167
-0.030509632 0.19233015 0.08443709 -0.06995659 0.032112837 -0.13296394 0.17155787 0.10869072
0.034200273 -0.09680847 0.021548094 0.20795801 0.07724689 -0.012888253 -0.03680248 -0.023939937
-0.07194833 0.03766961 -0.12615381 0.13653414 -0.18278375 0.11012863 0.1134583 0.13853025
0.09637691 0.19446382 0.19558266 0.13025126 0.17725202 -0.09565269 0.07118346 -0.10743893
0.18292443 -0.14350215 -0.14572868 0.03873816 0.07125948 -0.1673632 0.124960646 0.04894738
-0.000100046396 0.031592533 -0.013516188 0.08513467 -0.146736 -0.02557537 0.1856397 0.09919067
-0.06461094 0.022372156 -0.17818028 -0.05274856 -0.14691743 -0.19631663 -0.06832737 -0.16091196
-0.20431317 0.14626853 0.16101526 -0.13489467 0.16118698 -0.14352143 -0.16785695 0.12590249
0.043278977 0.012142271 -0.18040098 0.019064456 0.15178804 -0.10483958 0.007800281 -0.10600593
0.19067518 -0.06391886 0.1283543 -0.12897128 0.03495108 0.17257644 0.0144804735 0.009745975
-0.050780118 0.008640587 0.15116172 -0.105580784 -0.013152406 -0.1248322 -0.09867729 0.20162863
-0.13390402 0.015428245 0.14775719 0.052603297 0.010844901 -0.051278647 -0.041072357 0.0031983885
0.053528156 -0.18835244 0.15756798 0.1644595 0.042624082 0.15173642 -0.1893556 0.083284535
-0.14323881 -0.02986668 0.14999449 -0.06685501 0.115977965 0.08191182 0.065491095 -0.117136426
-0.15256193 -0.07927848 0.04419392 -0.08954286 0.084609024 0.12653309 -0.17818175 0.007627011
-0.06893086 -0.068129785 0.028144196 -0.10608699 0.13985206 0.14184473 0.17223863 0.027097002
0.01986657 -0.15631163 -0.02903524 -0.1241919 -0.10572992 -0.04756406 -0.19864127 -0.022962362
-0.0052291155 0.0646856 0.019544348 -0.1651263 -0.03660226 0.17109345 -0.14198086 -0.039769605
-0.16971284 -0.15424685 0.08062588 0.044138685 0.017358094 0.09353413 0.041084647 -0.10628244
-0.16143867 0.00016392767 0.15277584 -0.08486247 -0.16596882 0.03346412 -0.20365822 0.066469386
-0.049333245 0.094725534 -0.07063435 0.17145856 0.14436944 -0.20654023 -0.19568895 -0.09751553
-0.008192152 -0.08983213 -0.016470969 -0.20757526 -0.0012754798 -0.07322262 -0.1827209 -0.10555195
-0.0873367 -0.006541759 -0.0476321 0.20148899 0.09399016 0.14854063 -0.15068223 0.1022775
0.16590072 -0.19476615 -0.13196567 -0.012155741 0.048582718 0.15796639 -0.20283322 0.13712086
0.07162441 -0.054537494 0.11394705 -0.09426726 0.10827212 -0.16452745 0.23712733 0.18440215
0.03151282 0.077847466 0.022938102 0.20823447 0.08706711 -0.13821238 -0.2115236 -0.0019630508
-0.12586837 0.034197014 -0.049766786 0.07177958 0.16884847 0.03413108 0.08902989 -0.18298385
0.02566841 -0.13291226 0.093466595 -0.03944017 -0.11699674 0.15923388 0.09603505 -0.12952524
-0.0116687855 -0.14554837 -0.055299398 0.033185497 0.14369628 -0.03501942 0.16322678 -0.02926088
-0.19741863 0.20643353 0.0998066 -0.13273676 0.07948798 -0.049552634 0.17158724 0.11853489

layers.1.bias f4 [250]
00000000: d5ce f6bd 8bc1 28bd b067 96bc 7cba 49be
00000010: edf3 2e3e a638 a03d 17ef f6bd d12f 3bbe
00000020: 6a68 0fbe 32f4 8fbd 48a9 96bd 0cf4 1dbe
00000030: bd79 473e 43cb debd 7106 21be 044c dbbd
00000040: 1aa3 bc3c 0e06 15be 3891 b83b 8e39 22be
00000050: 0fb2 54be b9eb 1c3d a13a 6bbc 47a3 363d
00000060: 691c f1bd afab 433d 7435 6b3d ad29 86bb
00000070: cf2d 123d 8d65 493e 1012 e93c fcc5 e0bd
00000080: cff2 823c 1bfa 6b3d 9d40 f1bc d335 353e
00000090: a504 e93d 5aa0 e3bd 436b 063e e923 e3bc
000000a0: fb59 0fbe 5eda ad3d f3cb e53d 6bf0 d7bd
000000b0: fb0e 39bd 18f4 5c3e 492b 17bc 83d5 07be
000000c0: e514 173e 26e8 09bc 7d71 993d 82be 073e
000000d0: dbdb f8bb 5f4a 45be f3d2 ccbd ecd2 56bd
000000e0: 8620 a93d a103 5ebd 9ba2 173e a4f9 443d
000000f0: 7b93 0dbe 38b5 393d 5679 fb3d df11 1c3d
00000100: 0cbf 843d 035f 443d 2fe9 14be 0ef9 33be
00000110: ca68 a53d 6faa 323e a7ba 423e 7e8b 183e
00000120: 2674 34bd a27e bc3b 0d48 dcbb 0906 1cbb
00000130: 87c4 473e 6965 af3d 0698 cebd 3eb9 84bd
00000140: c621 14be a47d e23d a18a 0ebc 2fdd 75bc
00000150: e07c 11be 2456 85bc 23c5 8abd bd88 053e
00000160: 8f64 503b 9861 a1bc 3cbd bfbc dab5 273e
00000170: f209 913c 5509 45be a027 27be a62d 15be
00000180: 735e be3d 1ca1 d53c 443c 35be 805f c73d
00000190: 97f3 36bb a5ae b6bd 374f d23d 3793 0a3e
000001a0: e352 033e e891 7d3d c4f0 edbd b986 a3bd
000001b0: c732 263b e7d9 ba3d 6019 173e f907 f93d
000001c0: 38cf e73d 247d 3c3e c4c3 26be e29a bf3b
000001d0: 0fe7 fdbd 50a1 013e f3aa cfbd 7190 b73d
000001e0: 264b c4bd a7b4 003e deb9 15bb d6d0 f73d
000001f0: 3167 bc3d b8e4 b33c 1dcd a03b c142 013d
00000200: 60f6 1a3c 4c4a 35be 6c8a 3e3e c5f1 b9bc
00000210: 7f3e 00bd 13d1 f3bd a05c d93d ec1f dc3d
00000220: 3a27 8cbd cefc a5bd 3cc4 dfbd 3f52 50be
00000230: a0e7 1e3d 845c 0a3e 311f 0d3e 4639 f33c
00000240: d98a a83d f2b0 13bd 3c50 cd3d de51 79bd
00000250: 9dd2 0dbc 7a39 3abe 8425 893d 5027 53be
00000260: 4e51 013e de26 10be da06 fd3d 0563 df3c
00000270: c0b1 0d3e 4392 d73d e516 88bd a2f9 193d
00000280: a7b7 03be 9762 fa3d 5313 953d a81a 0dbd
00000290: a86b 31bc 7fe3 223e 94fc 713c bd10 8b3d
000002a0: bff6 c8bd 5498 023e 6024 a73d 7972 013d
000002b0: ad8b 143e cb73 cc3d b3d6 4c3e 52da 58bd
000002c0: 494c 82bd f6ee 8ebd 48f4 f43c 0527 de3d
000002d0: cf5e 623d 0ab6 b13d 7e65 2e3e d76a b53d
000002e0: 13ec 903d 4de8 223e 95f3 cebd 300a b9bc
000002f0: 336c 3e3e ba36 2abd 5028 2abe 0473 38be
00000300: 034c a43d ce9d 233e 7b58 503e 4f5e 1e3d
00000310: 8918 30be 2a15 0cbe 855d 333e 3f26 cdbd
00000320: 3575 aebd ec8a 633e f066 92bd bc8b 123e
00000330: 8ec8 5a3b 3556 9ebd 09fb 17be aeb8 b4bd
00000340: 862d 01be 4972 bf3d ad48 393d 2219 11be
00000350: 16e7 833b d8fa b3bd 9ada ba3d 83e2 0dbe
00000360: c268 37be bc81 5e3e 4c86 283e fbb6 95bd
00000370: 0ca8 163e 829b 42be 1424 83bd 140a 043e
00000380: 72d8 11be b3ae af3c 9992 213e 6c77 c2bd
00000390: 639f 4abe d389 3a3e 194c 253e 8603 663e
000003a0: cc4c 8c3d 3503 51be 5420 86bb ca29 00be
000003b0: 46b2 e3bd 7b4d adbb 7137 c53d 1165 e93d
000003c0: df4a cdbb 9a27 1bbe eab6 dfbc 71bb 6a3e
000003d0: 9402 1bbe 4ded b0bd 183d 3dbd dee9 d93b
000003e0: a669 303e 4c17 0e3e
-0.12051169 -0.041200202 -0.018359989 -0.19700044 0.17085238 0.07823305 -0.120573215 -0.1827996
-0.14004675 -0.070289984 -0.073565066 -0.15425128 0.19480033 -0.10878613 -0.15725113 -0.10707858
0.023026992 -0.14553091 0.005632546 -0.15842268 -0.20771049 0.03831074 -0.01435724 0.044589307
-0.11772997 0.047771152 0.057424024 -0.0040943236 0.035688218 0.19667645 0.028450996 -0.109752625
0.01598492 0.057611566 -0.029449755 0.17696314 0.11377839 -0.11114569 0.13126855 -0.027727084
-0.13999169 0.08488916 0.11220541 -0.10543903 -0.045180302 0.2157749 -0.009226629 -0.13265042
0.14754064 -0.008417165 0.07492349 0.13256267 -0.007594568 -0.19266652 -0.10001173 -0.052447245
0.082581565 -0.05420268 0.14808123 0.04808964 -0.1382579 0.04533884 0.12279002 0.03810298
0.06481752 0.047942173 -0.14542077 -0.17575476 0.080766276 0.17447828 0.19016515 0.14896962
-0.04405608 0.0057524005 -0.0067224563 -0.0023807308 0.19508563 0.08564264 -0.1008759 -0.06480645
-0.14466009 0.1105912 -0.008700044 -0.015006348 -0.14207792 -0.016276427 -0.06775882 0.13040443
0.003179822 -0.019699857 -0.023405664 0.16377965 0.017704938 -0.19241841 -0.1632371 -0.14568195
0.092953585 0.0260778 -0.17698771 0.09735012 -0.0027916187 -0.089200296 0.10269015 0.1353272
0.12824588 0.061906725 -0.11618188 -0.07984681 0.0025359855 0.09123593 0.14755774 0.12159724
0.11318821 0.18407112 -0.16285616 0.005847321 -0.123975866 0.12659192 -0.10140028 0.08963097
-0.09584646 0.12568913 -0.0022846381 0.12100379 0.0919937 0.021959648 0.004907264 0.031557802
0.009458154 -0.17704123 0.18607491 -0.022698293 -0.0313096 -0.11905112 0.1061337 0.10748276
-0.068434194 -0.08104859 -0.109261006 -0.20343874 0.038795114 0.13511854 0.1378143 0.029690396
0.08229608 -0.03605742 0.10025069 -0.06086909 -0.008656171 -0.18185988 0.06696609 -0.20620465
0.12628672 -0.14077327 0.123548225 0.027268896 0.13837337 0.10525944 -0.06644992 0.037591584
-0.12863027 0.12225836 0.072790764 -0.03444925 -0.01082889 0.15907095 0.014769692 0.06790302
-0.09812688 0.12753421 0.08161235 0.03160331 0.14506407 0.09983023 0.20003776 -0.05294258
-0.063622065 -0.06979172 0.029901639 0.10847286 0.055266198 0.08677299 0.17030904 0.08858269
0.070762776 0.15908928 -0.10105053 -0.022587866 0.18595962 -0.041556098 -0.1661694 -0.18012625
0.080223106 0.15978166 0.20346253 0.03866416 -0.1719686 -0.13679948 0.17516144 -0.100170605
-0.08518449 0.22220963 -0.0714854 0.14311117 0.00333837 -0.077312864 -0.14841856 -0.08824287
-0.12615022 0.0934797 0.045235325 -0.14169744 0.0040253503 -0.08788079 0.09123726 -0.13855939
-0.17911056 0.21729177 0.1645748 -0.073102914 0.14712542 -0.19004634 -0.06403366 0.1289447
-0.14242724 0.021445608 0.15778579 -0.09495434 -0.19787364 0.18216638 0.1614231 0.22462282
0.06850585 -0.2041138 -0.0040932093 -0.12515941 -0.11117987 -0.0052887774 0.09629715 0.1139623
-0.006265029 -0.15151826 -0.0273089 0.22923066 -0.15137702 -0.086390115 -0.04620084 0.0066501936
0.17227802 0.13876075

layers.2.weight f4 [1, 250]
00000000: 2e6d 31bd ea85 40bd 1cb4 093d 3403 c43c
00000010: 1e48 473d 055f 913c a42a 76bd 2050 a43b
00000020: 72b3 3abd c215 93bd ba49 18be 574c 75bd
00000030: 5cd6 b33d 28c5 a6bd 4a91 0a3c 2697 183d
00000040: 2322 44bd fc7a 7cbd ea4d 94bd f148 3bbd
00000050: a086 10bb 4f26 c33a e6bb b03d ac5f fdb8
00000060: 3b63 313d 095a 3fbc 6dea 773c 44cc 2d3d
00000070: 90d6 21bc 278f 903d be9f 803c b136 2fbb
00000080: a390 343d 3e0e 523d a1f6 1dbd 58e5 393d
00000090: 18a6 a53d 1d1d 82bd 30d2 923c 4122 00bd
000000a0: b6fb bcbd c2fd 52bd 5277 4abd 0a98 533d
000000b0: 1e4d 853d 930f 033d d1ab 573d da35 873d
000000c0: c382 c93c 5edd 643d 531c 053b 337c 333c
000000d0: e807 6ebd 4e9e 193d 6ee1 c43d ea45 43bd
000000e0: 01be 7a3d 32b7 e9bc 465c 253d 58f4 543d
000000f0: ba15 76bc cdfc 4e3a bccc dcbc 5686 38bd
00000100: 6bf7 9dbc 1b74 16bd 09ba 5abd 470a 91bd
00000110: 742c 153d 34bd 423d b8e4 403d 61d5 0e3d
00000120: 55c7 07bd 3119 773d 65b6 a93d 8890 59bd
00000130: f96d 263d 2aa6 0f3d eebd 583d ff98 02bd
00000140: 10b5 7e3c 20c7 a23b b1ce cebc 11e1 14bd
00000150: 2031 5ebb 2de4 06bd f3b3 7d3d ffd4 0fbc
00000160: 63e3 363b 221a 763d f472 4abb 60bf 963d
00000170: f474 69bd 480f f13c 2ca4 243d d037 c73c
00000180: 1411 693d de28 bb3d 1064 6e3d 349c 003d
00000190: a4a5 8f3d 0925 bb3c 75ea 933d 9e8a 51bd
000001a0: a4dc ae3c 5fc3 333c 421a cabc d8d0 993c
000001b0: c4b8 ccbc 41fa 2e3d 3282 923d 28d7 d1bb
000001c0: d92c 5cbc e82b 453d 60e4 b93c 0d76 153d
000001d0: 8c43 05be ed86 723d 25ed 1fbd 22e6 913d
000001e0: c3b9 b5bd 9f38 acbc 7b44 89bd 7551 10bd
000001f0: 0334 0c3c 67a4 253b d7ea d0bb 5297 e23c
00000200: d90d 3fbd 1815 d33c d36f 4b3d f365 b8bb
00000210: e9da 64bc 0c6e 4ebd 9960 9e3c 92bb 9d3c
00000220: 30ce 23bd 1efa cabd 6f4b 923d 4781 673d
00000230: 454d 953b 851a f23d fa1f 6b3d d53d 03bd
00000240: d6f4 3f3c 93c2 47ba 2818 b23c fc70 cebd
00000250: 10e8 a2bd 5ace 0e3d 2aad d3bc 6c7d c93c
00000260: 8eac 963d 9241 513d c2c5 3f3d 401a 393d
00000270: af79 5a3d a98e 703d 0111 c0bd cf1a 833d
00000280: f799 3e3d a3f3 8c3b 60a3 86bc 6aaf a93d
00000290: 6a1b 5a3c 075f 0c3d 3d29 ee3b feed d33d
000002a0: c8ad c73c c5bb 24bc beb3 8a3d d7cc 5ebb
000002b0: 1057 4a3d 453d 293d 89c2 343d eb03 e83c
000002c0: c5c8 5d3d c789 85bd aeff 133d 18b1 813d
000002d0: 0621 2a3d 936c f2bc 723f 2f3c 57bc 1c3d
000002e0: 52e3 dcbc 94bd fdbc 79f1 a2bd c886 61bc
000002f0: 9b72 643d 174d 87bd 3b70 113d b253 1cbd
00000300: 2c61 69bc ff6f 7a3d f2c4 2c3d 62dd dabb
00000310: d057 d4bd 8211 54bd eef2 4d3c 611c 55bd
00000320: 9346 5b3d 2cd0 973d c2c9 f4bd 5271 dabb
00000330: 97fc 073d 039d 4cbd f162 313d f0a1 983d
00000340: bd89 903d b5e2 20bc aa7f 9dbd 88cb d43c
00000350: f62d 9cbc 10eb edbd 1949 343d 2258 793d
00000360: c664 5c3d de84 cb3c 397e fa3b 35f9 e7ba
00000370: 2ad1 763d 0400 5b3d 75a3 9dbd 07c8 213d
00000380: b048 fabb bd47 09bd 6ded f53c 6db0 9d3d
00000390: 927d 8fbc fec4 583d 0919 703d 7be1 773d
000003a0: ded3 aebc 5635 bebc 53d2 5f3d 6026 cf3b
000003b0: 0339 54bb 3001 913d a9e5 413b 9bb4 193d
000003c0: 59f1 6fbd 1c47 b9bc cee0 d4bd c6be ae3d
000003d0: 9c8f 263d 9508 b2bd 483d 593c c7da 1ebd
000003e0: 7860 683d 5915 973c
-0.043317012 -0.04700271 0.03361903 0.023927309 0.04865276 0.017745504 -0.06009926 0.0050144345
-0.04558129 -0.07181884 -0.14871874 -0.059887256 0.0878112 -0.08143073 0.008457491 0.03725352
-0.047884118 -0.061640725 -0.072414234 -0.04572386 -0.00220529 0.0014888736 0.08629589 -0.000120818004
0.043307524 -0.011679181 0.015131575 0.04243113 -0.009877816 0.07058554 0.015701171 -0.002673548
0.04408325 0.051283114 -0.03856528 0.045384735 0.080883205 -0.06353209 0.01792249 -0.031282667
-0.092276976 -0.051511534 -0.0494302 0.051658668 0.065088496 0.031997275 0.05265409 0.06602068
0.024598485 0.055875175 0.0020311072 0.010954904 -0.05811301 0.037504487 0.0961331 -0.047674097
0.061216358 -0.028529737 0.040371202 0.051990837 -0.015019828 0.00078959466 -0.026953094 -0.045049988
-0.019283017 -0.03673182 -0.053400073 -0.070820384 0.036419347 0.04754372 0.047093123 0.034871463
-0.033149082 0.06032676 0.08286742 -0.05311635 0.04063222 0.035070576 0.052915506 -0.03188419
0.015546098 0.004967585 -0.025245043 -0.036347453 -0.0033903793 -0.03293245 0.06193919 -0.00877881
0.002790653 0.060083516 -0.0030891271 0.07360721 -0.0569963 0.029426232 0.04019563 0.024318606
0.056901053 0.09138654 0.058200896 0.031398967 0.07014015 0.022844808 0.072224535 -0.051157586
0.021345444 0.010971873 -0.024670724 0.018776342 -0.024990447 0.04271913 0.07153739 -0.0064038225
-0.013438427 0.048137575 0.022691905 0.036489535 -0.13014048 0.059210707 -0.039044518 0.071239725
-0.08873322 -0.021023093 -0.06702515 -0.035233933 0.008557322 0.0025274993 -0.0063756513 0.027660046
-0.046644066 0.025766894 0.04966719 -0.0056273877 -0.013968208 -0.050397918 0.01933317 0.01925448
-0.039991558 -0.09910987 0.07143294 0.056519773 0.0045563304 0.118214644 0.057403542 -0.03204139
0.011716088 -0.00076202414 0.021740034 -0.10080144 -0.07954419 0.03486476 -0.025839407 0.024595939
0.07357131 0.051087923 0.046819456 0.04519105 0.053338703 0.0587298 -0.09378243 0.06401598
0.04653355 0.0043015047 -0.016435325 0.08285411 0.0133122 0.034270313 0.0072680996 0.10348128
0.024374858 -0.010054533 0.06772564 -0.0033996606 0.049399436 0.041318197 0.044130836 0.02832218
0.054146547 -0.065204196 0.036132507 0.06332606 0.0415354 -0.029592788 0.010696279 0.038265552
-0.026963864 -0.030974187 -0.079562135 -0.0137650445 0.05577336 -0.066065006 0.035507422 -0.038165756
-0.014244359 0.061141964 0.04218001 -0.006679223 -0.103683114 -0.05177451 0.012570126 -0.052029017
0.0535341 0.074127525 -0.11952545 -0.006666341 0.033199873 -0.049954426 0.04330725 0.07452762
0.070575215 -0.009819676 -0.076903656 0.025975958 -0.019064885 -0.116171 0.044015024 0.060875066
0.053807043 0.02484363 0.0076444414 -0.0017698171 0.06025807 0.05346681 -0.076971926 0.0394974
-0.0076380596 -0.03351568 0.03002044 0.07699666 -0.017515931 0.05292224 0.058617625 0.06051777
-0.02134126 -0.023218792 0.05464394 0.0063217133 -0.0032382614 0.070803046 0.002958635 0.037525754
-0.058579776 -0.022616915 -0.103944406 0.08532481 0.0406643 -0.08693043 0.0132592395 -0.03878286
0.056732625 0.018442797
