critic.pth (torch, 50686 bytes, 5 tensors)

layers.0.weight f4 [64, 122]
0	0x3da38f5c	0.07986328
1	0xbdd1a510	-0.10236561
2	0x3dab41c0	0.0836215
3	0x3dd07148	0.10177857
4	0xbdceecec	-0.10103783
5	0xbd8ac9cc	-0.06776771
6	0x3d4daf2b	0.05021588
7	0x3da60330	0.08106077
8	0xbdc0b0ba	-0.09408708
9	0x3cac322f	0.021020023
10	0xbb4eb441	-0.0031540545
11	0x3c76061c	0.015016105
12	0x3d07dc8f	0.033169325
13	0x3d1415a6	0.036153458
14	0xbae01945	-0.0017097375
15	0x3daa37d7	0.08311432
16	0xbdcc2b79	-0.09969229
17	0x3db5dbdb	0.08879825
18	0xbd7b8b6a	-0.061412252
19	0x3da7f1cc	0.08200416
20	0x3ce29d23	0.02766282
21	0xbbcd5538	-0.0062662624
22	0xbc7b5888	-0.015340932
23	0x3dddfc45	0.10839132
24	0xba9d328c	-0.0011993214
25	0x3cb670cc	0.022270583
26	0xbdde3439	-0.108498044
27	0x3dd52a96	0.10408513
28	0x3dde21fb	0.10846325
29	0xb819c2d0	-3.6659476e-05
30	0xbe11784a	-0.14206043
31	0xbcaa2531	-0.020769687
32	0xbc9b1e7d	-0.018935436
33	0xbcbe557b	-0.02323412
34	0xbdb107c3	-0.086440586
35	0xbd1eac32	-0.038738437
36	0xbce0cc7c	-0.027441256
37	0xbdd2e963	-0.10298421
38	0x3b163bff	0.0022923944
39	0xbc24b138	-0.010052018
40	0x3d19d683	0.03755809
41	0xbc497797	-0.012296579
42	0xbdc8902f	-0.09793126
43	0xbdb9f69b	-0.090802394
44	0xbe002916	-0.12515673
45	0x3ddff563	0.10935476
46	0x3dfba0cc	0.12286529
47	0xbdf9b370	-0.12192428
48	0xbe15e161	-0.14636756
49	0xbde10aba	-0.10988374
50	0x3cb66f93	0.02227
51	0x3e4ed625	0.20198877
52	0x3e10adcf	0.14128803
53	0xbda65dee	-0.081233844
54	0xbd1767b4	-0.036964133
55	0x3d6df78b	0.058097403
56	0xbc3092e3	-0.010777208
57	0xbe000a91	-0.12504031
58	0xbda90a0a	-0.08253868
59	0x3dfc3ecc	0.12316665
60	0xbc3a1f95	-0.011360069
61	0xbdaa1a60	-0.08305812
62	0x3d94d7a7	0.07267695
63	0xbdb66f0e	-0.08907901
64	0xbe089b93	-0.13340597
65	0xbe385f81	-0.18005182
66	0xbd20a37c	-0.03921841
67	0xbd3d7e54	-0.046263054
68	0xbdf3e8ce	-0.11909638
69	0x3d40d22e	0.047075443
70	0xbe13cd5d	-0.14433809
71	0x3de044fb	0.10950657
72	0xbdfc5977	-0.123217516
73	0xbb629160	-0.0034571514
74	0xbe32ead5	-0.17472394
75	0xbe05a5ea	-0.13051572
76	0xbe0f6c05	-0.1400605
77	0x3dc86860	0.09785533
78	0xbda51f49	-0.08062608
79	0x3dcb1a84	0.09917167
80	0x3d940c04	0.07228854
81	0xbd303cb5	-0.043026645
82	0x3ca3276d	0.01991626
83	0xbdaf8d8d	-0.085719205
84	0x3c9a55e0	0.018839777
85	0xbe33b34f	-0.1754887
86	0xbc192034	-0.009346057
87	0x3e19e82f	0.15029977
88	0x3d03c549	0.032170568
89	0x3e3b6b03	0.1830254
90	0x3c208fc1	0.009799899
91	0x3c0035f9	0.007825368
92	0xbd77b1d6	-0.060472332
93	0xbd1ebda9	-0.038755093
94	0xbc3ae465	-0.011406993
95	0xbc1619f6	-0.009161463
96	0x3d67c24b	0.056581777
97	0xbe9ca8fc	-0.30597675
98	0xbc2e0af3	-0.010622728
99	0xbd42cd4f	-0.04755908
100	0x3d4da746	0.050208353
101	0xbb2d8c41	-0.0026481303
102	0xbcbce756	-0.023059528
103	0x3de049e6	0.10951595
104	0xbd83e19b	-0.06439515
105	0x3da3238d	0.07965765
106	0xbdd23a21	-0.102649935
107	0xbd2ab311	-0.041674677
108	0x3cfc488f	0.030796317
109	0xbda2cfe2	-0.07949807
110	0xbce1eade	-0.027577814
111	0xbc1b48b9	-0.009477788
112	0xbd22f886	-0.03978779
113	0x3d2e5b67	0.042567637
114	0x3d5db9b3	0.054132175
115	0xbbe47f6e	-0.0069731986
116	0xbe0692d1	-0.13141944
117	0x3bf9b87a	0.0076208683
118	0x3e58ceef	0.21172689
119	0xbbfdf645	-0.007750305
120	0x3d08f228	0.033434063
121	0x3d9ddbe0	0.077079535
122	0xbd6c4eba	-0.057692267
123	0x3d7c9ebf	0.06167483
124	0x3d420e5e	0.047376983
125	0x3e022077	0.12707697
126	0x3e0a0038	0.13476646
127	0xbd9e480d	-0.07728586
128	0x3cfd1a1b	0.030896237
129	0x3d75f214	0.060045317
130	0x3cffd473	0.031229233
131	0xbe299edb	-0.16564505
132	0x3e0bdd04	0.1365853
133	0x3d814461	0.0631187
134	0xbbaf1844	-0.005343469
135	0xbd42b1ee	-0.04753297
136	0x3e07625f	0.1322112
137	0x3daf8d95	0.085719265
138	0x3cf91ffa	0.030410755
139	0xbd88adc9	-0.06673772
140	0xbcb6b56d	-0.022303307
141	0xbd948d1a	-0.072534755
142	0x3da29c68	0.079399884
143	0x3e4c9309	0.19977964
144	0x3ddb71a4	0.107150346
145	0x3bf207aa	0.0073861675
146	0xbd10b291	-0.035326544
147	0xbe02d9a8	-0.12778342
148	0xbdd4edf3	-0.10396948
149	0xbe9f8b0b	-0.3116077
150	0x3cdb6cd5	0.026785294
151	0xbd5a2bbd	-0.05326437
152	0xbcf0f9c1	-0.029415967
153	0x3d6033b8	0.054736823
154	0xbd1b5e3a	-0.03793166
155	0x3daebca7	0.08532076
156	0xbcd68c60	-0.026189983
157	0x3d3bb5c8	0.045827657
158	0x3bad8411	0.0052952846
159	0x3e0582f1	0.13038231
160	0xbb91e625	-0.004452484
161	0x3d8682f8	0.06567949
162	0x3d6d84b9	0.057987902
163	0x3cf6a0e7	0.030106021
164	0xbdc508f7	-0.096208505
165	0x3c8f7950	0.017513901
166	0x3d40c87b	0.047066193
167	0x3dd9c7bf	0.10633802
168	0x3d525a52	0.051355667
169	0xbc904682	-0.017611746
170	0xbd114938	-0.035470217
171	0x3dcb765d	0.099346854
172	0x3c1b1666	0.009465789
173	0xbb73dc36	-0.0037210113
174	0x3d19eae1	0.037577514
175	0xbce284b7	-0.027651174
176	0x3dad7af9	0.08470721
177	0xbd48e8f0	-0.04905027
178	0x3d16fc0d	0.036861468
179	0x3dcc3900	0.099718094
180	0x3ccea0a1	0.025223078
181	0xbd1e6c9c	-0.038677797
182	0x3cbd9694	0.02314309
183	0xbe0603ca	-0.13087383
184	0x3d0d6f14	0.03452976
185	0x3b315fc2	0.0027065133
186	0x3d965519	0.0734045
187	0x3d71a520	0.058995366
188	0x3da9bed0	0.08288348
189	0x3dc83d05	0.097772636
190	0x3c7d52f6	0.015461674
191	0x3e375900	0.17905045
192	0xbd0fc0b5	-0.03509589
193	0xbd2371f7	-0.039903607
194	0x3db384da	0.08765574
195	0x3de64c1c	0.112449855
196	0x3c1f357f	0.009717344
197	0x3da23c40	0.07921648
198	0xbc206a6b	-0.009790997
199	0x3c90fa69	0.01769753
200	0xbe1c1ad8	-0.15244615
201	0x3df1a5f2	0.1179923
202	0xbb842611	-0.004032858
203	0xbdf50347	-0.11963516
204	0x3e25989e	0.161715
205	0x3c980681	0.018557789
206	0xbd54f22d	-0.05198877
207	0xbdc69abb	-0.09697481
208	0xbe82bbba	-0.2553385
209	0xbe267268	-0.1625458
210	0xbe30be59	-0.17260112
211	0xbdadead4	-0.084920555
212	0x3e19d90c	0.15024203
213	0xbc7dea2b	-0.0154977245
214	0x3e196978	0.1498164
215	0x3d11e66e	0.035620145
216	0xbdcb9fab	-0.099425636
217	0xbd93e00d	-0.07220469
218	0xbc81dfea	-0.01585384
219	0xbc5a29d1	-0.013315634
220	0xbdbcb982	-0.0921507
221	0xbe261b1d	-0.1622128
222	0xbcd0f352	-0.02550665
223	0xbd917251	-0.07101882
224	0xbcd34cd7	-0.025793476
225	0x3ceef5bb	0.029169908
226	0xbc2c02e9	-0.010498741
227	0xbd00f60c	-0.03148465
228	0xbc04573b	-0.008077438
229	0xbc7cd974	-0.015432704
230	0x3e0c894d	0.13724251
231	0xbc42521c	-0.011860397
232	0x3d8b9d47	0.06817108
233	0x3d9750ad	0.073884346
234	0xbe62b61d	-0.22139783
235	0x3b469a24	0.0030304277
236	0xbd28abbb	-0.0411794
237	0x3e30c0d4	0.17261058
238	0xbd4079c8	-0.04699114
239	0x3dfbbc31	0.12291754
240	0x3c3e246a	0.0116053615
241	0x3d8731de	0.06601308
242	0x3e0eedea	0.13957945
243	0xbd235342	-0.039874323
244	0xbd49867f	-0.04920053
245	0x3d997f45	0.07494978
246	0x3deae2ab	0.11469015
247	0x3df56ec3	0.11984017
248	0xbdefb4d2	-0.117044106
249	0xbca834ac	-0.020532928
250	0x3e37f485	0.1796437
251	0xbd4de86a	-0.050270475
252	0xbb6d70fb	-0.0036230672
253	0xbd88162e	-0.066448554
254	0x3d8d9474	0.06913081
255	0x3c7f6eb5	0.015590359

layers.0.bias f4 [64]
0	0xbca059db	-0.019574096
1	0xbc6f9122	-0.014622005
2	0xbd234644	-0.039861932
3	0x3c7a130b	0.015263329
4	0x3d7f1368	0.062274367
5	0x3cd8f8aa	0.02648576
6	0x3d2b7eb6	0.041868888
7	0xbd0de3f7	-0.034641232
8	0x3de41927	0.1113761
9	0x3cb4820c	0.022034667
10	0xbcbe4fc4	-0.023231395
11	0xbd3429f0	-0.043985307
12	0xbd31e866	-0.043434523
13	0xba00f901	-0.0004919917
14	0x3da94ed1	0.08266986
15	0x3d53a9d3	0.05167563
16	0x3cd6591e	0.026165541
17	0xbd79ed7b	-0.061017495
18	0xbc688fd0	-0.014194444
19	0x3cbe9abb	0.02326714
20	0xbd84a772	-0.0647725
21	0xbd9a429c	-0.07532236
22	0xbda8a946	-0.08235411
23	0xbd451950	-0.048119843
24	0x3db072ae	0.086156234
25	0x3d4d792c	0.050164387
26	0xbddfc906	-0.10927014
27	0x3d3a421e	0.04547321
28	0x3d877d18	0.066156566
29	0x3d884fdc	0.06655857
30	0xbd30aece	-0.043135457
31	0xbd18b1dd	-0.037279
32	0x3d4cb9c8	0.049981862
33	0x3da45117	0.08023279
34	0xbdc72d4d	-0.09725437
35	0xbd7f6d20	-0.06235993
36	0x3d788553	0.060674023
37	0x3d9bf300	0.07614708
38	0xbb962ea5	-0.004583197
39	0xbdbdd31f	-0.09268784
40	0x3ca9b89d	0.020717913
41	0xbda54ae6	-0.08070926
42	0xbd2de9b4	-0.042459205
43	0x3d218bbc	0.0394399
44	0x3d05b0f9	0.032639477
45	0x3b830341	0.0039981906
46	0x3c708631	0.014680431
47	0x3d5b5a91	0.053553168
48	0x3db477be	0.088119015
49	0xbcc11b12	-0.023572478
50	0x3daac41c	0.08338186
51	0x3d8d9902	0.069139495
52	0x3b844378	0.004036363
53	0xbd832221	-0.06402994
54	0xbdccbb91	-0.09996713
55	0xbc313834	-0.0108166225
56	0xbd3e732b	-0.04649655
57	0xbd27fea2	-0.04101432
58	0x3da68e5d	0.081326224
59	0xbcb2525a	-0.021767784
60	0x3d4751a5	0.048661847
61	0xbc85be2c	-0.016326033
62	0x3d4376ec	0.047720835
63	0x3d8c3299	0.06845588

layers.1.weight f4 [64, 64]
0	0xbdfe9092	-0.12429918
1	0xbc55c1a4	-0.013046656
2	0x3e05473e	0.13015458
3	0x3e0e8459	0.13917674
4	0x3d85a951	0.06526435
5	0x3dde78ca	0.108628824
6	0x3de85ea5	0.11346177
7	0xbc15f102	-0.009151699
8	0x3d135089	0.035965476
9	0x3b9ee953	0.0048495918
10	0xbe9e399e	-0.30903333
11	0x3d9a47f9	0.07533259
12	0x3c6b4dcf	0.014361813
13	0xbd43592c	-0.047692463
14	0xbe3eec14	-0.18644744
15	0x3e67eb51	0.2264836
16	0x3e584174	0.21118718
17	0x3e37fb15	0.17966874
18	0x3a58c8d1	0.000826967
19	0xbe785bb6	-0.24253735
20	0xbd564b34	-0.052317813
21	0xbe30dd31	-0.17271878
22	0xbe0a13a6	-0.13484058
23	0xbd562b14	-0.052287176
24	0xbde21db2	-0.1104082
25	0x3e30facf	0.17283176
26	0x3cf0e44c	0.029405735
27	0xbe25e68b	-0.16201226
28	0xbd0f15ac	-0.034932777
29	0x3dcb5856	0.09928958
30	0x3e12aa23	0.14322715
31	0x3dc65a38	0.096851766
32	0xbdf071d3	-0.1174046
33	0xbd1db501	-0.038502697
34	0xbe0e7eae	-0.13915512
35	0xbe674c8d	-0.22587796
36	0x3e2b51d1	0.16730429
37	0x3d634144	0.055482164
38	0x3d7e5124	0.0620891
39	0xbdd37c09	-0.10326392
40	0xbc053c15	-0.008132
41	0x3e5de42a	0.21669069
42	0xbe32cda7	-0.17461263
43	0xbe035a34	-0.12827379
44	0x3d8acc1d	0.06777213
45	0xbc8a151e	-0.016855773
46	0x3cf05f14	0.029342212
47	0x3e50d77d	0.20394702
48	0x3e7a4f34	0.24444276
49	0xbd07b3b3	-0.03313036
50	0xbdf14e1a	-0.11782475
51	0xbdbd29b5	-0.092364706
52	0xbd97a84a	-0.074051455
53	0x3d817833	0.06321754
54	0xbd8b6ba3	-0.068076394
55	0xbd3b05d5	-0.04565986
56	0xbbfaa3c1	-0.0076489155
57	0x3dc3b3f5	0.095558085
58	0x3ca86ea3	0.020560568
59	0x3de77f96	0.11303632
60	0x3de1ffb0	0.11035097
61	0xbe3cfddd	-0.18456216
62	0xbcb3b231	-0.021935554
63	0x3de16c5f	0.11006998
64	0x3c1cd4d8	0.00957223
65	0x3d85be22	0.065304056
66	0x3d8b38de	0.06797956
67	0x3e23a229	0.15979828
68	0x3cb77ed3	0.022399342
69	0x3e06c91f	0.13162659
70	0x3daf81a3	0.08569648
71	0x3e702a03	0.23453526
72	0x3e1acc80	0.15117073
73	0xbd9f1b7a	-0.077689126
74	0x3e72e88e	0.23721525
75	0x3e410ab5	0.1885174
76	0xbdf5f1ec	-0.120090336
77	0xbddb7e79	-0.10717482
78	0x3d335d8f	0.043790396
79	0xbe0dcfca	-0.13848796
80	0x3cc739d9	0.024319576
81	0x3e177b5b	0.1479315
82	0x3da29830	0.07939184
83	0x3cf8aba9	0.030355291
84	0x3e2beb4a	0.16788974
85	0x3bb03642	0.005377562
86	0x3e394f0d	0.18096562
87	0xbe1b3e4b	-0.15160482
88	0xbd7ac9fe	-0.06122779
89	0xbdd297bc	-0.10282847
90	0xbd0a6a33	-0.033792686
91	0xbae8f171	-0.001777215
92	0xbe251cb5	-0.16124232
93	0xbdd34a26	-0.10316877
94	0x3d77b33d	0.06047367
95	0x3dee9850	0.11650145
96	0x3e3c5898	0.18393171
97	0x3daa7819	0.08323688
98	0xbe381256	-0.17975745
99	0x3d44210a	0.04788307
100	0xbcc1f6cb	-0.02367725
101	0xbe37ebde	-0.1796107
102	0x3c4cd75f	0.01250252
103	0xbc4f9172	-0.012668954
104	0x3e26521c	0.1624226
105	0x3e9a951e	0.30191892
106	0x3d96de41	0.0736661
107	0xbd9c8278	-0.076420724
108	0x3c456162	0.012047144
109	0xbcf56973	-0.029957509
110	0xbd24ae22	-0.04020513
111	0xbcab9065	-0.020942876
112	0xbdcde52f	-0.10053479
113	0xbe0418ab	-0.12900035
114	0x3d909efb	0.07061573
115	0x3dcdb560	0.1004436
116	0x3c954323	0.01822049
117	0xbd73a70e	-0.059485488
118	0xbcdec595	-0.027193824
119	0xbe0bc7fb	-0.13650505
120	0xbca6391a	-0.0202909
121	0x3d4c8a3b	0.049936514
122	0x3ddc5974	0.10759249
123	0xbe5e0c20	-0.21684313
124	0x3e4d5e7f	0.20055579
125	0xbe2c7364	-0.16840893
126	0x3d48b579	0.04900119
127	0xbe0815e6	-0.13289604
128	0x3daac052	0.083374634
129	0xbdc174e7	-0.094461255
130	0x3dfa5a59	0.12224264
131	0x3e1bc4e3	0.15211825
132	0xbde82ccc	-0.11336669
133	0x3e073a54	0.13205844
134	0x3e6ae538	0.22939003
135	0x3d7a0b7a	0.0610461
136	0x3e56e179	0.20984448
137	0x3dc3dc6e	0.09563528
138	0xba07fd43	-0.000518758
139	0x3d29f83b	0.041496497
140	0x3ddc354b	0.10752352
141	0x3dbaf647	0.09129005
142	0x3e211628	0.15731108
143	0x3db2c25d	0.08728478
144	0xbdda9e11	-0.1067468
145	0x3c507bb3	0.012724805
146	0xb71991a8	-9.153424e-06
147	0xbdc3157e	-0.09525584
148	0xbd06dedd	-0.032927383
149	0xbd85fd4f	-0.065424554
150	0xbde0b87b	-0.10972687
151	0x3b7181e0	0.0036851093
152	0x3e42150b	0.1895334
153	0xbde41d7a	-0.11138435
154	0x3e095577	0.13411509
155	0xbd9ac0b3	-0.07556286
156	0x3baf0fe8	0.0053424723
157	0xbd0e3879	-0.034721825
158	0x3da22359	0.07916898
159	0x3c838c7f	0.016058205
160	0xbe30341f	-0.17207383
161	0xbe3cc07f	-0.18432806
162	0xbe7c7e81	-0.24657632
163	0xbdd9cbd1	-0.10634578
164	0xbd070199	-0.032960508
165	0xbe169765	-0.1470619
166	0x3e5bbfe2	0.21459916
167	0xbd9fb9fc	-0.077991456
168	0xbdb8ff4b	-0.09033068
169	0x3dc0aa20	0.09407449
170	0x3df29863	0.11845472
171	0x3dce04c8	0.10059506
172	0xbe9a84f1	-0.3017955
173	0xbca3545a	-0.019937683
174	0x3e339e45	0.17540844
175	0xbdf97f5b	-0.12182494
176	0xbdb928df	-0.09040999
177	0x3e662837	0.22476278
178	0x3dbf882b	0.09352144
179	0xbcd0ee1e	-0.025504168
180	0xbde9a696	-0.11408727
181	0xbd8756d2	-0.066083565
182	0x3d00ad5b	0.031415325
183	0x3dd281e4	0.10278681
184	0x3e08ad9f	0.13347481
185	0x3de9481a	0.113907054
186	0xbd7afac5	-0.06127431
187	0xbe44d05d	-0.1922011
188	0xbe42799f	-0.18991707
189	0x3e157920	0.14596987
190	0xbd3f1e00	-0.04665947
191	0xbd7484a0	-0.059696794
192	0xbcddf7c7	-0.027095689
193	0xbb317ec6	-0.002708362
194	0x3d0da0e1	0.034577254
195	0x3d3d75fb	0.046255093
196	0x3e32e75b	0.17471068
197	0xbe704837	-0.23465048
198	0x3c1a410c	0.009414922
199	0xbd955418	-0.0729143
200	0xbe0ce808	-0.13760388
201	0xbe2a70a0	-0.16644526
202	0x3c94e4e0	0.018175542
203	0x3e1259f3	0.14292125
204	0x3e1c285f	0.15249775
205	0x3e3303e7	0.17481957
206	0xbe21e189	-0.15808691
207	0x3dfe4fb1	0.12417544
208	0xbe2f08e4	-0.17093235
209	0x3da10e90	0.07864106
210	0xbc92535a	-0.01786201
211	0x3e4869de	0.19571635
212	0x3e1fbda2	0.15599683
213	0xbe13b2ea	-0.14423719
214	0x3d5ae585	0.053441543
215	0xbd834e16	-0.06411378
216	0x3e7b8a0a	0.24564376
217	0xbc30e143	-0.010795894
218	0x3e38db56	0.1805242
219	0x3de93c96	0.11388509
220	0x3dd5ccb0	0.10439432
221	0x3d8823d3	0.06647458
222	0x3d5dcabe	0.05414843
223	0x3dbd72b4	0.092503935
224	0xbdc5c673	-0.09656992
225	0x3e851ccd	0.25998536
226	0xbd30f3ea	-0.043201365
227	0xbc923676	-0.017848235
228	0x3e0ee620	0.13954973
229	0xbc79bcea	-0.0152427945
230	0xbdb205d5	-0.086925186
231	0x3c1a77bd	0.009427962
232	0xbe8884d6	-0.26663846
233	0x3e0d6b9a	0.13810578
234	0xbd6cde26	-0.057829045
235	0x3e2b7d8a	0.16747108
236	0xbd696c29	-0.056987915
237	0x3de22086	0.110413596
238	0x3ca49e69	0.020095067
239	0x3e0d2116	0.13782153
240	0x3c5ebbdc	0.013594594
241	0xbcab3c27	-0.020902706
242	0x3e6ad68f	0.2293341
243	0xbd6d69b5	-0.05796214
244	0xbd305ad2	-0.043055363
245	0xbcaefe90	-0.02136162
246	0x3c15a7d6	0.0091342535
247	0xbdf586db	-0.11988612
248	0x3e2ab3c5	0.16670139
249	0xbdee7f2d	-0.116453506
250	0x3e5e898c	0.21732157
251	0x3cbb2250	0.02284351
252	0x3ced7bf3	0.028989768
253	0x3dc79669	0.09745485
254	0xbc2acf35	-0.010425379
255	0xbcf5ed41	-0.030020358

layers.1.bias f4 [64]
0	0xbc97ec07	-0.018545164
1	0x3dd20fe1	0.10256935
2	0xbdad6bfc	-0.08467862
3	0x3dcd9252	0.10037674
4	0xbc293e8d	-0.010329855
5	0xbd0a0e3c	-0.03370498
6	0xbddaac20	-0.106773615
7	0xbd1aa924	-0.03775896
8	0xbe1f5ceb	-0.15562789
9	0xbd88ee24	-0.06686047
10	0x3ddd1987	0.107958846
11	0x3d6a12ab	0.05714671
12	0xbc956d9f	-0.018240748
13	0xbe06aea8	-0.13152564
14	0x3d2775ec	0.040883943
15	0x3cad4828	0.02115257
16	0xbc9e4c3f	-0.019323466
17	0xbda55582	-0.0807295
18	0xbcaeaf18	-0.021323726
19	0x3dd6f1cd	0.104953386
20	0x3d963a72	0.07335366
21	0xbde0bc9d	-0.10973475
22	0xbd8f562d	-0.069988586
23	0x3c2027d0	0.009775117
24	0xbc8043c0	-0.015657306
25	0xbdee5221	-0.116367586
26	0xbd4e4bb5	-0.05036517
27	0xbd99960d	-0.07499323
28	0xbdb60b5f	-0.088888876
29	0x3ca68164	0.02032537
30	0xbe048561	-0.12941505
31	0x3d1978f3	0.03746886
32	0xbda10caf	-0.07863747
33	0xbdddded5	-0.108335175
34	0xbd60f7d7	-0.05492386
35	0xbddd77a0	-0.10813832
36	0x3d66294f	0.05619174
37	0xbdaf477c	-0.085585564
38	0xbdfb1f07	-0.12261777
39	0x3cf1c10d	0.029511
40	0x3d7f5cce	0.062344365
41	0x3d0d3385	0.03447296
42	0x3d9236fb	0.07139393
43	0xbe1d6d59	-0.15373744
44	0xbd76c6d8	-0.060248226
45	0x3c40f364	0.011776779
46	0x3cf62e42	0.030051354
47	0xbda210a5	-0.07913331
48	0x3b2aad1a	0.0026043118
49	0x3c87f6f2	0.016597245
50	0x3c67d9f0	0.014151081
51	0xbd9f18ee	-0.07768427
52	0x3de08c70	0.10964286
53	0xbe1920f6	-0.1495398
54	0xbdecc4ae	-0.11560951
55	0x3d33a7be	0.043861143
56	0xbde4c97e	-0.11171244
57	0xbd3a6bf5	-0.045513112
58	0xbd7f98e1	-0.062401656
59	0xbdb0c0a7	-0.086304955
60	0x3b86ade4	0.004110085
61	0xbde51418	-0.11185473
62	0xbdee4476	-0.11634152
63	0x3d9dbf88	0.07702547

layers.2.weight f4 [1, 64]
0	0x3dcb5e4c	0.09930095
1	0xbdcfa695	-0.10139195
2	0x3cec7739	0.028865444
3	0xbcfadc0f	-0.03062251
4	0x3e135388	0.14387333
5	0xbdfbf37a	-0.12302299
6	0xbe22c0ea	-0.15893903
7	0x3cfc7acf	0.030820278
8	0xbdaf2e2a	-0.08553727
9	0x3daa4f62	0.08315922
10	0x3cb496b8	0.022044525
11	0xbd293cb2	-0.04131765
12	0x3a7a5e83	0.00095508265
13	0xbdd9a242	-0.10626651
14	0xbe207804	-0.15670782
15	0x3e13108b	0.1436178
16	0xbc1fadbe	-0.009746013
17	0x3e398a07	0.1811906
18	0x3e7305e4	0.23732716
19	0x3ce6c876	0.02817176
20	0xbd99cf85	-0.07510284
21	0x3d687416	0.056751333
22	0xbd871956	-0.06596629
23	0x3c612220	0.013741046
24	0x3cdf72f7	0.0272765
25	0xbdc7776b	-0.09739574
26	0x3dc52f36	0.096281454
27	0xbe0a8c52	-0.1353009
28	0x3c669bb5	0.014075209
29	0x3d9e6a0b	0.0773507
30	0x3ce1184a	0.027477402
31	0x3de7df94	0.11321941
32	0xbdb4f7a5	-0.08836297
33	0xbd7f85fa	-0.06238363
34	0xbe32d969	-0.17465748
35	0x3e099f03	0.13439564
36	0xbd675ab1	-0.056482974
37	0xbc9cbc28	-0.019132689
38	0x3c4a86de	0.012361256
39	0x3e07b235	0.13251574
40	0xbe326f6d	-0.17425318
41	0xbd853faf	-0.06506287
42	0x3c19c821	0.009386093
43	0xbe2be4a3	-0.16786437
44	0x3c72cbe5	0.01481912
45	0xbdc1b6a7	-0.09458666
46	0x3d72d267	0.059282687
47	0x3c026445	0.007958476
48	0xbdbc0d81	-0.09182263
49	0xbcba3385	-0.022729645
50	0xbdb1d9ee	-0.08684145
51	0x3d6b65a7	0.05746999
52	0x3d9892cd	0.07449875
53	0x3e8894fc	0.26676166
54	0xbd92969f	-0.07157635
55	0x3c753cd2	0.014968114
56	0x3e459e76	0.1929873
57	0xbe2815db	-0.16414587
58	0x3e024ec9	0.12725367
59	0xbbed8cbb	-0.0072494424
60	0xbe6a359d	-0.22872014
61	0x3e02e1f0	0.12781501
62	0xbcf63031	-0.030052276
63	0xbd87d82e	-0.0663303
