critic.pth (torch, 24008 bytes, 3 tensors)

layers.0.weight f4 [250, 20]
00000000: a2e9 75bd 8762 09bc 29e9 9e3c 1390 24be
00000010: 89ed 53be 490e 0d3e 240d 913c 562f 1e3e
00000020: 6311 fd3d 2142 54be 5521 d33d 655a 0fbe
00000030: b8f6 e13c 70ef bb3d 0005 c23d e284 a2bd
00000040: a09b e3bb 7093 833d cb0f b93d 4c2d 4e3e
00000050: 4f1a 7ebd 9ab3 f73d 6018 98bd 3224 053e
00000060: aa9f 183d 55e6 dbbc ed4c 223e 5d7e 2a3d
00000070: de6c 4c3e c998 10be 701e 4f3d dd1b e93d
00000080: ee10 53be 4c91 573e 8008 b6bc 8474 34be
00000090: eceb 54be 3e27 3d3e be22 debd 9b0c 52be
000000a0: 7aae 45bb 0d43 d1bd b391 76bd 6c5d ca3d
000000b0: 9cd8 e6bd 9a42 12bd be27 653e 1477 303d
000000c0: c368 edbd 8952 c3bd 4261 323d 43d6 98bd
000000d0: a8d3 363e 5542 08be 2006 c7bd fdcc 8b3d
000000e0: 3847 71bd 8aa0 44be 89e5 483d b10b 80bd
000000f0: 21ec 4b3e d875 073b 2bd0 103e da5b 81bd
00000100: 6bc8 c5bd 18b5 3d3e c0ac bb3d 75d1 163e
00000110: d75d 4c3e 7e44 bdbc 5bd6 8c3d 04f0 193e
00000120: c073 b53b 9007 adbd 7051 08be f004 31be
00000130: 54c9 92bd b8d6 8dbc d9bf 30bc a740 53be
00000140: 49fb 51bd cd2a f33d b1f7 7a3e ee06 a13d
00000150: 4d35 aebd 8cd5 bf3d 6e9f 32be bbf9 f9bd
00000160: 4488 66bd 0259 45be 0045 48be 9574 06be
00000170: 36be 40be c3cf 233d d424 a93d e6c8 263d
00000180: 7889 17be 9f2b d0bd dbee 1ebe f25a 0cbe
00000190: f7b7 62bd 94fc f33c f122 3dbe 1330 353e
000001a0: 9cad 273e adde 45be 3ef1 a8bd 9cb8 1f3e
000001b0: 4aac 423e 338a cd3d 91a1 9e3d 2cac f8bc
000001c0: 528f 473e b28c 47be 40f2 c43d b92b febc
000001d0: 407d f53d 6803 113e d812 053e 02bc 2bbe
000001e0: 5a5c d3bd 4ac9 09be 83f6 d1bc 462c 19be
000001f0: c550 833d b4b2 bc3c 8843 08be 3d33 7bbd
00000200: 9e9c 913d ed02 95bc 8c69 f43c 0250 aebc
00000210: 3113 1b3e 4857 2b3d 102f 223c 6099 9c3b
00000220: e047 5abd 0caf 17bd e889 c63b 22c3 023e
00000230: 7191 f73b 9cf7 e73c c546 f8bd a18f 39bd
00000240: 3d11 d33d e81f c03d 0f47 293e 6798 533e
00000250: 54dd 0a3e 094d 2c3e 6592 4ebe b1d2 3f3e
00000260: e127 913d a8f6 223e c8dc d93d d485 27be
00000270: c889 23bd a059 dabb 028c 0d3e db61 02bd
00000280: b57d 333d edfd 313e a94f 583d 09d3 b43d
00000290: d614 403e 67a9 283c ffc8 673e e9a4 2a3e
000002a0: 4853 14be 935c 4abe 6d3f 33be 6219 c8bb
000002b0: 2e1a 3c3e 4b29 19bd 54c8 9abd 981e 553e
000002c0: 103c 3f3d c84b b03c 921e 6fbd 0758 15bd
000002d0: e741 273a a9e3 513e a1ce c03c 4f84 09be
000002e0: 886a b3bd 186a 2dbd 929b 983c 755d 103e
000002f0: 9633 42be 441a 1f3c 31f6 b43c f7a1 c93d
00000300: 64d1 003e f284 48be 17fe 03be 0cda aabd
00000310: 60b9 e73d 3513 54be 5191 853d 447d 08bd
00000320: 5131 1c3e 43fa 253e 7a2f 4b3d 03ff 583e
00000330: 9505 7c3e a395 2ebe c6f7 eb3d bad7 573e
00000340: e473 f73d b5b2 813d d016 ecbd 1a8f 86bd
00000350: 3180 30bd c939 11bd c214 5b3e 5e9d 4f3e
00000360: ee85 383e 2810 a7bd 06ad e43d 75ea 2dbd
00000370: 3da7 6a3d 02d3 843d 92a6 b1bb 163f 15be
00000380: f338 b9bd 2750 46bd 9e3b 433d 5700 88bd
00000390: a1b0 bc3d 2887 903d afd7 c13d afb9 ab3d
000003a0: 195f 20be e3b8 1cbe 30f7 0b3c 55f3 2a3e
000003b0: cc35 00be 6010 b3bd 8aab 473e 8594 26bc
000003c0: 5295 2c3e ae39 4bbe 2fe2 653e f9cf e33d
000003d0: dddb da3d bcce 163e f35c 553e 2ab9 ccbd
000003e0: 31c0 433e 65bf 1abe f5c6 483e 2436 493e
000003f0: b74c 293e da31 223e 3017 eabc 9b52 ea3d
-0.060037263 -0.008385307 0.019398289 -0.16070585 -0.20696081 0.1377498 0.017706461 0.15447745
0.12356832 -0.20728351 0.10309092 -0.13999327 0.027583465 0.091765285 0.0947361 -0.07935502
-0.006946042 0.06424606 0.090362154 0.20134467 -0.06203681 0.12094803 -0.07426524 0.13002089
0.037261643 -0.02684323 0.15849657 0.041624416 0.19963405 -0.14120783 0.050566137 0.113822676
-0.20611927 0.2105152 -0.02222085 -0.17622572 -0.20793122 0.18472001 -0.1084647 -0.20512621
-0.003016381 -0.10217867 -0.060197543 0.098811 -0.11271784 -0.035708047 0.22378442 0.04308231
-0.11592247 -0.09537227 0.043549784 -0.07462742 0.17854178 -0.13306554 -0.09717965 0.06826208
-0.05890581 -0.19201866 0.049047027 -0.0625223 0.19914295 0.0020669606 0.1414191 -0.063163474
-0.09657367 0.18526113 0.09163809 0.14728339 0.19957672 -0.023103949 0.068768226 0.15032965
0.00553748 -0.08448708 -0.13312316 -0.1728704 -0.071673065 -0.0173143 -0.010787928 -0.20630132
-0.051265035 0.11873398 0.2450855 0.0786265 -0.0850626 0.09366903 -0.1744363 -0.122058354
-0.056282297 -0.19272235 -0.19557571 -0.1313041 -0.1882256 0.03999306 0.082589775 0.040718935
-0.14798534 -0.1016457 -0.15520804 -0.13706568 -0.055351224 0.029783525 -0.1847036 0.1769412
0.1637482 -0.19323225 -0.08249138 0.15597767 0.19011036 0.10036125 0.0774566 -0.030355535
0.19488266 -0.19487265 0.09616518 -0.031026708 0.1198678 0.14161456 0.1299547 -0.16770938
-0.10320349 -0.13455692 -0.025630241 -0.14958295 0.0641189 0.023034431 -0.13307011 -0.06132816
0.071099505 -0.018189872 0.029835485 -0.021278385 0.1514404 0.041831285 0.009898916 0.004779026
-0.0532912 -0.037032172 0.00605892 0.1276975 0.0075551798 0.028316312 -0.12122873 -0.04530299
0.10306022 0.09381086 0.16531013 0.20663606 0.13560992 0.16826262 -0.20173033 0.18732716
0.070876844 0.15914404 0.10637814 -0.16359645 -0.03992632 -0.006663516 0.1382294 -0.031831603
0.043821055 0.17382021 0.052810345 0.08829314 0.18757948 0.010294295 0.22635268 0.1666447
-0.14484894 -0.19761877 -0.17504664 -0.0061065415 0.18369362 -0.037392896 -0.07557741 0.20812452
0.04668814 0.02152051 -0.058378763 -0.036460903 0.00063803646 0.20497002 0.023536028 -0.13429378
-0.087605536 -0.042337507 0.01862887 0.14098151 -0.18964991 0.009710852 0.02209005 0.098453455
0.12579876 -0.19581965 -0.12889896 -0.083423704 0.11314654 -0.20710452 0.065218575 -0.033322588
0.15253188 0.16208749 0.049605824 0.21191029 0.24611504 -0.1704927 0.115218684 0.21078387
0.12082651 0.06332914 -0.11527789 -0.06570263 -0.043091003 -0.0354555 0.21394637 0.20274875
0.1801984 -0.081573784 0.11165814 -0.042459924 0.057288397 0.06485559 -0.005421468 -0.14574847
-0.09044065 -0.048416283 0.047664277 -0.0664069 0.09213377 0.07057029 0.094649665 0.08385026
-0.15661277 -0.15304904 0.008542821 0.16694386 -0.12520522 -0.08743358 0.1949903 -0.010167246
0.16853836 -0.19846222 0.22449563 0.11123652 0.10686467 0.147273 0.20836239 -0.09996255
0.19116284 -0.15112074 0.19607146 0.1964956 0.1653317 0.1583933 -0.02857551 0.11441537

layers.0.bias f4 [250]
00000000: 4745 29be f7ac bd3d 1520 48be c4a8 1f3d
00000010: a2c6 5c3b 4989 e53d 7de0 0c3e 9faf 453e
00000020: 390f 41be 330b e23c 406b 3abe 5cfc 78bb
00000030: a12a 273d f2c6 f9bd f203 b03d d4fd 4cbd
00000040: 50bb cd3d 7b37 9ebd e3d2 b0bc 80e9 f4bd
00000050: 486c 01bd c32b 633e 68b5 24be 2c37 9fbd
00000060: 643f b73d 6954 7fbd ba2a b3bd 0b95 e2bc
00000070: 5095 38be 9987 5f3c 86f9 4fbe 2752 4d3e
00000080: a864 6f3d b22a a43d 9620 5cbe 6491 18be
00000090: 3c72 423c c5e5 90bc 25f6 243e 4068 39be
000000a0: 08ca f83c 6a93 09be d120 be3d 2d74 313e
000000b0: 8248 82bc 6c3f 11be cb5d 603e e01d 99bd
000000c0: 6539 29bd 423b 35be 6003 b5bd 3a74 f3bd
000000d0: 6eec 5dbe 0192 333e f72b 1c3e 7f25 363e
000000e0: 7e66 673d 1f08 173e 21d2 ecbd 3f2a 18be
000000f0: 3f2c 3c3e 09b7 46be 04ae 1e3d ef01 09be
00000100: 7ac4 d6b9 a588 0dbe ef45 e33d 7c2b 5a3e
00000110: ecae e03d b3c7 2a3d 6dd3 773d 9949 e2bd
00000120: 13df b83d a9d6 4f3e e0f7 d33d 1c1c 4d3e
00000130: 7ec2 1e3e ca77 2f3e b798 44be ac0e 81bd
00000140: c049 00be 7aa9 18bd 989e 643e f2a4 21be
00000150: 4b73 183e 08bc 0abe f454 bf3c 07a6 f23c
00000160: a653 0bbe ce11 6cbe 0611 643d 7ed6 403e
00000170: 6171 0c3e d09d c33d 6412 f2bc 4f2a 5fbe
00000180: 1e5b 883d efc7 073e 8d2a 24be b0d7 b5bd
00000190: a656 863c 90de 1abe a76e 3a3e 057e 0abe
000001a0: 7515 6abd aee1 443d 3b1b 043e 42b3 d1bd
000001b0: 7357 d43d 1c6a 99bd 16e3 00bd 56d4 b93d
000001c0: fca7 4a3e d9a4 843c a4ca acbb 563f 2b3e
000001d0: 82e4 b3bd 6577 793d eb00 12be af07 04be
000001e0: 6cc8 0a3e f5cf 813c a86a 42be e42b 433e
000001f0: 9549 21be 8116 db3d 4361 3dbe 3e8b 123d
00000200: 7a06 47bd 26c5 a739 7841 bc3d 68b3 c4bb
00000210: f020 12bd ff90 c1bd 33a7 5f3e 3579 1a3d
00000220: 9f80 febd 5a4c 253e 9973 a33d bb8c bdbd
00000230: c2ca 21be 56b7 3d3e 795a 183e d823 1dbe
00000240: 02ec 43bd c450 3dbe 0da5 4b3e e7f5 ca3d
00000250: 6584 c5bd e544 19be cf2d 8cbd 42af c3bd
00000260: 05a9 d73d 1e2e 603e d615 f1bd e56f febd
00000270: 346b 2dbe 1151 253e 3a19 f23d 0ac0 60be
00000280: def3 3ebc 041d 03be 200b 0cbe 47f4 86bd
00000290: d331 d7bd 3883 823d 43a6 e03d 11e2 50bd
000002a0: 9698 46be fb53 133e e571 003e 31d0 73bd
000002b0: 838a 49be ff2a c7bc 1b25 03be 8f93 b7bd
000002c0: df60 c6bc aec7 30bd d5cf 443c 951f f73d
000002d0: 202a 63be 5e6c f2bd cdbd 333e 9ab2 dabd
000002e0: 6fd4 1cbd 0ea8 5e3c 5ae4 8a3d 85e7 dbbd
000002f0: 7baa 4cbd c60b b33c 8ec3 303d b7f2 4c3e
00000300: dbfc ae3d fb96 10be 5aae 593d ccc1 23bc
00000310: 6c65 6d3e cf5d 5b3e 705b 03be a1e7 d43d
00000320: efdb 51be c2d7 2bbd eeb9 bc3d 9930 943d
00000330: 9245 0c3e 9d1f d6bd 0dc3 183e 841b 073d
00000340: ab5a 733b d80a 083e 4182 753d e350 443e
00000350: 693d 11be 9b12 81bd 09bd db3d 16a2 dcbd
00000360: 8ec9 143d 2744 b23d a284 80bd 1408 9fbd
00000370: 6a3a 393e 33ea a0bd 72ae 663d a2da a33d
00000380: b7e7 6d3e 92b0 10be 5d3c 19be acc9 1f3e
00000390: d6da 293e 9d30 14be 83c4 4fbe ddda d7bd
000003a0: 4d6f ffbd ad1a 163e 5838 29be 9f88 16be
000003b0: 2fb7 a33d 64eb 133e 7811 3c3e c787 f4bc
000003c0: 2f5d 053e 9d0d 263e 3b8c 5cbe 2167 443e
000003d0: 4e2c 14be b927 9e3d d562 53be 1795 3e3e
000003e0: 1872 313e 93ef 343e
-0.16530333 0.09261506 -0.19543488 0.038979307 0.003368773 0.11207826 0.1375751 0.19305275
-0.18853463 0.02759323 -0.18204975 -0.0037992215 0.04081214 -0.12196149 0.085945025 -0.050046757
0.10045493 -0.07725426 -0.021584934 -0.11958599 -0.031597406 0.22184663 -0.16084826 -0.07774195
0.08947638 -0.06233636 -0.08748384 -0.02765896 -0.18025708 0.013643169 -0.2031003 0.2005087
0.058445603 0.08015956 -0.21496806 -0.14899212 0.011868056 -0.017687688 0.16109522 -0.18106174
0.030369774 -0.1343514 0.09283603 0.17329474 -0.015903715 -0.1418435 0.21910779 -0.07476401
-0.0413145 -0.17698386 -0.08838534 -0.11887403 -0.21672222 0.17536165 0.15251146 0.17787741
0.05649423 0.14749192 -0.115635164 -0.14859866 0.18376254 -0.1940576 0.038740173 -0.13379644
-0.00040963647 -0.13821657 0.11097323 0.2130565 0.10970864 0.041694354 0.060504366 -0.11049194
0.09026923 0.2029673 0.10350013 0.20030254 0.1550388 0.1713554 -0.19198881 -0.063016266
-0.12528133 -0.037271 0.22326124 -0.15785578 0.14887731 -0.1354829 0.023355938 0.029620184
-0.13606128 -0.23053667 0.055680297 0.18831822 0.13715126 0.09551585 -0.029549785 -0.21793483
0.06658004 0.13259862 -0.16031857 -0.0887903 0.01639874 -0.15123963 0.18206273 -0.13524635
-0.05714937 0.048066787 0.12901013 -0.10239269 0.10368242 -0.07490942 -0.031466566 0.09073703
0.19790643 0.016191887 -0.00527318 0.1672338 -0.08783819 0.06090488 -0.14258163 -0.12893556
0.13553017 0.015846232 -0.18985999 0.19059712 -0.15750726 0.10697652 -0.18494134 0.035777323
-0.04859016 0.0003199961 0.09192175 -0.006002832 -0.035675943 -0.09451484 0.21841125 0.03771325
-0.12426876 0.16142407 0.07981033 -0.09255358 -0.15800002 0.18526968 0.14878263 -0.15345705
-0.047832496 -0.18487841 0.1988718 0.099101834 -0.09644393 -0.14967687 -0.06844675 -0.09554912
0.10530285 0.21892592 -0.11771743 -0.12423686 -0.16935426 0.16144206 0.11821218 -0.21948257
-0.011654822 -0.12804037 -0.13676119 -0.06589561 -0.1050755 0.06372684 0.10969212 -0.050996844
-0.19394144 0.14387505 0.12543447 -0.05952472 -0.19681744 -0.024312494 -0.12807123 -0.089636914
-0.024216114 -0.04315918 0.012012442 0.12066571 -0.22184038 -0.11837076 0.17552872 -0.10678597
-0.03828853 0.013589872 0.06781836 -0.10737518 -0.04996727 0.0218562 0.043155245 0.20014463
0.08544322 -0.14120094 0.05314479 -0.009994935 0.2318322 0.21422504 -0.1282785 0.10395742
-0.20494054 -0.04195381 0.09215151 0.07235832 0.13698414 -0.104552485 0.14918156 0.032985225
0.00371329 0.13285387 0.059938673 0.19171481 -0.14183582 -0.06302377 0.10729415 -0.10773103
0.03632503 0.08704405 -0.06275298 -0.07765213 0.1808869 -0.0785717 0.056318708 0.08000685
0.23232923 -0.14129856 -0.14964433 0.15604275 0.16587386 -0.1447167 -0.20289807 -0.10539792
-0.12472401 0.14658614 -0.165254 -0.14700554 0.07993924 0.14445263 0.18366039 -0.0298499
0.13023828 0.1621613 -0.21537869 0.19179966 -0.14470026 0.0772242 -0.2064317 0.18611561
0.1732868 0.17669515

layers.1.weight f4 [1, 250]
00000000: 357a c43c ccdf d1ba e1ac 2ebd 8d17 55bd
00000010: 302a 303d 3ce9 f33c 9e69 883d 0e96 02bd
00000020: c694 da3c b4e8 283d c600 c5bb 91fe d9bc
00000030: f9d9 e63c e8c5 bebb b99f dbbc f663 bfbc
00000040: 2c29 a53c 516b 673d 961b 1e3d 5e1b 3b3b
00000050: 5f11 d73c c00f 1a3d 0185 f5bc 9532 df3b
00000060: 64c1 31bd 7922 35bd 2617 b3bc ceb7 163d
00000070: e3aa 66bd 289b 863c cc34 d3bc 2c63 c9bc
00000080: d201 41bd e509 133d a615 9ebc 8ffb 4fbd
00000090: 87e2 493c 6c94 863d fa05 1a3d 9480 5cbd
000000a0: 84d3 32bd a02c 0f3d cf9b 9e3b 3869 573d
000000b0: d6b2 5cbd 421c 02bd 509d 373d c2e0 b83c
000000c0: 267a 0cbd 40dc 38bd 3c96 1e3d cf56 cc3c
000000d0: 0e04 61bc 38e0 d33c f8d6 f9bc 9f5f 293d
000000e0: 1e7d 68bd e6f5 54bc fd00 493d 5a11 723d
000000f0: cb1a 293d ff8d b1bc 09fc 33bc 8368 43bd
00000100: 876e aa3c 9450 4ebc acfb 18bd 61f0 cbbc
00000110: fc69 8f3d ee20 9a3c 4e3b e83c 261d 9c3a
00000120: a421 423d 2195 18bc fbc4 fbbc 4bbb 26bd
00000130: 7045 b6ba 188c 183d 30e2 6d3d ddcf b33a
00000140: bf3d 503d 9f2a 84bc 928c 2d3d 78a7 a53d
00000150: 1ee5 15bd 0042 183c 8559 0a3d ae75 debc
00000160: 63ab 68bd 4723 89bc 2f16 06bd dcb2 343a
00000170: 2913 ee3b 2480 a03c 62d9 f03d c7ee 763c
00000180: b9a1 363d e7c6 793d 1403 5abc 2158 253d
00000190: cdac 973c 743a b63c e1cc 0e3b 7f1f 203c
000001a0: cd49 1f3d 921a 6abd 42ec ea3c 5e1e e4bc
000001b0: 3637 553d 68bd 37bd 8fa7 5bba 7815 f3b9
000001c0: 3f94 50bd df6c 5b3d b77f 1bbd 306f 9f3d
000001d0: f2c3 c13c d758 e9bb a96b 8dbd c2e8 823d
000001e0: f2d3 e7bc 5b6d ed3b f8b7 2a3d f442 0e3d
000001f0: f3e7 8b3d 4393 18bd 8836 8f3d d467 bc3b
00000200: b555 5d3d a156 593d 2af1 29bd e31c 723d
00000210: 332b 6abd deec 313c 8fae a4bc 9488 513d
00000220: 6c89 4c3d 8400 d13c 0ba8 5fbc a55e 503d
00000230: 2d05 a4bb bceb e4ba 538e f93c 1e4e 623d
00000240: a452 413c ae26 a33d ad5a 923c 7323 78bc
00000250: 7d9a 763d 3946 623c 0642 4b3d 8047 273d
00000260: 2b96 c7ba 4ae3 be3d edf1 69bc 621a 32bd
00000270: 99f4 afbc f2f1 84bc 0864 5ebc 5630 f9bc
00000280: 2f7d 01bd 505b 27bd 9861 31bd 9aea 823d
00000290: 10ac c6bc 1f1a c8bc b926 09ba b0d5 13bd
000002a0: c427 52bd 53c7 8c3d a7f2 623d e5fd 2cbc
000002b0: ff15 1e3c 110b 08bc cb0a ab3d ad9d 9dbc
000002c0: cafb 633d 7065 933c e7ba 113d 947b 17bd
000002d0: b7e2 1bbd 2ba4 68ba dadf 29bd fc51 8b3c
000002e0: 28c3 1dbd 4c5a fc3c 2f7a 0bbd c1a2 8bbd
000002f0: 480c b6bc 7b33 503b 5eed dd3b 254a 49bc
00000300: 527a c73c f86c 993a a52b 133d c0ae e9bb
00000310: 9919 723d 7b47 183c a99f 05bb 50fa 883c
00000320: 5906 e8bc 63cc a5bc d9fc 55bd 7e4e 783d
00000330: 9c08 1b3d a4d9 30bd 58da 8e3d 1e9c 253d
00000340: d989 4abd 4064 343d c628 4fbd a980 0b3d
00000350: 9ca7 503d 2a70 16bd da64 463d be0a 503d
00000360: 5b4e 37bd 9bef 3d3d 72da 253d 6d9c 883c
00000370: 1f1a ba3b e901 ce3c 2b48 893d 263e 533d
00000380: 8817 2b3c 2d13 cdbc 6a4f 83bc 67d0 fd3c
00000390: 153e 8fbd 0cca d8bc 3024 45bd 948b 2abd
000003a0: 5f3b 083d b473 833d 3587 233d ebdc 0a3e
000003b0: 78dd 9a3c c6a5 99bc b69a 3e3d 5b23 633d
000003c0: b3a6 133d 1b9e 2e3c 29c0 0d3d 1000 12bc
000003d0: 8aa3 f33c 4216 593d 4213 d2bb d9dd e53c
000003e0: 5b23 11bd aea9 e93c
0.023984054 -0.0016012131 -0.04264534 -0.052024413 0.043008983 0.0297743 0.0666077 -0.031881385
0.026682269 0.041237548 -0.006012055 -0.026610645 0.02818011 -0.005821932 -0.02680956 -0.023363095
0.020161234 0.05649883 0.038600527 0.0028550248 0.0262534 0.037612677 -0.029970648 0.00681145
-0.043397322 -0.04422233 -0.021861624 0.036796384 -0.056315314 0.016431406 -0.025782011 -0.024583422
-0.047120877 0.035898108 -0.019297432 -0.050777014 0.012322075 0.06571278 0.037603356 -0.05383356
-0.04365875 0.034954667 0.004840351 0.05259058 -0.05388149 -0.03176523 0.04482776 0.02256811
-0.034296177 -0.04513192 0.038717493 0.024943737 -0.013733877 0.025863752 -0.030498013 0.041350957
-0.056759946 -0.01299808 0.049073208 0.05909858 0.041285317 -0.021674154 -0.010985383 -0.047707092
0.020804657 -0.0125924535 -0.037349388 -0.024894895 0.07002637 0.01881453 0.028348591 0.0011910542
0.047395363 -0.009312899 -0.030733576 -0.04070596 -0.0013906192 0.03724298 0.058077037 0.0013718564
0.050840136 -0.016133605 0.042370386 0.08088583 -0.036595456 0.009293079 0.03377678 -0.027155723
-0.056804072 -0.016740454 -0.032736 0.0006893107 0.0072654677 0.019592352 0.117602125 0.015071577
0.044587824 0.060980704 -0.013306398 0.04036725 0.018515015 0.02224467 0.0021789598 0.009773134
0.03888874 -0.057154246 0.02867711 -0.027846511 0.052054606 -0.044858366 -0.0008379155 -0.00046364567
-0.05092263 0.053570624 -0.037963595 0.07784879 0.023653004 -0.0071211862 -0.069053 0.06392051
-0.028299306 0.007245702 0.041679353 0.03473182 0.0683135 -0.037249815 0.06992823 0.005749682
0.054036815 0.05306113 -0.041489758 0.05910958 -0.057170104 0.010859696 -0.020102767 0.05115564
0.049935743 0.025512941 -0.013650904 0.05087151 -0.0050055 -0.0017465274 0.030463373 0.05525028
0.011799488 0.07966362 0.017865503 -0.0151451705 0.060205925 0.013810688 0.04962351 0.040839672
-0.0015227249 0.09320696 -0.014278871 -0.04348219 -0.021478938 -0.01622865 -0.013573654 -0.030418556
-0.031613525 -0.040858567 -0.043305963 0.06392403 -0.024251968 -0.024426518 -0.00052319054 -0.03609246
-0.051307455 0.068739556 0.055407193 -0.01055858 0.009648799 -0.00830342 0.08351668 -0.019240225
0.055660047 0.017992705 0.035578635 -0.036983088 -0.03805801 -0.00088745606 -0.041473247 0.017006867
-0.038516194 0.030804776 -0.03405207 -0.06818152 -0.022222653 0.0031768966 0.006772681 -0.012285744
0.024350319 0.0011705449 0.035930295 -0.0071314275 0.059106443 0.009294386 -0.0020389354 0.01672092
-0.02832334 -0.02023906 -0.052243087 0.06062173 0.037850007 -0.04317631 0.069752395 0.040432088
-0.049447868 0.04404092 -0.050575994 0.034058247 0.050941095 -0.03672806 0.048436023 0.050791495
-0.04475246 0.046371084 0.04049153 0.016676152 0.0056793834 0.025147395 0.06703218 0.05157294
0.010442622 -0.025033558 -0.016029079 0.030983163 -0.06994263 -0.026463531 -0.048130214 -0.04163702
0.033259746 0.06418553 0.039923865 0.13560836 0.018904433 -0.018755805 0.046534263 0.05545364
0.03604765 0.0106578125 0.034607086 -0.008911148 0.029741067 0.052999742 -0.006410987 0.028059887
-0.03543411 0.028523292
