critic.pth (torch, 129318 bytes, 74 tensors)

projection.layers.0.weight f4 [4, 4]
00000000: 9c34 a63e 625c 3dbe 78ec b4be e46f 45be
00000010: edad 493e 7ed7 9e3e 91c3 96be f237 333e
00000020: 7f27 95be eeb5 a2bd 2cb4 b93c 4224 60be
00000030: 668f b63e c75a f6bd 866a 363e 357c febe
0.32462013 -0.18492272 -0.3533666 -0.19280964 0.19695254 0.31023782 -0.2944608 0.1750181
-0.29131696 -0.079448566 0.02266892 -0.21888831 0.3565628 -0.12029033 0.17814073 -0.49704137

projection.layers.0.bias f4 [4]
00000000: 9fb1 3cbd f64a b03d 6941 023d f8b4 d6bd
-0.04606783 0.08608048 0.03180066 -0.10483736

projection.layers.1.weight f4 [10, 4]
00000000: af42 453e 48a5 9d3e 6d88 b9be 472f 913e
00000010: e897 aa3e e959 96bd 7516 ffbe ebbc d23d
00000020: e94e 173e 712d 1b3e 1960 9c3e adf2 0a3e
00000030: 315d b5bd f424 383e aa15 c5be f44b 4abe
00000040: 72d5 77be 069b b6be 0d1e e7bd d460 093f
00000050: e722 5e3e f704 8f3d 4bb4 bc3c e642 ac3c
00000060: 46b0 3abe 687c 773e a664 6e3e 7935 653d
00000070: 65ec dcbe fc0e ad3e f1a0 fd3d 1aa3 7ebe
00000080: ca20 c0bd d299 34bc 0812 d03e 3fbc f23e
00000090: a56d 2abe 104c ea3e 8ff7 77be b28b 233e
0.19263719 0.30790162 -0.36236897 0.28356382 0.3331902 -0.07341368 -0.4982182 0.102899395
0.14776196 0.15154053 0.30542067 0.13569136 -0.088556655 0.17982846 -0.3849309 -0.19755536
-0.24202517 -0.35665148 -0.112850286 0.53663373 0.21693002 0.06983369 0.02303519 0.021027993
-0.18231305 0.24168551 0.23280582 0.0559592 -0.43149105 0.33800495 0.12384213 -0.24866906
-0.09381254 -0.011023002 0.40638757 0.47409245 -0.16643389 0.45761156 -0.2421553 0.15971258

projection.layers.1.bias f4 [10]
00000000: a903 a4be f6db 20be ab4a 1e3e c70b 853e
00000010: 41a1 7abd 9c35 0abd fb79 aabd 0bf2 933e
00000020: eebd 4f3e 70dc 8dbe
-0.32034042 -0.15708908 0.15458171 0.25985548 -0.06118894 -0.033742532 -0.08324047 0.28895602
0.20287296 -0.27707243

projection.layers.2.weight f4 [25, 10]
00000000: 74e1 b2bd 1d5e 283c de6c 8d3e 3503 c13d
00000010: 093e 913d e419 b73d 4cd4 5dbe 1839 93bd
00000020: 07b5 5a3e e2a7 513e c35f d0bd 5eee cebc
00000030: ec18 2fbd c0d2 1a3e 8ca8 8dbe c933 aa3d
00000040: dae7 cf3d 1274 94be 31fd a8be 7aca 61be
00000050: 9f3c 08be d092 f5bd 289a 52be c185 21be
00000060: 703d 343e c62c 92be 0478 85be 00dc 36bc
00000070: 10e2 81bc 4026 f4bc 809a cd3c e075 d0bc
00000080: 9ca7 0cbe bab8 65be d833 e73d 00a7 513d
00000090: bb47 10be c893 ef3d 0d56 93be 1013 1a3d
000000a0: fcde bcbd d6aa 723e 7071 3b3d fa07 09be
000000b0: c31d 2fbe 0e48 3b3e daf5 dcbd b1b4 863e
000000c0: 9b09 26be c0f4 6a3c 6d68 8bbd c894 183e
000000d0: 6aee aa3e 60a7 5b3e 360c 813e 1783 8cbd
000000e0: 839d 88be f8fc 2dbd 734e 7dbd 2e39 24be
000000f0: 53ae 9d3e 1ef3 4fbe 00b8 c4ba 92ea 2d3e
00000100: 2033 293d a86b 87bd fc91 a33d 9402 9dbe
00000110: 6a98 133e b86b c43d 4fc1 2b3e 9aaa 94bc
00000120: e684 3b3e 7af7 553e 7612 633c 380f 93bc
00000130: 2700 f0bd 1011 15bd 846e 73bd 2f50 a13e
00000140: 27c9 4d3e 38cf 10be 81ab 903d 1bf2 723e
00000150: ace8 aebd b484 283e ae7e 04bd 4194 2cbc
00000160: 42f6 293d 765c c43d 804a 663c 793d 853e
00000170: 40c9 f7bd 5215 563e 40a5 bf3b 3a7a 333e
00000180: e8a7 ca3d bdd9 91be 7a83 383e 30eb 8bbe
00000190: 0333 3dbe 2674 ed3d 7ee9 08be 4f28 53be
000001a0: 378f 32be 5a4b ac3e 5910 10bc 2a4f 623d
000001b0: db51 913c 972d 913e a55d 4bbe 5881 0c3d
000001c0: 8237 09be b5d9 acbe 2a1e 1f3e fc6c b33c
000001d0: 7042 393e 867b 493e 27f7 663e 9725 49be
000001e0: 39b1 c83e 7e89 0dbd 3961 d83d 2fd5 e3bd
000001f0: 71c3 103c bd37 ab3e 33d1 113e 0d40 9c3d
00000200: 154d b7bd 3315 c33e 8ac1 323d 3769 51bd
00000210: 5161 243e c327 343e 2474 043b 0ddd d53d
00000220: d934 0d3e b483 86be b425 193e 3be7 5b3e
00000230: 2891 2b3d 028d 043e 11a7 923e 5e2e 5bbe
00000240: 1ea2 143e edef 983e 22e0 2f3e d7f5 a0be
00000250: 4101 8cbe 103a 103e 00a0 34b8 a2dc 6d3e
00000260: 8332 943e cac8 a1be 0765 9b3e ac89 d93d
00000270: 08e9 b6bd 4f4f 87be 1e1f 12be ebf3 3fbe
00000280: d464 cfbd 534c 563e f6f0 38be 019a 1ebd
00000290: a9bf 193e 1fd4 433e c1aa 4dbe 5e4f ee3d
000002a0: 529d 023e 0078 4b3e 91da 393e b335 1fbd
000002b0: cac3 7b3e 58bf 2b3e d808 57be 74a6 ac3d
000002c0: fd60 073e 7a7a 8fbe 71a1 23be dd02 7f3e
000002d0: 3346 0dbe 3817 843d d83a 09bd ded8 dabd
000002e0: 200c a03d 8018 d53c 40ac 59bc c130 9dbe
000002f0: 551e 923e d012 9fbc 066b 6f3e d4b4 71bc
00000300: fea4 473c 8830 91bd 7e06 3cbe 3332 403e
00000310: 7a11 2bbe 922b 343e 87af afbe 018c 0d3e
00000320: e8ed 7f3e d5e8 cabc 0eb2 34be 39e5 3d3e
00000330: 1f21 443d 431d 43be 1975 82be ed22 103e
00000340: b046 33be 7c35 ab3e 46bb 413e bbbd 5dbd
00000350: ea99 41bd 9c1b 7bbe e80a 433e 5d5b 8bbb
00000360: 9c93 2abe 28b5 783e bd60 9f3e 6614 94be
00000370: 2232 213e 8023 0f3c e64e 363e 5ab0 5cbe
00000380: 59ff 803e 487e 2c3d 7471 9bbe db4f 29be
00000390: 28c3 c33d 2fbc 9ebe d8e6 843d c026 1abc
000003a0: 7aa2 9fbe 48e5 85be 5cbe b03d b01b 8abc
000003b0: 5a9f 1d3e fe61 203e b0b7 53be 8468 8d3d
000003c0: 4b30 743d 91c9 49be 7254 10be 3e36 b5be
000003d0: 13b1 8e3e 41d3 52be 9bd7 4fbe b0ac 1e3e
000003e0: d428 2d3e 168e f5bd
-0.08734408 0.010276345 0.27622122 0.0942444 0.070919104 0.08940485 -0.21663016 -0.07188624
0.21358119 0.20474198 -0.10174515 -0.025260147 -0.042748377 0.15119457 -0.27667654 0.083106585
0.10151644 -0.28994805 -0.3300567 -0.22049895 -0.13304375 -0.11990893 -0.20566618 -0.1577368
0.17601562 -0.28549784 -0.26068127 -0.0111608505 -0.015854865 -0.029803395 0.025098085 -0.025446832
-0.13735813 -0.22433749 0.11289185 0.051184654 -0.14089863 0.11698109 -0.2877659 0.037615836
-0.092222184 0.23697981 0.04576248 -0.13381949 -0.17101197 0.18289205 -0.1078908 0.26309732
-0.16214602 0.0143405795 -0.06807027 0.14900506 0.3338502 0.21450567 0.2520463 -0.06860941
-0.26682672 -0.042477578 -0.061842393 -0.16037437 0.3079706 -0.20307586 -0.001500845 0.16984013
0.041308522 -0.06612331 0.07986829 -0.3066603 0.1441361 0.09590858 0.1677296 -0.018147755
0.18312415 0.20895186 0.013859382 -0.017951593 -0.11718779 -0.036393225 -0.059431568 0.31506488
0.20096265 -0.14141548 0.07063962 0.23725168 -0.085404724 0.16456872 -0.032347374 -0.010533393
0.041494615 0.09587948 0.014055848 0.26023462 -0.12098932 0.2090657 0.0058485568 0.17527094
0.09895307 -0.28486434 0.18018904 -0.2732787 -0.1847649 0.11594419 -0.1337032 -0.20620845
-0.17437445 0.3365124 -0.00879296 0.055251278 0.017739227 0.28355095 -0.19859941 0.03430304
-0.13400081 -0.33759847 0.1553885 0.021902554 0.1809175 0.19676027 0.22555219 -0.19643246
0.3919771 -0.03455495 0.10565419 -0.11124646 0.008835659 0.33440962 0.1423996 0.07629404
-0.08950249 0.3810211 0.043641604 -0.05112573 0.16052748 0.17593293 0.0020210827 0.10442553
0.13789691 -0.26272357 0.14955789 0.21474926 0.04188648 0.12944415 0.28643087 -0.21404406
0.14514968 0.2987055 0.17175344 -0.3143756 -0.27344707 0.14084649 -4.3064356e-05 0.23228696
0.28944787 -0.31598502 0.30350515 0.10621962 -0.08931166 -0.26427695 -0.14269683 -0.18745391
-0.10126653 0.20927553 -0.1806067 -0.03872109 0.15014519 0.19123887 -0.20084669 0.11636232
0.12755325 0.19869995 0.18149783 -0.03886957 0.24586406 0.1677221 -0.20999467 0.08430186
0.13220592 -0.2802313 -0.15979554 0.24903436 -0.1379631 0.06449741 -0.033503383 -0.106858954
0.07814813 0.02601266 -0.0132856965 -0.3070126 0.28538767 -0.01941815 0.2338067 -0.014752585
0.012185333 -0.07089335 -0.18361852 0.1876915 -0.16705886 0.17594746 -0.34313604 0.13822939
0.24993098 -0.024769226 -0.17646047 0.18544473 0.04788315 -0.19054131 -0.25479963 0.14075823
-0.17507434 0.33439243 0.18919095 -0.05413602 -0.047265925 -0.24522251 0.19047129 -0.0042528347
-0.16657871 0.24287856 0.31128493 -0.28921813 0.1574178 0.008736491 0.17803535 -0.21551648
0.25194815 0.04211262 -0.30359995 -0.16534369 0.095587075 -0.31002948 0.064893425 -0.009408653
-0.31178647 -0.2615149 0.08630058 -0.016858906 0.15392819 0.15662381 -0.2067554 0.069047004
0.05961637 -0.19705798 -0.14094713 -0.35392946 0.27869472 -0.205884 -0.2029709 0.15495563
0.16910106 -0.11989991

projection.layers.2.bias f4 [25]
00000000: 0a58 95bd 9271 74be a027 34be 10f3 84bd
00000010: 4ba5 9ebe 1469 d73c ee23 5bbe 3d2f 2d3e
00000020: 7d51 32be 9687 87be 01d1 843e a657 303e
00000030: a739 1a3e 3b62 44bd 2079 6ebd 3069 a13d
00000040: fc5a 31bd 898c b1bd 6ec1 6ebe eefc a23d
00000050: 8d9d 79be 64d8 45be c00c 65bc 1bb2 07be
00000060: 7630 38be
-0.07292183 -0.23871449 -0.1759324 -0.06491673 -0.30985484 0.026295222 -0.21400425 0.16912551
-0.17413898 -0.2647063 0.25940707 0.17220935 0.15061055 -0.047945242 -0.058220983 0.07881391
-0.04329966 -0.08669383 -0.23315975 0.07958399 -0.24376507 -0.19320828 -0.013980091 -0.13251536
-0.17987236

projection.layers.3.weight f4 [4, 4]
00000000: 84f3 923e b322 86bd 854a c23e 1630 b8be
00000010: 8ade 04be 3ccc 4fbc f7da 133f aa0b e8bd
00000020: c92d 0e3e 5c0e b8bc 1353 2dbe 11a5 0c3e
00000030: 5c56 7a3e 3562 b1b9 7df6 e13e 1260 76bd
0.28701413 -0.06549587 0.3794748 -0.35974187 -0.12975517 -0.012682971 0.5775599 -0.1133035
0.13884653 -0.022467785 -0.16926222 0.13734843 0.24447006 -0.0003383324 0.44133368 -0.060150214

projection.layers.3.bias f4 [4]
00000000: b346 913e 7c23 82be 3db8 8dbd a1f1 103e
0.28374252 -0.25417697 -0.06919906 0.14154674

projection.layers.4.weight f4 [10, 4]
00000000: 0349 92be 71d4 513e 6730 f5bd 0092 b1be
00000010: 72ac a0bd 9a62 76bd cdde b83e 6b77 0d3f
00000020: 3c83 b73d 1201 e53e efd2 cbbe 0441 ebbe
00000030: e25f 38bd c656 ed3e adc7 fd3d a7b7 51bd
00000040: 99be 963e f1b3 f2be aa1e 8a3d 001d d2bd
00000050: 2475 7fbe 3456 ab3d 43a6 9a3e 5b4e 70be
00000060: 8d5b 793e 81cf 84bd 93ac 863e a831 3f3e
00000070: f6e0 d23c be6a 693e b9e4 10be 3234 583e
00000080: 385e c13e 11b0 1dbe fdfd c13e f9ec 9a3d
00000090: 13a6 783c 0b15 203e 6615 b5be 833f f03e
-0.2857133 0.20491196 -0.11972123 -0.34681702 -0.07845391 -0.060152628 0.36107484 0.5526034
0.08960578 0.4472738 -0.39809367 -0.4594804 -0.045013316 0.46355265 0.12391601 -0.051200535
0.2944229 -0.4740291 0.0674413 -0.102594376 -0.2494703 0.08366051 0.30204973 -0.2346739
0.2435133 -0.06484891 0.2630354 0.18671286 0.025742035 0.22794625 -0.14149751 0.21113661
0.37767196 -0.15399195 0.3788909 0.0756473 0.015176314 0.15633027 -0.35367888 0.46923456

projection.layers.4.bias f4 [10]
00000000: 0703 47bd 440b 86be 858e 84bc e80b be3e
00000010: 11a7 3d3e 66d6 183d 960d b7be 15f5 96be
00000020: 476c 313e f985 6ebe
-0.04858687 -0.2618047 -0.01618124 0.3711846 0.18520762 0.03731384 -0.35752553 -0.29483858
0.17326461 -0.23293294

projection.layers.5.weight f4 [25, 10]
00000000: 259a 81be 8a16 8f3e 9440 92be cb03 23be
00000010: 6843 2e3d a619 36be b1b6 e9bd fd35 4bbe
00000020: 409b 3a3c 1870 503e cef1 c1bd 13bc 1a3d
00000030: 2e2b 603e a4ec b53d 1c73 84bd 8941 663d
00000040: c7bf 9a3c f5c9 8bbd 2e1d 0ebb 03c4 22be
00000050: 7f0c 0fbe 3218 77bd 9c27 563c 3f38 98bd
00000060: ee53 74bd 6f86 2c3d 3ca0 c33c f220 173e
00000070: c964 fc3d 809c a23d 4b85 4abe f0dc 90be
00000080: 8d73 cfbc ef47 a0be 5e1b 933d e6a4 52be
00000090: 3369 7ebe 6259 4d3d 30e7 b23d 3df2 133e
000000a0: f64c 42be 0caf 903e 65bc b5bd ce1c b1be
000000b0: cee6 5abe 1052 b73c 8d4f 423d 7465 133d
000000c0: 1a22 d7bd 9c94 5d3e 0049 fdbd b142 32be
000000d0: ee46 82be 7ead b8bd 21ff 8bbe ea85 78be
000000e0: 1480 96be 6442 f33d 0c08 bbbd a08b 763c
000000f0: 14f1 f13d e8ac 123e c274 543e e037 98bd
00000100: 5cb1 85be 7a8f 4fbe cdb4 8b3e 9bb9 923e
00000110: 7597 953e c667 33be d40f 9e3d 2ee3 66be
00000120: 7745 803e b03d 6dbd a439 5cbe 3c26 f6bd
00000130: 40c6 5d3c c285 45be 19fb 8e3e a8bf 353e
00000140: 9ce2 813d 85a1 743a 7326 56be f25f bc3d
00000150: cd79 8dbd cdb3 f03d f27f cb3d b51f 323e
00000160: e255 27be 6078 37bd bf24 83be 946d 5c3e
00000170: ff3c 2ebe 6f87 7abe 2707 523e 2069 20be
00000180: 403b 263e 1c21 933e ffb5 ccbd 362e a83e
00000190: 5523 3d3d deb5 353e 8d97 1c3e 6ae8 4cbe
000001a0: 2870 493e a467 a83d 9fe3 173d 63a7 193e
000001b0: 5d9a 513e d41b 11be 1273 13be 369e 003e
000001c0: 455a a03e b2a7 fbbd da67 4a3e e0dd b2bc
000001d0: 241f 983d 85fe 9e3e f021 113e bc93 ad3d
000001e0: 0c0c 29bd 2e6f 723e 5526 6fbe f23e a2be
000001f0: 8277 87be c434 18be f299 a4bd 517f 033e
00000200: 79b6 5cbe 71e2 63be 9608 e9ba af60 8dbd
00000210: 18b2 7c3e 97e9 62be fa15 04be 9221 1abe
00000220: 349b 843e 5897 843e f019 a93c cfc5 b33d
00000230: 725a 713e 125e 0c3e 558d c73c b24d f0bd
00000240: e545 30be 50a1 653e cd1c 04be 8e99 9b3e
00000250: bdc9 27be aca6 2cbe 0668 7bbe c6dd 44be
00000260: b3c9 3ebe 9376 803e 9103 ec3c 7961 9abe
00000270: 9e19 383e b54f d13d 7537 a6bd fdd9 37be
00000280: f8cb d33d aec3 8a3e d30c 26bc 32ea 173c
00000290: 1530 fd3d 9f34 a33d 30b5 0d3e 0497 bd3e
000002a0: 100a d8bc f72f 88bd 101e 88bc fcb5 203e
000002b0: 4050 8fbd 08a8 053d e669 98bd b13b 8d3e
000002c0: 96d1 353e 5054 803d 44f7 96be c41a d93d
000002d0: 161f 6c3e a82b e13d 0e8f 90be 8e1c 633e
000002e0: a0d3 e1bc e2bc 753e 4ea2 603e 7ed6 6c3e
000002f0: fbc6 95be d0fb 69be 684a b13e 69a0 febd
00000300: c8a2 d0bd 69a8 20be 946b 47bd 1c6e 663e
00000310: 33f3 513d 9117 7cbe 799a 91be 322f 93bd
00000320: a36e 4dbd cb19 973d ebf8 063e 8340 553e
00000330: 9894 f1bd 99a8 3c3e d11c 96be d519 34be
00000340: 42bd b9bc 1042 34bd b03b 8abe 64ed 9bbe
00000350: cdf6 7cbe 9c34 44be e852 15be a554 823e
00000360: 88cd cb3d a8a1 cf3d fed8 473e c877 033e
00000370: 42cb 403e 542a c13d 6734 983e 7164 9f3e
00000380: bc54 08be 5b0d 883e 3b30 933e 4695 9ebe
00000390: 4cb3 38bd 0fb9 94be cbae e9bd 5104 f53c
000003a0: c416 45be d150 4abd bee3 8fbc 736e 513d
000003b0: f4cf 133e faaa 2fbe 10a1 72be d5aa f63d
000003c0: 3b36 66bd 92bc 40be 30a0 a73e 5af6 853e
000003d0: 9083 8dbd 902d 62bd 80e0 663e 2368 823e
000003e0: 2314 973c 632c 3c3e
-0.25312915 0.27946883 -0.28564894 -0.15919416 0.042544752 -0.17783222 -0.11411799 -0.19844814
0.011389554 0.2035526 -0.09469949 0.037777018 0.21891472 0.08883026 -0.06467268 0.056214843
0.018890275 -0.068256296 -0.0021684873 -0.15895085 -0.1396961 -0.06032581 0.013070967 -0.07432603
-0.059650354 0.042120393 0.023880117 0.14758661 0.12323911 0.07940006 -0.1977741 -0.28293562
-0.025323654 -0.3130488 0.07182954 -0.20570716 -0.24844818 0.05013407 0.08735502 0.14447875
-0.18974671 0.2825855 -0.08873824 -0.3459229 -0.21377108 0.022377998 0.047439147 0.035985425
-0.10504551 0.21638721 -0.12367439 -0.17408253 -0.2544474 -0.09017466 -0.27343085 -0.24269834
-0.2939459 0.118778974 -0.09132394 0.015047938 0.1181356 0.14323771 0.20747665 -0.07432532
-0.26111877 -0.20269576 0.27286378 0.2865723 0.29217115 -0.17520055 0.07717863 -0.225476
0.25052997 -0.057920158 -0.21506363 -0.120190114 0.013536036 -0.19289306 0.27925947 0.17748892
0.063420504 0.00093319296 -0.20913105 0.091979876 -0.06907997 0.11753044 0.09936513 0.17394908
-0.16341355 -0.044792533 -0.25613973 0.21526176 -0.17015456 -0.24465726 0.20510541 -0.15665102
0.1623354 0.28736198 -0.099956505 0.32847756 0.046176273 0.17745158 0.15292187 -0.20010534
0.1967169 0.08222893 0.03708231 0.15005259 0.20469041 -0.14170772 -0.14399365 0.12560353
0.3131887 -0.12287845 0.19766179 -0.021834314 0.074278146 0.31053558 0.14173102 0.08475444
-0.041271254 0.23675224 -0.23354466 -0.31688648 -0.26458365 -0.14863878 -0.08037175 0.12841536
-0.21553983 -0.2225435 -0.0017779048 -0.069032066 0.24677312 -0.2215942 -0.12899008 -0.15051869
0.2589966 0.25896716 0.02064225 0.08777963 0.23569658 0.1370776 0.024359385 -0.11733569
-0.17214163 0.22424817 -0.12901612 0.3039059 -0.16385551 -0.16860455 -0.245514 -0.19225225
-0.1863163 0.25090465 0.028810294 -0.3015249 0.17978522 0.10220281 -0.08116046 -0.1795425
0.10341638 0.27102417 -0.0101348935 0.009272145 0.123626865 0.07969021 0.13838649 0.37029278
-0.026371986 -0.066497736 -0.016615897 0.15694422 -0.06997728 0.03263095 -0.074420735 0.27584603
0.17755732 0.06266081 -0.29485524 0.10600808 0.23058733 0.10994655 -0.28234142 0.22178861
-0.027566731 0.23997834 0.21936914 0.23128697 -0.29253373 -0.22849965 0.3462708 -0.124329396
-0.10187298 -0.15689243 -0.04868658 0.22502941 0.051257323 -0.24618365 -0.28438166 -0.07186736
-0.05015434 0.073779665 0.13180892 0.2082539 -0.1179592 0.1842369 -0.2931886 -0.17587979
-0.022673253 -0.044008315 -0.26998663 -0.30454552 -0.24703522 -0.19160694 -0.14582407 0.25455204
0.09951311 0.10138255 0.1951637 0.12838662 0.18827537 0.094319016 0.2972748 0.31131318
-0.13313574 0.2657269 0.28747734 -0.30973262 -0.045092866 -0.29047439 -0.11410292 0.029909285
-0.19246966 -0.04939348 -0.01756465 0.051130723 0.14434797 -0.17155066 -0.23694253 0.120443024
-0.056204062 -0.18821934 0.327394 0.26164514 -0.06909859 -0.055219233 0.22546577 0.25470075
0.01844222 0.18376307

projection.layers.5.bias f4 [25]
00000000: 9acd 04be 66a4 d7bd b647 7ebd 9639 71be
00000010: 4fcf 0b3e 630f 2cbe 97c0 89be a455 73be
00000020: 97e7 6cbc 0f1e 793e b880 da3d 335d 2bbe
00000030: 01ce dd3d 54b0 a03d a8e8 c03d 807a 2c3d
00000040: 80b6 df3d ec21 ff3d 3802 c9bd b922 e2bb
00000050: 28b7 2e3e 701d 98be 819c 24be 6e35 c0bc
00000060: 6b61 803e
-0.12969056 -0.105294034 -0.062080108 -0.23557124 0.136533 -0.16802745 -0.26904747 -0.23763138
-0.014459512 0.24327873 0.106690824 -0.16734771 0.10830308 0.07846132 0.09419376 0.042109013
0.10923481 0.12457642 -0.09814876 -0.006901112 0.17062056 -0.2970996 -0.16075327 -0.023462977
0.25074324

projection.layers.6.weight f4 [4, 4]
00000000: 35ad c93e f24d acbe 9983 31be 75df 34be
00000010: 94fa 9abd c735 48be 993d 723e c417 e4be
00000020: bd92 1a3e dd4b 59be b780 b23e ba18 b53c
00000030: 5f4a 18be e0d7 00bf f78b 90bd 9f5d a23e
0.3938996 -0.33653218 -0.17335357 -0.17663367 -0.07567325 -0.19551764 0.2365631 -0.44549382
0.15095039 -0.21220346 0.34863827 0.022106517 -0.1487212 -0.503294 -0.07057946 0.31712052

projection.layers.6.bias f4 [4]
00000000: 251b d23d d3d4 d13e ea4d 8e3e 4275 a43e
0.10259084 0.40982684 0.2779382 0.3212071

projection.layers.7.weight f4 [10, 4]
00000000: 3082 bebe 0f42 b2be c888 a43d a704 8f3e
00000010: b40b c73e 81ee 7f3d 09df 73bd e993 303e
00000020: e50c 75be 84d6 a0be fd73 bc3e cd99 833e
00000030: 78bb 99be 2eaf 35be ba77 cebe d3b7 ca3e
00000040: 959d d4be 65c2 abbe 0099 f03c e76d e2bd
00000050: c503 cebe dd18 943d 9bf0 12be e75c 973c
00000060: 512b f73e 03fe ab3e 717d aabd 1e84 cfbe
00000070: 8a71 acbe 29be 983e 9afe 033e 953c 8dbd
00000080: e0be 23be 7829 14bd 5e21 ff3e 9ebb 073f
00000090: 6e77 6b3e e95c c03c 18d1 923e 3ad4 debe
-0.372087 -0.34816024 0.080339015 0.27933237 0.38876116 0.062483314 -0.059538875 0.17243923
-0.239307 -0.31413662 0.36807242 0.25703278 -0.3002584 -0.17742607 -0.4032572 0.39593372
-0.41526476 -0.3354675 0.029369831 -0.110561185 -0.4023725 0.07231305 -0.14349596 0.018476916
0.48275235 0.33592233 -0.08324707 -0.40530485 -0.33680373 0.2983258 0.12890092 -0.06896321
-0.15990782 -0.03617236 0.49830145 0.53020656 0.22994778 0.023481803 0.2867515 -0.4352129

projection.layers.7.bias f4 [10]
00000000: 8a76 ecbd a460 66be 39b5 77be 57fc a83e
00000010: f2b5 efbe 85a0 7d3e 9b1d ebbd 46a7 d43d
00000020: cc66 b8be 3d4f 83bd
-0.11546047 -0.22497803 -0.24190225 0.3300502 -0.468185 0.24768265 -0.11480256 0.103834674
-0.36015928 -0.06411598

projection.layers.8.weight f4 [25, 10]
00000000: 18f0 453d fc53 95bd 00a0 dd3d 3c8c 2abe
00000010: c6d8 713e d645 763e ded3 1e3e 58d8 cfbd
00000020: 9e99 f0bd 3451 243e cb7b 3bbe 0341 573e
00000030: 0159 a43e 3b30 303e 1e18 52be 8045 60bd
00000040: 7ece 07be d82b 5c3e c45e 54be 9cdf 583e
00000050: cc65 cc3d 20c2 3d3e bbc1 06be e20a d9bd
00000060: 30b2 9e3e 4f23 32bd 85c9 033e cb05 96be
00000070: 7e95 abbd 1fbf 0e3d 825e ec3d 777e a5bd
00000080: d89d debd 928c 80be e263 723e 80eb 9ebe
00000090: bfdf 42be 8eab 963d 1c90 63be b752 3ebd
000000a0: 378e 5bbe 40db 50bd 3825 67bd 5a48 c4bd
000000b0: 6427 d53d 0a54 84be a060 9d3c 94e4 9e3d
000000c0: ec52 e13d 489f 66be e848 25be 93a8 ae3d
000000d0: 7cff 36be acca 8a3e f047 713e a2cd 343e
000000e0: 2cda 0b3d 0bca 16be cf0e 3abe cbb4 3ebe
000000f0: efc1 9ebd 9f1c 4fbe 364c 403e 3ff1 853e
00000100: c958 023e 9654 edbc aabc 393e 4b79 1bbe
00000110: bb07 043e cad1 503e d611 513e 005d 6cbe
00000120: 1171 af3e e36f 0cbd 0872 ee3b d56b 1cbe
00000130: 2c0e 70be a905 0f3e 1ed0 46be 477f 36be
00000140: 630d 81be 98b1 21bd 6495 a33d c407 103e
00000150: 10f8 49bd faec 3e3e 509b 4a3d 2689 55be
00000160: 1273 613e e2fa a4bd 8c17 a4bd 2ffe f1bd
00000170: 6a34 0d3e 8c5a d3bd bc83 193d 8a84 8d3d
00000180: 2114 12be 3092 09bd dca6 f73d 739b d43c
00000190: ed27 3f3e 872d 973e 5fbe 34bd c210 5e3e
000001a0: 4f50 c7bd 06a4 103d 981f a03d de2a 39be
000001b0: 9ff7 4abd 78ca 8ebd e198 afbd 9894 0abe
000001c0: 24bf 45bd a6f2 debc 3506 533e 6adf 51bc
000001d0: 49e2 64be 08bd 233d 570c 4bbe fa84 f43d
000001e0: e597 433e 3a3f 75be 6a81 52be 9dbd 8fbe
000001f0: 114e 343e 270b adbe 69c5 b13c 59e2 67bb
00000200: 425c 14be 8c1f 67be 5931 023e e681 3d3e
00000210: 47f6 213d ba06 6a3b 88b4 7ebe 7d01 d5bd
00000220: 1954 083e bea9 febd 8d8b 8fbe b2d5 a2ba
00000230: cc8b 31be d787 183e b7b7 98be 9955 41be
00000240: 4856 003e 13c0 303e 6987 283e 8b9b 4c3e
00000250: 256d 5fbe e7d9 93be b5be f23d b261 6e3d
00000260: c81d 1abe 40f3 913e 7002 72be a305 b4bd
00000270: 51a8 dfbd 4286 8a3e f064 003e ea77 973e
00000280: 2bcd 1dbe f0b0 7cbe 015f 2fbe dba6 12be
00000290: 0e98 483e a251 9cbd f881 51bd ac96 9a3d
000002a0: 0032 613b d4c6 273e 48c6 4ebe 9be0 f1bd
000002b0: 4023 4a3e 2341 56be 45c2 283e a478 003d
000002c0: 0130 46be 0f9e 81be cbc0 b43d 6c30 69be
000002d0: 8638 583e 969b 563e d4bc bf3d 4890 09bd
000002e0: e812 753d 621c e2bd aa04 3d3e e2ee 4bbe
000002f0: 6f9a 2abe 9857 083d d50a c93c f337 33be
00000300: 06f8 00be 01c9 003e 81a0 aa3d 793f a9be
00000310: a78a 5fbe fd31 97be d6c4 ae3d 6836 793e
00000320: 5865 283d a0ab 043e cfd8 9b3e 4ed3 79be
00000330: b672 69be 3e01 8dbd c422 1cbe 6289 75be
00000340: 0fe8 a13e 7961 a03e 1bf2 18be 8a81 f13c
00000350: 411b 223e 39c9 3cbe fe90 0a3e 0c5d 983b
00000360: 12ea 0ebe 6488 82be 0369 1dbd b0b3 3abd
00000370: 8573 61bd 8785 06be 082c 6dbe 0240 733e
00000380: d263 babd f5b1 5e3e 10bc 123e d689 4ebe
00000390: 1ca1 8d3e c10f 3a3e 4405 20be e67d a6bc
000003a0: 7006 b03c dca8 713e 3795 c03e 3220 b8be
000003b0: ae5b ba3e 627b 42be 31d4 263e 42c8 cf3c
000003c0: 421e c1bd a840 d3bd 4063 f2bc 285d 893d
000003d0: 60fc 693d 20ab 583c d043 893c 699c 22be
000003e0: 7ad2 77be b4c7 2d3e
0.048324674 -0.072914094 0.10821533 -0.16655058 0.23617849 0.24050078 0.15510508 -0.10148686
-0.1174805 0.16046602 -0.18308942 0.21020894 0.32099155 0.17205898 -0.20517012 -0.05475378
-0.13262364 0.215011 -0.20739275 0.2117905 0.09980354 0.18531084 -0.1315984 -0.10597779
0.3099532 -0.043490704 0.12869842 -0.29301295 -0.08378123 0.034850236 0.115414634 -0.08080762
-0.1086995 -0.25107247 0.23670915 -0.31039047 -0.19030665 0.0735694 -0.22222942 -0.0464656
-0.2144097 -0.050990343 -0.05643198 -0.095841125 0.10407904 -0.25845367 0.019211113 0.077584416
0.11002144 -0.22521698 -0.16141093 0.08528247 -0.17870897 0.2710775 0.23562598 0.17656568
0.03414361 -0.14725511 -0.18169712 -0.18623655 -0.07751834 -0.20225762 0.18779072 0.2616062
0.12729181 -0.028970998 0.18138376 -0.15182988 0.12893574 0.20392528 0.2041696 -0.23082352
0.3426595 -0.03428639 0.007276777 -0.1527551 -0.23442906 0.13967003 -0.19415328 -0.1782199
-0.25205526 -0.039476007 0.079874784 0.14065462 -0.049308836 0.18645087 0.049464524 -0.20853099
0.22016552 -0.080556646 -0.08012304 -0.1181606 0.13789526 -0.10320005 0.037479147 0.069100454
-0.14265491 -0.03358668 0.12092373 0.02595303 0.18667574 0.29526922 -0.044126865 0.2168608
-0.097321145 0.035312675 0.07818526 -0.18082759 -0.049552556 -0.069722116 -0.08574081 -0.13533247
-0.04827799 -0.027215313 0.20607837 -0.012809614 -0.22351946 0.039975196 -0.19828926 0.11939426
0.19100912 -0.239499 -0.2055718 -0.2807435 0.17607905 -0.3379757 0.021700578 -0.0035382716
-0.14488319 -0.22570628 0.12714137 0.18506584 0.03954151 0.0035709576 -0.24873555 -0.104006745
0.1331333 -0.124347195 -0.28036156 -0.0012423305 -0.17338485 0.14895569 -0.29827663 -0.18880309
0.12532914 0.1726077 0.16457905 0.1998121 -0.21818979 -0.28877184 0.11852781 0.05819864
-0.15050423 0.28505898 -0.23633742 -0.087901376 -0.10920776 0.27055556 0.12538505 0.29583675
-0.15410297 -0.24676871 -0.17126085 -0.14321463 0.19589254 -0.07632758 -0.05114934 0.0754827
0.0034362078 0.1638444 -0.20192826 -0.11810418 0.1974001 -0.20923285 0.16480358 0.031365052
-0.1935425 -0.25315902 0.08825835 -0.22772378 0.21115312 0.20957789 0.09362188 -0.033584863
0.059832484 -0.1104057 0.1845881 -0.19915345 -0.16660474 0.03328666 0.024541298 -0.17501812
-0.12594613 0.12576677 0.08331395 -0.33056238 -0.21830235 -0.29530326 0.08533637 0.2433716
0.041112274 0.12956095 0.3043885 -0.24397013 -0.22797665 -0.068850026 -0.15247637 -0.23978189
0.3162236 0.31324366 -0.14936106 0.029480714 0.15830709 -0.18436135 0.13531873 0.004649764
-0.13956478 -0.25494683 -0.038430225 -0.04558152 -0.05504181 -0.13136874 -0.23161328 0.23754886
-0.091010705 0.21747573 0.14329553 -0.20169768 0.2766198 0.18170072 -0.15627009 -0.020323705
0.021487445 0.23599571 0.37613842 -0.35962063 0.3639807 -0.1899238 0.16291882 0.025364045
-0.09429599 -0.103150666 -0.029588342 0.06707221 0.05712545 0.013224393 0.016755968 -0.15879978
-0.24201384 0.16970712

projection.layers.8.bias f4 [25]
00000000: 5056 fbbc ef8d 62be 60fe 393e ac07 113d
00000010: 10c2 cbbd 66eb 6dbe c92e 2cbd 6f09 9abe
00000020: 3a79 77be 510a 153e dff3 12be db8c ed3d
00000030: 16cb 873b a0d1 58be 5b7b 5abe 801e aebe
00000040: 7435 66be 7e91 5ebd 0837 71be 87a5 133c
00000050: 3dd9 98be 9b74 513e 2ab6 47be 6056 413e
00000060: 4bc4 28be
-0.030680805 -0.22124456 0.18163443 0.035407707 -0.09949124 -0.23234329 -0.042036805 -0.30085322
-0.24167338 0.14554717 -0.14350842 0.11599132 0.004144083 -0.21173716 -0.21336119 -0.34007645
-0.22481328 -0.05433797 -0.23556149 0.009011633 -0.2985324 0.20454638 -0.19503084 0.18880606
-0.1648113

projection.layers.9.weight f4 [4, 4]
00000000: aa64 7dbe 2def d93e 03f5 2bbe 7bf2 72be
00000010: 03c1 9dbe 7c34 7fbe 8998 f3be 4adc 1d3e
00000020: f42e a33d 73a7 a1be 6937 41be bbb4 1c3d
00000030: d332 f53d d6df 98be d097 8dbe 1c57 ce3d
-0.24745432 0.4256529 -0.16792683 -0.23725311 -0.3081132 -0.24922365 -0.47577313 0.15416065
0.0796794 -0.31573066 -0.18868794 0.038258296 0.119725846 -0.29858273 -0.27654886 0.100752085

projection.layers.9.bias f4 [4]
00000000: bc5a 143e a73b 373e 6c16 cfb9 e22b c83b
0.14487737 0.1789385 -0.00039498822 0.006108747

projection.layers.10.weight f4 [10, 4]
00000000: dfef 9b3e 6990 da3e 1eed 86be c401 0a3f
00000010: f176 253e 5014 97be 7b72 b9be 4ce4 943e
00000020: 8c9b 48bd 62f9 d7be 88ea d7bd f261 e3be
00000030: 8268 ce3e 4570 2d3e 4868 8abe 9871 9ebe
00000040: 453e a73e b70d 8e3e 0a43 2f3e bab3 aabe
00000050: 535e 62ba d0ae e73e 050a 86bd 3cf3 303e
00000060: 74cb 6d3d 7f20 9a3e af3b 613e b431 93bd
00000070: f115 903c 921b bd3d abf2 18be 08f3 17be
00000080: b01d 0b3f 8bc2 89be 79f0 653e 3adc ae3e
00000090: c4f7 6b3d 85f8 03bd a911 2e3e 7afb 033e
0.30456445 0.426883 -0.2635278 0.53908944 0.16158654 -0.29507685 -0.36220154 0.29080427
-0.048976466 -0.4218245 -0.1054278 -0.44410664 0.40314108 0.16937359 -0.27032685 -0.3094604
0.32664695 0.2774484 0.17115417 -0.33340245 -0.0008635271 0.4525056 -0.0654488 0.17280287
0.058055356 0.30102918 0.21995424 -0.071872145 0.017588587 0.09233774 -0.1493632 -0.14838803
0.54342175 -0.26906237 0.22455014 0.34152395 0.057609335 -0.03221943 0.16998924 0.128889

projection.layers.10.bias f4 [10]
00000000: 8d05 1cbe 1ded c73b 4813 a03e 25ef cd3c
00000010: 47ec a7be 5631 b63e 0ff0 00be 9ef8 93bd
00000020: 5580 4cbd abc6 9a3e
-0.15236492 0.006101264 0.3126471 0.025138447 -0.32797453 0.35584515 -0.12591575 -0.07225154
-0.049927074 0.30229697

projection.layers.11.weight f4 [25, 10]
00000000: 780e a6be 1bfc 933e 4aa8 923e 388d 8a3e
00000010: 2886 0b3e 7a43 d5bd 7c0a 8ebe b725 4e3e
00000020: c730 9f3d aaba 963e 2698 183e 74d4 003e
00000030: a028 0fbc f262 03be 2c27 b33d 4a6c d1bd
00000040: 06c5 edbd 5ebe 2fbe c09b 9c3b 145d 3cbe
00000050: e3a9 593e be17 01be 312d 263d 75b7 c3bd
00000060: 2967 693d 81c6 85be 404c a03e 9a6b b03e
00000070: 2280 803e c4cc 6ebe 92e1 88be 1877 843d
00000080: 9867 86bd 7611 683e bfc7 893e e501 913e
00000090: 0c19 273e 78cd d23d f099 873d 06e7 bebd
000000a0: 0fea 02be 82e2 173e 0a15 45be 7273 34be
000000b0: 3b2d e7bd 30be 9bbe 464b ac3e a9dc 2cbe
000000c0: 7f16 563c 5214 93be 37ef 463e 1f4b 873d
000000d0: 120c 2abd fd9b a3bd 616f 4e3e 5d43 1cbe
000000e0: 5235 0f3d 9cbd babd 5f3c 17be c12d a83d
000000f0: d590 703e fbd5 6abe d8c3 fcbd c9cb 94be
00000100: 21a0 a43e c511 503e 291f 673e b339 f0bd
00000110: a15f cdbd 8afc a7be 1ffa 0dbd 5ec7 3a3c
00000120: 3596 18be 2f11 35be ac75 073e f379 c3be
00000130: 6458 b3bd 4249 2fbe afbe 42bd 650a afbe
00000140: 5806 18be 6185 0cbe 165a 9abc 4d6a 99be
00000150: 98f4 983e b21d b1be 302a 4abe f3f9 d5bd
00000160: bf78 34be 191e 3f3e 0c3f d4bc a433 34be
00000170: c28a 3ebe 3087 0d3e 3750 823e d128 b5be
00000180: d7fa af3e 348b 603e 1aa8 e8bd ee63 973c
00000190: e417 3ebe 51da f5bd c643 823e 01f7 053e
000001a0: 0338 2abe fb89 723e 6900 5d3e bd63 893e
000001b0: 56bb f13c 5627 9f3d 3b89 39be 73ee 9a3e
000001c0: bc7d 67be 08be 9bbe 46b1 7f3e b85a dbbd
000001d0: 0477 0a3e 80bb ecbc fe7e ecbd 225e 2f3e
000001e0: 80a7 163e 1f69 8dbe 0bd5 42be 6924 1c3e
000001f0: e921 39be 3376 753e c124 893e ac64 233e
00000200: dd5b 37be 599f 94be fd74 8d3e e0e0 dc3c
00000210: ed79 4ebe d62c fabd ec34 e93d 22c4 93bd
00000220: 9849 0a3d 2bcb 9bbe 8408 93be fac6 53be
00000230: 918a 6e3e 2866 65be eff5 443d 3137 16be
00000240: 9683 9a3d d037 a2be 32c9 a13e e138 333e
00000250: abc9 873e cae3 7f3b 7564 723e f3e7 64be
00000260: 4dca 9bbe 5d75 583e 886b 6a3c 0c69 053e
00000270: 67f2 703e c90b 673e 9967 293e 3273 9dbe
00000280: fcda 9c3e 8db8 d73d 7d5a 233e a3f6 8b3c
00000290: 1808 803c 058c 7abe 8792 ff3b 4a93 a93e
000002a0: cae8 8e3e 62e9 a5bd ce81 6e3e f455 9ebd
000002b0: b913 9d3e f8d2 6fbe 2e1a 5d3e bbce 32be
000002c0: e8e9 e23d f01c 803c 4efc 5b3e e0f1 48bd
000002d0: a097 d5bd 3a2d 91be 9f33 b5be 7d8c 883e
000002e0: d65b 32bc b79f 5dbe 4d51 0c3e 5b70 c53e
000002f0: 8b2f 763d afa3 223e 74ba e53d 0ff4 29be
00000300: 6a87 11be 7889 7d3d 636b 97be 3aae f5bd
00000310: 6626 cdbd 40dc 9e3c 67e4 93be 75e4 01be
00000320: c2ab 19be c90f 14be c081 313e f582 76be
00000330: 4492 cf3d e753 5b3e 835c 87be 781d 19be
00000340: db17 88be ee46 4cbd 1f06 2cbe 0789 053e
00000350: e68d 99be 5d0d 363e 8118 1b3e 4537 573e
00000360: ddb4 873e 6051 82bd 8940 573e 19e3 c8be
00000370: 5788 503e 065c 883d 79ac 43be 2d97 ccbd
00000380: 655d 7ebe be5c f63d 7d8c 7abe 8d39 ac3e
00000390: 049c 28be 43ad cf3d 6657 573e d2ac 28be
000003a0: a8ff a93d b44f f0bd f8d6 cf3d c0b3 b93b
000003b0: 2025 55bd ba03 7a3e dcd0 b53d 12a1 433e
000003c0: f705 13bd c6db 563e 3cfb 15be 6d51 a3bd
000003d0: b2e7 583d 5d15 97be afa1 0d3e 1a6a 00be
000003e0: 41ce fabd dd45 3fbe
-0.32432914 0.2890328 0.2864402 0.27060866 0.13625395 -0.10413261 -0.27742374 0.20131575
0.077729754 0.29439288 0.1490179 0.12581044 -0.008737713 -0.12830713 0.08747706 -0.102257326
-0.11609845 -0.17162463 0.004779309 -0.18394881 0.21256213 -0.12606713 0.04057044 -0.09556476
0.056983147 -0.2612801 0.31308174 0.34457093 0.25097758 -0.233203 -0.26734596 0.06468028
-0.06562728 0.22662911 0.26910207 0.28321758 0.16318148 0.10293096 0.06621158 -0.09321408
-0.12784599 0.148325 -0.19246307 -0.17622164 -0.11287924 -0.3041854 0.3365118 -0.1688105
0.013066887 -0.2872644 0.1942719 0.06606125 -0.041515417 -0.07988737 0.20159675 -0.15260072
0.03496296 -0.09118196 -0.14769123 0.08211852 0.23492749 -0.2293319 -0.12342042 -0.29061726
0.3215342 0.20319279 0.2257048 -0.11729755 -0.100280054 -0.3280986 -0.034662362 0.011400072
-0.1490105 -0.17682336 0.13228482 -0.38178977 -0.087570935 -0.1711779 -0.04754513 -0.34187618
-0.1484617 -0.13722755 -0.018841784 -0.29963914 0.2987411 -0.34592968 -0.19742656 -0.10448065
-0.17624186 0.18663825 -0.02590897 -0.17597824 -0.1860762 0.13821101 0.25451824 -0.35382703
0.34371063 0.21928102 -0.11360188 0.018480267 -0.18563801 -0.12004531 0.25442332 0.13082506
-0.1662293 0.23685448 0.21582188 0.26833907 0.029508274 0.077711746 -0.18118756 0.30260047
-0.22606558 -0.3041842 0.24969968 -0.107106626 0.13521963 -0.028898 -0.11547659 0.17125753
0.14712334 -0.27619264 -0.19026582 0.15248264 -0.18079342 0.2397087 0.26785854 0.15956372
-0.17906137 -0.29027823 0.27628317 0.026962698 -0.20163698 -0.12215583 0.11387047 -0.07215144
0.03376159 -0.30428442 -0.28717434 -0.20681372 0.23295046 -0.22402251 0.048086103 -0.14669491
0.07544629 -0.31683207 0.31598812 0.17502166 0.26521048 0.0039045685 0.23671134 -0.22354107
-0.3042778 0.2113852 0.014307864 0.13028353 0.23529969 0.2256309 0.16543426 -0.3075195
0.30635822 0.10533247 0.15952487 0.017085379 0.01562886 -0.24467476 0.00779945 0.33120185
0.2791198 -0.08101155 0.23291704 -0.07731238 0.3067911 -0.23420322 0.21592018 -0.17461674
0.1107977 0.015638798 0.21482965 -0.049058795 -0.10429311 -0.28354818 -0.35390946 0.26669684
-0.010886153 -0.21642958 0.13702889 0.38562283 0.060103934 0.15882753 0.11217204 -0.16597007
-0.14211813 0.06189868 -0.29574117 -0.11996122 -0.100170895 0.019392133 -0.28885195 -0.12684806
-0.15006927 -0.14459147 0.17334652 -0.24073394 0.1013532 0.21418725 -0.26437768 -0.14952648
-0.265807 -0.04987233 -0.1679921 0.13040553 -0.29991072 0.17778535 0.15146066 0.21017177
0.26505175 -0.06363177 0.21020712 -0.39235762 0.2036451 0.06658177 -0.19108762 -0.09989772
-0.24840315 0.12029408 -0.24467655 0.33637658 -0.16465765 0.10140469 0.21029434 -0.16472176
0.08300716 -0.11733952 0.10148424 0.00566718 -0.05203736 0.24415484 0.088777274 0.19104412
-0.03589436 0.20982274 -0.1464662 -0.07974515 0.052955337 -0.29508486 0.13831209 -0.12540475
-0.12246371 -0.18678994

projection.layers.11.bias f4 [25]
00000000: d9f9 d5bd 1ab1 32be a838 283e 67cf 96be
00000010: c1df 383e cdde a23d cf75 793e b95f 513e
00000020: 22b8 013e 31ee 333e 59ca efbd d40f 34be
00000030: 85fe 2abe 9e38 9dbd ed16 ac3d 957c 03be
00000040: ef5d 383e 33c5 0bbe 119c 463e 54c1 10be
00000050: 69ee 7ebe 434e 633e 4e43 83be 30c6 72bd
00000060: 3bfd f43d
-0.10448045 -0.17450371 0.16427863 -0.2945511 0.18054105 0.07952652 0.24361347 0.20446672
0.12667897 0.17571332 -0.11708517 -0.17584163 -0.16698654 -0.076768145 0.0840281 -0.12840493
0.18004583 -0.13649444 0.19395472 -0.14136249 -0.24895634 0.22197823 -0.25637287 -0.059271038
0.119623624

projection.layers.12.weight f4 [4, 4]
00000000: 7cda b9be 027e 903d 03bb 9b3e c5ef c7be
00000010: d351 d5be eacf 7fbe a92f 8b3e 8598 b0be
00000020: 3fc1 e63e 3547 63be 4c6d dc3e edd3 8b3d
00000030: 3f97 a13e 32a4 72be b902 49be e1bd a2be
-0.36299503 0.07055284 0.30416116 -0.39050117 -0.4166399 -0.24981657 0.271848 -0.34491363
0.4506931 -0.22195132 0.43052137 0.06827531 0.31560704 -0.23695448 -0.19629945 -0.3178549

projection.layers.12.bias f4 [4]
00000000: c6f8 ac3e 7d03 683e 1b41 f0be c336 683e
0.3378355 0.2265758 -0.46924672 0.2267714

projection.layers.13.weight f4 [10, 4]
00000000: a23c 21be 5dbc ce3d 40ca 90be 0258 4f3e
00000010: 2df2 f0bd 6ccf 2a3d a30b b3be 3734 273c
00000020: 23ce ed3e 4742 fcbd bcc6 ab3e eab7 c03e
00000030: 14e1 d6be 6c24 363c df61 02bd b6c7 9f3e
00000040: 0dac 39be ee81 c0be 9eea b8be 130b 85be
00000050: d76a 8d3e 2315 96bd 4769 cb3d 835e 66be
00000060: 6e69 133b fb22 3dbd cabb 603d 70f4 abbe
00000070: d285 c1bb b5bf 0d3f 0127 993e 08ce 8b3e
00000080: 8d02 d53e a4ef eb3d 6f25 de3e d4ff 623e
00000090: 9c17 67be 2151 3d3e ffa5 cf3e 8844 ad3b
-0.15745786 0.10094521 -0.28279305 0.20248416 -0.11764941 0.04170172 -0.34969816 0.01020532
0.46446332 -0.12317329 0.3355006 0.37640315 -0.41968596 0.011117082 -0.03183162 0.31207055
-0.18132038 -0.37599128 -0.361165 -0.2598501 0.27620575 -0.0732825 0.099321894 -0.22496991
0.002249326 -0.046175938 0.05486659 -0.3358493 -0.005905845 0.55370647 0.2991257 0.27305627
0.4160351 0.11520317 0.43387935 0.22167903 -0.225676 0.1848798 0.40556332 0.0052877106

projection.layers.13.bias f4 [10]
00000000: 06eb f83d 9bc3 e63d 40cb 003d 9d3d 173e
00000010: 4f01 ac3e a0c7 ebbe e3ab a8be df3f b53d
00000020: aa37 fdbd c0dd f23d
0.12154202 0.112677775 0.031443834 0.14769597 0.33594748 -0.4605074 -0.3294364 0.08850073
-0.12364133 0.11858702

projection.layers.14.weight f4 [25, 10]
00000000: 84ae 74be 066b 56be 0746 cdbd 2289 b33d
00000010: 115f 9d3d 2467 e23e 974e 643e 7f76 643e
00000020: 8f7d 03be adaf 3c3e b377 0e3e e7c4 c2bd
00000030: 208c 0a3c 73c4 183c 5395 b9be 0a3a 27bd
00000040: a869 12be a101 073e 0692 09bd 3b49 69be
00000050: 3b84 9bbd 7f74 50be fb7b a33d 6b0c 67be
00000060: 6102 1cbe 531f 4a3d 1769 163e aa1f 933e
00000070: dca0 183e d5c7 cc3d d598 983c 0576 533e
00000080: 3037 433e 0681 2b3e 385d 8dbe 86f6 563e
00000090: 0d10 723e ee5b 7abe 4032 bcbd af80 a8bd
000000a0: 01f0 b03d 08fe 52bd 0941 65bd 031e 673e
000000b0: 7011 a2be b30b 11be a997 23bd bebb 5b3d
000000c0: aa18 43be 8ff0 0fbc d528 bcbe 84ea bcbd
000000d0: 7218 683d c207 02bd 25a5 16be b8aa 72be
000000e0: bc08 47be 9a29 05be b751 55be b5a6 16bd
000000f0: c2ee 9fbd 4ade 863d 4cf3 15bc fa28 45be
00000100: c1d1 95be 7414 8e3e 33cc c53b 31f1 5abe
00000110: 63a2 333e acda 88be 34ed 35bc 7fe1 283e
00000120: 5491 c6bd 87da 533e 3acb 71be ed05 70bc
00000130: 074e 593e facc 173d 3366 47be 1c01 adbd
00000140: d809 14bd a3fa 1a3d a85c 0cbe 6e29 58be
00000150: d3ae 293e 90fd 25be 759e 0f3e 95be cfbd
00000160: 594a 913e 42e9 843d 53ee 61be f23d 8e3c
00000170: fa96 acbd 3f5d 873e f2e2 3e3e 54e6 9ebe
00000180: 8fb4 903e 0e08 383d cb51 063d bfa4 1dbe
00000190: 1452 69be 00aa bf3d ba91 be3d c06e 2e3e
000001a0: dd4e b1be d99b 0b3e c690 e73d f126 c4bd
000001b0: c71d 603d 4ca7 573e 7c1b bdbd ac67 8b3d
000001c0: 587a 26be b7da 98be 6f3d 0abe f39e 8e3e
000001d0: f382 9b3e 3021 263e 1385 13be 6653 6b3e
000001e0: 4fcd a7be 17ee 793e f7ac 813e 522e 233e
000001f0: 888c 313e cd8a 233c 8252 19bd 9e10 8ebe
00000200: 7a59 3e3e 474f 723e 8078 9c3c 261d 2c3e
00000210: 5804 73bd b03b 60be 6c72 d03d 80fa 96bb
00000220: 82b7 633e acc9 0f3e 3e77 3f3e 007b c03a
00000230: 2649 92be f5f8 39be 713e 48bd c8fe de3d
00000240: ff84 66be d7c8 873e b0aa 94be e7af 7c3e
00000250: 3a02 2ebe c039 963e 3c0f 27be a526 9d3e
00000260: 399f 87be 446b 913d ad8e a03e 7904 9b3e
00000270: bf96 8e3e fa23 3d3e 589e 93bd 9250 193e
00000280: 8915 8dbe 86fd a6bd f817 083e 25e1 21be
00000290: cb50 853e cef8 793e 07e5 89be e863 5c3d
000002a0: 4079 5e3c 0096 423b 3286 cdbd 47dd 2abe
000002b0: 265d 83be 6b04 24be 00ee 1ebb b05d 14bd
000002c0: 086c 523d c072 b03c 53ff 8f3e c00b c6bd
000002d0: 2c27 1e3e 3fac f63d 2f0b 1f3c 6ab4 ad3d
000002e0: ab72 b83d b4e2 773d 8e2c debd 5980 08be
000002f0: 414c 77be bfd9 f23d 43a4 50be 47bc 92be
00000300: 1c18 76be 224a cf3d f099 093e dad6 353e
00000310: 8681 f73d 8d22 b439 ebe5 edbd 34d6 b2bd
00000320: cdf0 133e 5e50 d33b fc6e a0be 8b5e 2a3e
00000330: 6073 163e d52b 493e a89e f73d c292 da3d
00000340: ff39 d93e f8c2 b9bc e197 a7be a470 eebe
00000350: 3c50 0b3c 04e5 b9bc c295 90be 1733 353e
00000360: 5734 13be d703 d8bd 715b 23be 260e d63d
00000370: 7412 8d3b 5edd 873d 0a88 0ebe 9ca8 aabc
00000380: 2d15 323e 91fb a8bc e8cf 583e b6ab b33c
00000390: 77ed 1dbd 1210 0cbe 99ab eebd 1d5d 31be
000003a0: abd2 0cbe a3a9 853d 91f4 283e f455 c13d
000003b0: 2718 21be e7a9 52be 5864 58bd 6a54 523e
000003c0: 127c db3c b49c 953b 2501 aa3e d029 7fbd
000003d0: fe0a 3ebd 7065 363e 9f8c 033e 51c8 11be
000003e0: d637 c0bd 3ab2 983e
-0.23894697 -0.20939264 -0.10023122 0.087663904 0.07684148 0.44219315 0.22295605 0.22310828
-0.12840866 0.1842639 0.13912849 -0.095102124 0.00845626 0.009324181 -0.36246738 -0.040826835
-0.14298117 0.13184215 -0.033586524 -0.22781841 -0.0759358 -0.2035694 0.07982632 -0.22563331
-0.15235282 0.04934628 0.14688526 0.28735095 0.14905113 0.099990524 0.018627563 0.2065049
0.19064021 0.16748437 -0.27610183 0.20992479 0.23638935 -0.24449131 -0.09189272 -0.082276694
0.08639527 -0.051511794 -0.055970225 0.22570042 -0.3165393 -0.14164619 -0.039939556 0.05364584
-0.19052377 -0.008785381 -0.36749902 -0.09224418 0.056663938 -0.03174568 -0.14711435 -0.23697937
-0.19436926 -0.13004151 -0.20831953 -0.036780078 -0.07809211 0.06585367 -0.009152245 -0.19253913
-0.29261592 0.2774998 0.0060363053 -0.2138107 0.17542414 -0.26729333 -0.011103917 0.1649227
-0.09695688 0.2068883 -0.23612681 -0.01464985 0.21221171 0.037060715 -0.1947258 -0.08447477
-0.0361422 0.037836682 -0.1370722 -0.21109554 0.16570596 -0.16210008 0.1402529 -0.101437725
0.28377035 0.06489803 -0.2206357 0.017363522 -0.08427234 0.2643833 0.1864126 -0.310351
0.28262755 0.044929557 0.032792848 -0.15394877 -0.22785217 0.09358597 0.09305139 0.17034435
-0.3463048 0.1363367 0.1130691 -0.0957774 0.054715898 0.21059912 -0.09233758 0.06806883
-0.16257608 -0.29854366 -0.13499998 0.27855644 0.30373344 0.16223598 -0.14406233 0.22981033
-0.32773826 0.2440723 0.25327274 0.15935639 0.17338765 0.009981823 -0.0374322 -0.27747053
0.1858882 0.23663054 0.019100428 0.16807994 -0.059330314 -0.21897769 0.10178074 -0.0046074986
0.22237971 0.14041775 0.18697831 0.0014685094 -0.28571433 -0.18161376 -0.048887674 0.108884394
-0.22511671 0.26520416 -0.29036474 0.24676476 -0.16993037 0.29340935 -0.16314405 0.30693546
-0.26488665 0.071005374 0.31358853 0.3027685 0.27849385 0.18470755 -0.07207936 0.14972141
-0.27555493 -0.081538245 0.13290393 -0.15808542 0.26038203 0.24411318 -0.26932546 0.053806216
0.013578713 0.0029691458 -0.10035361 -0.16685973 -0.25657004 -0.1601731 -0.0024250746 -0.03622216
0.051372558 0.021539092 0.28124484 -0.0967021 0.1544463 0.12044572 0.009707256 0.08481677
0.09006246 0.060518935 -0.10848342 -0.13330211 -0.24150182 0.11857938 -0.20375161 -0.2865927
-0.24032634 0.101215616 0.13437629 0.1775774 0.120852515 0.00034358018 -0.11616119 -0.08732262
0.14447327 0.0064487895 -0.31334674 0.16637628 0.1469245 0.19645627 0.12090808 0.10672523
0.4242706 -0.022675976 -0.32733062 -0.46570313 0.008503016 -0.022692211 -0.28239256 0.1769527
-0.14375435 -0.105476074 -0.15952851 0.10451917 0.0043051783 0.06634019 -0.13919082 -0.020832352
0.1739089 -0.020627769 0.2117306 0.021932464 -0.038556542 -0.13678005 -0.116538234 -0.17320676
-0.13752238 0.06526496 0.16499545 0.094402224 -0.1573187 -0.20572625 -0.05283007 0.20540014
0.02679256 0.0045657996 0.33203998 -0.062295735 -0.0463972 0.17812133 0.12846611 -0.14236571
-0.0938565 0.29823476

projection.layers.14.bias f4 [25]
00000000: d7e9 1d3e db07 cfbd 03af 5f3e 2334 5f3c
00000010: 074d 24be 1ce0 61be 1129 513e 9c11 a33c
00000020: a992 9dbd 3b0d 38be b304 283e ae18 6cbe
00000030: 3729 87be 0a4b 80be eb8c 11be deac 6ebe
00000040: edb2 95be 4096 eebd 4865 f03c 4ab6 483d
00000050: 495c 823d cc4d 6f3d cbb6 40be cdd0 febd
00000060: 03d6 733b
0.15421234 -0.1010892 0.21844105 0.01362327 -0.16045009 -0.22058147 0.20425822 0.019905858
-0.07693989 -0.17973797 0.16408043 -0.2305629 -0.26398632 -0.2505725 -0.14213912 -0.23308131
-0.29238072 -0.11649752 0.02934517 0.04900197 0.06365258 0.058423802 -0.1881973 -0.12442169
0.0037206418

projection.layers.15.weight f4 [4, 4]
00000000: 6214 8d3e c7f9 9cbe b950 4d3e 0b65 b2bc
00000010: 829c ad3e 83f2 863e 9015 a5be 11e4 69be
00000020: 541c 843d 1495 923d de58 e43e 67d2 c2bd
00000030: b20a b3bd 365f c0be 51ee a8bc 3468 c23d
0.27554613 -0.30659315 0.20050324 -0.021776697 0.33908468 0.26356897 -0.32243013 -0.22840907
0.06450716 0.07157341 0.4459905 -0.09512787 -0.08742274 -0.3757264 -0.02062145 0.094925314

projection.layers.15.bias f4 [4]
00000000: 39d8 003d 30a5 b43e f2d7 9d3e ac4a d5bd
0.031456206 0.35282278 0.30828816 -0.10414633

projection.layers.16.weight f4 [10, 4]
00000000: 634f 583d bd65 753d e662 aabe 4c0e d03e
00000010: 7dc9 a8be c69b 6a3e 623a c5be f480 113f
00000020: 00f5 d3bd 5cdc 2c3e 4abe 26be 54a9 fe3e
00000030: 6897 78be 7fdb 883c c0f2 b5be 1415 1b3d
00000040: 47e2 53be 8231 0b3e ab9b 953e 1e1e b5be
00000050: 8286 923e 1fc9 b23e c1d3 8d3e 5727 143f
00000060: 6d8e af3e 1236 963e 6749 663c 01c8 283e
00000070: 36a0 bdbe 59d2 5d3e 6f4c 58bd 7d6e 0bbe
00000080: 5444 0dbe 89ea cc3e 1b39 c33e 1616 6ebe
00000090: bee4 d7be 6b11 c33e 76ad 843e ed60 103f
0.052810084 0.05991148 -0.3327858 0.40635908 -0.32966223 0.22910985 -0.38521105 0.5683739
-0.103494644 0.16880935 -0.16283527 0.49738562 -0.24276507 0.016706226 -0.35536766 0.0378619
-0.20691787 0.13593104 0.29220328 -0.3537454 0.28618246 0.34919068 0.27700618 0.5787253
0.3428835 0.29338127 0.014055586 0.16482545 -0.37036294 0.21662273 -0.052807268 -0.13616367
-0.13795596 0.40022686 0.38129506 -0.23250613 -0.42166704 0.38099226 0.2591359 0.56397897

projection.layers.16.bias f4 [10]
00000000: 5a6e fd3d a9e5 4a3e 24c8 df3d 02bc 41bc
00000010: 55b9 d63d 63c1 a7be 757c afbc 405a 18bd
00000020: b809 b6be 414e 8a3e
0.123745635 0.19814171 0.10926846 -0.01182461 0.10484568 -0.3276473 -0.02142165 -0.037195444
-0.3555429 0.27012828

projection.layers.17.weight f4 [25, 10]
00000000: ca41 7f3e e808 f3bd 0835 853d 000c 90be
00000010: 25c1 8a3e f734 823e 1658 74be 47db 8c3e
00000020: 3069 463d 3eec 493e ca5e d9bd 55a1 b53d
00000030: ef97 713e e2ba a93e 94cb b33d ffd7 1fbc
00000040: 5d94 063e 04ea 583d 2d90 c53c b576 cabe
00000050: 5db8 bebc 9163 d2bb e957 393e 476f 17be
00000060: 09f5 263d 2fe6 53be f533 1bbd b90b 9dbd
00000070: 39f0 dfbd 95e9 0cbd 574f 0dbe 1869 59be
00000080: f015 63be 8e38 3d3e d213 3f3e 33d5 8b3e
00000090: e0a4 9abc 2728 903e a797 903e e012 89be
000000a0: 032b 08be 3d3e a63d 3020 2e3e b1c4 47be
000000b0: 102b ed3d be0f 413d 6725 6fbb 328b 19bd
000000c0: 98fd 473e 312c c53d 13da 88bd c330 41bd
000000d0: 243f 573e 4d55 96be d983 67be 9db8 67be
000000e0: 591a 71be 5334 bd3e 0c35 eebd 9e41 7cbe
000000f0: 17ad 813e 8bc1 843e 1e90 503e 0c88 853d
00000100: 0829 73bd ea3a 7a3e 6062 87be 5303 7fbe
00000110: 5196 9b3e 0013 26bd 7a21 a33e 48be 6d3e
00000120: d95d 0fbc 3658 9e3d c1b5 c53d f9d5 773e
00000130: 2991 0e3e 7d6c febd 0946 2dbe 3427 6b3d
00000140: 9729 903e 32fb 10be b87c ac3d 83c3 df3c
00000150: 1597 76be 045c bb3d 37f5 38be 4fac 03bc
00000160: fe1c 943e 6808 1fbe 918e 2abe d618 573e
00000170: e8a8 8abd 3056 3a3e 268e 9bbd b03f 59bd
00000180: ce34 7fbe f68a 6c3e d04e d7bc 3889 10be
00000190: 263a 05be 8a50 42be 58f4 80be 56ad 313e
000001a0: ffe3 7bbd d9a6 073e 7d36 24be e044 6e3e
000001b0: 0c6b 07be b13d adbc d6cf 1c3e fe00 07be
000001c0: 80e7 3a3d 9a7b 873e 42cb a9be a00b 3c3e
000001d0: d917 d33c 9f80 0fbe d8fb 723e 4826 3f3c
000001e0: afe5 303e cb8f 953e 11cb 94be d3f3 39be
000001f0: 4c2c 3d3e e194 a8bb 0e94 3cbe 76d2 c93c
00000200: ed30 25bd a4e2 8dbe d27c 2c3e 62ed 5ebe
00000210: fc8b dc3d 050b 563e aecb b5be f0f8 e9bc
00000220: 230d 98be c563 493e 680e 64be a1db e43c
00000230: 0a22 553e 3b34 8cbe 96f6 73be 88ac 063d
00000240: 56fb 443e 520a 5e3e 3c68 e43d ea4c 5e3e
00000250: efaf 873e 0000 ef3d 72a1 433e 50a4 e03c
00000260: acd2 d93d c922 63be be04 343e 6c89 333e
00000270: fa21 3d3e d8af 36be 903b ea3c ddb7 95be
00000280: 3ab8 03be 68de 173e 8dbf 07bd 584f 523b
00000290: 6097 683e c90c c8bd cdc6 48be e014 b0bc
000002a0: 92a7 89bd 730a e9bd c97d 753e 641e 563e
000002b0: 6504 92be 58ed 0d3e c19e 5ebe 2f8f 49be
000002c0: 6922 4ebe a2d7 5dbe 2936 7dbe 6bf8 443d
000002d0: c805 863d 7547 933e ec7f 44be d50a 983e
000002e0: 307b e23c b4f2 2f3e 943e 9c3d 97c6 9f3e
000002f0: 68c2 463d 0036 13bb 1191 8ebe 1e32 aa3d
00000300: c401 5dbd 47a2 a2be 8a04 a7be 354b 893e
00000310: ca63 a6bd 84fc a4be 07b7 023e bc2f 97bc
00000320: 0425 093e 588e b23d 1c0f 86be 187d 9cbd
00000330: 7553 0ebe 27eb 953e ead4 48be 7fd2 a13e
00000340: 7470 f13d c6ef 5e3e a400 493e 0751 72be
00000350: d7ca f5bd 9bdf 613e b3a0 bebe d839 3abd
00000360: 8369 873e f244 a9bd 42de 91bd 184a b63d
00000370: 7071 80be 80f5 96be 3b6a 1a3d e8e0 90be
00000380: fe13 9b3c 0368 b13d cc6c 23bd 5e27 693e
00000390: 6f80 373e 5f5d b73d a192 bebd 1466 ea3c
000003a0: 95bb f13d 2945 473e 2284 99be ca84 703e
000003b0: a787 723e 2756 823d e3d4 803e e8d4 893d
000003c0: cd0b 2f3e 3553 933e a36e 8dbe fbc7 05be
000003d0: d3b0 a63d 951d 773e d06d bd3d 6b24 fc3d
000003e0: 1370 03be 1234 4fbd
0.2492744 -0.11866933 0.065042555 -0.28134155 0.27100483 0.25431034 -0.23861727 0.27511045
0.04844016 0.19719025 -0.10613783 0.08868662 0.23593114 0.33150393 0.08779064 -0.009756087
0.13142534 0.05295755 0.0241166 -0.3954369 -0.02328127 -0.0064205606 0.18099941 -0.14788543
0.040761027 -0.20693277 -0.037891347 -0.076682515 -0.10934491 -0.03440245 -0.13799797 -0.21231496
-0.22176337 0.18478605 0.18659905 0.27311096 -0.018877447 0.28155634 0.28240702 -0.26772213
-0.13297658 0.0811734 0.17004466 -0.19508626 0.11580479 0.047134154 -0.00364908 -0.037486263
0.19530332 0.096275695 -0.06682219 -0.047165643 0.2102018 -0.29361954 -0.2260889 -0.22629018
-0.23545207 0.36953983 -0.11631212 -0.24634406 0.2532737 0.25928912 0.20367476 0.065200895
-0.059365302 0.24436536 -0.26442242 -0.24903612 0.3038812 -0.040545464 0.31861478 0.23217118
-0.008750402 0.07731669 0.096538074 0.24202718 0.13922562 -0.12423036 -0.16921248 0.057410434
0.2815673 -0.14158323 0.08422226 0.027314907 -0.2408107 0.0914841 -0.18062292 -0.008036687
0.2892837 -0.1553055 -0.16655947 0.21005568 -0.067704976 0.1819694 -0.07595472 -0.053039253
-0.24922487 0.23099884 -0.026282698 -0.14114845 -0.13010463 -0.18976036 -0.2518642 0.17351279
-0.06149673 0.13247241 -0.1603641 0.23268461 -0.13224429 -0.02114758 0.15313658 -0.13183972
0.04563093 0.26461488 -0.33162886 0.1836381 0.025768207 -0.14013909 0.23728883 0.011666842
0.17275117 0.29211268 -0.29061177 -0.18159418 0.18473929 -0.005144701 -0.18415853 0.024636488
-0.040329862 -0.27711976 0.1684449 -0.21770242 0.107688874 0.20902641 -0.35506958 -0.028561085
-0.29697523 0.19666965 -0.2227112 0.027936758 0.20813766 -0.273836 -0.23824534 0.032879382
0.19236502 0.21683624 0.11152694 0.21709028 0.26501414 0.11669922 0.19104555 0.0274221
0.106358856 -0.22181238 0.17579934 0.17532891 0.18469992 -0.17840517 0.028592855 -0.2924184
-0.12863246 0.14830935 -0.03314166 0.003209075 0.22713995 -0.097680636 -0.19607086 -0.021494329
-0.067214146 -0.11378946 0.23973764 0.2091003 -0.28518978 0.1386007 -0.21740247 -0.19683526
-0.20130314 -0.21664289 -0.24727692 0.048088472 0.065440714 0.28765455 -0.19189423 0.29695764
0.027646631 0.17182428 0.07629123 0.312062 0.048525244 -0.0022462606 -0.27845052 0.0831034
-0.053956762 -0.31764433 -0.3262065 0.2681519 -0.08124502 -0.32223904 0.12765132 -0.018455379
0.13393027 0.08718556 -0.26183403 -0.07641047 -0.13899024 0.2928097 -0.1961247 0.31605908
0.11789027 0.21771154 0.1962915 -0.23663722 -0.12001579 0.22057955 -0.3723198 -0.04546532
0.26447687 -0.082651034 -0.071224704 0.08900851 -0.25086546 -0.29484177 0.037698966 -0.2829659
0.018930431 0.08662417 -0.03989868 0.22768924 0.17920087 0.08953356 -0.09305311 0.028613128
0.118033566 0.19459976 -0.29983622 0.23488155 0.2368456 0.063640885 0.2516242 0.06730062
0.17094345 0.2877442 -0.27623472 -0.13064568 0.08139195 0.24132378 0.09249461 0.12311634
-0.12835722 -0.050586767

projection.layers.17.bias f4 [25]
00000000: a67e 70be adc1 c73d 713a dcbd 43e0 99be
00000010: a6f9 38be 5fdc b2bd 9473 3cbe fe5e f53d
00000020: e11e 123e 9d5a 03be 7c95 623e ffeb fd3d
00000030: 5715 8fbd 00c3 293e 8672 5bbe b291 10be
00000040: d31c bc3c cfb2 96be a9c0 83be f840 2c3e
00000050: 44ce 7cbe 3bda a03c d90f 383e 284b 5e3e
00000060: 08bd 243e
-0.23485813 0.097537376 -0.10753334 -0.3005391 -0.18063983 -0.08733439 -0.18403465 0.11981009
0.14269592 -0.12827535 0.22127336 0.12398528 -0.06986492 0.16578293 -0.21430406 -0.14118078
0.022962963 -0.29433295 -0.25732926 0.16821659 -0.24688059 0.01963531 0.17974795 0.21708357
0.16087735
