critic.pth (torch, 129318 bytes, 74 tensors)

projection.layers.0.weight f4 [4, 4]
0	0xbe242187	-0.16028415
1	0xbdfea771	-0.12434281
2	0xbef17cf9	-0.4716566
3	0x3eae5bd3	0.3405443
4	0x3db524a5	0.0884488
5	0x3e879ce6	0.26486892
6	0xbd9a47f7	-0.075332575
7	0x3d17a160	0.037019134
8	0xbcaaa7f3	-0.020832038
9	0xbe87ebd0	-0.26547098
10	0xbf021515	-0.5081342
11	0x3e7ad27c	0.24494356
12	0xbe57af4d	-0.21062966
13	0xbe9040bf	-0.28174397
14	0x3ed4a308	0.41530633
15	0xbe8b8e7b	-0.2725714

projection.layers.0.bias f4 [4]
0	0x3e691915	0.22763474
1	0x3e9fcc9f	0.312108
2	0xbdf75918	-0.1207754
3	0x3eea8643	0.4580556

projection.layers.1.weight f4 [10, 4]
0	0xbd55e601	-0.052221302
1	0x3e4ef7fb	0.20211785
2	0x3e8e9def	0.2785487
3	0xbe822559	-0.2541912
4	0x3edbcc65	0.42929378
5	0x3e983552	0.2972818
6	0x3d12c8b4	0.035835937
7	0x3e449737	0.19198309
8	0x3ef3db81	0.47628406
9	0xbe64c67d	-0.22341342
10	0xbe8e59f1	-0.27802995
11	0x3e705d7c	0.23473161
12	0x3f022ae0	0.5084667
13	0xbe479728	-0.19491255
14	0x3ea0cf11	0.3140798
15	0xbd1517c3	-0.036399614
16	0x3daa8aa5	0.083272256
17	0x3ef38185	0.47559753
18	0x3e56cc51	0.20976378
19	0x3e051fdc	0.13000435
20	0xbdea9fec	-0.11456284
21	0x3e6acb04	0.22929007
22	0xbebe6dde	-0.37193197
23	0xbef8d734	-0.48601687
24	0xbea80abc	-0.3282069
25	0xbe137ef8	-0.14403903
26	0xbe4fc13e	-0.2028856
27	0x3e02a2a4	0.12757355
28	0xbe8a9dbf	-0.27073476
29	0xbecb9eb2	-0.39769512
30	0xbe95434e	-0.29152912
31	0xbe7fdefe	-0.24987409
32	0x3eba4502	0.36380774
33	0xbd975eb0	-0.07391107
34	0xbba34223	-0.0049822493
35	0xbe51a1e1	-0.20471908
36	0x3e4dd3eb	0.20100372
37	0x3e33be9f	0.17553185
38	0x3e90902d	0.28234997
39	0xbde353e6	-0.11099987

projection.layers.1.bias f4 [10]
0	0x3e3fb655	0.18721898
1	0x3d587519	0.052846048
2	0xbd011b16	-0.03151997
3	0xba99159d	-0.0011679415
4	0xbddeeb23	-0.108846925
5	0x3ed62527	0.4182522
6	0xbec43947	-0.3832495
7	0x3eb464dd	0.35233203
8	0xbd2dad8f	-0.042401846
9	0xbee8a3e8	-0.4543755

projection.layers.2.weight f4 [25, 10]
0	0xbeb81680	-0.35954666
1	0xbe311913	-0.17294721
2	0xbdd634fc	-0.10459325
3	0x3e65e5c1	0.22450925
4	0x3d2a0601	0.041509632
5	0xbe4dfa43	-0.20114999
6	0x3e3eca40	0.1863184
7	0x3e1f4bc6	0.15556249
8	0xbd9cf0e8	-0.07663137
9	0xbe71479b	-0.23562472
10	0xbcaff9f2	-0.021481488
11	0x3e1bb2ff	0.15205
12	0x3cb06907	0.021534456
13	0x3da8c182	0.08240034
14	0x3e15330d	0.14570256
15	0x3d88e2b8	0.06683868
16	0x3dfede81	0.12444783
17	0x3ea2f7bd	0.31829634
18	0x3d8119f3	0.063037775
19	0xbddcfb98	-0.10790175
20	0x3cc1cef2	0.02365825
21	0x3e2235c8	0.15840828
22	0xbde05e2a	-0.1095546
23	0x3d6dd8f2	0.058068223
24	0xbd2f93af	-0.04286545
25	0x3e8ec68b	0.2788585
26	0x3e20f0de	0.15716884
27	0x3cff049d	0.03113013
28	0xbe87bd9f	-0.26511857
29	0x3e02a042	0.12756446
30	0x3e52f1a6	0.20599994
31	0x3ddc90db	0.107698165
32	0xbe69df0d	-0.22838993
33	0x3e57426c	0.21021432
34	0xbd61fc51	-0.05517227
35	0x3e73b3d6	0.2379907
36	0x3e65d800	0.22445679
37	0x3e806cf0	0.25083113
38	0xbe9d52e4	-0.30727303
39	0xbe74250c	-0.23842257
40	0x3e677598	0.22603452
41	0xbe631e42	-0.22179511
42	0xbdc83729	-0.09776146
43	0xbdbe2db3	-0.0928606
44	0xbc91adc5	-0.017783055
45	0x3e79ed54	0.2440694
46	0x3c95bfc6	0.018279921
47	0xbe998379	-0.29983118
48	0xbe668deb	-0.22515075
49	0xbe185873	-0.1487749
50	0xbdc24dde	-0.09487508
51	0x3b984852	0.004647293
52	0x3e1497cc	0.14511031
53	0x3e7ed1ec	0.24884766
54	0xbde0cc30	-0.10976446
55	0x3e5d2586	0.21596345
56	0xbe933605	-0.2875215
57	0xbe392ecd	-0.1808426
58	0x3ce48b21	0.027898373
59	0xbd0cda7a	-0.034388043
60	0xbe8a3bb0	-0.26998663
61	0xbe9bed64	-0.30454552
62	0xbe7cf6cd	-0.24703522
63	0xbe44349c	-0.19160694
64	0xbe1552e8	-0.14582407
65	0x3e8254a5	0.25455204
66	0x3dcbcd88	0.09951311
67	0x3dcfa1a8	0.10138255
68	0x3e47d8fe	0.1951637
69	0x3e0377c8	0.12838662
70	0x3e1bc89c	0.15213245
71	0x3da07574	0.078349024
72	0x3e870ec0	0.2637844
73	0x3ebe7805	0.37200943
74	0xbe0b1d41	-0.13585378
75	0x3e57c68f	0.21071838
76	0x3ea13351	0.31484464
77	0xbebeb977	-0.37250873
78	0x3d06c121	0.032899026
79	0xbe734c69	-0.23759617
80	0xbe7a1f69	-0.24426045
81	0xbdf903eb	-0.121589504
82	0xbe4d62b2	-0.2005718
83	0x3d3496ff	0.044089314
84	0xbc832da2	-0.01601297
85	0x3d0d7650	0.03453666
86	0x3e214b3f	0.1575136
87	0xbe8ab45a	-0.27090722
88	0xbdfdd3a5	-0.123938836
89	0x3df5f3f4	0.12009421
90	0xbdc211a2	-0.094760194
91	0xbe5927ce	-0.2120659
92	0x3e9edddd	0.31028643
93	0x3e9ab7ff	0.30218503
94	0xbd088608	-0.033330947
95	0x3d7e9aa8	0.06215921
96	0x3e5ab13e	0.21356675
97	0x3e6fb7e6	0.23409995
98	0x3d8b6804	0.06806949
99	0x3e0e219e	0.13880011
100	0xbe0599f4	-0.1304701
101	0x3c1f8563	0.009736392
102	0xbb89afb7	-0.004201855
103	0xbe615254	-0.22004062
104	0x3e610011	0.21972682
105	0xbe38c624	-0.18044335
106	0xbe83c067	-0.2573273
107	0xbe64b207	-0.22333537
108	0x3dd8a3c4	0.10578111
109	0x3e999668	0.29997563
110	0x3e244ec1	0.16045667
111	0xbe27ca79	-0.16385831
112	0x3e25278c	0.16128367
113	0x3e79ab19	0.24381675
114	0x3e5ff1c9	0.21869577
115	0x3d299025	0.041397233
116	0x3e2d08bb	0.16897862
117	0x3dd71f19	0.10503978
118	0xbd9c8247	-0.07642036
119	0x3d916a61	0.07100368
120	0x3e1b071f	0.15139435
121	0xbeaf6603	-0.34257516
122	0xbe3956e0	-0.18099546
123	0x3bd3d602	0.0064647207
124	0x3e6fc984	0.23416716
125	0x3e862f8f	0.2620816
126	0xbe72ede6	-0.23723564
127	0xbe4071f7	-0.18793474
128	0xbe207f62	-0.15673593
129	0x3c723af8	0.014784567
130	0xbdc8d800	-0.09806824
131	0x3e122373	0.14271335
132	0xbe7492d6	-0.23884138
133	0x3e1aae13	0.15105467
134	0xbe55b27d	-0.20868869
135	0x3e7c06f6	0.2461203
136	0x3da19dc8	0.078914225
137	0xbe742710	-0.23843026
138	0xbe9226f4	-0.28545344
139	0x3d1f6f4c	0.0389245
140	0x3e24e962	0.16104653
141	0xbdb12a9c	-0.08650705
142	0x3e915496	0.28384846
143	0x3e1a5c39	0.15074243
144	0x3e2dbdc9	0.16966929
145	0xbea5c64d	-0.32377854
146	0xbe71ce5f	-0.2361388
147	0x3d16439e	0.03668558
148	0x3e094fc0	0.13409328
149	0x3e81eef2	0.25377613
150	0xbda3ede1	-0.08004356
151	0xbe17ef5b	-0.148374
152	0x3da69a60	0.081349134
153	0xbd7904ab	-0.060795467
154	0xbe96f85e	-0.29486364
155	0x3e0ff9f2	0.1406019
156	0x3e1f8099	0.155764
157	0xbe89a6e9	-0.26885155
158	0xbdb7e625	-0.089794435
159	0xbe7eb5c1	-0.24874021
160	0x3e71a8b6	0.23599514
161	0xbdedaf2a	-0.116056755
162	0xbe6bdcf7	-0.2303351
163	0x3ce1b3f0	0.027551621
164	0xbdb02434	-0.08600655
165	0xbe9bc602	-0.30424505
166	0x3dfeda10	0.12443936
167	0xbd2a72c8	-0.04161337
168	0x3cdea3d0	0.027177721
169	0x3e87ca79	0.26521662
170	0x3dcc186c	0.099655956
171	0xbe41d30c	-0.18928164
172	0xbe9a8ec5	-0.3018705
173	0xbe49019f	-0.19629525
174	0x3e2f9240	0.17145634
175	0x3d3c0dc6	0.045911573
176	0x3b061586	0.0020459606
177	0xbe2566b4	-0.1615246
178	0x3cc50aa8	0.024052933
179	0x3ea7ebb2	0.3279701
180	0x3e9f8f9b	0.3116425
181	0x3e6a28ff	0.22867201
182	0x3ce5cd68	0.028052047
183	0x3e766262	0.24060968
184	0xbe627004	-0.22113043
185	0xbde3f083	-0.11129858
186	0xbe4f2eb3	-0.20232658
187	0xbe8a7a36	-0.27046365
188	0x3e7c8ac6	0.24662313
189	0xbe9668d4	-0.29376853
190	0x3e57ede2	0.21086839
191	0xbe1f556d	-0.15559931
192	0x3d9b9b9d	0.0759804
193	0xbe88b3cd	-0.26699677
194	0xbd04040e	-0.03223043
195	0x3d1ee02e	0.038788013
196	0xbd838a3a	-0.06422849
197	0x3dc82aaa	0.097737625
198	0xbe20e884	-0.15713698
199	0x3e7bd880	0.24594307
200	0x3e80bf5e	0.25146002
201	0x3e13fa59	0.14450969
202	0xbde4051d	-0.11133788
203	0xbdda9f51	-0.106749184
204	0x3e2ce3ea	0.16883817
205	0xbea0d84b	-0.31415018
206	0x3e09a41e	0.13441512
207	0x3e4fc9c1	0.20291807
208	0x3e2f6f97	0.17132412
209	0xbe9a7b26	-0.3017208
210	0x3ca8faa0	0.02062732
211	0xbe4a9340	-0.19782734
212	0x3e92ae2d	0.2864851
213	0xbea1bf13	-0.3159109
214	0x3e906e47	0.28209135
215	0x3c3a0280	0.011353135
216	0x3ded574c	0.11588916
217	0xbe57e42f	-0.21083139
218	0xbe0cca1c	-0.13748974
219	0x3e6f3aa2	0.2336221
220	0x3cb1b7e0	0.021694124
221	0x3d4acd51	0.04951221
222	0xbea41af6	-0.3205182
223	0xbdf8dc33	-0.12151375
224	0x3df879e3	0.12132623
225	0x3dad4e9f	0.084622614
226	0xbddab6b6	-0.106793806
227	0xbe254f67	-0.16143571
228	0xbe1fdbd0	-0.15611196
229	0x3e7fe6ef	0.24990438
230	0xbe8a32de	-0.26991934
231	0xbe6c59cc	-0.2308113
232	0x3de86130	0.11346662
233	0xbe82f7d6	-0.2557971
234	0xbdade894	-0.084916264
235	0xbe5b8e37	-0.2144097
236	0xbd50db40	-0.050990343
237	0xbd672538	-0.05643198
238	0xbdc4485a	-0.095841125
239	0x3dd52764	0.10407904
240	0xbe84540a	-0.25845367
241	0x3c9d60a0	0.019211113
242	0x3d9ee494	0.077584416
243	0x3de152ec	0.11002144
244	0xbe669f48	-0.22521698
245	0xbe2b157c	-0.16707414
246	0x3da362f0	0.07977855
247	0xbe3cabb8	-0.1842488
248	0x3e8d9fbd	0.27660933
249	0x3e6b9f7a	0.23010054

projection.layers.2.bias f4 [25]
0	0x3e5acd86	0.21367463
1	0xbc794e4f	-0.015216424
2	0xbe1bcf1d	-0.15215726
3	0xbe3b7401	-0.1830597
4	0xbe4b9ace	-0.19883272
5	0xbda55135	-0.0807213
6	0xbe698c23	-0.22807364
7	0x3e16ba73	0.14719562
8	0x3e5ab676	0.21358666
9	0x3dcbe80c	0.09956369
10	0xbc5d17c3	-0.013494435
11	0x3e190962	0.14944986
12	0xbe3040f3	-0.17212276
13	0x3e103403	0.14082341
14	0x3df7cafe	0.120992646
15	0x3e616104	0.22009665
16	0xbe8909bc	-0.2676524
17	0x3e8810b1	0.26575235
18	0xbb72a402	-0.0037024026
19	0xbd20529f	-0.039141294
20	0xbe0167ef	-0.12637304
21	0xbe8b05f9	-0.27152994
22	0x3e1a7106	0.15082178
23	0xbe20e68b	-0.15712945
24	0xbe5d3422	-0.21601918

projection.layers.3.weight f4 [4, 4]
0	0xbeccf274	-0.40028727
1	0xbc7ca71b	-0.0154207
2	0x3e09843d	0.13429351
3	0x3e614515	0.21999009
4	0xbd6e39d4	-0.058160618
5	0x3e87e9d8	0.26545596
6	0x3dd99659	0.1062438
7	0xbeb37f4e	-0.35058063
8	0x3eb2230e	0.3479237
9	0xbe373fa1	-0.17895366
10	0xbeaa7e10	-0.33299303
11	0xbed0e868	-0.40802312
12	0xbcd9cc5d	-0.026586706
13	0xbe3478bb	-0.1762418
14	0xbe38296c	-0.17984551
15	0x3e99154c	0.2989906

projection.layers.3.bias f4 [4]
0	0xbea0934c	-0.3136238
1	0x3e1b3df6	0.15160355
2	0x3c99c66a	0.018771369
3	0x3ddcf2c7	0.107884936

projection.layers.4.weight f4 [10, 4]
0	0x3e2d0e28	0.16899931
1	0x3ea33548	0.31876588
2	0xbe48441c	-0.19557232
3	0x3ecd1648	0.40056062
4	0xbe80b841	-0.25140575
5	0x3e355388	0.17707646
6	0x3db3d244	0.08780339
7	0xbdc8435b	-0.09778472
8	0xbe5ca26c	-0.21546334
9	0xbe017ba8	-0.12644827
10	0xbe5df36f	-0.21674894
11	0xbe952274	-0.29127848
12	0xbe026f51	-0.12737776
13	0xbd682a57	-0.056681003
14	0x3e8a3459	0.26993063
15	0x3d59350e	0.053029113
16	0xbedd17a5	-0.43182102
17	0x3ddb0312	0.10693945
18	0xbe909e0d	-0.28245583
19	0x3e93c52d	0.2886137
20	0x3e0b6b60	0.13615179
21	0xbeddeae5	-0.43343273
22	0xbed9a124	-0.42505753
23	0xbeac6c7c	-0.33676517
24	0x3e298c81	0.16557504
25	0xbed8f5d1	-0.42375043
26	0xbda75010	-0.081695676
27	0x3dfd67fa	0.123733476
28	0xbea2adbc	-0.31773174
29	0xbeb2c103	-0.3491288
30	0x3e35255b	0.17690031
31	0x3e6d7ec6	0.23192891
32	0xbc0443c3	-0.008072796
33	0x3d8fe3ab	0.07025846
34	0xbedec0c3	-0.4350644
35	0xbdafe4bb	-0.08588549
36	0x3e4aa097	0.19787823
37	0xbe6c7201	-0.23090364
38	0xbee660b3	-0.4499565
39	0x3c7f6484	0.01558793

projection.layers.4.bias f4 [10]
0	0xbea0ef5d	-0.3143262
1	0x3e76d484	0.24104506
2	0xbf003aab	-0.5008952
3	0xbe89834d	-0.26857987
4	0x3e4101d0	0.18848348
5	0x3eb17561	0.34659865
6	0x3e8237dd	0.25433245
7	0x3e9c9f6d	0.30590382
8	0xbea80fec	-0.32824647
9	0xbf01425a	-0.5049187

projection.layers.5.weight f4 [25, 10]
0	0x3dab1850	0.083542466
1	0x3ce50220	0.027955115
2	0xbe3b0630	-0.18264079
3	0x3e9d3707	0.30706045
4	0xbe886a2e	-0.2664351
5	0xbd6c6ee8	-0.057722956
6	0xbe0ce210	-0.13758111
7	0x3e9abf51	0.30224088
8	0x3e1ece96	0.15508494
9	0x3e8e399f	0.27778336
10	0xbdf8371b	-0.121198855
11	0xbe8dde22	-0.27708536
12	0xbe17c4e9	-0.14821209
13	0xbdfbe02b	-0.12298616
14	0x3e30ff2c	0.1728484
15	0xbdbeed52	-0.09322609
16	0xbd8a5b3c	-0.06755683
17	0x3d4e72c8	0.050402433
18	0x3d034acc	0.032053754
19	0x3e46dde3	0.1942058
20	0xbe4b9196	-0.19879755
21	0xbdf85a7c	-0.121266335
22	0x3e4d5dd2	0.20055321
23	0xbe53016a	-0.20606008
24	0x3e25833a	0.1616334
25	0x3d0d74a8	0.03453508
26	0xbe497144	-0.19672114
27	0xbe800c54	-0.25009406
28	0x3dbb3c6c	0.09142384
29	0xbe6c6fc8	-0.23089516
30	0x3e583886	0.21115312
31	0x3e569b96	0.20957789
32	0x3dbfbcd4	0.09362188
33	0xbd099048	-0.033584863
34	0x3d7512e8	0.059832484
35	0xbde21c62	-0.1104057
36	0x3e3d04aa	0.1845881
37	0xbe4beee2	-0.19915345
38	0xbe2a9a6f	-0.16660474
39	0x3d085798	0.03328666
40	0xb9b0f400	-0.0003375113
41	0xbe68c7f0	-0.2273252
42	0xbe3d2936	-0.18472752
43	0x3e208abe	0.15677926
44	0x3cea3150	0.028587967
45	0xbe956466	-0.2917816
46	0xbe820e4c	-0.25401533
47	0xbe975460	-0.2955656
48	0x3dc71574	0.09720889
49	0x3e75a9fa	0.23990622
50	0x3d286558	0.041112274
51	0x3e04aba0	0.12956095
52	0x3e9bd8cf	0.3043885
53	0xbe79d34e	-0.24397013
54	0xbe6972b6	-0.22797665
55	0xbd8d013e	-0.068850026
56	0xbe1c22c4	-0.15247637
57	0xbe758962	-0.23978189
58	0x3ea1e80f	0.3162236
59	0x3ea06179	0.31324366
60	0xbe64194e	-0.22275278
61	0xbc970ee0	-0.01843971
62	0x3e0bad72	0.13640383
63	0xbe6af58e	-0.22945234
64	0x3dc6bf94	0.097045094
65	0x3d5a9cb8	0.053372115
66	0xbe300a82	-0.17191508
67	0xbe564d47	-0.20927916
68	0xbd4ef488	-0.050526172
69	0x39614800	0.00021484494
70	0xbd5fd5c0	-0.054647207
71	0xbe1b1c37	-0.15147482
72	0xbe7dd605	-0.24788673
73	0x3e82038f	0.2539334
74	0xbdb98d48	-0.090601504
75	0x3e75325a	0.23944989
76	0x3e08e6da	0.13369313
77	0xbe3e642d	-0.18592902
78	0x3e7b3e66	0.24535522
79	0x3e2f71bc	0.1713323
80	0xbe8ce645	-0.27519432
81	0xbdfc8926	-0.123308465
82	0xbdc2639e	-0.09491657
83	0x3e4ef416	0.20210299
84	0x3e81c73b	0.25347313
85	0xbe8832c6	-0.26601237
86	0x3e83d691	0.2574964
87	0xbe1ee968	-0.15518725
88	0x3d624d78	0.05524966
89	0x3e0a7688	0.13521779
90	0xbd02c40c	-0.031925246
91	0xbe29e726	-0.16592082
92	0x3d21e165	0.039521594
93	0x3df9ed3f	0.12203454
94	0xbc3ecf56	-0.011646112
95	0xbcb75e6c	-0.022383891
96	0xbd15bf4b	-0.036559384
97	0xbe6f42f5	-0.23365386
98	0xbe2cc8a3	-0.16873412
99	0x3e7204d8	0.2363466
100	0xbcfb5650	-0.030680805
101	0xbdec9526	-0.11551885
102	0x3e83c859	0.2573879
103	0x3d85763c	0.06516692
104	0xbdcbc210	-0.09949124
105	0xbe684bde	-0.22685191
106	0xbc46be60	-0.01213035
107	0xbe86f31c	-0.26357353
108	0xbe77793a	-0.24167338
109	0x3e88fb6b	0.26754317
110	0xbce96eed	-0.028495276
111	0x3dc4d5bb	0.09611078
112	0x3e0abcba	0.13548556
113	0xbe115bd5	-0.14195187
114	0xbe85495e	-0.26032537
115	0xbe9e187f	-0.30878064
116	0xbe779e0c	-0.24181384
117	0xbde4496f	-0.11146819
118	0xbe2d0df0	-0.16899848
119	0x3e049393	0.1294692
120	0xbe9865df	-0.2976522
121	0x3e7d34c8	0.24727166
122	0xbe406949	-0.18790163
123	0x3e985cc1	0.29758266
124	0xbe2540ab	-0.1613795
125	0xbd20a1c5	-0.039216775
126	0x3ea1939c	0.3155793
127	0xbd980ba1	-0.07424093
128	0xbe157915	-0.1459697
129	0xbe71d391	-0.23615862
130	0xbdceb475	-0.10093013
131	0xbe76b855	-0.24093755
132	0x3d4fca05	0.05072977
133	0x3dd226a0	0.102612734
134	0xbe9d8594	-0.30765975
135	0xbe93b884	-0.28851712
136	0x3ca3cdad	0.019995535
137	0x3d36b190	0.04460293
138	0xbe64c271	-0.22339799
139	0xbe47d267	-0.19513856
140	0x3e119ac8	0.142192
141	0x3e092a96	0.13395151
142	0x3e0daa86	0.13834581
143	0xbdc2da16	-0.09514253
144	0xbb9a8140	-0.004715115
145	0x3e81734d	0.2528328
146	0x3e9e08a9	0.30865982
147	0xbe805e22	-0.25071818
148	0x3e9e38cd	0.3090271
149	0x3e3b5e9c	0.1829781
150	0xbe14613c	-0.14490217
151	0xbe95e952	-0.29279572
152	0x3e27e3ae	0.16395447
153	0xbd772c66	-0.060345076
154	0xbe94715d	-0.2899274
155	0xbda268ec	-0.079301685
156	0xbe9763ec	-0.29568422
157	0x3e8ee888	0.27911782
158	0x3d9fb3b2	0.07797946
159	0xbe32348f	-0.17402862
160	0xbe3fef57	-0.18743645
161	0x3e84727b	0.25868592
162	0x3e606fec	0.21917695
163	0x3dbf721f	0.09347939
164	0xbe90ba12	-0.2826696
165	0x3dc1a5a7	0.09455424
166	0x3e8eb4a5	0.27872196
167	0xbe1a7080	-0.15081978
168	0x3c1152bb	0.008869822
169	0x3dd7964b	0.10526713
170	0x3e1a511a	0.1507
171	0x3dd64b20	0.10463548
172	0xbd56829f	-0.052370664
173	0xbd9e9286	-0.07742791
174	0xbc203e53	-0.009780484
175	0xbc9ebebf	-0.019378064
176	0xbd7b61e5	-0.061372656
177	0x3e86699a	0.26252443
178	0xbe467fac	-0.1938464
179	0x3e96e92b	0.29474768
180	0x3e961a73	0.29317054
181	0xbcd933ff	-0.026514051
182	0x3c86b685	0.016444454
183	0x3e537310	0.20649362
184	0x3dd93636	0.10606043
185	0xbe07adbf	-0.13249873
186	0x3c698c73	0.014254677
187	0x3e29b322	0.1657224
188	0x3d8019c5	0.06254915
189	0xbe58242f	-0.21107553
190	0x3e59c814	0.2126773
191	0xbd1fd0d4	-0.039017513
192	0xbd9fd001	-0.078033455
193	0xbdb164b3	-0.08661785
194	0x3e361311	0.17780711
195	0xbe2f713f	-0.17133044
196	0x3e944e05	0.28965774
197	0x3e918972	0.28425175
198	0x3e9b9a5a	0.30391198
199	0x3e77ef4a	0.24212375
200	0xbd9f7388	-0.07785708
201	0xbe5b7aa3	-0.21433501
202	0x3e44900e	0.19195578
203	0x3dbe0d0c	0.09279832
204	0x3e64685e	0.22305438
205	0x3e189826	0.1490179
206	0x3e00d474	0.12581044
207	0xbc0f28a0	-0.008737713
208	0xbe0362f2	-0.12830713
209	0x3db3272c	0.08747706
210	0xbdd16c4a	-0.102257326
211	0xbdedc506	-0.11609845
212	0xbe2fbe5e	-0.17162463
213	0x3b9c9bc0	0.004779309
214	0xbe3c5d14	-0.18394881
215	0x3e0af024	0.13568169
216	0xbdddb2c2	-0.10825111
217	0x3de454ac	0.111489624
218	0xbd9a3f34	-0.07531586
219	0xbc90d3c0	-0.017679095
220	0xbe628e74	-0.22124654
221	0x3e3f8cb6	0.1870602
222	0x3e909277	0.28236744
223	0x3e79fd52	0.2441304
224	0xbe1b8cd0	-0.15190434
225	0xbe88e192	-0.26734596
226	0x3d847718	0.06468028
227	0xbd866798	-0.06562728
228	0x3e681176	0.22662911
229	0x3e89c7bf	0.26910207
230	0x3e9101e5	0.28321758
231	0x3e27190c	0.16318148
232	0x3dd2cd78	0.10293096
233	0x3d8799f0	0.06621158
234	0xbdbee706	-0.09321408
235	0xbe295a76	-0.16538414
236	0x3e20359a	0.15645447
237	0xbe2a9426	-0.16658077
238	0xbe37ca28	-0.1794821
239	0xbe52f83c	-0.20602506
240	0xbe81ab0e	-0.25325817
241	0x3e99017b	0.29883942
242	0xbe713b9e	-0.23557898
243	0x3d3cf0c0	0.046128035
244	0xbe3e8eb0	-0.18609118
245	0x3e7a001a	0.24414101
246	0x3e081b22	0.132916
247	0x3d90c740	0.07069254
248	0x3d0bb630	0.034109294
249	0x3d921f94	0.07134929

projection.layers.5.bias f4 [25]
0	0xbcbd8c10	-0.023138076
1	0xbd8fb1c9	-0.07016332
2	0xbe733aed	-0.23752947
3	0xbe42aad9	-0.19010486
4	0x3e5d522e	0.2161338
5	0x3e56c1b6	0.20972332
6	0xbe0aeeca	-0.13567653
7	0xbdd5a342	-0.104315296
8	0xbe3f8a6f	-0.18705152
9	0x3e75a34b	0.23988073
10	0x3e6c0186	0.23047456
11	0x3e58eb48	0.21183503
12	0xbe1bb9bf	-0.15207575
13	0xbc8528d4	-0.01625482
14	0xbe9dc950	-0.30817652
15	0x3c36af20	0.0111501515
16	0x3dc1366d	0.09434209
17	0xbdba4a7e	-0.090962395
18	0xbda548c3	-0.08070519
19	0x3da936f4	0.082624346
20	0xbe8dfe9e	-0.2773332
21	0xbe269395	-0.16267236
22	0xbe831a5d	-0.2560605
23	0xbe03fe5c	-0.12889999
24	0xbe8e22f2	-0.27761036

projection.layers.6.weight f4 [4, 4]
0	0xbe02d34f	-0.1277592
1	0xbe7212b0	-0.23639941
2	0x3d92906c	0.071564525
3	0xbed7593a	-0.42060262
4	0x3eb5ba55	0.35493723
5	0xbef110d6	-0.47083157
6	0xbe987333	-0.2977539
7	0xbe90247f	-0.28152844
8	0xbe80b442	-0.25137526
9	0x3ee815eb	0.45329222
10	0xbd7d6d36	-0.06187173
11	0xbe474caa	-0.19462839
12	0xbe36ab17	-0.17838703
13	0x3e8f19fc	0.27949512
14	0x3ea6a507	0.3254778
15	0xbee96580	-0.4558525

projection.layers.6.bias f4 [4]
0	0x3f02da73	0.5111458
1	0x3e9d33b9	0.30703524
2	0xbe9f7a66	-0.3114807
3	0x3d3eb115	0.046555597

projection.layers.7.weight f4 [10, 4]
0	0xbe870dc1	-0.2637768
1	0xbe783c2f	-0.24241708
2	0x3ed45daa	0.4147771
3	0x3d8b483d	0.06800888
4	0xbe98521c	-0.29750144
5	0x3ed93da3	0.42429838
6	0x3e7101e8	0.23535883
7	0x3ef964b6	0.4870965
8	0xbcd22760	-0.025653541
9	0x3e3f2a62	0.18668512
10	0xbe8d2fa4	-0.2757541
11	0x3eea38b1	0.45746377
12	0xbe9d03db	-0.30667004
13	0xbee1f5a2	-0.44132715
14	0x3ebb7052	0.3660913
15	0xbe1d7c31	-0.15379407
16	0x3e583ce3	0.21116976
17	0xbd5038a0	-0.05083525
18	0xbe37f960	-0.17966223
19	0x3e8c7103	0.2742997
20	0x3e94773d	0.28997222
21	0xbec35307	-0.38149282
22	0xbe6439c2	-0.22287658
23	0x3e968254	0.29396307
24	0xbeaabcb8	-0.33347106
25	0x3eddf0af	0.4334769
26	0x3eb8afbf	0.36071584
27	0x3e3f5c12	0.18687466
28	0xbed05004	-0.40686047
29	0xbed5e5b8	-0.41776824
30	0x3eee1dbc	0.4650706
31	0x39bd95cb	0.00036160494
32	0xbeab3423	-0.33438215
33	0xbe4acb86	-0.198042
34	0x3e3a8d78	0.18218029
35	0xbe06bdf5	-0.131584
36	0x3c66b314	0.0140807815
37	0xbefa5a9b	-0.4889725
38	0xbecf3a8b	-0.40474352
39	0xbea57d11	-0.3232198

projection.layers.7.bias f4 [10]
0	0x3e9fffa8	0.31249738
1	0xbea14cd6	-0.31503934
2	0x3d7189ee	0.05896943
3	0xbe26fea4	-0.16308075
4	0x3d9bf335	0.076147474
5	0xbef8dc1e	-0.48605436
6	0x3ef4ecae	0.47836822
7	0x3e536ac1	0.20646192
8	0x3ee3203b	0.44360527
9	0x3c9cd096	0.01914243

projection.layers.8.weight f4 [25, 10]
0	0x3e85e643	0.26152238
1	0xbe4ba68e	-0.19887754
2	0xbe8ca951	-0.27472928
3	0x3e738032	0.23779371
4	0x3c607c60	0.013701528
5	0x3e23d58c	0.1599943
6	0x3e669eea	0.22521558
7	0x3e5f429a	0.2180275
8	0x3e1c3826	0.15255794
9	0xbe983fbc	-0.29736125
10	0x3e9ad44e	0.302401
11	0x3d90f245	0.07077459
12	0x3e7bfad8	0.24607408
13	0xbcbc87dc	-0.023014002
14	0xbda4104b	-0.0801092
15	0xbe4ad8a2	-0.19809201
16	0xbbe79cca	-0.0070682513
17	0x3e6e630a	0.23279968
18	0x3e9b3618	0.30314708
19	0x3c258ef4	0.010104883
20	0x3e59e441	0.21278478
21	0xbda064de	-0.07831739
22	0x3e9b2e0b	0.30308565
23	0xbe702bd8	-0.23454225
24	0x3e576dd0	0.21037984
25	0xbe2e0e38	-0.16997612
26	0x3dcadb4a	0.09905107
27	0xba2028d2	-0.00061095983
28	0x3e515783	0.2044354
29	0xbd134807	-0.035957363
30	0xbe23f0f0	-0.16009879
31	0xbe76ec8c	-0.24113673
32	0xbe8e4c2e	-0.27792495
33	0x3e96d2b5	0.29457632
34	0xbe12bd29	-0.14329971
35	0xbe0e5270	-0.13898635
36	0x3da619c4	0.08110383
37	0x3e854575	0.26029554
38	0x3d938ba0	0.07204366
39	0x3e92c827	0.2866833
40	0x3de5ba74	0.11217204
41	0xbe29f40f	-0.16597007
42	0xbe11876a	-0.14211813
43	0x3d7d8978	0.06189868
44	0xbe976b63	-0.29574117
45	0xbdf5ae3a	-0.11996122
46	0xbdcd2666	-0.100170895
47	0x3c9edc40	0.019392133
48	0xbe93e467	-0.28885195
49	0xbe01e475	-0.12684806
50	0xbe340103	-0.17578511
51	0xbe1e5b5e	-0.15464541
52	0x3e77967d	0.241785
53	0xbe72056c	-0.23634881
54	0x3dd479ec	0.10374817
55	0x3e6c6143	0.23083977
56	0xbe8ba26d	-0.2727236
57	0xbe4fcff6	-0.20294175
58	0xbe8974af	-0.26846835
59	0xbb3704b8	-0.0027926397
60	0xbe636aab	-0.2220866
61	0x3e2fcdb8	0.17168319
62	0xbe7b9aad	-0.24570723
63	0x3e66827b	0.22510712
64	0x3d375705	0.044760723
65	0x3e9560e0	0.29175472
66	0x3e6cb891	0.23117281
67	0xbe41c7a8	-0.18923819
68	0x3e676074	0.22595388
69	0xbe911ea5	-0.28343692
70	0x3e79f4a6	0.24409732
71	0x3ddb20c4	0.10699609
72	0xbe3f97ad	-0.18710203
73	0xbd9e5090	-0.0773021
74	0xbe92c906	-0.28668994
75	0x3e22fbac	0.15916318
76	0xbe909f57	-0.28246567
77	0x3e985a65	0.29756466
78	0xbe4d0b08	-0.2002374
79	0x3e0fa40a	0.1402742
80	0x3e7cb702	0.24679187
81	0xbe278822	-0.16360524
82	0x3d95e10f	0.07318317
83	0xbde093b2	-0.10965671
84	0x3dc470bd	0.095918156
85	0xbc8d1999	-0.01722412
86	0xbccecf8a	-0.025245447
87	0x3e9d91c4	0.30775273
88	0x3de0d4cd	0.109780885
89	0x3e1bde98	0.15221632
90	0x3c626680	0.013818383
91	0x3e95bd99	0.29246214
92	0xbd827200	-0.063694
93	0xbb0dd700	-0.0021643043
94	0xbd360d88	-0.0444465
95	0xbe501548	-0.20320618
96	0x3d4ef308	0.05052474
97	0xbe5e635a	-0.21717587
98	0xbe4eebca	-0.20207134
99	0xbdb8cd9c	-0.09023592
100	0xbdf7b273	-0.12094583
101	0xbdff2140	-0.12457514
102	0x3e1eab25	0.15494974
103	0xbe6d6499	-0.23182906
104	0x3e3b3178	0.1828059
105	0x3e85ccf3	0.26132926
106	0x3e601c4f	0.21885799
107	0x3eb45ea9	0.3522847
108	0x3e25a3da	0.16175786
109	0x3e663331	0.22480465
110	0xbddf1234	-0.10892144
111	0xbe3d8b49	-0.18510164
112	0xbe01f859	-0.12692393
113	0xbda433b8	-0.08017677
114	0x3de29ab2	0.11064662
115	0xbdd25e8d	-0.102719404
116	0x3e8841ce	0.26612705
117	0xbe0df765	-0.13863905
118	0x3e97c1df	0.296401
119	0xbdfceb36	-0.123495504
120	0xbe5b8d6a	-0.21440664
121	0x3e9a0975	0.3008534
122	0xbe5f235d	-0.21790834
123	0xbd72c630	-0.059271038
124	0x3e5c6a9a	0.2152504
125	0xbe989fc8	-0.29809403
126	0x3d2fcfd0	0.042922795
127	0x3e3fedaa	0.18743005
128	0xbe257547	-0.16158019
129	0xbe885d9e	-0.26633924
130	0xbe67c228	-0.22632658
131	0x3dd8ae0c	0.10580072
132	0xbe153cac	-0.14573926
133	0x3e9880e3	0.29785833
134	0xbe5d728a	-0.21625724
135	0x3e554092	0.20825413
136	0x3df7e798	0.1210472
137	0x3e919ced	0.28440037
138	0xbe927287	-0.28603002
139	0xbe3cb6a9	-0.18429054
140	0xbdf70bd6	-0.120628044
141	0x3e7b9557	0.24568687
142	0x3dc7a7f2	0.0974883
143	0xbe9688ed	-0.2940134
144	0x3dbe7a3e	0.093006596
145	0xbe0cbfb5	-0.13745005
146	0x3d1c98bb	0.038231593
147	0xbde577db	-0.11204501
148	0x3df971f2	0.121799365
149	0xbd187e1c	-0.037229642
150	0x3df0d020	0.11758447
151	0xbe7e851f	-0.24855469
152	0xbdbed475	-0.09317867
153	0x3e91b1b4	0.2845589
154	0xbd988721	-0.07447649
155	0x3e6fd34a	0.23420444
156	0x3e972a26	0.29524344
157	0xbe936cfb	-0.28794083
158	0xbd9657aa	-0.07340939
159	0xbc875a97	-0.016522689
160	0x3e8162dd	0.2527074
161	0xbd854289	-0.06506831
162	0xbe90abfa	-0.28256208
163	0xbe584001	-0.21118166
164	0xbe5fe0cb	-0.21863095
165	0x3e6582ca	0.22413173
166	0xbddcc8a6	-0.10780458
167	0x3d554e56	0.05207666
168	0xbe1cfe4e	-0.15331385
169	0xbd877cdf	-0.06615614
170	0xbd8b8556	-0.06812541
171	0x3d3aaa98	0.045572847
172	0xbe926867	-0.28595278
173	0xbdd6d4d0	-0.104898095
174	0x3e89f9ad	0.269483
175	0x3e7d16f6	0.2471579
176	0x3e859465	0.2608978
177	0x3e56ed16	0.20988879
178	0x3dc3af34	0.09554902
179	0x3e9f5ed3	0.31127033
180	0x3deb0dc1	0.11477233
181	0xbe0fcede	-0.14043757
182	0x3c2290ef	0.00992225
183	0x3ea45e71	0.32103303
184	0x3daa2edf	0.08309721
185	0x3c11b56c	0.008893352
186	0x3d86897b	0.06569191
187	0x3df1a899	0.117997356
188	0x3df4b77e	0.11949061
189	0x3e52f4f5	0.20601256
190	0xbe5865fb	-0.21132652
191	0xbe6a7311	-0.22895457
192	0xbd6ede7b	-0.058317643
193	0xbd947fb4	-0.0725092
194	0x3db1dac2	0.08684303
195	0xbdbbea68	-0.09175569
196	0xbe06b959	-0.13156642
197	0x3d885764	0.066572934
198	0x3d85dfcc	0.065368265
199	0x3e2fdec6	0.17174825
200	0x3e818f91	0.25304845
201	0x3db5f887	0.088852935
202	0x3e1fbc5f	0.15599202
203	0xbe4e7b3c	-0.20164198
204	0x3e06ca2e	0.13163063
205	0x3e6ac575	0.22926886
206	0xbdacf5aa	-0.08445294
207	0x3d710ccc	0.058850095
208	0x3ca96f7e	0.020683046
209	0xbe7b3633	-0.24532394
210	0xbe0eda52	-0.1395047
211	0xbe29c6f3	-0.165798
212	0x3e0c5fb5	0.13708384
213	0xbc7fc8f9	-0.01561188
214	0xbe76c85c	-0.24099869
215	0x3d40b3c8	0.047046453
216	0xbe56aac2	-0.20963576
217	0x3e33e569	0.17567982
218	0xbe0e2110	-0.138798
219	0xbd973305	-0.07382778
220	0x3bcf77c9	0.006331418
221	0x3da9ea58	0.08296651
222	0x3e76443f	0.24049471
223	0x3cd72e56	0.026267212
224	0x3e49af6d	0.19695826
225	0x3d5b187e	0.053490154
226	0x3e747e3d	0.23876281
227	0x3e5a3db3	0.21312599
228	0x3e1f43cb	0.15553205
229	0xbe7a73e3	-0.2445827
230	0x3e3e634a	0.18592563
231	0x3e51640e	0.20448324
232	0xbe8aa756	-0.27080792
233	0xbdf1a0aa	-0.11798222
234	0xbddaaffa	-0.10678096
235	0x3dbd3024	0.09237698
236	0xbd6b81d8	-0.057496876
237	0xbd4cc828	-0.04999557
238	0x3e6d3e3e	0.23168275
239	0xbe9f01af	-0.31055972
240	0xbdfeadb4	-0.12435475
241	0xbd47991e	-0.04873001
242	0x3d2837c1	0.041068796
243	0xbe3c86cb	-0.18410794
244	0xbc8be82f	-0.017078487
245	0xbe97529e	-0.2955522
246	0xbd5972d4	-0.053088024
247	0x3dd319cb	0.10307654
248	0x3ccea826	0.025226664
249	0xbda5e89e	-0.08101009

projection.layers.8.bias f4 [25]
0	0xbe96ba2c	-0.29438913
1	0xbe6ea0e1	-0.23303558
2	0xbe3954f5	-0.18098815
3	0xbe85adf0	-0.26109266
4	0xbd89cbbe	-0.06728314
5	0x3bb56fa3	0.00553699
6	0x3ddc2726	0.107496545
7	0x3cb5cb90	0.022191793
8	0xbe44d926	-0.1922346
9	0xbe878c57	-0.26474258
10	0x3e437f46	0.1909152
11	0xbd6469eb	-0.055765074
12	0xbe7b7f66	-0.24560317
13	0x3e0a4338	0.13502204
14	0xbe9d7b35	-0.30758062
15	0xbc6a29d6	-0.014292201
16	0x3e223151	0.15839125
17	0xbe1d49a1	-0.15360118
18	0x3e05cda5	0.13066728
19	0xbe8bbcf8	-0.2729261
20	0xbc394036	-0.011306813
21	0x3e234a36	0.15946278
22	0xbb3f18d5	-0.0029159088
23	0xbe5bb704	-0.21456534
24	0xbe1dcacf	-0.15409397

projection.layers.9.weight f4 [4, 4]
0	0x3cbd222e	0.023087587
1	0x3dd3ca67	0.103413396
2	0xbe85f166	-0.26160735
3	0xbeca0a5c	-0.3946103
4	0x3e989184	0.2979852
5	0xbecb5e89	-0.39720562
6	0x3e5221a0	0.2052064
7	0xbe80ab5f	-0.25130746
8	0x3eb6b02d	0.35681286
9	0xbc184a1c	-0.009295013
10	0xbec49f95	-0.38403
11	0xbc698235	-0.014252235
12	0xbde836fd	-0.11338613
13	0x3ecb6f0d	0.39733163
14	0x3e9679b4	0.29389727
15	0xbef90a30	-0.48640585

projection.layers.9.bias f4 [4]
0	0x3ed7fdd6	0.4218585
1	0x3d550187	0.05200341
2	0x3d1b49f5	0.037912328
3	0xbe7e151a	-0.24812737

projection.layers.10.weight f4 [10, 4]
0	0xbe9b1f71	-0.30297425
1	0x3e94a591	0.29032567
2	0x3e8740be	0.26416582
3	0x3eb6b894	0.35687697
4	0xbeea67a9	-0.4578221
5	0x3e0cdd2e	0.13756248
6	0x3d831653	0.064007424
7	0xbe16c3d5	-0.14723141
8	0x3d1127d3	0.03543837
9	0x3eebd000	0.4605713
10	0xbe33f37b	-0.17573349
11	0x3dfc2a2e	0.12312733
12	0xbe83e3c2	-0.25759703
13	0xbefa66e4	-0.48906624
14	0xbe583f9d	-0.21118017
15	0x3edfdd91	0.4372373
16	0x3ed81284	0.42201626
17	0x3e95fd1b	0.29294667
18	0xbe8b7afc	-0.27242267
19	0x3ec2a968	0.38019872
20	0xbef9f27a	-0.48817807
21	0x3ef39e58	0.47581744
22	0x3ed71459	0.42007712
23	0x3ea6442d	0.3247389
24	0x3ec1bb7e	0.37838358
25	0xbdbb2b15	-0.091390766
26	0xbde8d635	-0.11368982
27	0xbece9c95	-0.40353838
28	0x3e3c96f3	0.18416958
29	0x3ed96f85	0.42467895
30	0x3bda5b53	0.0066637187
31	0x3e8281c8	0.2548964
32	0xbd8d4035	-0.06897012
33	0xbec3d1fa	-0.38246137
34	0x3e4add17	0.19810902
35	0x3be03199	0.00684185
36	0x3e9247dc	0.2857045
37	0x3e4983eb	0.19679229
38	0x3e65d950	0.2244618
39	0x3d0f73e2	0.035022624

projection.layers.10.bias f4 [10]
0	0xbed3ebe7	-0.41390917
1	0xbe943f81	-0.289547
2	0xbd5cd480	-0.053913593
3	0x3e530df4	0.20610791
4	0xbeb6da3d	-0.35713378
5	0x3eb81e55	0.35960642
6	0xbf0065b2	-0.50155175
7	0x3ed6c74d	0.4194893
8	0xbe9a5e6b	-0.3015016
9	0x3edeece0	0.43540096

projection.layers.11.weight f4 [25, 10]
0	0xbe270f3c	-0.16314405
1	0x3e9d26a5	0.30693546
2	0xbe879f39	-0.26488665
3	0x3d916b44	0.071005374
4	0x3ea08ead	0.31358853
5	0x3e9b0479	0.3027685
6	0x3e8e96bf	0.27849385
7	0x3e3d23fa	0.18470755
8	0xbd939e58	-0.07207936
9	0x3e195092	0.14972141
10	0xbe9316fc	-0.28728473
11	0xbdb9ae9a	-0.09066506
12	0x3e30aded	0.17253847
13	0xbe0fc959	-0.14041652
14	0x3e863c6a	0.26217967
15	0x3e836f73	0.25670967
16	0xbe93ac61	-0.28842452
17	0x3d8a581d	0.067550875
18	0xbb8cf318	-0.00430144
19	0x3c182b3e	0.0092876535
20	0xbdd86370	-0.10565841
21	0xbe29e18b	-0.16589944
22	0xbe933031	-0.28747705
23	0xbe171bf8	-0.14756763
24	0xbc7ba11e	-0.015358238
25	0xbd6bf957	-0.057610836
26	0x3d7275b7	0.059194293
27	0x3c25d3d0	0.010121301
28	0x3e95ee02	0.29283148
29	0xbdcd60ba	-0.10028215
30	0x3e8e26ab	0.27763876
31	0x3e181596	0.14851984
32	0x3e1ac89e	0.15115592
33	0x3e818b77	0.25301716
34	0x3ded2d08	0.11580855
35	0xbc9552a0	-0.018227875
36	0xbe6096f8	-0.2193259
37	0xbd761c80	-0.060085773
38	0xbe828378	-0.25490928
39	0x3e68d8ce	0.22738954
40	0xbdbc9b46	-0.092093036
41	0xbe3d8546	-0.18507871
42	0xbe2b708f	-0.16742156
43	0x3e055e12	0.13024166
44	0x3e5dfc4a	0.21678272
45	0x3da6c78c	0.08143529
46	0xbcb94160	-0.022614181
47	0xbd6d5d88	-0.057950526
48	0xbe3e9c8b	-0.18614404
49	0xbe1171fb	-0.14203636
50	0x3e95f409	0.29287747
51	0x3de24ab9	0.110494085
52	0xbe5ed9fc	-0.21762842
53	0x3e89f232	0.26942593
54	0x3e89a8b0	0.2688651
55	0x3d5e3a9b	0.05425511
56	0xbb5d1ee7	-0.0033740343
57	0x3cd3997c	0.025830023
58	0x3ea32967	0.31867525
59	0xbd3df204	-0.046373382
60	0xbe8ba5a7	-0.2727482
61	0xbe9c4004	-0.3051759
62	0x3e29741f	0.16548203
63	0xbd2a0d90	-0.04151684
64	0xbe4db125	-0.20087107
65	0x3d4e67a9	0.050391827
66	0xbe945331	-0.2896972
67	0xbd242a02	-0.040079124
68	0xbdfc9a6b	-0.123341404
69	0x3e39f497	0.1815971
70	0x3d35a238	0.044344157
71	0x3dcb1aa4	0.09917191
72	0xbe2bc0b2	-0.16772726
73	0xbd61cce8	-0.055127054
74	0x3e523246	0.2052699
75	0xbd576cf8	-0.052594155
76	0x3e377044	0.1791392
77	0xbc231be0	-0.009955376
78	0xbd90430e	-0.0704404
79	0xbe2d33c4	-0.16914278
80	0xbd60bae8	-0.054865748
81	0xbdc55835	-0.09635965
82	0xbe09a509	-0.13441862
83	0x3d7de446	0.061985277
84	0x3e60df00	0.21960068
85	0x3d0b626b	0.034029406
86	0xbe6cb9c3	-0.23117737
87	0xbe9358ec	-0.2877878
88	0xbdea2719	-0.114332385
89	0x3e124c0f	0.14286827
90	0x3d05585e	0.032554977
91	0x3dc58e17	0.09646242
92	0x3eb4324f	0.35194632
93	0xbdebbae7	-0.11510258
94	0x3c855123	0.01627404
95	0x3e228f32	0.15874937
96	0x3d359ea8	0.04434076
97	0xbe4433e4	-0.1916042
98	0xbe3a292f	-0.18179773
99	0x3e8454d8	0.2584598
100	0x3e99463f	0.29936406
101	0xbce841f0	-0.028351754
102	0x3e8f55fb	0.27995285
103	0x3d2b70e8	0.041855723
104	0xbe1e2e96	-0.15447459
105	0xbe27bb88	-0.16380131
106	0x3e859953	0.2609354
107	0x3c8c6d50	0.017141968
108	0xbd2fb550	-0.042897522
109	0xbe3f84d8	-0.1870302
110	0x3e78812a	0.24268022
111	0xbe6c18ae	-0.2305629
112	0xbe4dbce4	-0.20091587
113	0xbe804b0a	-0.2505725
114	0xbdf63462	-0.1202171
115	0xbe6eacde	-0.23308131
116	0xbe95b2ed	-0.29238072
117	0xbdee9640	-0.11649752
118	0x3dcf129c	0.10110971
119	0x3e2a1362	0.16608956
120	0x3e40b781	0.18820001
121	0x3e5ae94c	0.21378058
122	0xbe226b8c	-0.15861338
123	0xbd65d9a0	-0.056115746
124	0x3d9b1cb7	0.07573836
125	0x3e77a6f4	0.24184781
126	0xbe9c5950	-0.3053689
127	0x3db058f4	0.086107165
128	0x3d15b44f	0.03654891
129	0x3e7ebe93	0.24877386
130	0x3e4affea	0.19824186
131	0xbe964bd5	-0.2935473
132	0xbe721b5f	-0.23643254
133	0x3dec8410	0.115486264
134	0xbd395dae	-0.045255356
135	0x3e5a658d	0.21327801
136	0xbcfbba39	-0.030728446
137	0xbdc504d0	-0.096200585
138	0xbe097b42	-0.13425925
139	0x3c802d8d	0.01564672
140	0x3daec760	0.085341215
141	0x3c1ef0c0	0.009700954
142	0x3e212efe	0.15740582
143	0x3e37755c	0.17915863
144	0x3c2953e0	0.010334939
145	0x3a66f800	0.00088107586
146	0xbc521480	-0.01282227
147	0xbe45e686	-0.19326219
148	0x3e9d5fb3	0.30737075
149	0xbe8e5882	-0.278019
150	0x3e21b38a	0.15791145
151	0xbe361d6e	-0.17784664
152	0x3e9bb329	0.30410126
153	0xbe03d518	-0.12874258
154	0x3de5fa8c	0.11229429
155	0xbd4148c8	-0.04718855
156	0x3e97311d	0.29529658
157	0xbe898925	-0.26862445
158	0x3d73a7c8	0.05948618
159	0xbe535f6a	-0.20641866
160	0xbcc6c7ae	-0.024265137
161	0x3d90ba9b	0.07066842
162	0x3cf1dfe9	0.029525714
163	0x3e9aec19	0.30258253
164	0xbe43b0f3	-0.1911047
165	0x3e53fd21	0.2070203
166	0x3ea46982	0.32111746
167	0x3e149819	0.14511146
168	0x3eae5a0f	0.34053084
169	0x3e6aeb8b	0.22941415
170	0x3e8680d7	0.26270172
171	0x3be9b3c0	0.0071320236
172	0x3d35ec00	0.04441452
173	0xbe70f69c	-0.23531574
174	0x3dfd171c	0.123579234
175	0xbdc6ac60	-0.09700847
176	0xbd61f2e8	-0.055163294
177	0xbe12ee7e	-0.1434879
178	0x3e8c0613	0.27348384
179	0x3e13bbd2	0.14427117
180	0xbe0a4141	-0.13501455
181	0xbe89b04d	-0.2689232
182	0x3ea4ed3f	0.32212254
183	0x3e563894	0.2092002
184	0x3e9b7a4a	0.30366737
185	0x3da469a7	0.08027964
186	0x3e499842	0.19686988
187	0x3e04e6f4	0.12978727
188	0x3c85c09d	0.016327197
189	0x3dcd8408	0.100349486
190	0xbdc1d462	-0.09464337
191	0x3d8a9c67	0.06768113
192	0xbc634203	-0.013870719
193	0xbe9a0fae	-0.30090088
194	0x3ea4e08c	0.32202566
195	0x3e35d690	0.1775763
196	0xbca7a0a9	-0.02046235
197	0xbceee688	-0.02916266
198	0xbe44e455	-0.19227727
199	0x3e2a6617	0.16640507
200	0x3ea5293e	0.32258028
201	0xbe29b33f	-0.16572283
202	0x3ea38986	0.3194086
203	0x3d301eb7	0.042998042
204	0x3e831f04	0.256096
205	0xbe6f61b3	-0.23377113
206	0x3e33847f	0.17531012
207	0x3e502c4b	0.20329396
208	0x3e80c8ec	0.2515329
209	0x3e2e945b	0.1704878
210	0xbdf09d3d	-0.11748741
211	0x3e3253e3	0.17414813
212	0xbd4bb5e6	-0.04973402
213	0xbdb556e2	-0.08854462
214	0xbe9a00a7	-0.30078623
215	0x3ce1fa10	0.02758506
216	0x3d3250ee	0.04353421
217	0x3e8cac83	0.27475366
218	0xbe4a4425	-0.19752558
219	0x3e0aed21	0.1356702
220	0xbe91a9d0	-0.2844987
221	0xbde01fbb	-0.10943552
222	0xbe210824	-0.15725762
223	0xbe685451	-0.22688414
224	0x3d6ecb7e	0.058299534
225	0xbe100cdf	-0.1406741
226	0xbe56bda4	-0.2097078
227	0xbe65bf6a	-0.224363
228	0x3e3fe75b	0.18740599
229	0x3e3c6d99	0.18401183
230	0x3e8bd533	0.27311096
231	0xbc9aa4e0	-0.018877447
232	0x3e902827	0.28155634
233	0x3e9097a7	0.28240702
234	0xbe8912e0	-0.26772213
235	0xbe38bea6	-0.18041477
236	0x3dbc71c0	0.092013836
237	0x3e2a3d6c	0.16624993
238	0xbe433542	-0.19063285
239	0x3e30f358	0.17280328
240	0xbbb0c6bb	-0.0053947843
241	0xbc77b382	-0.015118482
242	0xbd012d15	-0.031537134
243	0x3e4615d5	0.19344266
244	0x3e0d81a0	0.1381898
245	0x3ba4c4a4	0.005028324
246	0x3d018631	0.031622116
247	0x3e925786	0.285824
248	0xbe9cbae9	-0.3061135
249	0xbe16b871	-0.14718796

projection.layers.11.bias f4 [25]
0	0xbe9f991f	-0.3117151
1	0xbe927909	-0.28607967
2	0x3ea1536b	0.31508955
3	0xbe3eb8b5	-0.18625148
4	0xbe2b989f	-0.16757439
5	0x3e7e568a	0.248377
6	0x3e844cb8	0.25839782
7	0x3e50901e	0.20367476
8	0x3d89e676	0.0673341
9	0xbcdcc052	-0.026947174
10	0x3e7a3aea	0.24436536
11	0xbe876260	-0.26442242
12	0xbe801d66	-0.2502243
13	0x3e9af813	0.3026739
14	0xbd261300	-0.040545464
15	0x3e83b031	0.2572036
16	0x3e065e1c	0.13121837
17	0xbcd19a90	-0.025586396
18	0xbd3c084b	-0.045906346
19	0x3dac9b83	0.08428099
20	0x3e31c93d	0.17361923
21	0x3e481a0d	0.19541188
22	0xbe8b495d	-0.2720441
23	0xbe851f2b	-0.26000342
24	0x3e12eb85	0.14347656

projection.layers.12.weight f4 [4, 4]
0	0x3ecc5f69	0.39916542
1	0xbe3675f9	-0.1781844
2	0x3e8caf73	0.27477607
3	0x3d4b8587	0.04968789
4	0xbe82d923	-0.25556287
5	0x3d13ed2b	0.036114853
6	0xbedcafb0	-0.4310279
7	0xbd347ab5	-0.044062335
8	0x3ee378f2	0.4442821
9	0xbe0dff99	-0.13867034
10	0xbe81c826	-0.25348014
11	0x3eadd4a1	0.33951285
12	0xbd9b4073	-0.07580652
13	0x3ea8adb6	0.3294503
14	0xbdef5cb0	-0.116876006
15	0xbdbdb4e8	-0.09263021

projection.layers.12.bias f4 [4]
0	0xbecbd452	-0.39810425
1	0x3eb2691e	0.34845823
2	0xbcf3f106	-0.029778015
3	0xbe508b22	-0.20365575

projection.layers.13.weight f4 [10, 4]
0	0xbe9f012f	-0.3105559
1	0xbeb1a398	-0.34695125
2	0xbee77562	-0.45206743
3	0x3e4d0acc	0.2002365
4	0xbd5e09f5	-0.054208715
5	0x3e8e908e	0.2784466
6	0xbe87fb07	-0.26558706
7	0x3e91d331	0.2848144
8	0xbe7d78f7	-0.24753176
9	0x3c805752	0.015666638
10	0x3d622a0b	0.055215877
11	0xbe6ad1f2	-0.2293165
12	0x3dbbcde4	0.0917013
13	0x3e882f3f	0.26598546
14	0xbe9e27cf	-0.30889747
15	0x3e283ab3	0.16428642
16	0x3debf54b	0.11521395
17	0xbe9da50b	-0.3078998
18	0x3ea84dcc	0.32871854
19	0x3e5eadc1	0.2174597
20	0x3e91fb33	0.28511962
21	0x3eed5cd6	0.4635989
22	0xbed8e100	-0.4235916
23	0xbeaa6130	-0.33277273
24	0x3ecbfd3e	0.39841646
25	0xbe00e70b	-0.12588136
26	0xbeac9ec0	-0.33714867
27	0x3a142a95	0.0005652097
28	0xbda2684b	-0.079300486
29	0xbedbe8a1	-0.4295092
30	0x3e6e02fc	0.23243326
31	0xbeb2d12c	-0.3492521
32	0x3e5401a7	0.20703755
33	0x3e7d1039	0.2471322
34	0xbef1123c	-0.47084224
35	0xbdfa5bb1	-0.1222452
36	0xbedc12bb	-0.4298304
37	0x3e4ead68	0.20183337
38	0xbed5e2e3	-0.41774663
39	0x3e52fb2a	0.20603624

projection.layers.13.bias f4 [10]
0	0x3eaad946	0.3336889
1	0xbed84469	-0.42239693
2	0xbeac39c5	-0.33637825
3	0x3c4c7ed4	0.01248141
4	0x3ea13c3a	0.31491262
5	0x3eac5b98	0.3366363
6	0x3e164fa6	0.14678821
7	0x3e9b1bc6	0.30294627
8	0x3ed39ff3	0.4133297
9	0x3df8838a	0.12134464

projection.layers.14.weight f4 [25, 10]
0	0x3e4a3348	0.19746125
1	0x3c2ecf34	0.010669518
2	0x3dc3c02a	0.09558137
3	0xbe5c2354	-0.21497852
4	0x3e40c025	0.18823297
5	0x3e407b90	0.18797135
6	0x3e44e27c	0.19227022
7	0xbe258c3c	-0.16166776
8	0x3d22b784	0.039725795
9	0xbe93e7e1	-0.28887847
10	0xbde341aa	-0.11096509
11	0x3d8d9ca4	0.069146425
12	0xbd2f7b08	-0.04284194
13	0xbd872d04	-0.06600383
14	0x3e7e63ee	0.24842808
15	0xbd4bda78	-0.049768895
16	0xbe30b395	-0.17256005
17	0xbe25a157	-0.16174828
18	0xbe193ca6	-0.14964542
19	0xbdc3201c	-0.09527609
20	0x3e7e35e0	0.24825239
21	0x3e7cc07e	0.24682805
22	0xbe7d7541	-0.2475176
23	0x3dd03d46	0.10167937
24	0xbe5566ee	-0.20840046
25	0xbe703c72	-0.23460558
26	0xbe50e2eb	-0.20399062
27	0xbe821739	-0.25408342
28	0xbe9216b4	-0.28532946
29	0x3d69a1c9	0.057039056
30	0x3cd573d6	0.026056211
31	0x3e9fae3b	0.31187615
32	0xbe2099ab	-0.1568362
33	0x3e8d9505	0.27652755
34	0x3ad4a534	0.0016223551
35	0x3e0dcf0f	0.13848518
36	0x3d68df7b	0.056853753
37	0x3e93645e	0.28787512
38	0x3c55847d	0.013032076
39	0xbd274150	-0.04083377
40	0xbe895c35	-0.2682816
41	0x3e5a847a	0.21339598
42	0x3da4f148	0.08053833
43	0xbe9f5c6e	-0.31125206
44	0xbe8bb18a	-0.2728389
45	0x3e8161b9	0.2526987
46	0xbdb077d8	-0.086166084
47	0xbe925e90	-0.2858777
48	0x3e179ee8	0.14806712
49	0x3d2eacf8	0.042645425
50	0x3de9f9df	0.11424612
51	0x3dbeec57	0.09322422
52	0xbe7dcb5b	-0.24784605
53	0xbdbda41f	-0.09259819
54	0xbe164880	-0.14676094
55	0x3e8ec2a1	0.27882865
56	0xbe3e2119	-0.18567313
57	0x3e9ed21b	0.31019673
58	0x3dd21977	0.10258763
59	0x3e44e889	0.1922933
60	0x3e57a2a6	0.21058139
61	0xbdd61e36	-0.10454981
62	0x3cf099c0	0.029370189
63	0x3e765fc6	0.24059972
64	0xbe7a461e	-0.2444081
65	0xbe2ffca5	-0.1718622
66	0x3e9595cf	0.29215857
67	0xbe1c9566	-0.15291366
68	0xbe300b17	-0.1719173
69	0x3e67861a	0.2260975
70	0xbe880b6f	-0.26571223
71	0xbe9242a7	-0.28566477
72	0x3e256207	0.16150676
73	0xbe922f88	-0.28551888
74	0xbd944297	-0.072392635
75	0x3e61b3ea	0.22041288
76	0xbca9cab8	-0.020726547
77	0x3e3bcb31	0.1833923
78	0x3e2ca7db	0.16860907
79	0xbc98df62	-0.018661205
80	0xbe741256	-0.2383512
81	0x3da84e01	0.08218003
82	0x3e0cf7a3	0.13766341
83	0x3e849394	0.25893843
84	0xbe86ed8d	-0.26353112
85	0x3e23620c	0.1595537
86	0x3e0faf68	0.14031756
87	0x3dcd6a2a	0.10030015
88	0x3e6adcbe	0.22935769
89	0x3deef67a	0.116681054
90	0x3dc2ba5c	0.095082015
91	0x3e84f575	0.2596852
92	0xbe987f64	-0.2978469
93	0xbe5bc862	-0.21463159
94	0x3e30d510	0.17268777
95	0x3e64d49e	0.22346732
96	0x3d66ded8	0.056364864
97	0x3d528758	0.051398605
98	0xbe23429c	-0.15943378
99	0x3bc58280	0.0060275197
100	0xbe707ea6	-0.23485813
101	0x3e6ed76e	0.23324367
102	0xbb827f80	-0.0039824843
103	0xbe99e043	-0.3005391
104	0xbdfe76cc	-0.124250025
105	0xbc259f80	-0.010108829
106	0xbe3c7394	-0.18403465
107	0x3e642282	0.22278789
108	0x3e5a851a	0.21339837
109	0xbe035a9d	-0.12827535
110	0x3e7ae227	0.24500333
111	0x3e942ab2	0.28938824
112	0xbc69a822	-0.014261277
113	0x3e6d25df	0.23158978
114	0xbe6ea6a3	-0.23305754
115	0xbe228bfe	-0.15873715
116	0x3d00b74e	0.031424813
117	0xbe96d0ee	-0.29456276
118	0xbe8c4adc	-0.27400863
119	0x3e66bf38	0.22533882
120	0xbe7e5c8f	-0.24839996
121	0x3e2e5747	0.17025481
122	0x3e0a6a47	0.13517104
123	0x3e8aaa9a	0.27083284
124	0x3e5c4d8e	0.2151396
125	0xbe504cfe	-0.2034187
126	0xbe6797ec	-0.22616547
127	0xbd535853	-0.051597904
128	0x3dcaba46	0.0989881
129	0xbdd87b41	-0.10570384
130	0x3e5dbe45	0.21654613
131	0xbe999498	-0.2999618
132	0x3e527b2e	0.20554802
133	0xbea34502	-0.31888586
134	0x3e7ba55d	0.245748
135	0x3e7d11d7	0.24713837
136	0x3e497367	0.19672929
137	0x3dd97511	0.10618032
138	0x3db23629	0.087017365
139	0xbd90d76e	-0.0707234
140	0x3e5fe274	0.21863729
141	0xbe3b5351	-0.18293501
142	0x3d7afd37	0.06127664
143	0xbd01fb8d	-0.03173404
144	0x3e38eb76	0.18058571
145	0xbd878346	-0.06616835
146	0xbe9266c6	-0.28594035
147	0x3d9e1c44	0.07720235
148	0x3d430899	0.04761562
149	0x3e24c591	0.1609099
150	0xbc863a90	-0.016385347
151	0xbe68a922	-0.22720769
152	0xbba86000	-0.005138397
153	0x3e371908	0.17880642
154	0xbdacd35e	-0.084387526
155	0xbd459218	-0.04823503
156	0x3e7adbd6	0.24497923
157	0x3e04409c	0.12915272
158	0xbe7acaa8	-0.2449137
159	0x3d99f6b0	0.07517755
160	0xbe4ce398	-0.20008695
161	0x3e3719aa	0.17880884
162	0x3cdc3010	0.026878387
163	0xbe676f26	-0.22600994
164	0x3e82703f	0.25476262
165	0x3e650fb2	0.22369269
166	0x3e34af58	0.17645013
167	0xbdfd16e0	-0.12357879
168	0xbe0c2ebe	-0.13689706
169	0xbc3484a0	-0.011017948
170	0x3e3b8842	0.18313697
171	0xbde31418	-0.11087817
172	0x3e7ef696	0.24898753
173	0xbe51cc3e	-0.20488068
174	0xbe58ca84	-0.21171004
175	0x3e8db123	0.27674207
176	0xbcd36e50	-0.025809437
177	0x3dda6950	0.10664618
178	0xbe64a3f1	-0.22328164
179	0x3d75fa28	0.06005302
180	0xbd3fca94	-0.046824053
181	0xbe6523c0	-0.22376919
182	0x3e26fe07	0.16307841
183	0x3e9c31c2	0.30506712
184	0x3e734b4f	0.23759197
185	0xbc8a6a5d	-0.016896421
186	0x3e995da1	0.29954246
187	0x3e19d219	0.15021552
188	0x3e9952fc	0.29946125
189	0xbe035622	-0.12825826
190	0xbdc8dcb6	-0.09807722
191	0x3df05aec	0.11736092
192	0xbe5b7b15	-0.21433671
193	0xbe3b14bc	-0.18269628
194	0x3d778fb0	0.060439765
195	0xbe107d39	-0.14110269
196	0xbe00c6bf	-0.12575816
197	0xbea08aa8	-0.31355786
198	0xbe9b7dc8	-0.303694
199	0xbd9e135e	-0.07718538
200	0xbe8989b1	-0.26862863
201	0xbe982db8	-0.2972238
202	0xbd076f88	-0.03306535
203	0xbe3a27a6	-0.18179187
204	0xbe82ac8b	-0.25522265
205	0xbe846526	-0.2585842
206	0x3d6ea5d0	0.0582636
207	0x3c541cd4	0.012946326
208	0xbe9184e1	-0.2842169
209	0x3d8ba1a4	0.0681794
210	0x3e837778	0.25677085
211	0x3c8f1e2f	0.017470447
212	0x3d78a4a4	0.06070389
213	0x3e75aefb	0.23992531
214	0xbe19b6a6	-0.15011081
215	0xbdfa570c	-0.12223634
216	0x3ea51025	0.3223888
217	0x3c789ac3	0.015173617
218	0xbd23bdd6	-0.039975964
219	0xbcbe9c0a	-0.023267765
220	0x3e0b7e7c	0.13622469
221	0x3e9dc17d	0.30811682
222	0x3e7c5c0e	0.24644491
223	0x3e90c789	0.28277233
224	0xbe432ed8	-0.19060838
225	0x3e90b99f	0.28266618
226	0xbe20a03e	-0.15686128
227	0xbdd23e5c	-0.102658
228	0xbe091ee2	-0.13390687
229	0xbe749c3c	-0.23887724
230	0x3d552260	0.052034736
231	0x3db41320	0.0879271
232	0x3e4f8232	0.2026451
233	0xbe3a15a3	-0.18172316
234	0x3e7445a2	0.23854688
235	0x3e6a3dda	0.22875157
236	0x3daa229c	0.083073825
237	0x3e1756a0	0.14779139
238	0xbe70242e	-0.23451301
239	0xbb2f0180	-0.0026703775
240	0xbd9d0e8f	-0.076687925
241	0x3e5d65b6	0.21620831
242	0xbe8805da	-0.26566964
243	0x3e934e28	0.28770566
244	0xbe5a084a	-0.21292225
245	0xbd4229d4	-0.04740317
246	0xbbd6fbad	-0.006560764
247	0x3de0bae8	0.109731495
248	0x3e969cf1	0.29416612
249	0x3e497e5b	0.19677107

projection.layers.14.bias f4 [25]
0	0x3ea62624	0.32450974
1	0x3ca7ca60	0.020482242
2	0x3d819111	0.06326497
3	0x3e333b82	0.17503169
4	0xbe8e26d7	-0.27764007
5	0x3defb5d4	0.11704603
6	0xbe0d11bc	-0.13776296
7	0x3dd760a8	0.105164826
8	0xbe0898fe	-0.13339612
9	0xbe8e41b5	-0.27784505
10	0xbe558ffa	-0.20855704
11	0x3e6aecaa	0.22941843
12	0x3e50ef7f	0.2040386
13	0x3e110159	0.1416067
14	0x3d0db6e3	0.034598242
15	0xbe9ecd76	-0.3101613
16	0xbe94926f	-0.2901797
17	0xbe3e3831	-0.18576123
18	0xbe4b7b8f	-0.19871353
19	0xbca0b770	-0.01961872
20	0x3e985504	0.29752362
21	0x3d63f48f	0.05565315
22	0xbe5f6146	-0.2181445
23	0xbddcaea4	-0.107754976
24	0x3e808a7b	0.25105652

projection.layers.15.weight f4 [4, 4]
0	0x3e92889d	0.28619853
1	0xbe69df90	-0.22839189
2	0x3e3f84c2	0.18702987
3	0xbe7b576b	-0.24545066
4	0xbdae801b	-0.08520528
5	0x3d6b5d54	0.05746205
6	0xbe704231	-0.2346275
7	0xbe5a12bd	-0.2129621
8	0xbec108f2	-0.37702137
9	0x3d818462	0.06324078
10	0xbed82526	-0.42215842
11	0x3d993b1e	0.07481979
12	0x3edbc452	0.42923218
13	0xbaab9409	-0.0013090383
14	0xbead20e1	-0.33814147
15	0xbee20db3	-0.44151077

projection.layers.15.bias f4 [4]
0	0x3ef43ede	0.47704214
1	0xbd951aa3	-0.07280471
2	0x3dc7d204	0.09756854
3	0xbed61432	-0.41812283

projection.layers.16.weight f4 [10, 4]
0	0x3e0c870a	0.13723388
1	0x3da9a34c	0.082830995
2	0xbed5701c	-0.41687095
3	0x3dea66e5	0.11445407
4	0xbac3e999	-0.0014946937
5	0x3cefffe0	0.029296815
6	0x3ec0e989	0.37678173
7	0xbdb00a42	-0.085957065
8	0x3e3e8483	0.18605237
9	0xbe91add2	-0.28452927
10	0x3e2e4d6f	0.17021726
11	0x3eb86638	0.36015487
12	0x3e9949ad	0.29939023
13	0xbe4d92e7	-0.2007557
14	0x3ee29944	0.44257557
15	0x3e9f87d2	0.3115831
16	0xbed3bca7	-0.41354868
17	0xbefb8ca0	-0.49130726
18	0x3edb2552	0.4280191
19	0x3ec0615d	0.37574282
20	0xbe9c1dc9	-0.30491474
21	0x3dba665a	0.09101553
22	0x3eeab60a	0.4584201
23	0x3ecb97e8	0.39764333
24	0x3e758da2	0.2397981
25	0x3c6c0de7	0.014407611
26	0xbe43e77e	-0.19131276
27	0xbd248773	-0.040168237
28	0x3dcba600	0.09943771
29	0x3ef8f8b9	0.4862726
30	0xbe5011fa	-0.20319358
31	0xbed8cd4a	-0.42344123
32	0x3eef3a9f	0.46724412
33	0x3edb848a	0.42874557
34	0x3e645f5d	0.22302003
35	0x3e5fce51	0.21856047
36	0xbe20f67d	-0.15719028
37	0xbbe7f338	-0.0070785545
38	0x3edbf2dc	0.42958724
39	0x3ea2dc42	0.31808668

projection.layers.16.bias f4 [10]
0	0xbd624643	-0.055242788
1	0xbee47e8a	-0.44627792
2	0x3e3c9ebb	0.18419926
3	0x3dd11211	0.10208524
4	0x3eeed04b	0.4664329
5	0x3dad696a	0.08467372
6	0xbedab243	-0.42714128
7	0xbe808683	-0.25102624
8	0x3d1becec	0.038067743
9	0xbea7ef33	-0.32799682
