critic.pth (torch, 65534 bytes, 5 tensors)

layers.0.weight f4 [64, 180]
0.20433278 0.017722126 -0.006407829 0.085681625 -0.051976744 0.050180305 -0.0041407864 0.16712627
0.15153694 -0.033611868 0.08777386 -0.11159638 -0.08720588 -0.0072908597 0.04396351 -0.05769166
0.052683827 0.08610551 -0.015455223 -0.008352809 -0.058907494 0.08281643 -0.05174393 0.124444745
0.008481809 -0.07652048 -0.03617405 -0.034834392 -0.029072048 0.03579386 0.039651744 0.053760238
-0.055496 0.017865252 -0.008360517 -0.057290893 0.028092874 0.13906835 0.04477487 0.19424051
0.015943186 -0.0027816328 0.021588705 -0.022976601 -0.07625704 -0.04277143 0.095181145 0.050171074
-0.15544258 -0.08413109 0.06864966 -0.14686462 -0.0009987742 -0.00691872 0.066495866 0.013008586
-0.09345563 0.022092866 0.05769399 -0.034834154 0.031756382 0.036100186 0.037470765 0.041502226
0.07785293 -0.055969503 0.050489195 -0.018269045 0.054966178 0.07487069 0.083656855 0.15916769
0.014801539 0.09396875 0.0009911057 0.07606451 -0.04323268 -0.048439365 -0.0013075598 -0.08132172
-0.15404439 0.015629511 0.19107138 0.101899825 -0.22499897 -0.03235338 -0.15624997 -0.024920879
0.043523956 0.06090713 0.010323028 -0.065576725 -0.071947105 -0.0065919072 -0.014624464 0.061366927
0.033672046 0.13969871 -0.10349786 0.104094274 0.041319218 0.10148091 0.08472573 0.05126845
-0.04438357 -0.008036281 -0.020399464 -0.14573558 0.018833825 0.041728444 -0.073390394 -0.03530204
-0.004036404 -0.115611255 0.051544383 0.040680457 -0.08470985 -0.05007567 0.03060802 -0.066780694
-0.00526919 -0.010033532 0.12249613 0.006380711 -0.02755126 0.07214402 -0.15703918 0.053999018
0.044614013 -0.07384993 -0.1113664 -0.07747696 0.11810272 -0.009718844 -0.11950465 -0.090575784
-0.007558058 -0.008860882 0.03915098 -0.006787954 0.043826528 0.027573844 0.011276901 -0.0020679268
-0.07508263 0.026378477 0.048473664 -0.032372355 0.024916781 0.03655865 0.06996777 -0.10736202
-0.11081904 0.16774991 -0.030116456 -0.00023043025 0.042325296 0.056969143 -0.060092762 -0.088561624
-0.05504238 0.0888943 0.061798565 0.08422779 0.08288164 -0.038923595 -0.1324516 -0.024872862
0.09320642 0.07121113 -0.022397945 -0.034891427 0.028019546 -0.06864078 0.018000277 0.05013636
0.026426677 -0.0637394 -0.007819474 -0.18050732 0.08918367 0.028418187 -0.0004438853 -0.031254996
-0.016453194 0.07870093 0.04599872 -0.1762662 0.10270156 -0.0007343583 0.121821456 -0.04611614
0.2051143 0.08229384 0.012084849 0.020663409 -0.032131914 0.03934902 0.017848084 -0.10301044
-0.043986537 0.0478987 -0.055963904 -0.0107120965 0.026857937 -0.10800956 -0.06610466 -0.033981156
0.09594463 0.04015652 0.03604471 0.0689834 0.008692898 0.03483232 0.08506847 0.0729464
0.032725472 0.042382553 0.16483268 0.13608225 0.071048014 0.10379023 0.03618046 -0.08346979
0.04908736 0.03314319 0.009712777 -0.056201182 -0.011885218 -0.06853926 -0.07473268 0.11711842
0.087859295 0.11656867 0.095111646 0.09313779 -0.0016275863 0.003992846 -0.042532057 -0.12298499
0.1121901 0.009438557 0.01575982 -0.19988471 -0.044677347 -0.0577532 -0.07026396 0.051099572
-0.008111313 -0.03195541 -0.04659694 0.059369087 -0.037884496 0.08450211 -0.0080947615 0.011118155
00000000: 9d3c 513e fe2d 913c c4f8 d1bb d979 af3d
00000010: 91e5 54bd dd89 4d3d 6faf 87bb 2623 2b3e
00000020: 802c 1b3e 99ac 09bd c8c2 b33d a58c e4bd
00000030: ff98 b2bd 2ae8 eebb 1513 343d 174e 6cbd
00000040: ffca 573d 1658 b03d e737 7dbc 38da 08bc
00000050: fc48 71bd a99b a93d 71f1 53bd e3dc fe3d
00000060: 49f7 0a3c c5b6 9cbd 3e2b 14bd 82ae 0ebd
00000070: 8128 eebc 959c 123d de69 223d b233 5c3d
00000080: c64f 63bd 265a 923c 8dfa 08bc dba9 6abd
00000090: 0723 e63c ef67 0e3e db65 373d fce6 463e
000000a0: 499b 823c 0e4c 36bb ccda b03c 6d39 bcbc
000000b0: a72c 9cbd 1831 2fbd 55ee c23d 2f80 4d3d
000000c0: 572c 1fbe ec4c acbd 3198 8c3d ae63 16be
000000d0: 4de9 82ba 6eb6 e2bb fc2e 883d f721 553c
000000e0: aa65 bfbd 19fc b43c 8950 6c3d 42ae 0ebd
000000f0: fb12 023d cadd 133d f27a 193d 3dfe 293d
00000100: 5b71 9f3d 4740 65bd c2cd 4e3d f7a8 95bc
00000110: 3724 613d ce55 993d 4954 ab3d dbfc 223e
00000120: 2782 723c b072 c03d fde7 813a b6c7 9b3d
00000130: c014 31bd 5b68 46bd 6d62 abba 008c a6bd
00000140: d0bd 1dbe 7609 803c 37a8 433e dbb0 d03d
00000150: 2166 66be fa84 04bd feff 1fbe df26 ccbc
00000160: 2d46 323d c179 793d eb21 293c 174d 86bd
00000170: 0159 93bd ed00 d8bb 739b 6fbc e35b 7b3d
00000180: b3eb 093d 2e0d 0f3e b0f6 d3bd 612f d53d
00000190: 573e 293d 39d5 cf3d af84 ad3d defe 513d
000001a0: 8ccb 35bd 9baa 03bc c71c a7bc b53b 15be
000001b0: 6549 9a3c 72eb 2a3d b44d 96bd df98 10bd
000001c0: d043 84bb 98c5 ecbd 3420 533d 8da0 263d
000001d0: 5c7c adbd 251c 4dbd acbd fa3c 51c4 88bd
000001e0: 2ba9 acbb af63 24bc 40df fa3d 4915 d13b
000001f0: 2eb3 e1bc 3ec0 933d e1ce 20be 132e 5d3d
00000200: 2fbd 363d a23e 97bd 1114 e4bd 3eac 9ebd
00000210: d7df f13d c93b 1fbc dbbe f4bd cc7f b9bd
00000220: 96a9 f7bb 3c2d 11bc c75c 203d 7c6d debb
00000230: 7283 333d 8be2 e13c c0c2 383c 0e86 07bb
00000240: ecc4 99bd ad17 d83c 528c 463d e098 04bd
00000250: 471e cc3c 86be 153d 434b 8f3d 9ee0 dbbd
00000260: 18f5 e2bd a2c6 2b3e c9b6 f6bc a69f 71b9
00000270: 4a5d 2d3d 7a58 693d d423 76bd cc5f b5bd
00000280: 1e74 61bd 370e b63d 7e20 7d3d 9f7f ac3d
00000290: d9bd a93d 596e 1fbd 64a1 07be 2cc2 cbbc
000002a0: 02e3 be3d 24d7 913d e57b b7bc 50ea 0ebd
000002b0: 3f89 e53c 8a93 8cbd 5175 933c c95b 4d3d
000002c0: c27c d83c cd89 82bd 401d 00bc e9d6 38be
000002d0: eea5 b63d 42cd e83c 47b9 e8b9 3d05 00bd
000002e0: d9c8 86bc f42d a13d 2769 3c3d 207f 34be
000002f0: 3255 d23d f481 40ba 877d f93d 47e4 3cbd
00000300: 7c09 523e ac89 a83d 88ff 453c 4f46 a93c
00000310: c19c 03bd 702c 213d 2536 923c 23f7 d2bd
00000320: 3a2b 34bd 6d31 443d 683a 65bd ca81 2fbc
00000330: 2d05 dc3c 1e34 ddbd e161 87bd d32f 0bbd
00000340: 9e7e c43d 2a7b 243d 9ea3 133d 2b47 8d3d
00000350: a86c 0e3c 56ac 0e3d 6138 ae3d ec64 953d
00000360: 250b 063d 5499 2d3d e6c9 283e 2559 0b3e
00000370: 9f81 913d f98f d43d f631 143d 36f2 aabd
00000380: d40f 493d 27c1 073d 5722 1f3c 3633 66bd
00000390: 38ba 42bc 505e 8cbd 730d 99bd c8db ef3d
000003a0: 93ef b33d 8ebb ee3d e5c9 c23d 07bf be3d
000003b0: bc54 d5ba 6bd6 823b 1836 2ebd 8edf fbbd
000003c0: ecc3 e53d 2da4 1a3c bd1a 813c 94ae 4cbe
000003d0: 98ff 36bd 9f8e 6cbd 8de6 8fbd c94d 513d
000003e0: 50e5 04bc ade3 02bd 6fdc 3ebd 002d 733d
000003f0: c62c 1bbd 710f ad3d e49f 04bc ec28 363c

layers.0.bias f4 [64]
0.06388561 0.09263479 0.037059855 -0.08303152 0.042198993 0.036134437 -0.0006758759 -0.05178295
-0.08480166 -0.03479656 -0.0013000899 0.02010145 0.028991468 -0.03700042 0.067350574 0.042434
0.065736786 -0.07371266 -0.017219989 0.04095382 -0.017217208 0.0501084 0.006925081 -0.023822106
0.10986158 -0.06261938 -0.04003273 0.041117124 -0.072198436 -0.06373099 -0.048981935 -0.039846696
-0.05192864 -0.015572666 0.043896258 -0.05591297 0.0535969 0.022689464 0.017245397 -0.0259163
-0.0053545195 0.07412761 -0.008677993 -0.05381756 -0.07715767 0.057187665 -0.016337726 0.043362807
0.025759371 0.04177073 -0.05156717 0.027878335 0.0010502733 -0.053643093 0.011860657 0.016193248
-0.03309954 0.016751222 -0.061880738 -0.0016771815 0.044138134 -0.024766536 -0.026611412 0.06455454
00000000: 75d6 823d 4fb7 bd3d 13cc 173d 6e0c aabd
00000010: dad8 2c3d b401 143d 442d 31ba 5c1a 54bd
00000020: 7eac adbd d686 0ebd c767 aaba ccab a43c
00000030: 847f ed3c c18d 17bd 19ef 893d 46cf 2d3d
00000040: 02a1 863d aaf6 96bd ef10 8dbc 31bf 273d
00000050: 1a0b 8dbc 773e 4d3d caeb e23b 9426 c3bc
00000060: 1cff e03d 973e 80bd 5cf9 23bd 6e6a 283d
00000070: c6dc 93bd 6585 82bd 48a1 48bd 4a36 23bd
00000080: 20b3 54bd 7f24 7fbc 90cc 333d 0005 65bd
00000090: 6c88 5b3d 41df b93c 3846 8d3c 6c4e d4bc
000000a0: f774 afbb 37d0 973d 242e 0ebc cd6f 5cbd
000000b0: d704 9ebd 9d3d 6a3d b2d6 85bc 339d 313d
000000c0: 5105 d33c c917 2b3d 1938 53bd 1b61 e43c
000000d0: 53a9 893a dcb8 5bbd 3353 423c b4a7 843c
000000e0: 6293 07bd dc39 893c a876 7dbd dfd4 dbba
000000f0: 30ca 343d 31e3 cabc 2d00 dabc 2c35 843d

layers.1.weight f4 [64, 64]
0.18842682 -0.010124709 -0.001321571 0.12926038 -0.050368555 -0.3534147 -0.14376283 0.18347833
-0.024691723 -0.1481119 -0.056677993 -0.041948643 -0.11943206 0.12477758 -0.09807408 -0.03412149
0.005094976 -0.078808814 -0.04164308 0.10280186 -0.015101537 -0.10910085 0.04987561 -0.09848574
0.05093355 -0.09826842 0.17693123 0.10474451 0.021573525 0.016229445 0.11534189 -0.09001937
-0.09072879 -0.094079316 -0.068056755 -0.017487405 0.10584566 -0.11376141 0.032328997 -0.0875954
0.18409857 -0.06913158 -0.15247796 0.24977702 0.20102775 -0.009426084 0.03381091 -0.1430756
0.15415262 0.13095391 -0.08384815 -0.012195966 -0.17120755 0.03044927 0.08448323 -0.07194674
-0.0977888 -0.24290241 -0.044395253 -0.22011712 -0.187098 -0.16521548 -0.28139257 0.057667196
-0.063946165 -0.060329594 0.005644468 0.04491089 0.26875958 0.12312729 -0.115228005 0.020401837
0.2413795 0.028567983 0.23797783 0.121075906 0.11515127 -0.061823517 0.005176301 -0.07450384
0.019458935 0.10071165 -0.037800144 0.18045536 -0.12518594 0.010690952 -0.14663965 -0.056318708
0.008879211 0.09944764 0.021533808 0.09743993 -0.30126554 0.1559641 0.03050024 -0.015085105
0.03117328 -0.06593196 0.1445367 -0.20936173 0.12652586 0.07005646 -0.0256385 0.09114915
0.102033354 0.1201728 0.11095759 -0.06872375 0.31909662 0.071796216 -0.09603227 0.04922429
0.20523062 0.067015074 0.0054904204 -0.0063728592 0.16826789 0.025542332 0.07767819 -0.0025442902
0.22381182 -0.16905996 -0.08235316 0.04915109 0.054074552 -0.17307141 0.09832761 -0.010374629
-0.040458735 0.08949668 -0.17896242 0.02609611 0.043158915 0.09148614 0.105573036 -0.00692017
-0.021855852 -0.2801386 0.04913153 -0.26351276 -0.003834076 -0.05322094 0.036856133 -0.06780394
0.04551094 0.06979768 -0.08125366 0.29920134 -0.002792283 0.047536746 -0.024662297 -0.020182129
0.07653367 0.02483198 -0.018463671 0.2855417 0.011527865 -0.029138045 0.19618025 0.17753376
-0.19431937 0.006519162 -0.10736704 -0.04459807 -0.11690878 -0.12382544 0.099630944 0.18005848
-0.25368226 0.10015648 0.012687724 0.054436196 0.063304886 -0.024515318 -0.14134409 0.105620734
-0.08150802 0.015050307 0.16029797 0.07558825 -0.013618716 0.037470408 -0.055218685 -0.11193513
-0.10903932 0.20930062 0.112891845 -0.12567618 0.04936914 -0.2520298 -0.024031226 0.15455769
0.13911596 -0.007061359 -0.003259512 -0.026959093 -0.12843715 -0.08664447 0.30295926 -0.111480616
0.21486096 -0.051747322 0.10859735 -0.009883178 0.21123455 0.107844554 -0.20086786 0.13223481
-0.10349791 0.13030425 -0.17154886 0.14213699 0.04138432 -0.08133576 0.12214876 0.092663825
0.0074707894 -0.033475902 -0.024449345 0.047729135 0.12625088 -0.13917376 -0.037589233 -0.11639066
0.15787834 -0.049777735 0.19572139 0.04379383 0.00554145 -0.06616765 0.056603014 -0.16940743
0.035469703 0.005937191 0.06837972 -0.20653169 -0.13313809 -0.10380594 -0.014676586 0.12613566
0.086410925 -0.13255386 -0.021829082 -0.022672106 -0.13475865 -0.07834966 -0.051816758 -0.18456425
0.10973709 -0.19817041 0.06569004 -0.122768745 0.2940019 0.05012068 -0.1658678 -0.043618325
00000000: f6f2 403e 1ce2 25bc 9038 adba d55c 043e
00000010: 424f 4ebd c6f2 b4be 9036 13be bee1 3b3e
00000020: 4c46 cabc a5aa 17be 2f27 68bd 57d2 2bbd
00000030: cc98 f4bd 638b ff3d 10db c8bd fac2 0bbd
00000040: c2f3 a63b 8466 a1bd ef91 2abd c889 d23d
00000050: 706c 77bc 4470 dfbd 5e4a 4c3d e4b2 c9bd
00000060: b39f 503d f440 c9bd 762d 353e 4a84 d63d
00000070: f6ba b03c 9df3 843c 5e38 ec3d 135c b8bd
00000080: 04d0 b9bd a8ac c0bd 5761 8bbd bf41 8fbc
00000090: 9cc5 d83d befb e8bd 696b 043d 3865 b3bd
000000a0: 5684 3c3e dc94 8dbd 2f23 1cbe 8cc5 7f3e
000000b0: 38da 4d3e dd6f 1abc 4f7d 0a3d 6982 12be
000000c0: 2fda 1d3e c818 063e 94b8 abbd 97d1 47bc
000000d0: 0851 2fbe bf70 f93c 8b05 ad3d d058 93bd
000000e0: 7f45 c8bd 69bb 78be ccd7 35bd 6266 61be
000000f0: 9e96 3fbe 3f2e 29be b012 90be 7034 6c3d
00000100: 35f6 82bd 2a1c 77bd 3bf5 b83b 7bf4 373d
00000110: db9a 893e 292a fc3d a9fc ebbd c121 a73c
00000120: 302c 773e 6707 ea3c 76b0 733e a5f6 f73d
00000130: 6ed4 eb3d a83a 7dbd f69d a93b 7895 98bd
00000140: 5868 9f3c e941 ce3d 53d4 1abd 4ac9 383e
00000150: be30 00be 1a29 2f3c b428 16be 72ae 66bd
00000160: 1c7a 113c 34ab cb3d ab67 b03c 968e c73d
00000170: 7a3f 9abe 0eb5 1f3e a4db f93c 8427 77bc
00000180: 1b5f ff3c 5607 87bd 6e01 143e ec62 56be
00000190: ff8f 013e c379 8f3d d507 d2bc 68ac ba3d
000001a0: ddf6 d03d 281d f63d bc3d e33d 0abf 8cbd
000001b0: a260 a33e e509 933d 91ac c4bd 699f 493d
000001c0: fa27 523e 333f 893d fce8 b33b 6bd3 d0bb
000001d0: 6b4e 2c3e 273e d13c be15 9f3d 1bbe 26bb
000001e0: ed2e 653e 0e1e 2dbe c6a8 a8bd a752 493d
000001f0: 477d 5d3d a239 31be fc5f c93d 59fa 29bc
00000200: 0fb8 25bd 094a b73d ed41 37be 82c7 d53c
00000210: 67c7 303d 165d bb3d ad36 d83d 98c2 e2bb
00000220: 0b0b b3bc 546e 8fbe 253e 493d 25eb 86be
00000230: 1f45 7bbb 33fe 59bd 75f6 163d cbdc 8abd
00000240: ae69 3a3d 16f2 8e3d 5268 a6bd eb30 993e
00000250: bcfe 36bb e4b5 423d 9608 cabc fe54 a5bc
00000260: afbd 9c3d 706c cb3c 2041 97bc 8632 923e
00000270: 5fdf 3c3c e9b2 eebc 7ae3 483e 69cb 353e
00000280: a8fb 46be b29e d53b 40e3 dbbd 77ac 36bd
00000290: df6d efbd 3198 fdbd 4f0b cc3d 4061 383e
000002a0: a4e2 81be d71e cd3d 2ce0 4f3c 7df8 5e3d
000002b0: fea5 813d 59d4 c8bc 81bc 10be af4f d83d
000002c0: aded a6bd 9095 763c 2725 243e 03ce 9a3d
000002d0: 0921 5fbc 927a 193d fd2c 62bd 3f3e e5bd
000002e0: 0250 dfbd e752 563e d733 e73d 42b1 00be
000002f0: 4c37 4a3d 0d0a 81be 22dd c4bc 5f44 1e3e
00000300: 6a74 0e3e f962 e7bb 899d 55bb 51d9 dcbc
00000310: 0785 03be a872 b1bd 7a1d 9b3e f34f e4bd
00000320: 8304 5c3e 00f5 53bd 4a68 de3d 0eed 21bc
00000330: df4d 583e 9bdd dc3d 4eb0 4dbe 9068 073e
00000340: b6f6 d3bd 7a6e 053e 81aa 2fbe 5c8c 113e
00000350: 9b82 293d 5d93 a6bd 2129 fa3d 88c6 bd3d
00000360: 86cd f43b 071e 09bd fe49 c8bc a07f 433d
00000370: e947 013e 9183 0ebe 2bf7 19bd 3a5e eebd
00000380: dcaa 213e bde3 4bbd 306b 483e 2961 333d
00000390: 0d95 b53b e882 87bd 90d8 673d 2479 2dbe
000003a0: ae48 113d c58c c23b ab0a 8c3d 0b7d 53be
000003b0: 5a55 08be 3598 d4bd 1076 70bc b529 013e
000003c0: 36f8 b03d 33bc 07be e7d2 b2bc daba b9bc
000003d0: 2cfe 09be c975 a0bd cf3d 54bd 69fe 3cbe
000003e0: d7bd e03d 2fed 4abe 8088 863d 2e6e fbbd
000003f0: 6b87 963e 584b 4d3d 40d9 29be 21a9 32bd

layers.1.bias f4 [64]
-0.061263114 -0.14415939 -0.04705106 -0.08056635 -0.029893873 -0.05474314 0.0023449324 0.1378977
-0.120013 0.011305464 0.109024055 -0.055128533 -0.068718925 0.11609782 -0.075474136 -0.1485853
-0.049828984 -0.12657109 -0.118705906 -0.028999565 -0.014272867 0.073876925 0.04307359 0.022493096
0.041599445 -0.005998965 -0.017245876 -0.059337314 0.018345725 -0.066451296 0.15522008 -0.12946165
-0.11097307 0.15380162 -0.0993891 0.07670878 0.13170204 0.03295406 0.11210004 -0.042294107
0.050541695 0.13995557 -0.09791342 0.12728834 0.0626136 0.005592787 -0.024859589 -0.07948732
0.0108242165 -0.039217845 0.08528238 -0.05791411 0.02759966 0.02225477 -0.051354975 0.14770925
-0.04717498 0.0020174028 -0.01519531 0.033615798 0.064993605 0.14441128 0.14676727 0.10634879
00000000: 08ef 7abd 859e 13be 9db8 40bd f8ff a4bd
00000010: ffe3 f4bc 583a 60bd 70ad 193b 0e35 0d3e
00000020: 60c9 f5bd 8e3a 393c 0148 df3d 75ce 61bd
00000030: 82bc 8cbd b2c4 ed3d 2f92 9abd bf26 18be
00000040: 7a19 4cbd da9b 01be 151c f3bd 7f90 edbc
00000050: bed8 69bc c94c 973d ef6d 303d 7143 b83c
00000060: 2e64 2a3d f792 c4bb 3947 8dbc af0b 73bd
00000070: c649 963c 9e17 88bd 03f2 1e3e 9891 04be
00000080: d945 e3bd 2c7e 1d3e 838c cbbd 7e19 9d3d
00000090: e6dc 063e d6fa 063d b594 e53d 963c 2dbd
000000a0: cf04 4f3d 8350 0f3e d586 c8bd e057 023e
000000b0: 8f3b 803d b343 b73b 56a6 cbbc 3fca a2bd
000000c0: 0e58 313c e4a2 20bd 87a8 ae3d 5937 6dbd
000000d0: af18 e23c a34f b63c 9859 52bd 1841 173e
000000e0: 8d3a 41bd 6736 043b c0f5 78bc b8b0 093d
000000f0: 5e1b 853d 8de0 133e 294a 163e 65cd d93d

layers.2.weight f4 [1, 64]
-0.21563128 -0.10141276 -0.033597887 -0.12182218 0.03997399 0.056562707 -0.09788641 0.23659106
0.12949573 0.118256405 0.17322427 -0.009151717 0.0123369 0.09086128 -0.088288985 -0.08327816
-0.03314011 -0.118303 -0.14339182 0.22875643 0.042355675 0.029222786 -0.0027975359 0.004234298
0.14061697 0.21564426 -0.017764442 -0.074973695 0.07381071 0.07759866 0.029442465 -0.07446784
0.06921812 0.06507836 -0.044471905 -0.08675502 0.034765426 -0.20916405 0.06313873 0.2171217
-0.05469014 0.07258255 -0.08005968 0.08780722 -0.12697242 0.12477486 0.12106755 -0.16981034
-0.10063126 -0.27404654 -0.033843637 -0.08377078 -0.13841727 -0.20368928 0.042225532 0.07822645
-0.02539497 0.018839935 0.04937767 0.040153008 -0.058387928 0.19888261 0.077836744 0.04886977
00000000: 72ce 5cbe 7eb1 cfbd f09d 09bd e87d f9bd
00000010: c4bb 233d 4cae 673d ac78 c8bd ed44 723e
00000020: 879a 043e 6a30 f23d b461 313e 15f1 15bc
00000030: b620 4a3c 7b15 ba3d dbd0 b4bd bd8d aabd
00000040: edbd 07bd d848 f2bd 4ed5 12be 203f 6a3e
00000050: 257d 2d3d a064 ef3c dd56 37bb debf 8a3b
00000060: e5fd 0f3e d9d1 5c3e bc86 91bc cf8b 99bd
00000070: 122a 973d 0cec 9e3d 5331 f13c 9882 98bd
00000080: 3bc2 8d3d ce47 853d 2c28 36bd 9eac b1bd
00000090: 3166 0e3d 1a2f 56be e14e 813d 2755 5e3e
000000a0: c502 60bd 29a6 943d 54f6 a3bd 46d4 b33d
000000b0: 0f05 02be f689 ff3d 43f2 f73d c3e2 2dbe
000000c0: c317 cebd d44f 8cbe a09f 0abd 0490 abbd
000000d0: 42bd 0dbe ec93 50be aef4 2c3d 3035 a03d
000000e0: 1d09 d0bc 3556 9a3c 3d40 4a3d 7b77 243d
000000f0: 2e28 6fbd e2a7 4b3e df68 9f3d ab2b 483d
