critic.pth (torch, 25992 bytes, 3 tensors)

layers.0.weight f4 [250, 22]
00000000: 95be 503e b609 87be dddf 303e 1f59 f7bd
00000010: 8e70 173e adbf 1c3e 6d3a 053e ff6a 18be
00000020: 1c3c e83d 0ca7 9abc dd2b 24be b086 b1bd
00000030: c86d 963d 9772 f23d b656 4ebe 09fe 39be
00000040: 7ecb 7fbe ba7e 833d 5ce7 b03d e614 ab3c
00000050: 419c 85bd 1ee3 2d3e e9af dfbd 05b9 0e3e
00000060: 78da bdbd e0a3 22be ed0d 493d 327c f6bd
00000070: cfc6 82be f457 003e 9e8c 453d 3522 1d3d
00000080: f82e aabd cb6c 363e d813 d3bb ec23 9e3e
00000090: f780 1a3e fd52 ffbd aa7b 2f3d f21b 213d
000000a0: 689c 03be e299 1b3e 0eef 90bd 9801 9fbe
000000b0: 8ab0 38be 153d 163e e167 2bbe 88be 03be
000000c0: 4043 2c3c 61c4 63be 9bbb 0bbe e893 3ebe
000000d0: 9272 94bd 43be 5f3e a8ef 03bd 61b2 5a3d
000000e0: 3b90 0e3e 57a3 d3bd 54ec bbbb a3e7 cdbb
000000f0: 185b de3c c6f6 6e3a bbd0 bb3d 6010 d0bd
00000100: ed9b 0dbd 03f3 bc3d b1c4 4f3e 32c1 84bd
00000110: 1b58 d0bd cafc 04be 5320 acbd 2517 10be
00000120: 8560 a3bc 4b68 91bd ab07 c83d 8914 47be
00000130: dd82 2a3e 19d2 b93d d16e acbc b339 0b3e
00000140: 966a 8e3e 8528 86bd 3d0d d7bd 3b7e 1cbd
00000150: 6a97 39be c809 443e 2409 043c 106b 9e3e
00000160: 21cb 473d a281 8ebb 78a9 d8bd 794d 19bd
00000170: 7115 7b3d 576e efbd 8155 0c3e 8dce 3cbd
00000180: 1d24 0dbe d163 3abe 5f50 c9bd 5d54 963c
00000190: 78b0 153e 1c81 94bd 9449 ebbd aa8a 333e
000001a0: 75b1 d53d 1a68 1b3e 7176 2b3c 26ff f03e
000001b0: 6959 773e b28b 8cbe 7e24 d9bd 9837 cb3c
000001c0: 34c4 c93d ed96 223e e25c 40be 84f4 d63d
000001d0: 4cb1 123e f1d8 2dbe a4bc 4bbe 9380 49be
000001e0: 6911 34be 582b c6bd fea9 f0bc e385 f33c
000001f0: 9519 063e 8723 ddbc d8bc eebd bed3 9e3b
00000200: a479 3e3d c498 fdbc 2b6c 083e a080 2d3e
00000210: 0817 953d 7168 d6bd fe3b 183e 8bcc e33d
00000220: a662 dabd 32af 1fbe 81f3 51be d089 3dbd
00000230: caf4 6abe 7c98 cc3d a622 953c 5f9c 2a3c
00000240: f36b 44be e39c 623e 6211 803e b487 423d
00000250: 725d 5dbc 3ce2 91bd 8047 0b3d 602b cdbe
00000260: 455f 84be 2317 ed3d 7a02 4fbe 6d2c 36bd
00000270: 3934 75be 2f47 d6bc 8088 f6bd 0a1f 153e
00000280: eef2 643e 412e 08bd bada f13b 90ff 553d
00000290: 19de 673b 77ed 6c3c 7375 54be baae 59be
000002a0: 52c7 31be 2f69 f0bd f14c 333e 580a 453d
000002b0: e380 08be 392b 303c a3db f2bd 6f90 1fbe
000002c0: c44a 8dbd bc77 13bc 66e8 8c3d e9b4 273e
000002d0: dbcf a6bd b929 333d ac4d bebd 75d2 a7bc
000002e0: bb1a 923d cbfa e5bd 9294 b4be 91fd 233e
000002f0: 7b43 20be 9e7b e03d e6d8 6cbe 78d9 fe3d
00000300: 1165 84be 6453 46bd 928d 893d 93bb 933d
00000310: de19 d73d 90a0 71bd 4daf 2c3d 9e2e 933d
00000320: 52d7 543c 2a82 303a 0591 183e a330 1abe
00000330: 0acf 7f3e e206 013d 56c0 71be ca00 cbbc
00000340: 01bd fa3d e3f6 3ebe aed3 7a3d bf19 8d3d
00000350: 9fd1 2fbd f9fa 453d 54e0 a7bd 3d08 80bd
00000360: 83b7 e73d 8dda 0f3d 7d10 8cbe fd08 5abe
00000370: 8ba6 01bd f30b 133e 5b73 5bbe df17 c7bd
00000380: 01c8 103e e123 f73d 5d25 9c3d 94a9 903d
00000390: 4550 3abe 3822 e83d 1cc0 7c3c 7c4c 2cbd
000003a0: c089 c63d 8f8f 95bd 36cb 82be 4414 fcbb
000003b0: cc71 863b 0b49 d63d c2a8 02be 17cc b1bb
000003c0: 04b3 2c3e eaa1 fb3d 5ec3 c7bc c5bd 98bc
000003d0: 2b39 43be 0056 12be f44a 15bc afdf 65be
000003e0: abc9 35be 07ff 143e d085 c63d 94bc 26bd
000003f0: 01d3 683d aab4 9f3d f08a 6ebd c34f 25be
0.20385201 -0.26374596 0.17272897 -0.120775454 0.1478903 0.15307494 0.13010569 -0.14884566
0.1133959 -0.018878482 -0.16032358 -0.08668268 0.07345158 0.118382625 -0.20150265 -0.18163313
-0.2497997 0.064206555 0.08637878 0.020883989 -0.06523944 0.1698117 -0.10922224 0.13937767
-0.09270185 -0.15882826 0.049085546 -0.12035407 -0.25542304 0.12533551 0.048229806 0.0383627
-0.0830974 0.17814939 -0.0064415745 0.3088678 0.15088259 -0.12467001 0.042842545 0.03933329
-0.12852633 0.1519542 -0.07076846 -0.31055903 -0.18036094 0.14671738 -0.16738845 -0.1286565
0.0105140805 -0.22242881 -0.13645785 -0.1861111 -0.07248415 0.21849923 -0.032210976 0.05339277
0.13922207 -0.10333889 -0.0057349596 -0.0062837168 0.027143046 0.00091157516 0.091706716 -0.10159373
-0.03457253 0.09226038 0.20289876 -0.064821616 -0.10173055 -0.12987056 -0.08404603 -0.14071329
-0.019943485 -0.070999704 0.097670875 -0.19441427 0.16651483 0.09073276 -0.021048935 0.1359623
0.27815694 -0.06550697 -0.10500572 -0.03820632 -0.18124166 0.19144356 0.00805882 0.30941057
0.048777703 -0.0043489495 -0.105791986 -0.0374274 0.061299745 -0.116909675 0.13704492 -0.04609542
-0.13783307 -0.1820214 -0.09829783 0.018350774 0.14618099 -0.07251188 -0.11488643 0.17533365
0.10434238 0.1517643 0.01046525 0.47069663 0.24155201 -0.2745033 -0.106026635 0.024806783
0.09851876 0.15877886 -0.18785432 0.104958564 0.14325446 -0.16977288 -0.1989618 -0.19677953
-0.17584766 -0.09676236 -0.029377934 0.029726928 0.13095696 -0.02699448 -0.11657113 0.004847019
0.046502724 -0.030956633 0.13322513 0.16943598 0.072797835 -0.10469139 0.14866635 0.11122998
-0.10663347 -0.15594175 -0.20503046 -0.046274006 -0.22944942 0.099900216 0.018204998 0.010413258
-0.19181804 0.2213016 0.25013262 0.047492698 -0.013511049 -0.07123229 0.034003735 -0.40072155
-0.25853935 0.115766786 -0.20215788 -0.04447596 -0.23945703 -0.02615699 -0.12037754 0.14562622
0.22358295 -0.033247236 0.0073808106 0.052245677 0.0035380183 0.014460913 -0.20747928 -0.21258059
-0.17361191 -0.11738812 0.1750982 0.048105568 -0.13330416 0.010752493 -0.11858299 -0.15582441
-0.06899026 -0.009000715 0.06880264 0.16377605 -0.08145114 0.04374096 -0.092921585 -0.020486096
0.07134005 -0.112294756 -0.352696 0.16014697 -0.15650742 0.10961078 -0.23129615 0.124438226
-0.25858358 -0.04841937 0.067164555 0.07213511 0.10502981 -0.058991015 0.042159367 0.07186626
0.0129907895 0.0006733263 0.1489907 -0.15057616 0.24981323 0.031500705 -0.23608527 -0.02478065
0.12243081 -0.18648867 0.06123703 0.06889676 -0.04292452 0.04833505 -0.08197084 -0.06251571
0.11314299 0.035120536 -0.2735633 -0.21292491 -0.03165297 0.14360027 -0.21430723 -0.0972135
0.14138795 0.1206739 0.07624314 0.070635945 -0.18194683 0.11334652 0.015426662 -0.04206513
0.096942425 -0.07302772 -0.25545663 -0.0076928455 0.004102921 0.104631506 -0.12759688 -0.0054259407
0.16865164 0.12286742 -0.02438515 -0.018645177 -0.19064777 -0.14290619 -0.0091121085 -0.2244861
-0.17752711 0.1455041 0.096934915 -0.040707186 0.056841854 0.07798131 -0.05823797 -0.16143708

layers.0.bias f4 [250]
00000000: 29bf 12be 702a 57bd 8a28 273e cb6b 8abc
00000010: bf5a 173e cb6e b93c a520 91bd 5ab7 97bc
00000020: fc84 24bd 328b b6bd 79b7 13be e82f 50be
00000030: b93b 26bd 16b9 33be 79a7 b23d 4d88 333e
00000040: 6de8 3e3d a133 00bd 17d9 38bd cdb0 093d
00000050: ac0e 20be f227 403e 812c 233e cebe cd3a
00000060: 0b3e f4bd 9e39 753d c938 2e3c 597d 293e
00000070: 50a8 87bd b602 2ebe 7510 04be a130 253e
00000080: 4fa8 7ebc 5781 08be 637b 55bd fdda 9c3d
00000090: 5aac 2cbe cfc7 b2bd 04cd 873c 6a70 47bd
000000a0: 7a39 cbbd a254 ac3d 53f2 24be 9e2a 293e
000000b0: 78c1 bc3d f555 8abc 9250 ba3d ff64 96bd
000000c0: 4eaa 1bbe 84de 07be 736c 13be 767a 663d
000000d0: 8b4a 21be ce63 0fbe b025 00bd b3de fd3d
000000e0: 16bd 4cbe 9cca 683d 5ef5 383c 9b9f c4bd
000000f0: e54c 1cbe 2a5c 9dbd 61bf 1abe 8890 b83c
00000100: 2141 5f3e 6bdd 67bc 0135 903d c21a 093e
00000110: ee16 b43c 8ffe 08be 0222 273e 8a75 4e3e
00000120: 0ed2 62bd a0ad 23be 2c8e 843d a1b2 98be
00000130: f19b a73d d243 a63d 2451 cb3d 1bff 2bbe
00000140: 388a b2bd 8d35 53be 70d9 493e 89fc 083e
00000150: ae96 1d3e b11d 2d3e 82ce 78be 08d5 c438
00000160: 90d0 6e3d f07c 06be 7900 05be 261e 933d
00000170: 80ff 2fbe 6c18 c9bd f225 6e39 6dfb cf3d
00000180: 4ef8 65bd 69a9 6dbe c052 393d d0b7 243e
00000190: 840d 36bd 68d6 fe3d c83a 34bc debe 403e
000001a0: 864e 6b3e 3623 8dbd 8b4a 103e 4a70 223d
000001b0: cad1 0f3d 24b9 f53c f37f 17be d2ae bd3d
000001c0: dc02 d0bd bdc8 6cbe 0655 34be fa23 cd3d
000001d0: b9e3 d83d 7385 31be f9d5 403d f561 d9bd
000001e0: ec19 0b3d 357a 14bd d8dd db3d 71ed ea3d
000001f0: a41f 283e 9f10 9dbd 053e 703e 3a25 27be
00000200: 8dfa dc3d 7694 f33d 3281 2ebe 96c2 4c3c
00000210: 2567 74bd a0eb e93d e802 0abd f9b5 113c
00000220: ec7b f53c 8cd4 9bbd fb2e 623e cf1f 12bc
00000230: ad42 30be df61 b73d c549 d8bd c41f 283e
00000240: 9cb0 c4bd 44d4 08be bbc3 303e e36b 133e
00000250: dc38 f5bd 1621 2e3e 322b 0fbe a39b db3c
00000260: 86d8 d83c 0ce8 003e 0aca 8d3c d602 a53d
00000270: e9cb d2bc 7190 083e a734 c4bd 8dd2 353e
00000280: 5d3a 08be c80e e3bd 030c 083e c167 1d3e
00000290: ac44 d2bd 6409 83bd 4f4c 50bd c3c3 173e
000002a0: a201 1f3d 09df 82bc 43b2 a0bd 81dc 2fbe
000002b0: 1fab de3c 4c79 09be 2f18 65bd fae9 703c
000002c0: 1fde 21be 5d3f 13be d917 0f3e 47a8 8b3d
000002d0: cf7d 2bbe 573a 463e def3 1f3e 8240 0bbe
000002e0: dcc9 6c3e 5627 eb3d 62e5 c73d 29e2 a9bd
000002f0: be99 bf3d b62d 063e 55f5 8f3d 55f7 0ebe
00000300: 177b 84bd 599e c4bd 55a7 55be 0bc3 523e
00000310: 23a5 6f3d ad77 8c3c f197 243e b6ef a8bd
00000320: 45d6 7dbd 4c2e 0dbe 673e 17bc efc0 37bd
00000330: 6908 753d b36d 983d 1d7a cb3d 91e5 bfbd
00000340: 9694 3bbd 2d6d 0c3d 2557 e83c c3bb e3bd
00000350: 6f87 e2bd ee9f 73be 9d41 313d 4a10 a8bd
00000360: 1416 e7bd 5368 72bc 0611 c9bd 8459 603d
00000370: 9672 e7bc e8be 5f3e b07e 563e f435 973d
00000380: 2b76 323d 03a2 323c ca9d 863d 7187 d23d
00000390: c60e 243d c0a2 f93d 1bad 1b3e a535 96bc
000003a0: 05f9 063c 25bd ad3d 7a89 063d 402d 8bbd
000003b0: ccf3 1c3c a20f 21bd 0e02 083c 6f5c c13d
000003c0: 3c2d 3fbd 4bec 3e3e 841e 0bbe 1cfa 223e
000003d0: cf1f 2b3e 08af 5ebd 96f4 ff3d 32a8 db3d
000003e0: a290 163e 9cd1 1cbd
-0.14330734 -0.052530706 0.16324058 -0.016897103 0.1478071 0.022635838 -0.070863046 -0.018520046
-0.040165886 -0.08913268 -0.14425458 -0.20330775 -0.0405843 -0.17551073 0.08723349 0.17532463
0.046608377 -0.031299237 -0.045128908 0.033615876 -0.15630597 0.18765238 0.15934946 0.0015697123
-0.11925896 0.0598694 0.010633656 0.16551723 -0.066239 -0.16993222 -0.12896903 0.16131832
-0.015543058 -0.13330589 -0.052119624 0.07658956 -0.16862622 -0.08729517 0.016577251 -0.04869119
-0.09923072 0.0841458 -0.16108064 0.16520163 0.09216589 -0.01688669 0.09097399 -0.07343482
-0.15201685 -0.13268477 -0.14396839 0.05626913 -0.15751092 -0.14002916 -0.03128594 0.12395992
-0.19994006 0.05683385 0.011288969 -0.09600755 -0.15263708 -0.076835945 -0.15112068 0.022529855
0.21802188 -0.014151911 0.0704136 0.13389114 0.02198359 -0.13378356 0.16321567 0.20162025
-0.055376105 -0.15984201 0.0647243 -0.29823783 0.0818404 0.081184044 0.09927586 -0.16796534
-0.087177694 -0.20625897 0.19711852 0.13377585 0.15389511 0.16905858 -0.24297526 9.3856885e-05
0.05830437 -0.13133597 -0.12988462 0.07183485 -0.1718731 -0.09819111 0.00022711584 0.101553775
-0.056145005 -0.23209156 0.045244932 0.16085744 -0.044446483 0.124432385 -0.011000343 0.1882281
0.22979173 -0.068914816 0.14090936 0.03965787 0.03511218 0.029995508 -0.14794903 0.0926186
-0.101567954 -0.2312345 -0.17610559 0.100166276 0.1059031 -0.17336063 0.04707906 -0.10614387
0.033960268 -0.03624936 0.10735673 0.114710696 0.1641832 -0.07669186 0.23461159 -0.16322795
0.10789976 0.11893551 -0.17041472 0.012497565 -0.05966868 0.11421895 -0.033694178 0.008893483
0.029966317 -0.076088995 0.22088234 -0.008918717 -0.17212935 0.08954214 -0.105609454 0.16418368
-0.09603998 -0.13362223 0.17262165 0.14396624 -0.11973736 0.17004809 -0.13981321 0.026807612
0.026470434 0.12588519 0.017308254 0.080571815 -0.025731998 0.1333635 -0.09580355 0.177561
-0.13303514 -0.11086804 0.13285832 0.1537161 -0.10267004 -0.063982755 -0.050854024 0.14820771
0.038819917 -0.015975492 -0.07846501 -0.1717396 0.027181206 -0.13425177 -0.055931266 0.014704222
-0.15807389 -0.1437964 0.13973941 0.06819206 -0.16747211 0.19358192 0.15620372 -0.13598827
0.23123878 0.11482112 0.09760548 -0.0829509 0.09355496 0.13103375 0.07029215 -0.13961537
-0.0646879 -0.09600515 -0.20864613 0.20582215 0.058507096 0.01714691 0.16073586 -0.08248846
-0.06197192 -0.13787192 -0.0092311865 -0.04486173 0.059822474 0.074427985 0.09935401 -0.09369958
-0.045796 0.034283806 0.028361866 -0.11119797 -0.11060988 -0.23791477 0.043275464 -0.08206232
-0.11283508 -0.014795381 -0.098177 0.05477287 -0.028252881 0.21850169 0.20946765 0.073833376
0.043569725 0.010902884 0.065730646 0.1027974 0.04005315 0.12189245 0.15202753 -0.018336127
0.008238082 0.08483342 0.03284595 -0.0679574 0.00957961 -0.03932155 0.008301271 0.094414584
-0.046674 0.18644826 -0.1358586 0.15915722 0.16711353 -0.05436614 0.12497823 0.1072544
0.1470361 -0.038285837

layers.1.weight f4 [1, 250]
00000000: b2fd 89bd 40a8 0b3e 36d3 493b 4999 ff3d
00000010: f036 ae3c 84b7 253d a203 30bd 74f6 183e
00000020: b129 cbbd 3ae7 02be 2c9f 26bc 579d 2cbd
00000030: 0b0e 133e fe61 c23c 12dc 0dbd 7eec 863d
00000040: 01b3 043e 94ef 403d e331 833d 9d9c 45be
00000050: 6459 adbe 0815 853e 2bcd 23be 14f1 94bb
00000060: 7ac5 bdbe a2b3 31bd e6db 51be fcd0 2a3d
00000070: 444f 3b3c caa8 a1bd d588 d3bd 8a45 7e3b
00000080: d2bd b0bd 6c74 353e 6ce5 023e d990 653d
00000090: d158 68bd 43eb afbc c81a df3d 3feb b63b
000000a0: 1779 a1bd 3b83 353d 0b77 933d e26c d13c
000000b0: f2b4 883c ff1f 97be 6684 593c 086e c43b
000000c0: 7f5e 06be 5096 953d d1a1 2d3e a43f b8ba
000000d0: 26e2 6abd 7ab8 893d 58d4 24bd 71f1 a0bd
000000e0: 79bf 5dbd 6073 61bd 0d34 9d3c a3a1 0bbe
000000f0: 0aa7 93bd e86b 973d 449e 273e 863b ad3d
00000100: dbd5 313e f0e8 e7bd a008 2a3d af5d 55bd
00000110: aaf2 01bd 3af0 abbd 476f 65bd 8b18 7a3d
00000120: a6f7 f83c 5c58 7d3d 53a7 f2bd 6a7b debb
00000130: 7241 383d 83ff 8a3d 1606 533d a57e ccbc
00000140: 86fd afbd 3d68 e8bd eb79 a03d 8f54 893d
00000150: d5b3 853c 5431 35bd 4eda 80bc 9e16 39bd
00000160: fcdc febc d47e aa3d 1e02 98bd 0ffb eb3d
00000170: 2d88 c33d 5f43 b63c c2f1 13be 52d9 063f
00000180: 18b6 e23c 3d64 38be 5224 d93c 7f48 cbbd
00000190: 73ea 63bc 7ff7 fe3d 621e 1a3e 61dd 983d
000001a0: 463c b33d 2933 48bd 5fcd 30bd 4c2a ce3d
000001b0: c1da c1bd 2609 40bd 6e57 87be 5bdb 83bc
000001c0: 70ec 033d 7537 d0bc 3d8b edbd 1717 61bf
000001d0: f9d4 063e 0ceb bdbd d006 633c caff 383d
000001e0: 5e2a debd dda5 973d f851 13bd 3a38 17bd
000001f0: 6a30 453d 5ed3 14bd 4d3d babd 6a71 e43d
00000200: 9481 dd3c 9c48 1c3d 06c6 b13d 4840 02bd
00000210: 0c83 e6bd 8347 51bf 4438 8fbd 7df7 78bd
00000220: cc93 013e e4b8 a73d 1673 05be 51eb 903c
00000230: 753b aebd b0ca a93d cf2e fc3d f06b 8f3e
00000240: ff6a 75be d55c 9b3d f64d 63bd 58ff 703d
00000250: 13b0 143e ed19 ba3d 6288 c03d a92b 6cbd
00000260: a75a b4bd cb83 c43c c9fb 683e f377 7cbc
00000270: bf37 18bd 64fb d83c bdc3 d93d b4ba 7abd
00000280: 7bf3 f03d 86db 7cbe 5582 acbc 7c19 c93d
00000290: 5334 183e acc6 ddbd 8c0d 80be 0f2d 4fbd
000002a0: e7ba 0ebe 8999 b5bd 456c d73d 4888 d03d
000002b0: 9ae9 6e3d a038 1ebd ddab d3bd 7ec1 9dbd
000002c0: da95 0e3d 5637 6c3d 4430 123e 1019 bc3c
000002d0: bdd1 bbbc 45ce 94bd 3418 823d 1bb6 113d
000002e0: 8169 c03d 892e dc3d c52e a83c 4f93 4ebd
000002f0: 6416 3bbe 5eab 6f3c 697a 093d 6070 4c3e
00000300: ee02 113e 3d5b 34be 7e43 c63d 0ff6 b43c
00000310: b2c6 ab3c 35f7 62be 3f1e b33b 3ead b13d
00000320: cc88 813d cd50 e3be fbc3 4c3e 8ee4 8c3d
00000330: c90e d2bd a0e5 11ba 7eb1 cdbc 409f 193e
00000340: 8292 913d 7bd1 72bc 9c34 953d 678a 493d
00000350: 50ea 09bd 1d45 033c dd4f debd 0c75 423e
00000360: efa1 23bd 26e8 143c 2654 3e3e 8a43 c9bd
00000370: dd96 f93d 24d5 123c fff5 9b3e 7f2d 68be
00000380: c658 d8bc ee5d 45be fad7 623d 7adf 0dbe
00000390: f40e 8a3d c7bc 993d e90d e1bc dc2d 8e3d
000003a0: d70e a13d b59a 193d 2d49 903d 2257 32bf
000003b0: 16cb 9d3e ae85 93bd f88b 48bb 12a6 cb3d
000003c0: e5ee 7d3d eb58 d3bc 8459 13bd 48c4 543e
000003d0: ed88 503e 1e7f d9bd 4c23 1e3c a8fa 363e
000003e0: 8ea0 2bbd e2a4 b53c
-0.06737842 0.13638401 0.0030796058 0.12480409 0.02126643 0.040458217 -0.042972215 0.14937764
-0.099200614 -0.12783518 -0.0101697855 -0.04214224 0.14360826 0.023728367 -0.034633704 0.06588076
0.1295891 0.04710348 0.064059995 -0.19298024 -0.33857262 0.25992608 -0.15996234 -0.0045453403
-0.37064725 -0.0433842 -0.20494041 0.04170321 0.011432473 -0.07893522 -0.10328833 0.0038798773
-0.08629955 0.17720193 0.1278283 0.05604634 -0.056725327 -0.021474486 0.1089378 0.0055822427
-0.07884424 0.044314604 0.0720044 0.025564615 0.016687844 -0.295166 0.013276195 0.005994562
-0.13121985 0.073040605 0.1695626 -0.0014057052 -0.05734458 0.06724639 -0.04024157 -0.07858551
-0.05413768 -0.05504167 0.019189859 -0.13635878 -0.072095945 0.07393628 0.16368967 0.08458619
0.17366736 -0.11323726 0.04151213 -0.052091297 -0.031725563 -0.08395429 -0.056014325 0.061058562
0.030391525 0.061851844 -0.11848321 -0.0067896144 0.04498429 0.06787016 0.051519476 -0.024962733
-0.08593278 -0.11348007 0.07835754 0.067055814 0.016321102 -0.044236496 -0.015729096 -0.045187585
-0.031111233 0.08324972 -0.07422279 0.11522495 0.09547458 0.022248922 -0.14447692 0.52675354
0.02767472 -0.18006988 0.026506577 -0.09925937 -0.0139108775 0.1244955 0.15050653 0.074641
0.087517306 -0.048876915 -0.043164607 0.10066661 -0.09465552 -0.046883725 -0.2643389 -0.016095808
0.032207906 -0.025417069 -0.11598823 -0.8792586 0.1316718 -0.09273347 0.013856605 0.045165814
-0.10847925 0.07404683 -0.035966843 -0.036918856 0.048141874 -0.036334388 -0.090937234 0.111544445
0.027039327 0.038155183 0.08680348 -0.031799585 -0.11255464 -0.81749743 -0.06993154 -0.0607829
0.12654036 0.08189562 -0.13032183 0.017690333 -0.08507434 0.08290613 0.123136155 0.28012037
-0.23966597 0.07586066 -0.05549427 0.058837265 0.14520292 0.09086976 0.09401013 -0.057658825
-0.08806353 0.023988625 0.22752298 -0.0154094575 -0.03716254 0.02648706 0.10633037 -0.06121321
0.1176519 -0.24693117 -0.02105824 0.09819314 0.1486371 -0.10828909 -0.25010335 -0.05058008
-0.13938485 -0.08867175 0.10518698 0.101822436 0.05832825 -0.03862822 -0.10335515 -0.07702921
0.03481088 0.05766996 0.14276224 0.02296117 -0.02292716 -0.07265905 0.06352273 0.03557406
0.09395123 0.107510634 0.020530114 -0.050433453 -0.1827026 0.014628259 0.033564005 0.19964743
0.14161274 -0.1761293 0.09680842 0.022089986 0.020968769 -0.22164614 0.005466252 0.086756214
0.0632492 -0.44397584 0.19996636 0.06879531 -0.10256726 -0.0005565528 -0.025109049 0.15002155
0.07108022 -0.014820452 0.07285425 0.049204256 -0.033670723 0.008012083 -0.108550765 0.18989962
-0.039949354 0.009088552 0.18586788 -0.09827335 0.12186978 0.0089619495 0.30461118 -0.22673605
-0.026409518 -0.19274113 0.055381753 -0.13854781 0.06741133 0.075067095 -0.027472453 0.06942341
0.078641586 0.037501056 0.07045207 -0.69664204 0.30819005 -0.07203232 -0.0030601006 0.09943785
0.061995406 -0.025799235 -0.03597404 0.20778 0.20364733 -0.10619949 0.00965197 0.17869055
-0.041901164 0.022173349
