critic.pth (torch, 25992 bytes, 3 tensors)

layers.0.weight f4 [250, 22]
0	0x3db6c800	0.08924866
1	0xbe3f8053	-0.18701296
2	0xbe11dfdb	-0.1424555
3	0xbe2f8768	-0.17141497
4	0x3dda9c76	0.10674374
5	0xbdc5f700	-0.09666252
6	0xbe652d51	-0.22380568
7	0x3de0bd2d	0.109735824
8	0xbe310eb5	-0.17290767
9	0xbd8e4193	-0.06946101
10	0x3dcd46bd	0.10023258
11	0x3df46804	0.11933902
12	0xbcb2d898	-0.021831796
13	0xbe165ffd	-0.14685054
14	0x3d39cff8	0.04536435
15	0xbe3d89da	-0.18509617
16	0xbe38eee7	-0.18059884
17	0x3d7267e8	0.059181124
18	0x3dc4b9fa	0.09605785
19	0xbd602a59	-0.054727886
20	0xb99b9e5f	-0.000296819
21	0xbe101d79	-0.14073743
22	0x3daa0e35	0.08303491
23	0xbcff4914	-0.031162776
24	0x3c8cf575	0.017206887
25	0xbe391f43	-0.18078332
26	0x3e4c06d8	0.19924486
27	0x3db35ef6	0.08758347
28	0x3e39cc81	0.18144418
29	0x3e364647	0.17800246
30	0xbd21eb7a	-0.03953121
31	0x3e40a94f	0.18814586
32	0xbe3ae4d4	-0.18251354
33	0xbb235b13	-0.002492611
34	0xbd6de337	-0.058078017
35	0xbe1be141	-0.15222646
36	0x3d86f4e2	0.065896764
37	0x3dd579fa	0.10423656
38	0x3e0232eb	0.12714736
39	0xbe0a0437	-0.1347817
40	0x3e301eed	0.17199297
41	0x3c9ee09c	0.019394211
42	0x3e368cf5	0.17827208
43	0xbdb5c74e	-0.08875905
44	0x3d944379	0.07239432
45	0x3cc94e0d	0.02457335
46	0xbc9a3ef2	-0.018828843
47	0x3e1febe9	0.15617336
48	0xbc747731	-0.014920996
49	0xbdb17516	-0.086649105
50	0xbd2710b4	-0.040787414
51	0xbd64fdda	-0.055906154
52	0x3c6c26c6	0.014413541
53	0x3e124435	0.14283831
54	0xbe36557f	-0.17806052
55	0x3e0c160f	0.1368029
56	0xbe0c6163	-0.13709025
57	0xbc5de902	-0.013544323
58	0x3d8161ce	0.06317483
59	0x3e280a0a	0.1641008
60	0x3df13fd1	0.1177975
61	0xbd868141	-0.06567622
62	0x3dbbf73e	0.09178017
63	0xbdbb1e2b	-0.091366135
64	0xbae06e37	-0.001712269
65	0xbdff855e	-0.1247661
66	0x3e594471	0.21217515
67	0xbe0044c4	-0.12526232
68	0xbd566d2c	-0.05235021
69	0xbde47105	-0.11154369
70	0x3e73ffad	0.23828001
71	0x3de4e13f	0.11175775
72	0x3dee9b86	0.116507575
73	0xbe737cdb	-0.23778097
74	0x3e2eb422	0.17060903
75	0xbdc5434e	-0.09631978
76	0xbe053cbd	-0.13011451
77	0xbdae9c3e	-0.085258946
78	0xbe3acc2d	-0.1824195
79	0x3d1bacaf	0.03800648
80	0x3dd25dc7	0.10271793
81	0x3d5fd92d	0.054650474
82	0xbd342d8d	-0.043988753
83	0x3e513184	0.20429045
84	0x3c3f6dc0	0.011683881
85	0x3d18a63f	0.03726792
86	0xbd8dd0e3	-0.069246076
87	0xbe2c55f9	-0.16829671
88	0xbda53dcb	-0.08068427
89	0x3e411ef5	0.18859465
90	0xbe3823b8	-0.17982376
91	0x3e360fe8	0.17779505
92	0xbe4773be	-0.19477746
93	0x3da5be67	0.08092957
94	0x3da77194	0.0817596
95	0xbce2c698	-0.027682588
96	0xbd36437e	-0.04449796
97	0xbda738b9	-0.08165116
98	0xbb73cb76	-0.003720013
99	0xbd992b27	-0.07478934
100	0x3d2a6e44	0.041609064
101	0x3e3079d7	0.17233978
102	0xbbd02c7d	-0.0063529597
103	0xbd228e53	-0.039686512
104	0x3de5df57	0.11224239
105	0xbdf20d88	-0.11818987
106	0x3e1fc638	0.15602958
107	0xbe26ac8c	-0.16276759
108	0x3e3de3ed	0.18543978
109	0xbd214c12	-0.039379187
110	0x3e070796	0.13186488
111	0x3de9ce1f	0.114162676
112	0xbda1a13e	-0.07892083
113	0x3e11a572	0.14223269
114	0x3e31f389	0.17378058
115	0xbc47e8bc	-0.012201484
116	0x3e42a6e8	0.19008982
117	0xbdb22f2b	-0.08700403
118	0xbdd60fbf	-0.10452222
119	0x3e34abdf	0.17643689
120	0x3c9f3123	0.01943261
121	0x3cf35e6b	0.029708108
122	0x3e015df5	0.12633498
123	0xbc03453a	-0.00801211
124	0x3e1c2d0e	0.15251562
125	0x3e66e7b2	0.22549322
126	0x3dd5bd5b	0.10436507
127	0x3c4da7b4	0.012552191
128	0x3cc6ac6a	0.024252135
129	0xbd5927fc	-0.053016648
130	0xbc867ee5	-0.01641793
131	0xbcf8b756	-0.030360859
132	0xbe1986c3	-0.14992814
133	0x3d14add6	0.036298595
134	0xbdffd0f0	-0.124910235
135	0x3d72d276	0.059282742
136	0xbe1aaaf1	-0.15104271
137	0xbe4edba7	-0.20200978
138	0x3d8ddac8	0.06926495
139	0xbda7cf0c	-0.08193788
140	0xbe4417a4	-0.19149643
141	0x3e4bf513	0.19917707
142	0x3e41acca	0.1891357
143	0x3d640a33	0.05567379
144	0xbb9f37ad	-0.004858932
145	0x3e5d56a5	0.21615084
146	0xbe387d6e	-0.18016598
147	0xbb9c5f7e	-0.0047721257
148	0xbe2fe908	-0.17178738
149	0x3dc395c3	0.09550049
150	0x3e23eefb	0.16009133
151	0x3df8af86	0.121428534
152	0xbd13d6fe	-0.036093704
153	0x3db7ba11	0.08971036
154	0xbdfc7bcc	-0.123283
155	0xbe0ffb09	-0.14060606
156	0x3d4ca29f	0.049959775
157	0x3d9ca27b	0.07648178
158	0x3d454a97	0.048166838
159	0xbe2fe00f	-0.17175315
160	0x3e3e00ab	0.18554942
161	0x3dc97870	0.09837425
162	0xbd9b629b	-0.07587167
163	0xbdb39377	-0.08768361
164	0xbded6701	-0.11591912
165	0x3d9ea559	0.07746381
166	0x3e2d1199	0.16901244
167	0xbe44d067	-0.19220124
168	0x3d2ac1f9	0.041688893
169	0xbe2471a8	-0.16058981
170	0xbdc58d27	-0.09646063
171	0x3de9f3be	0.11423443
172	0x3df752a5	0.1207631
173	0xbdfac5ac	-0.12244734
174	0xbdbf1d9c	-0.093318194
175	0x3e565501	0.20930864
176	0xbc0fccbe	-0.008776842
177	0xbe4cf27d	-0.20014377
178	0x3d6bce00	0.057569504
179	0x3e4e451a	0.20143548
180	0xbdd66898	-0.104691684
181	0xbb8f07f7	-0.004364963
182	0xbc408d93	-0.011752504
183	0x3d158925	0.036507744
184	0x3dad749b	0.08469506
185	0xbe42d6db	-0.19027273
186	0xbe6418db	-0.22275107
187	0xbe17a773	-0.1480997
188	0x3e26fd0a	0.16307464
189	0x3db7074a	0.08936937
190	0x3c75e5fa	0.015008444
191	0xbe3cc5a1	-0.18434764
192	0x3e88098e	0.2656979
193	0xbd9ad1fc	-0.075595826
194	0xbdba93ad	-0.09110198
195	0x3dc61ff5	0.09674064
196	0xbe51841d	-0.20460553
197	0xbe052558	-0.13002527
198	0x3deec027	0.11657744
199	0xbe4de547	-0.20106994
200	0xbe0effd1	-0.13964774
201	0x3e260a18	0.16214788
202	0x3e1cb110	0.15301919
203	0xbdb115ff	-0.086467735
204	0x3e12d8e5	0.14340551
205	0x3db89134	0.0901207
206	0xbc30a20a	-0.010780821
207	0x3d9ce4f2	0.07660855
208	0xbe159522	-0.14607671
209	0xbe451681	-0.19246866
210	0xbe0dcbfb	-0.13847344
211	0xbe4219a4	-0.18955094
212	0x3dfdcf27	0.12393027
213	0xbdbae33d	-0.091253735
214	0x3e653c23	0.22386222
215	0x3e3330e4	0.17499119
216	0xbd469285	-0.048479576
217	0x3dfe74fc	0.12424657
218	0x3d9673bb	0.073462926
219	0xbc6c5a65	-0.014425849
220	0xbc226fa9	-0.009914317
221	0x3d027768	0.031852156
222	0xbe50b4a8	-0.20381415
223	0xbe264770	-0.16238189
224	0xbe1020b4	-0.14074975
225	0x3e192477	0.14955316
226	0xbe415d88	-0.18883336
227	0xbe38f67a	-0.18062773
228	0x3e590a0e	0.21195242
229	0x3ddd0da0	0.107936144
230	0xbe4f9f08	-0.2027551
231	0x3c99b53b	0.018763175
232	0x3e488fe9	0.19586147
233	0xbd16f3fc	-0.036853775
234	0x3e2f61fe	0.17127225
235	0xbd33794a	-0.043816842
236	0x3e26d626	0.16292629
237	0x3e317fca	0.17333904
238	0x3e30db36	0.17271122
239	0x3e064043	0.13110451
240	0xbe5726d9	-0.21010913
241	0xbd94a2a6	-0.07257585
242	0xbe5c341b	-0.21504252
243	0x3e213173	0.1574152
244	0xbe4eee75	-0.20208152
245	0xbe59e6ae	-0.21279404
246	0x3e291bdc	0.16514534
247	0x3e2110b5	0.1572903
248	0x3dd86898	0.10566825
249	0x3e20e77b	0.15713303
250	0xbdb9237d	-0.09039972
251	0x3a57d8de	0.0008233915
252	0x3dbeb0f7	0.09311097
253	0x3d9be321	0.07611681
254	0xbdc5cbbd	-0.096580006
255	0x3e1a099c	0.15042728

layers.0.bias f4 [250]
0	0xbd61bf56	-0.055114113
1	0xbd28c71a	-0.041205503
2	0x3d935df3	0.07195654
3	0x3c8283a8	0.01593192
4	0x3ad05d95	0.001589703
5	0x3e4c7ff2	0.19970682
6	0xbe10e659	-0.1415037
7	0xbcb09b26	-0.021558356
8	0x3e426d23	0.18986945
9	0x3e144169	0.14478077
10	0x3cc5fa5b	0.02416723
11	0xbe273914	-0.16330367
12	0x3e22caed	0.15897723
13	0xbde4d308	-0.111730635
14	0xbe463d5e	-0.19359347
15	0xbe587e07	-0.21141826
16	0x3e278930	0.16360927
17	0xbd092da4	-0.033490792
18	0x3d41e7b7	0.04734012
19	0x3d1d1578	0.038350552
20	0xbd82c1e8	-0.06384641
21	0x3e44c8d1	0.1921723
22	0xbe48ec12	-0.19621304
23	0x3d847a28	0.06468612
24	0xbda1e432	-0.07904853
25	0x3e3fb18a	0.1872007
26	0x3dbfc692	0.09364046
27	0xbcce0855	-0.025150457
28	0x3e19636d	0.14979334
29	0x3c4ff43f	0.01269251
30	0x3d431185	0.04762413
31	0xbe166a82	-0.14689067
32	0xbbe1f827	-0.006896037
33	0xbdece881	-0.11567784
34	0x3d60503c	0.054764017
35	0xbd624320	-0.055239797
36	0x3e333464	0.17500454
37	0xbd967186	-0.073458716
38	0xbd9af52a	-0.075662926
39	0x3e0d9cb0	0.13829303
40	0xbd73ddb3	-0.0595376
41	0x3de40d84	0.111353904
42	0xbe321b9e	-0.17393348
43	0xbe4ee03f	-0.2020273
44	0x3d0d1375	0.034442384
45	0xbe31f99f	-0.17380379
46	0xbdc70cc1	-0.097192295
47	0x3e50deb1	0.2039745
48	0x3d352795	0.0442272
49	0x3e424c71	0.18974473
50	0xbdbe7ded	-0.09301362
51	0xbe6e4cdc	-0.23271507
52	0xbd2636d0	-0.040579617
53	0x3e31961f	0.17342423
54	0x3cd306c3	0.02576006
55	0x3d9e2002	0.07720949
56	0xbe2d3091	-0.16913058
57	0x3e11565c	0.141931
58	0x3e3383a8	0.17530692
59	0xbd247913	-0.040154528
60	0xbdc1cce7	-0.0946291
61	0x3e19e65f	0.15029286
62	0xbe1f59a6	-0.15561542
63	0xbe279712	-0.16366223
64	0xbd3b5655	-0.04573663
65	0xbe2020bb	-0.15637486
66	0xbce2beda	-0.027678896
67	0x3df82389	0.12116153
68	0x3e16e28a	0.14734855
69	0xbe303065	-0.17205961
70	0x3d12e821	0.035865907
71	0xbde7ff7f	-0.11328029
72	0xbe564270	-0.20923781
73	0x3d6e9fd0	0.058257878
74	0xbe441f0a	-0.19152465
75	0x3d8eee49	0.06979043
76	0x3d804345	0.06262831
77	0x3ce5a220	0.028031409
78	0x3df1c535	0.118051924
79	0x3e29813f	0.1655321
80	0xbde0f6d9	-0.109845825
81	0xbe022a7d	-0.1271152
82	0xbdd5afc8	-0.10433918
83	0xbcf443f1	-0.029817553
84	0x3d0ec913	0.034859728
85	0x3d8c8e8e	0.06863128
86	0xbe2421bc	-0.16028494
87	0xbc6459f0	-0.013937458
88	0x3e5627f5	0.2091368
89	0xbe42bfc2	-0.19018462
90	0xbc982940	-0.018574357
91	0x3c943c8b	0.018095275
92	0xbdf1da60	-0.1180923
93	0xbe0211ae	-0.12702057
94	0xbde68832	-0.11256446
95	0x3d9f025a	0.077641204
96	0x3e2a6f81	0.16644098
97	0x3dd2c5f0	0.1029166
98	0x3e5f495f	0.21805333
99	0x3c6055e7	0.013692356
100	0xbe2e8c7f	-0.17045783
101	0x3e09ab7a	0.1344432
102	0xbcd0fd8a	-0.025511522
103	0x3b3758a7	0.0027976425
104	0x3e4d1325	0.20026834
105	0xbe02e409	-0.12782301
106	0x3d64a95c	0.055825576
107	0x3e39bd0d	0.18138523
108	0x3ceb25ac	0.028704487
109	0x3d070f17	0.032973375
110	0x3d6c691a	0.05771742
111	0xbcd4634e	-0.025926258
112	0x3e2b94b8	0.1675595
113	0x3de927de	0.11384557
114	0xbdffa2d6	-0.1248223
115	0x3daeefc4	0.085418254
116	0xbdb67877	-0.089096956
117	0xbe34d513	-0.17659406
118	0xbd255a99	-0.040369604
119	0x3e2989a2	0.16556409
120	0xbe18a244	-0.1490565
121	0x3e62cfae	0.22149536
122	0x3cbadaef	0.022809474
123	0xbe3e8ab7	-0.18607603
124	0xbdf3bec3	-0.11901619
125	0xbe16ea79	-0.14737882
126	0x3e4ca1bc	0.19983572
127	0x3e43bb6b	0.19114463
128	0x3c2468e1	0.010034771
129	0x3ddd6670	0.10810554
130	0xbe2e90e8	-0.17047465
131	0x3bd0f2eb	0.0063766143
132	0x3d856fce	0.06515466
133	0xbe38ffca	-0.18066326
134	0xbd1f7541	-0.03893018
135	0xbdfa5df0	-0.122249484
136	0xbe2a21f2	-0.16614512
137	0x3e1a450b	0.150654
138	0x3e466788	0.19375432
139	0x3e392536	0.18080601
140	0x3e325799	0.17416228
141	0xbe230f56	-0.15923819
142	0xbd042f98	-0.03227195
143	0x3dba09db	0.09083911
144	0x3e1e9b01	0.15488817
145	0xbda0c417	-0.07849901
146	0x3e4f7ecb	0.20263211
147	0xbdf356a8	-0.11881763
148	0xbdcd5e28	-0.100277245
149	0xbe325cae	-0.17418167
150	0x3dc42901	0.095781334
151	0xbe3ce5ec	-0.18447083
152	0x3da3a5e4	0.079906255
153	0x3c8140d6	0.015777986
154	0x3e57ff37	0.2109345
155	0x3db1f236	0.08688776
156	0x3dd61fff	0.104553215
157	0x3ded365d	0.115826346
158	0x3d7d71d3	0.06187613
159	0x3da29ced	0.079400875
160	0x3e14eade	0.1454272
161	0xbdd7a072	-0.105286494
162	0xbd11e400	-0.03561783
163	0x3d3a7f2b	0.045531433
164	0xbdab081f	-0.08351158
165	0xbe06a882	-0.13150218
166	0xbd98e0fe	-0.07464789
167	0x3e425a64	0.18979794
168	0xbe404c4d	-0.18779106
169	0xbe197366	-0.14985427
170	0xbb73c986	-0.0037198975
171	0x3c4802c3	0.01220769
172	0x3e2e9a9b	0.17051165
173	0xbdafc6ab	-0.08582815
174	0xbda86d9d	-0.08224032
175	0xbe3ec125	-0.18628366
176	0xbcc604e7	-0.02417226
177	0xbe2a15a1	-0.16609813
178	0xbdbf7f0c	-0.09350404
179	0x3c57ca73	0.013170826
180	0xbd063e87	-0.032774474
181	0xbe19cb11	-0.1501887
182	0x3e00e733	0.12588196
183	0xbe3d4939	-0.18484963
184	0x3dc777fc	0.09739682
185	0xbe092fc6	-0.1339713
186	0x3e534e62	0.2063537
187	0x3d273787	0.04082444
188	0xbd661772	-0.056174703
189	0xbe62cccb	-0.22148435
190	0xbc15362c	-0.009107154
191	0xbcccbcee	-0.024992432
192	0xbdc64ac0	-0.09682226
193	0xbdf2d0c2	-0.11856224
194	0x3e2b008f	0.16699432
195	0xbe2295af	-0.15877412
196	0x3db29841	0.087204464
197	0x3e0b945d	0.13630815
198	0x3e50168e	0.20321104
199	0x3e0943e3	0.13404803
200	0x3dde6cfc	0.10860631
201	0x3df3fcd5	0.11913458
202	0xbd7c8c8f	-0.061657485
203	0xbe707dec	-0.23485535
204	0x3d20f7ec	0.039298937
205	0xbe234a09	-0.15946211
206	0xbdc59bf3	-0.096488856
207	0xbd95522b	-0.07291063
208	0x3e3ed821	0.18637134
209	0x3e005bb8	0.12534988
210	0x3d13650d	0.03598504
211	0xbd969bcb	-0.07353934
212	0xbd693e4f	-0.056944188
213	0x3ddfe923	0.10933139
214	0x3e253ca6	0.16136417
215	0x3d785e2e	0.06063669
216	0xbd0cfece	-0.03442269
217	0xbe2e47a2	-0.17019513
218	0xbde68384	-0.11255553
219	0x3e4b54d0	0.19856572
220	0xbe303e1c	-0.17211193
221	0xbdab2693	-0.08356967
222	0x3d8b45cb	0.06800421
223	0x3e3f9f0b	0.18713014
224	0xbc488fb8	-0.0122412965
225	0xbd87241e	-0.06598686
226	0x3dbda577	0.092600755
227	0xbe213ed0	-0.15746617
228	0x3da0d1c6	0.07852511
229	0xbd8b1f6e	-0.06793104
230	0x3e28b41a	0.16474953
231	0xbe1f410b	-0.15552156
232	0x3bb975ce	0.0056597954
233	0xbd882879	-0.066483445
234	0xbdfa14a6	-0.122109696
235	0x3b763b0e	0.003757182
236	0x3e184ebf	0.14873789
237	0xbda83123	-0.08212497
238	0xbe169d82	-0.14708522
239	0x3e429a16	0.19004092
240	0x3db43cb8	0.08800644
241	0xbd33b475	-0.04387327
242	0x3e13e0ec	0.1444127
243	0xbd82746d	-0.06369863
244	0x3cb478af	0.022030203
245	0xbddcc99a	-0.1078064
246	0x3c4150a9	0.011799016
247	0xbca78580	-0.0204494
248	0x3e23dcdc	0.1600222
249	0xbde23673	-0.110455416

layers.1.weight f4 [1, 250]
0	0xbd4362da	-0.047701694
1	0xbd59f1c7	-0.053209092
2	0x3d002d69	0.031293306
3	0xbcd0601a	-0.02543645
4	0x3ca26efb	0.01982831
5	0x3d8c1e7e	0.068417534
6	0x3cf7b999	0.030239867
7	0x3d572430	0.052524745
8	0x3cf40521	0.029787602
9	0x3c9185be	0.017763969
10	0xbc11c033	-0.0088959215
11	0x3ceef889	0.029171245
12	0x3c96b2fe	0.018395897
13	0x3d260b11	0.040537897
14	0x3ca698d6	0.02033655
15	0xbd93024c	-0.071781725
16	0xbc37786d	-0.011198145
17	0x3d7cb4e7	0.06169596
18	0xbd5c84b8	-0.053837508
19	0xbd81432d	-0.06311641
20	0xbc4a883a	-0.0123615805
21	0xbc8adf1c	-0.01695209
22	0xbd726027	-0.05917373
23	0x3d7f25c7	0.062291887
24	0xbd7bacf4	-0.061444238
25	0x3d3982ff	0.045290943
26	0xbc598ad3	-0.013277727
27	0xbcbe9723	-0.023265427
28	0x3d36af39	0.0446007
29	0x3d37749e	0.04478895
30	0xbd9a8dee	-0.07546602
31	0xbd1c1c98	-0.038113207
32	0xbb452b1d	-0.0030085512
33	0xbd653569	-0.05595914
34	0x3c9a9469	0.018869596
35	0xbcfec8e0	-0.031101644
36	0xbd551b8e	-0.05202823
37	0x3d1c41bb	0.038148623
38	0x3d94ce3e	0.072659
39	0xbc11e5b9	-0.008904868
40	0x3a13ae3f	0.00056335697
41	0x3d7bf028	0.061508328
42	0x3d2b5259	0.04182658
43	0x3d15774b	0.03649072
44	0xbc656725	-0.014001642
45	0xbc3d9bdf	-0.011572807
46	0xbd8f020e	-0.06982814
47	0x3d7202bb	0.059084635
48	0x3da79e96	0.08184545
49	0xbd215b98	-0.03939399
50	0xbd8c97d2	-0.06864895
51	0x3c3e2b17	0.011606953
52	0xbc5c634f	-0.013451411
53	0xbd828c6c	-0.063744396
54	0x3c22b1fc	0.00993013
55	0x3dd23ce4	0.1026552
56	0xbcece929	-0.028919773
57	0xbc97a898	-0.018513009
58	0x3cf3c9ed	0.029759372
59	0x3d898385	0.067145385
60	0xbd6b92df	-0.057513114
61	0x3d1b3324	0.03789057
62	0x3d54b569	0.05193082
63	0xbd54da5c	-0.051966056
64	0x3d927943	0.07152035
65	0x3d252f68	0.040328413
66	0x3d29d6c2	0.041464575
67	0x3d977718	0.07395762
68	0x3d622195	0.055207808
69	0xbd40e83f	-0.047096487
70	0xbcdb750f	-0.026789216
71	0x3d5f8421	0.054569367
72	0x3b0570b2	0.002036136
73	0x3d1ddeb4	0.038542464
74	0xbd17fa7b	-0.03710411
75	0x3d456f7e	0.04820203
76	0x3a8b2b18	0.0010617701
77	0x3dda9b5a	0.10674162
78	0xbd60a42e	-0.054844074
79	0xbd772d1b	-0.06034575
80	0xbdc9ba1d	-0.098499514
81	0x3d0d2f16	0.034468733
82	0x3d31473e	0.043280832
83	0x3d0e678c	0.03476672
84	0xbd255ca7	-0.040371563
85	0xbd73579d	-0.059409726
86	0x3d98dc09	0.074638434
87	0x3d9152d1	0.07095874
88	0x3d249926	0.040185116
89	0xbd691b79	-0.056910966
90	0xbd82005e	-0.06347726
91	0x3c928277	0.017884476
92	0x3d23a538	0.039952487
93	0x3c5df5e0	0.013547391
94	0xbd64b736	-0.055838786
95	0xbcda9b4c	-0.02668538
96	0x3db419f2	0.08794011
97	0x393f62b6	0.00018251952
98	0x3d94323b	0.07236143
99	0x3d005553	0.03133137
100	0x3da4d6e8	0.080488026
101	0xbd234aa6	-0.039866112
102	0x3cce6217	0.025193257
103	0x3cb55ac7	0.022138013
104	0x3cd7dafa	0.026349533
105	0x3dd30ba5	0.103049554
106	0x3d5f581e	0.054527394
107	0xbc5bbfad	-0.013412398
108	0xbd42dd88	-0.04757455
109	0x3dcd68a5	0.10029725
110	0x3d90c020	0.07067895
111	0xbcffc033	-0.031219577
112	0xbcd0cd20	-0.025488436
113	0x3beadf97	0.0071677673
114	0x3d8d01ac	0.068850845
115	0xbcd79e2c	-0.02632054
116	0xbd7de71e	-0.06198799
117	0x3ca302ea	0.01989885
118	0xbd07e5ae	-0.033178024
119	0x3d49091c	0.049080953
120	0xbcd3a6c8	-0.025836363
121	0x3d71969f	0.058981534
122	0x3ccbdd7d	0.024885887
123	0xbd75ca2f	-0.06000727
124	0xbd622a1d	-0.055215944
125	0xbd0710a8	-0.03297487
126	0x3da34922	0.07972933
127	0xbd0404a9	-0.032231007
128	0x3d19c7f8	0.03754422
129	0x3d05fb5b	0.032710414
130	0x3d8dd2c2	0.069249645
131	0xbccd8ea0	-0.025092423
132	0x3d902a5a	0.07039328
133	0xbd343adb	-0.04400144
134	0xbd7d6130	-0.061860263
135	0x3cec5746	0.028850209
136	0x3da2462b	0.0792354
137	0xbb0081cd	-0.0019608617
138	0xbcd95e42	-0.026534203
139	0x3c52ae4d	0.012858939
140	0xbd9e2aa3	-0.07722976
141	0x3cffa184	0.031204946
142	0x3d97e1d4	0.0741612
143	0xbb5fe852	-0.0034165573
144	0x3cda0a24	0.026616164
145	0xbd38e42d	-0.04513948
146	0xbd1ea666	-0.03873291
147	0x3d830337	0.063970976
148	0xbc884a87	-0.0166371
149	0xbdabfca9	-0.083978005
150	0x3bc256dc	0.0059307646
151	0x3dcf64a4	0.101266176
152	0x3c63d9ba	0.0139068905
153	0xbd073ec6	-0.03301885
154	0x3dae6653	0.085156105
155	0xbd4ba66a	-0.04971925
156	0xbd0cd512	-0.034382887
157	0x3d16b8c6	0.036797307
158	0x3cca19cf	0.02467051
159	0x3da58a2c	0.08082995
160	0x3d168a88	0.036753207
161	0xbd2d0e1d	-0.042249788
162	0xbc265d95	-0.010154148
163	0x3c54b6d7	0.012983046
164	0xbd244d7a	-0.04011295
165	0xbdfd4834	-0.12367287
166	0xbcd6dbbf	-0.02622783
167	0xbd5f7966	-0.054559134
168	0x3da1194e	0.078661546
169	0xbd250d25	-0.04029574
170	0x3dd123f2	0.10211934
171	0x3e0a9e62	0.13536981
172	0x3d0b505c	0.034012184
173	0x3d73faa8	0.059565216
174	0xbccc4a70	-0.024937838
175	0xbd1c35bc	-0.038137183
176	0x3d746888	0.05967
177	0x3d2c5071	0.042068902
178	0xbc7dc3af	-0.015488549
179	0x3d42ff5d	0.047606815
180	0x3b6033a8	0.0034210477
181	0x3c792588	0.015206702
182	0x3d9cf3fd	0.076637246
183	0x3d4d3269	0.050096903
184	0x3d4e7d2a	0.050412335
185	0x3b554d27	0.0032547207
186	0x3d4a0452	0.049320526
187	0x3d4afe43	0.04955889
188	0xbc6ef1a7	-0.014583982
189	0xbc86cecb	-0.016456028
190	0xbd5fb429	-0.054615173
191	0xbcbaea04	-0.022816665
192	0x3d0a2324	0.03372492
193	0x3db857ec	0.09001145
194	0x3d80f452	0.062966004
195	0x3d27c13e	0.040955774
196	0xbd85f402	-0.065406814
197	0x3d581a80	0.052759647
198	0xbcf0f267	-0.029412461
199	0xbd04d97a	-0.032433964
200	0x3cf6f6cb	0.030146977
201	0x3d0f792e	0.035027675
202	0x3d890bcc	0.06691703
203	0xbc862718	-0.016376063
204	0x3d4e5974	0.050378278
205	0xbcaed20e	-0.021340396
206	0x3d0a9421	0.033832673
207	0x3d80d69b	0.06290933
208	0x3a2babe3	0.00065487454
209	0xbced4baf	-0.028966753
210	0x3d3bd899	0.04586086
211	0x3c550e72	0.013003932
212	0x3d9ce0df	0.07660078
213	0x3c5c18bb	0.013433631
214	0xbce25e77	-0.027632935
215	0xbd472936	-0.048623286
216	0x3cf1adb8	0.02950178
217	0x3c0427e3	0.00806615
218	0x3d1ab171	0.037766878
219	0xbc8c28fd	-0.017109388
220	0x3cf3ee49	0.02977671
221	0xbd4d3b6d	-0.0501055
222	0xbd276d15	-0.040875513
223	0xbaf40d9d	-0.001861978
224	0x3dd2b523	0.10288455
225	0xbb4c09ed	-0.0031133846
226	0x3d293e23	0.041319024
227	0xbd2ccbe3	-0.04218663
228	0x3d102d7a	0.03519962
229	0x3d26161c	0.04054843
230	0x3d8778fa	0.06614871
231	0x3d547461	0.0518688
232	0x3cda282f	0.02663049
233	0x3dc197f7	0.09452813
234	0x3d3fa859	0.04679141
235	0x3d5528c0	0.052040815
236	0x3d7790f9	0.06044099
237	0xbcb387b2	-0.02191529
238	0x3a366657	0.0006957999
239	0x3bfe5b45	0.007762345
240	0xbb7e0a0c	-0.0038763313
241	0x3d8e476a	0.06947215
242	0x3cdb9e3e	0.026808854
243	0x3d57be04	0.052671447
244	0xbc036150	-0.008018807
245	0x3da00d8d	0.078150846
246	0x3d53ca1f	0.05170643
247	0x3d8d8a45	0.069111384
248	0x3c9d482c	0.019199453
249	0x3d134b0e	0.03596025
