critic.pth (torch, 24008 bytes, 3 tensors)

layers.0.weight f4 [250, 20]
0	0x3e6f02d6	0.23340926
1	0x3cf29f1d	0.029616887
2	0xbe0cf79f	-0.13766335
3	0x3f002cfa	0.5006863
4	0x3f4614d3	0.77375525
5	0x3e320a78	0.17386806
6	0x3e779dee	0.24181339
7	0x3f0c99fd	0.5492247
8	0x3f2fbe01	0.686493
9	0xba007fe9	-0.00049018726
10	0xbd791133	-0.060807418
11	0x3eb28b37	0.34871837
12	0x3db3e96e	0.087847576
13	0x3e5e96df	0.2173724
14	0xc058e62a	-3.389048
15	0xc076ff65	-3.859338
16	0xc0698c8a	-3.6492028
17	0xc05a3356	-3.4093833
18	0x3f0a5076	0.54029024
19	0xbffd1677	-1.9772481
20	0x3e6f6d7f	0.23381613
21	0x3cd98eb1	0.026557298
22	0xbd8e1126	-0.069368646
23	0x3ee1c647	0.44096586
24	0x3ee263a1	0.44216636
25	0x3e6ab0e3	0.2291904
26	0x3ec62271	0.38698152
27	0x3f4d4154	0.8017781
28	0x3f745e87	0.9545674
29	0xbd9bd9e8	-0.07609922
30	0xbd26f3f1	-0.040759984
31	0x3eba372d	0.3637022
32	0x3d629cff	0.055325504
33	0x3da8ba31	0.08238638
34	0xc05ae816	-3.4204154
35	0xc0800487	-4.0005527
36	0xc074b464	-3.8235102
37	0xc064ae34	-3.5731325
38	0x3e72d437	0.23713766
39	0xbfef46f7	-1.8693532
40	0xbe128ccb	-0.14311521
41	0xbdf5e21f	-0.1200602
42	0xbd9b542d	-0.07584415
43	0x3edeb12e	0.43494552
44	0x3eabc478	0.3354833
45	0x3e0b4c4b	0.13603322
46	0x3ea58fa1	0.32336143
47	0x3f5c62bd	0.8608816
48	0x3f3685ce	0.7129792
49	0x3dda7486	0.10666756
50	0xbd2f0a9e	-0.042734735
51	0x3ed1be8a	0.40965682
52	0x3c0503a0	0.00811854
53	0x3dad8f44	0.084745914
54	0xc0534ab1	-3.3014338
55	0xc0797c2d	-3.898204
56	0xc0645dfb	-3.568236
57	0xc0580e07	-3.3758562
58	0x3f255ee7	0.64597934
59	0xc00f3be6	-2.238031
60	0xbe12529e	-0.14289328
61	0xbd6c24d5	-0.057652313
62	0x3e9899b5	0.2980477
63	0x3f641188	0.8908925
64	0x3ea75249	0.32679966
65	0x3e4f5d36	0.20250401
66	0x3e36ecc0	0.1786375
67	0x3f01b169	0.5066133
68	0x3f30a5ec	0.69003177
69	0x3e8c4bdf	0.27401635
70	0x3ea7118a	0.3263057
71	0x3d8f610c	0.07000932
72	0xbd55a798	-0.052161783
73	0x3d72802e	0.059204273
74	0xc05a1ff6	-3.4082007
75	0xc07bfdc1	-3.937363
76	0xc0614673	-3.5199249
77	0xc06a1982	-3.6578069
78	0x3ecf59af	0.4049811
79	0xc0006b9a	-2.0065675
80	0x3e71c06c	0.2360856
81	0x3c2e495d	0.010637608
82	0x3c9a6257	0.01884572
83	0x3f11a8b2	0.56898034
84	0x3f5a87f6	0.8536371
85	0xbc9b9b59	-0.018994974
86	0x3ebecf9a	0.37267762
87	0x3f2324f1	0.63728243
88	0x3f641513	0.89094657
89	0x3e94e5b9	0.29081514
90	0xbc355069	-0.011066535
91	0x3edbd19f	0.42933366
92	0x3e5f7fd6	0.2182611
93	0x3c35b495	0.011090417
94	0xc0733af0	-3.8004723
95	0xc0896019	-4.2929807
96	0xc07674c3	-3.8508766
97	0xc05c3978	-3.4410076
98	0x3f080795	0.5313657
99	0xbff82e7a	-1.9389184
100	0x3f25db9a	0.6478821
101	0x3efc2469	0.4924653
102	0x3f14b34f	0.58086103
103	0x3f8b494b	1.0881742
104	0x3f370817	0.7149672
105	0x3ee84afc	0.4536971
106	0x3f391685	0.7229999
107	0x3f6ee35e	0.93315685
108	0x3f80f6c3	1.0075306
109	0x3e56dff8	0.20983875
110	0x3e98e3bc	0.29861248
111	0x3ea52781	0.32256702
112	0x3eb475a3	0.35246
113	0x3eea7c9c	0.45798194
114	0xbf93317d	-1.1499478
115	0xbfed2c86	-1.8529212
116	0xbf68d265	-0.90946037
117	0xbfca9eea	-1.5829747
118	0x3f6a0dad	0.9142712
119	0xbfb37a51	-1.4021703
120	0xbe8c080d	-0.27349892
121	0xbe9da5ac	-0.3079046
122	0xbe641db6	-0.22276959
123	0x3f59d2e1	0.850874
124	0x3ebee8cc	0.37286985
125	0xbf3c1d28	-0.7348199
126	0x3e6b898b	0.23001687
127	0x3e5e4e55	0.21709569
128	0x3f67b309	0.9050756
129	0x3e152cfe	0.14567944
130	0xbe8d3fef	-0.2758784
131	0xbf719a4a	-0.9437605
132	0xbe3bc1a9	-0.18335594
133	0x3d9ff72d	0.07810817
134	0xc041c789	-3.0278037
135	0xc0538883	-3.305207
136	0xc03a1b8c	-2.9079313
137	0xc04426b6	-3.0648627
138	0x3e915f85	0.28393188
139	0xbfba29a4	-1.4543958
140	0x3e260a0b	0.16214769
141	0x3de35a8d	0.111012556
142	0x3edf121e	0.4356851
143	0x3f918cc5	1.1371084
144	0x3f4b76f2	0.7947837
145	0x3ee3d05d	0.44494906
146	0x3f2af172	0.66774666
147	0x3f449b22	0.76799214
148	0x3f909f04	1.1298528
149	0x3f122e67	0.57102054
150	0x3f06cabf	0.52653116
151	0x3f1116de	0.5667552
152	0x3f059000	0.5217285
153	0x3f1217da	0.57067645
154	0xbfd0bd91	-1.6307851
155	0xbf8d182a	-1.1022999
156	0xbfcee608	-1.616395
157	0xbffabec9	-1.9589473
158	0x3f2be472	0.67145455
159	0xbfd1777b	-1.6364588
160	0xbea0e07d	-0.3142127
161	0xbdb4f055	-0.08834902
162	0xbe1aa1cc	-0.15100783
163	0x3e84e9b3	0.25959548
164	0x3f2ffe53	0.6874744
165	0xbead8c9e	-0.33896345
166	0x3d9fb5ea	0.07798369
167	0x3ee6a540	0.4504795
168	0x3f71b704	0.94419885
169	0x3dac1ada	0.08403559
170	0xbe97c95b	-0.2964581
171	0x3bd8c194	0.006614873
172	0x3c926b1d	0.017873341
173	0x3e4c889c	0.19973987
174	0xc0569b29	-3.3532202
175	0xc063748b	-3.5539882
176	0xc05b6616	-3.4281058
177	0xc04adf79	-3.1698897
178	0x3f1683f1	0.58795077
179	0xc0006048	-2.0058765
180	0x3ea0f33b	0.3143557
181	0x3dca3760	0.09873843
182	0x3eaecf4b	0.34142527
183	0x3f8396d1	1.02804
184	0x3f532c83	0.82489794
185	0x3ebd7e08	0.37010217
186	0x3ec3f671	0.38273957
187	0x3f75273b	0.95762986
188	0x3f4d4a5a	0.80191576
189	0x3ecfbf87	0.4057581
190	0x3ee9de8c	0.45677602
191	0x3f13e4c8	0.5777097
192	0x3eb6bd64	0.3569137
193	0x3ef3a889	0.4758952
194	0xbfc0bb77	-1.505721
195	0xbfc9bd4b	-1.5760893
196	0xc01cf8b3	-2.4526794
197	0xc0013c42	-2.0193028
198	0x3f13e8bf	0.5777702
199	0xbfe8b22d	-1.8179375
200	0xbe906a26	-0.28205985
201	0xbe8d4b6e	-0.2759661
202	0xbebcc409	-0.36868313
203	0x3f12ea05	0.57388335
204	0x3e514cec	0.204395
205	0xbe66a32d	-0.22523184
206	0x3f033c79	0.5126415
207	0x3ed650ae	0.4185843
208	0x3f6efdd3	0.93356055
209	0x3b254418	0.002521759
210	0xbe3efd2f	-0.1865127
211	0xbcb6b95a	-0.02230518
212	0xbe8fe29b	-0.28102574
213	0x3c490620	0.012269527
214	0xc044b8ff	-3.0737913
215	0xc04e557d	-3.2239678
216	0xc0518cf0	-3.2742271
217	0xc03bc430	-2.9338493
218	0x3f0b4070	0.543952
219	0xbfd7a4de	-1.6847188
220	0x3e80a4a7	0.2512562
221	0x3d8e67d1	0.06953395
222	0x3ec7989e	0.38983625
223	0x3f2bba9d	0.67081624
224	0x3f1d55b5	0.61458904
225	0x3edd895f	0.43268868
226	0x3f0071c7	0.5017361
227	0x3f4eacdc	0.8073251
228	0x3f498caf	0.7873029
229	0x3e0d4e06	0.13799295
230	0x3e99a54b	0.3000892
231	0x3ec6d324	0.38832963
232	0x3e076eea	0.13225904
233	0x3e7a9774	0.24471837
234	0xc088cb3b	-4.2748084
235	0xc0a3ee07	-5.122806
236	0xc094e3db	-4.6528144
237	0xbfd54b7c	-1.6663661
238	0x3f2cf3f2	0.6755973
239	0xbfec9ec6	-1.8485954
240	0x3e89cb93	0.26913127
241	0x3dca912a	0.09890969
242	0x3e1383aa	0.14405695
243	0x3ef4f3c4	0.47842228
244	0x3eced6b6	0.40398186
245	0x3caa73a4	0.020807095
246	0x3f161fdc	0.58642364
247	0x3f4af4e5	0.7927993
248	0x3f4e09d9	0.80483776
249	0x3eaa4549	0.33255985
250	0x3d8fde1f	0.07024788
251	0x3e0c1139	0.13678445
252	0xbd0fbc91	-0.03509194
253	0x3e88156c	0.26578844
254	0xc05d96c4	-3.462327
255	0xc0868639	-4.2038846

layers.0.bias f4 [250]
0	0x3ef5c729	0.4800351
1	0x3f6aab0e	0.9166726
2	0x3f389c04	0.7211306
3	0x3f065f9e	0.5248965
4	0x3f42d329	0.76103455
5	0x3f7c7cb8	0.98627806
6	0x3ea56dea	0.3231042
7	0x3f7a83d0	0.9785738
8	0x3f331d54	0.69966626
9	0x3f9b494a	1.2131741
10	0x3eb352b3	0.35024032
11	0x3f8ba59b	1.0909914
12	0x3f30c6d2	0.69053376
13	0x3f0a8365	0.5410674
14	0x3f955667	1.1666993
15	0x3f3f3027	0.7468285
16	0x3edc64f7	0.4304578
17	0x3f84929f	1.0357245
18	0x3ef77565	0.48331752
19	0x3f03ec63	0.5153257
20	0x3f6c8bcc	0.92400813
21	0x3ef132d5	0.47109094
22	0x3f2b59cb	0.6693389
23	0x3ee4e703	0.44707498
24	0x3f8e9060	1.113781
25	0x3f100d77	0.56270546
26	0x3f1e6208	0.61868334
27	0x3f2da2ba	0.67826426
28	0x3f83f1f1	1.030821
29	0x3f0b0bbd	0.54314786
30	0x3f821eec	1.0165687
31	0x3f86d9d0	1.0535221
32	0x3f0728a9	0.5279642
33	0x3f07ed79	0.5309673
34	0x3f6334b0	0.8875227
35	0x3fa3d92b	1.280065
36	0x3e8321b3	0.25611648
37	0x3f3437f0	0.70397854
38	0x3f1dee1d	0.6169146
39	0x3e84e202	0.2595368
40	0x3edf987a	0.43671018
41	0x3f924e73	1.1430191
42	0x3fa1c7d1	1.2639104
43	0x3f83b113	1.0288414
44	0x3f1b8f40	0.6076546
45	0x3e7421ab	0.23840968
46	0x3f3cae7b	0.73703736
47	0x3f1ed700	0.62046814
48	0x3f3871d2	0.72048676
49	0x3f19db02	0.60099804
50	0x3f5ea9dd	0.8697794
51	0x3f7e2864	0.9928038
52	0x3f8ee9b3	1.1165069
53	0x3f6d89a4	0.9278815
54	0x3f77b719	0.9676376
55	0x3dd9bb1b	0.10631391
56	0x3f21c707	0.63194317
57	0x3ebeaf88	0.37243295
58	0xbd930baa	-0.07179959
59	0x3f9ba359	1.2159225
60	0x3ef3e505	0.47635666
61	0x3f2723a0	0.65288734
62	0x3f668f67	0.90062565
63	0x3f4c4d59	0.79805523
64	0x3f341457	0.70343536
65	0x3ebb9c84	0.3664285
66	0x3cebf7eb	0.02880474
67	0x3f6aa117	0.91652054
68	0x3c0e73c5	0.008694594
69	0x3f078d6b	0.5295016
70	0x3f8477e8	1.0349092
71	0x3eeb2a32	0.4593063
72	0x3f019bdd	0.50628453
73	0x3f9ff02e	1.2495172
74	0x3f82fb01	1.023285
75	0x3f33a0f7	0.7016749
76	0x3f365917	0.7122969
77	0x3f1b6ad4	0.6070988
78	0x3f38c889	0.7218099
79	0x3fa297d1	1.2702581
80	0x3f993671	1.1969739
81	0x3f2c5f8b	0.67333287
82	0x3f81dabf	1.0144881
83	0x3fa09c11	1.2547628
84	0x3f11ed38	0.5700259
85	0x3e5328f1	0.20621087
86	0x3f8d1767	1.1022767
87	0x3eec445c	0.46145904
88	0x3f550bdf	0.8322124
89	0x3f640a76	0.8907846
90	0x3f308b8e	0.68962944
91	0x3ead1488	0.33804727
92	0x3f957be6	1.1678436
93	0x3ee7430a	0.45168334
94	0x3f2fb308	0.68632555
95	0x3f08918d	0.5334709
96	0x3f869088	1.0512857
97	0x3e40efc8	0.1884147
98	0x3e8d3c05	0.27584854
99	0x3f9da57a	1.2316124
100	0x3ebd1065	0.3692657
101	0x3f1a962a	0.6038538
102	0x3f992225	1.1963545
103	0x3f57c7fe	0.8428954
104	0x3f27370e	0.6531838
105	0x3f9225c8	1.141778
106	0x3f144e55	0.57932025
107	0x3e483372	0.19550875
108	0x3f68deab	0.90964764
109	0x3f59ded5	0.8510564
110	0x3f3f1b46	0.7465099
111	0x3f38ac58	0.72137976
112	0x3ebe5ef6	0.37181824
113	0x3f1da357	0.6157736
114	0x3f076587	0.52889293
115	0x3f7f38d6	0.996961
116	0x3f6dd528	0.92903376
117	0x3f866ec1	1.050255
118	0x3e6a5688	0.22884572
119	0x3f5d4e5d	0.864477
120	0x3f820b4d	1.0159699
121	0x3e467b17	0.19382893
122	0x3f7fff1a	0.9999863
123	0x3f95dfe9	1.1708957
124	0x3f03522a	0.5129725
125	0x3ecbb528	0.3978665
126	0x3f1b8e13	0.60763663
127	0x3f090390	0.5352106
128	0x3e6da011	0.23205592
129	0x3f9986f5	1.1994311
130	0x3f34767b	0.70493287
131	0x3f0f0f39	0.558826
132	0x3e9adb70	0.30245543
133	0x3f5e01e0	0.8672161
134	0x3f2f2881	0.6842118
135	0x3f3768d3	0.71644324
136	0x3f57afdd	0.8425272
137	0x3f67fbfb	0.90618867
138	0x3eee56af	0.4655051
139	0x3f20b80d	0.6278084
140	0x3f55d999	0.8353515
141	0x3d3e61c4	0.046479955
142	0x3ecd59ab	0.40107474
143	0x3fa414e3	1.2818874
144	0x3f0f6da4	0.56026673
145	0x3ee4f859	0.44720724
146	0x3edc4a2c	0.4302534
147	0x3e02e1b2	0.12781408
148	0x3edd1137	0.43177196
149	0x3f6f36ea	0.9344317
150	0x3ee45d91	0.44602636
151	0x3e9b0742	0.30278975
152	0x3f85f7bc	1.0466228
153	0x3f2e623c	0.68118644
154	0x3f86bbe7	1.0526093
155	0x3f872592	1.055834
156	0x3ef64f12	0.481072
157	0x3f2324f0	0.6372824
158	0x3f830464	1.0235715
159	0x3f548b1b	0.8302476
160	0x3f84cd28	1.0375109
161	0x3f5d4b56	0.8644308
162	0x3f884ca3	1.0648388
163	0x3f520331	0.8203612
164	0x3f525437	0.8215975
165	0x3f74a4fb	0.9556424
166	0x3f0dcc2e	0.5538968
167	0x3f643c1a	0.8915421
168	0xbde41afe	-0.11137961
169	0x3f83f9dd	1.0310627
170	0x3e959dd0	0.29221964
171	0x3f16c6f9	0.5889736
172	0x3f48d2cd	0.78446656
173	0x3e55a41e	0.20863387
174	0x3f3cd3ef	0.73760885
175	0x3f29d7b1	0.66344744
176	0x3f3f824c	0.7480819
177	0x3f360763	0.7110502
178	0x3f74e831	0.95666796
179	0x3f402830	0.7506132
180	0x3f7a69dd	0.97817785
181	0x3eed7dd9	0.46385077
182	0x3f2b580a	0.6693121
183	0x3efcc019	0.4936531
184	0x3cbdeb93	0.02318362
185	0x3f596a25	0.8492759
186	0x3f192113	0.5981609
187	0x3f3ee6ff	0.7457122
188	0x3f59dcf1	0.85102755
189	0x3f634014	0.8876965
190	0x3e804555	0.25052896
191	0x3f6c554b	0.92317647
192	0x3eda568e	0.4264416
193	0x3f031736	0.5120729
194	0x3f878a44	1.058907
195	0x3f5e7aec	0.86906314
196	0x3f456dca	0.7712065
197	0x3f59a4c0	0.85017014
198	0x3fa1cf01	1.2641298
199	0x3f8013a6	1.0005996
200	0x3d59165e	0.052999847
201	0x3ef1e4b3	0.47244796
202	0x3f80cf13	1.0063194
203	0x3f10d951	0.565816
204	0x3ef415a1	0.47672752
205	0x3f554ee8	0.83323526
206	0x3f8aaaf9	1.0833427
207	0x3f08150e	0.53157127
208	0x3f59d14e	0.85085
209	0x3f8c0fcc	1.0942321
210	0x3f34ce34	0.7062714
211	0x3e1dd189	0.15411963
212	0x3f2af476	0.6677927
213	0xbd0dfbe3	-0.034664046
214	0x3f6556bc	0.8958547
215	0x3ecf4c18	0.40487742
216	0x3f1d4720	0.61436653
217	0x3f561079	0.83618885
218	0x3f8d4d5c	1.1039233
219	0x3f7b77e9	0.98229843
220	0x3f78089a	0.96888125
221	0x3f6b6783	0.9195482
222	0x3f23c715	0.6397565
223	0x3f9888d5	1.1916758
224	0x3fa100bf	1.2578353
225	0x3f96d3c1	1.1783372
226	0x3eb9dd33	0.36301574
227	0x3f946506	1.159333
228	0x3eed645f	0.4636564
229	0x3f552543	0.8325998
230	0x3ef265a1	0.47343162
231	0xbd9bc214	-0.07605377
232	0x3f99bc9b	1.2010683
233	0x3f0fe579	0.5620952
234	0x3f700c42	0.93768704
235	0x3f83dff2	1.0302718
236	0x3e072188	0.13196385
237	0x3f5bc6bc	0.8585012
238	0x3f766c15	0.9625867
239	0x3f62d629	0.8860803
240	0x3f53c0ff	0.82716364
241	0x3efe818e	0.49708217
242	0x3e342a9d	0.1759438
243	0x3f2ed87c	0.6829908
244	0x3cba22a5	0.022721598
245	0x3f561608	0.83627367
246	0x3ef70091	0.4824262
247	0x3f815189	1.0103008
248	0x3f5fa7b3	0.87365264
249	0x3f564700	0.8370209

layers.1.weight f4 [1, 250]
0	0xbfcf5b24	-1.6199689
1	0xbfc19ed8	-1.51266
2	0xbfccf888	-1.6013346
3	0xbfd482d4	-1.6602426
4	0xbfbd04c6	-1.4767082
5	0xbfa0c855	-1.2561136
6	0xc002bdfa	-2.0428452
7	0xbfa99227	-1.3247727
8	0xbfca7ec6	-1.5819938
9	0xbfb41dab	-1.4071554
10	0xbfd5f50d	-1.6715409
11	0xbfaff647	-1.3747033
12	0xbfc9629b	-1.5733217
13	0xbfba106c	-1.4536262
14	0xbfa7bc46	-1.3104331
15	0xbfd4b6da	-1.6618302
16	0xbfdc250b	-1.7198805
17	0xbfbaab7f	-1.4583586
18	0xbfd2f11e	-1.6479833
19	0xbfd5446e	-1.6661508
20	0xbfc4ac5a	-1.5365098
21	0xc04bd23b	-3.1847064
22	0xbfc0efdd	-1.50732
23	0xbfdd2ab3	-1.7278656
24	0xbf9e196c	-1.2351508
25	0xbfc569d2	-1.5422919
26	0xc08a0c2d	-4.3139863
27	0xbfcca716	-1.598849
28	0xbfab995b	-1.3406175
29	0xbf973e3e	-1.181587
30	0xbfa3f90b	-1.2810377
31	0xbfc11558	-1.5084639
32	0xbfca502d	-1.5805718
33	0xbfce2f8c	-1.610826
34	0xbfcb1cf1	-1.5868207
35	0xbfa67987	-1.3005837
36	0xbff87507	-1.9410714
37	0xbfd62676	-1.6730487
38	0xc059efb8	-3.4052563
39	0xc0064c59	-2.09841
40	0xbff3b392	-1.9039176
41	0xbfa78ff8	-1.3090811
42	0xbf9603ac	-1.171987
43	0xbfb0fa4c	-1.3826385
44	0xbfc5af8a	-1.5444195
45	0xc0011ed2	-2.0175061
46	0xbfd048a8	-1.6272173
47	0xbfc85a41	-1.5652543
48	0xbfc475f6	-1.5348499
49	0xbfc7d624	-1.5612226
50	0xbfbd37c9	-1.4782649
51	0xbfc1dc12	-1.5145285
52	0xbfabb4fb	-1.3414606
53	0xbfbf25e7	-1.4933442
54	0xbfc01aff	-1.5008239
55	0x4059c195	3.4024403
56	0xc07d34e8	-3.9563541
57	0xbffa0fb4	-1.9536042
58	0x406c8440	3.695572
59	0xbfb05d90	-1.3778553
60	0xc0053708	-2.0814838
61	0xbfd321f0	-1.6494732
62	0xbfc35041	-1.5258867
63	0xbfe03cd2	-1.7518561
64	0xbfbcdb4d	-1.4754425
65	0xbff7acc9	-1.9349605
66	0xc0164bd1	-2.3483775
67	0xbfcdd2f3	-1.6080002
68	0x403b4427	2.9260347
69	0xbfcd5edc	-1.6044574
70	0xbfbb5b8a	-1.463731
71	0xc03c4cf1	-2.9421961
72	0xbfe1d684	-1.764359
73	0xbfaa9ed7	-1.3329724
74	0x40812830	4.0361557
75	0xbfbd8a5b	-1.4807848
76	0xbfba4387	-1.4551858
77	0xbfc99d61	-1.5751153
78	0xbfb7d539	-1.4361945
79	0xbfb20da0	-1.3910408
80	0xbf9b7fb3	-1.2148346
81	0xbfc6e3ca	-1.5538266
82	0xbfb0c2e6	-1.3809478
83	0xbf9af566	-1.210614
84	0xc04720e4	-3.1113825
85	0xc003d046	-2.059587
86	0xbfb191c3	-1.3872608
87	0xbff325ec	-1.8995948
88	0xbfc313e6	-1.5240448
89	0xbfcdae18	-1.6068754
90	0xbfd81f04	-1.6884465
91	0xbfe1cc73	-1.7640518
92	0xbfbf8592	-1.4962637
93	0xbfe9ad2e	-1.8255975
94	0xbfb44d6d	-1.4086128
95	0xbfbefca9	-1.4920856
96	0xbfb10b2b	-1.3831533
97	0xc003a5f3	-2.0570037
98	0xc0109ab3	-2.259442
99	0xbf9c8ec9	-1.2231075
100	0xbfdcc258	-1.7246809
101	0xbfde8176	-1.7383258
102	0xbfba3b97	-1.4549435
103	0xbfd14fbd	-1.6352459
104	0xbfb52dba	-1.415458
105	0xbfac710d	-1.3472
106	0xbfc9c16e	-1.5762155
107	0xc061a1d1	-3.5255015
108	0xbfae74d8	-1.3629408
109	0xbfc52b81	-1.5403901
110	0xbfd8e87f	-1.6945952
111	0xbfc79241	-1.5591508
112	0xbfe36d05	-1.7767645
113	0xbfcf270d	-1.6183792
114	0xbfced4f3	-1.6158737
115	0xbfb02ec2	-1.3764269
116	0xbfbec302	-1.4903262
117	0xbfaf42f5	-1.3692309
118	0x402e6a8f	2.7252538
119	0xbfd718ea	-1.6804478
120	0xbfc11e7d	-1.5087429
121	0xbff0966c	-1.8795905
122	0xbfaf4e0f	-1.3695697
123	0xbfa615d4	-1.2975411
124	0xc0841f67	-4.1288333
125	0xc01f6917	-2.4907892
126	0xbfb8c8d3	-1.4436287
127	0xbfe6ae32	-1.802191
128	0xbfb24f05	-1.3930365
129	0xbfb61d6e	-1.4227731
130	0xbfcdf8bc	-1.6091533
131	0xbfc39d78	-1.5282431
132	0xbfdfda60	-1.7488518
133	0xbfb830b9	-1.4389869
134	0xbfc10d87	-1.5082253
135	0xbfc22d2b	-1.5170034
136	0xbfc7e48a	-1.561662
137	0xbfca0e24	-1.5785565
138	0xbff047b4	-1.8771882
139	0xc002c0dc	-2.0430212
140	0xbfb41684	-1.4069371
141	0x403d74a0	2.9602432
142	0xbfc9018b	-1.5703596
143	0xbf993c55	-1.1971537
144	0xbfcb87a7	-1.5900773
145	0xbfda6619	-1.7062408
146	0xc02b6c72	-2.678494
147	0xc01e8f6b	-2.4775035
148	0xc069c653	-3.6527297
149	0xbfc5bcd9	-1.5448257
150	0xbfe57518	-1.7926359
151	0xbff7aeba	-1.9350197
152	0xbfb5dabe	-1.420738
153	0xbfb2dd19	-1.3973724
154	0xbfb4fdb9	-1.413993
155	0xbfc26fa5	-1.5190321
156	0xbfe95312	-1.8228476
157	0xbfcd8473	-1.6056045
158	0xbfbe57f7	-1.4870595
159	0xbfd6e64d	-1.6789032
160	0xbfb7be99	-1.4355041
161	0xbfc79982	-1.5593722
162	0xbfa5a9ba	-1.2942421
163	0xbfb7e1d5	-1.4365793
164	0xbfb61aef	-1.422697
165	0xbfaa0805	-1.3283697
166	0xc04987b4	-3.1489077
167	0xbfaf1029	-1.3676807
168	0x4061c68c	3.5277433
169	0xbfb7687b	-1.432876
170	0x4023263a	2.5492082
171	0xbfd10c53	-1.6331886
172	0xbfb8792c	-1.4411979
173	0xc04a45d1	-3.1605113
174	0xbfd842e6	-1.6895416
175	0xbfb0e3dd	-1.3819538
176	0xbfc2a78f	-1.5207385
177	0xbfb6a668	-1.4269533
178	0xbfb1c95c	-1.3889575
179	0xbfb0f2cb	-1.3824095
180	0xbfb57ab3	-1.417807
181	0xc043cb36	-3.059278
182	0xbfb38904	-1.4026189
183	0xbfdaf853	-1.7107033
184	0x404bbdf9	3.18347
185	0xbfbcbf09	-1.4745799
186	0xbfd77a7b	-1.6834253
187	0xbfb7fe70	-1.4374523
188	0xbfc4c3ec	-1.5372291
189	0xbfc4e4c7	-1.5382317
190	0xbff3dbf1	-1.9051496
191	0xbfbdda54	-1.4832253
192	0xbfdbbb21	-1.7166482
193	0xbfeed62d	-1.8659111
194	0xbfac8802	-1.3479006
195	0xbfb9a649	-1.4503871
196	0xbfcd0002	-1.6015627
197	0xbfe28609	-1.7697154
198	0xbfa3bfd9	-1.2792922
199	0xbfaf6262	-1.3701899
200	0x40491acd	3.1422608
201	0xc030c37e	-2.761932
202	0xbfbe9b8d	-1.489122
203	0xc0661b85	-3.5954297
204	0xbfeecaa1	-1.8655587
205	0xbfb3e6a9	-1.4054767
206	0xbfb7c8c2	-1.4358141
207	0xbfd7f55d	-1.6871754
208	0xbfc55d89	-1.541917
209	0xbfb4b3ff	-1.411743
210	0xbfcb2f3b	-1.5873789
211	0xc03bdbd1	-2.9352915
212	0xbfd0eed4	-1.6322885
213	0xbfd96227	-1.6983079
214	0xbfb9d869	-1.4519168
215	0xbfd35fa5	-1.6513563
216	0xbfc4afe8	-1.5366182
217	0xbfa977e0	-1.3239708
218	0xbfabd55f	-1.3424491
219	0xbfa0c8f8	-1.2561331
220	0xbfb63d0d	-1.4237381
221	0xbfb5e505	-1.4210516
222	0xbfcae37f	-1.5850676
223	0xbfab73c3	-1.3394703
224	0xbfa539e1	-1.2908288
225	0xbfb39d9d	-1.4032475
226	0xc0387509	-2.8821433
227	0xbfaddc73	-1.3582901
228	0xbff55f43	-1.9169697
229	0xbfba25a9	-1.4542743
230	0xbfdd4b2b	-1.7288564
231	0x4064be0a	3.574099
232	0xbf9dbc43	-1.2323078
233	0xbfde1749	-1.7350856
234	0xbfc136ae	-1.5094812
235	0xbfc138b1	-1.5095426
236	0xc04be41b	-3.1857975
237	0xbfcd7d25	-1.6053816
238	0xbfb96cbd	-1.4486309
239	0xbfb0a240	-1.3799515
240	0xbfa6e962	-1.3039973
241	0xbfd78f70	-1.6840649
242	0xbffaa47f	-1.958145
243	0xbfcfee53	-1.6244606
244	0x4048630c	3.1310453
245	0xbfb76135	-1.432654
246	0xc01c0e52	-2.438374
247	0xbfb88a1f	-1.4417151
248	0xbfc5911d	-1.543491
249	0xbfce4961	-1.6116143
